deploy/models/booster_gym_exp_knee/model_3000.pt (torch, 296190 bytes, 8 tensors)

weight f4 [256, 80]
-0.7811527 1.1958926 -0.0027100756 -0.00092006946 -0.28331673 -0.17045893 0.10969664 0.08639801
-0.06539027 0.10745691 0.027583929 0.10425905 -0.1647518 0.041232288 -0.120042175 -0.006039298
-0.11890932 0.057285234 -0.0009697655 0.047705162 0.091098785 -1.0767044 -0.29927263 -0.2205123
0.072639175 -0.020871734 -0.12390153 -1.124007 -0.57157624 -0.17700197 -0.543355 -0.101886585
-0.38174644 -0.35011154 0.3365493 0.21460186 0.25225222 -0.09209554 0.11749162 -0.25427952
-0.0048623914 -0.05788586 -0.03662277 -0.39907897 -1.1388611 -0.67602473 -0.60525054 0.07385202
0.31044757 -0.14619052 -0.027852805 -0.48108074 0.50442654 0.4128536 -0.48940188 0.2599607
0.15088771 0.04597485 -0.3692324 -0.03716025 -0.15295656 -0.20804174 -0.10876711 -0.0039345147
0.00967642 -0.09048702 0.22239743 -0.7752176 -0.7616514 -0.11938096 0.5866365 0.12189441
-0.123609826 -0.28192976 -0.7221601 -0.15516494 0.041317116 -0.004879709 -0.34460118 0.09015408
-0.84073716 -0.25692984 -0.058329 -0.17623074 0.018365713 -0.05192584 -0.057462182 -0.07589187
0.05228308 -0.041723676 -0.09612537 0.01974226 0.1133191 -0.014888886 0.05542402 -0.017537877
-0.14008082 0.08214033 0.011464368 -0.0005504749 0.043414086 -1.3083693 0.44759822 -0.06323387
-1.5380081 0.11638667 -0.21855786 -0.30987722 0.20687027 -0.4497111 0.027020501 -0.01789825
-0.34287468 0.09598576 0.13492338 -0.41202086 -0.056106385 0.11111098 0.054812193 -0.050942056
-0.29756686 0.20776281 0.03593145 0.3795807 -0.35132208 0.024748066 -0.36618972 -0.23798156
0.19526972 -0.23005337 0.14752345 -0.054427687 0.911705 -0.092209846 0.23416102 0.0286286
0.14749826 -0.2340818 -0.069548085 0.031396694 0.049319804 -0.04167924 0.005861883 -0.10673706
-0.17626709 -0.06333045 0.13287672 -0.36929762 -0.2454447 -0.07043411 -0.042955797 0.3163671
-0.07112743 -0.18383668 -0.22620666 0.15229505 0.28467074 0.103295125 0.0166768 -0.42894924
0.14650995 -0.20981893 -0.010515039 -0.0259468 0.062367864 0.022982635 -0.038390476 -0.028712438
0.028063124 0.10428025 -0.010740945 0.12883566 -0.005168441 0.038413737 -0.04532412 -0.0453779
0.012722472 -0.17128712 0.14401606 0.0049085063 0.055740427 -0.9202785 -0.4289532 0.07499332
-1.0702157 0.1316468 0.15929921 -0.13528357 -0.7521827 -0.3341613 -0.016224666 -0.09437907
0.14950861 0.13714728 -0.07097262 -0.08645585 -0.14802848 0.26013458 -0.024059799 -0.15010388
-0.31569624 -0.0051529496 0.008557522 -0.20267169 -0.07169208 0.49652213 0.3583711 -0.096701294
0.520524 -0.038998146 0.12885831 -0.10812486 0.06257406 -0.115233384 -0.15342705 0.10931845
-0.031033244 -0.14395235 -0.10976976 0.1271987 -0.17930977 0.04388393 -0.11107405 0.059975225
0.01398169 0.11630663 0.019283207 -0.05114155 0.49967578 0.033025216 0.26381803 0.062458023
-0.06739402 -0.10396059 0.39483565 0.14685531 0.12478681 -0.14639214 -0.15962036 -0.07667322
0.07523248 0.61385095 0.10184362 0.03127745 -0.020135952 -0.033067986 -0.06832966 0.10830965
-0.071557395 0.034326818 0.10463882 -0.024517689 -0.025181288 0.0363886 0.28295645 -0.017983176
00000000: a0f9 47bf 0213 993f 869b 31bb d130 71ba
00000010: e40e 91be c98c 2ebe a2a8 e03d 71f1 b03d
00000020: 55eb 85bd 5e12 dc3d b1f7 e13c c585 d53d
00000030: b2b4 28be 30e3 283d acd8 f5bd 4ee5 c5bb
00000040: bb86 f3bd eca3 6a3d dc37 7eba 7d66 433d
00000050: 0092 ba3d 73d1 89bf 433a 99be facd 61be
00000060: d9c3 943d 33fb aabc 16c0 fdbd 76df 8fbf
00000070: d252 12bf 0140 35be 5019 0bbf eaa9 d0bd
00000080: 4574 c3be d241 b3be 3150 ac3e 97c0 5b3e
00000090: 3427 813e 969c bcbd 729f f03d ed30 82be
000000a0: b254 9fbb b919 6dbd c201 16bd 1454 ccbe
000000b0: 33c6 91bf f50f 2dbf b3f1 1abf ba3f 973d
000000c0: fcf2 9e3e f8b2 15be 912b e4bc 3750 f6be
000000d0: 1922 013f 8c61 d33e e292 fabe 9219 853e
000000e0: 4f82 1a3e 2050 3c3d 070c bdbe 5935 18bd
000000f0: a5a0 1cbe e508 55be 4ac1 debd 1aed 80bb
00000100: d989 1e3c 4251 b9bd 27bc 633e a974 46bf
00000110: 96fb 42bf 017e f4bd cf2d 163f c7a3 f93d
00000120: 2627 fdbd 1959 90be 7cdf 38bf 8fe3 1ebe
00000130: 233c 293d f7e5 9fbb 916f b0be b4a2 b83d
00000140: 8d3a 57bf 4f8c 83be 64ea 6ebd d575 34be
00000150: b173 963c 31b0 54bd 775d 6bbd 326d 9bbd
00000160: c826 563d 72e6 2abd 61dd c4bd 85ba a13c
00000170: d813 e83d 84f0 73bc 4c04 633d 98ab 8fbc
00000180: 5971 0fbe 3039 a83d 0bd5 3b3c bf4d 10ba
00000190: f8d2 313d a578 a7bf 982b e53e c280 81bd
000001a0: 73dd c4bf 225c ee3d a2cd 5fbe 3aa8 9ebe
000001b0: cdd5 533e 8940 e6be 195a dd3c 5a9f 92bc
000001c0: 458d afbe 2f94 c43d 5b29 0a3e 66f4 d2be
000001d0: cfcf 65bd 278e e33d c082 603d 9ea8 50bd
000001e0: af5a 98be c6bf 543e db2c 133d 6758 c23e
000001f0: 7de0 b3be 75bc ca3c 387d bbbe 70b1 73be
00000200: c9f4 473e 1c93 6bbe 6310 173e 91ef 5ebd
00000210: 8065 693f 84d8 bcbd e8c7 6f3e 8786 ea3c
00000220: c909 173e 24b3 6fbe 3a6f 8ebd d299 003d
00000230: 9003 4a3d dab7 2abd 0a15 c03b f698 dabd
00000240: 5c7f 34be 65b3 81bd d610 083e 9414 bdbe
00000250: db55 7bbe c23f 90bd 6bf2 2fbd defa a13e
00000260: 42ab 91bd af3f 3cbe b8a2 67be 3cf3 1b3e
00000270: 5dc0 913e 658c d33d c99d 883c 3c9f dbbe
00000280: b406 163e c6da 56be 4547 2cbc 628e d4bc
00000290: 7275 7f3d 1446 bc3c 553f 1dbd 5936 ebbc
000002a0: a3e4 e53c e290 d53d cafa 2fbc 7fed 033e
000002b0: 075c a9bb b957 1d3d c9a5 39bd 2dde 39bd
000002c0: ea71 503c e465 2fbe f278 133e 89d7 a03b
000002d0: 1350 643d 5f97 6bbf c19f dbbe 1996 993d
000002e0: d4fc 88bf 6bce 063e 551f 233e c787 0abe
000002f0: 0c8f 40bf 3117 abbe 97e9 84bc d049 c1bd
00000300: c918 193e 5670 0c3e 185a 91bd c40f b1bd
00000310: c794 17be 5c30 853e 0e19 c5bc d5b4 19be
00000320: f0a2 a1be 13da a8bb d934 0c3c 2b89 4fbe
00000330: 4cd3 92bd 2638 fe3e 6b7c b73e 540b c6bd
00000340: 1041 053f 85bc 1fbd 6ff3 033e 9170 ddbd
00000350: d426 803d 7bff ebbd fb1b 1dbe 5ae2 df3d
00000360: 6e39 febc 3f68 13be f8ce e0bd 6040 023e
00000370: fb9c 37be a3bf 333d cb7a e3bd 95a8 753d
00000380: 7513 653c 2c32 ee3d d1f7 9d3c cd79 51bd
00000390: 81d5 ff3e 7345 073d 2813 873e fcd3 7f3d
000003a0: e005 8abd 4ae9 d4bd e627 ca3e 3d61 163e
000003b0: 3a90 ff3d d2e7 15be 8573 23be d906 9dbd
000003c0: 7d13 9a3d 5625 1d3f 6393 d03d c91c 003d
000003d0: 27f4 a4bc 4c72 07bd 6cf0 8bbd 73d1 dd3d
000003e0: af8c 92bd 479a 0c3d e14c d63d 52d9 c8bc
000003f0: fd48 cebc 360c 153d abdf 903e 7451 93bc

bias f4 [256]
-0.17747733 -0.033521432 0.035437692 0.08577022 0.08876821 0.013075853 -0.027880745 -0.09224699
-0.06615686 -0.0012290938 -0.012581532 -0.09702259 0.18554854 -0.032373518 -0.10724811 -0.09781556
-0.060140617 0.08529783 0.16628012 -0.15166591 -0.0056382976 -0.002263314 0.056401797 -0.13618542
-0.0550342 0.028910264 0.20202923 0.035094365 0.1690981 -0.033102084 -0.0030243923 -0.1289344
0.09864588 0.006935532 0.06445344 -0.105292864 -0.052928004 -0.076437645 -0.03583923 0.11322468
0.13410181 -0.14373322 0.07137464 0.014425897 0.055653412 -0.014059574 0.26514733 0.09961153
0.03119387 -0.103900164 0.063439526 -0.18961209 -0.013816581 -0.028224086 0.058895282 -0.046989877
-0.031160608 -0.03498081 -0.045041762 0.010869412 0.07342009 -0.059822798 0.0327133 0.16643263
-0.210421 -0.014666171 -0.0161105 -0.13979563 0.06070226 -0.064684734 -0.13644938 0.018647699
-0.055755597 0.121495634 0.13060737 0.01539204 -0.08574238 0.002694841 -0.01679749 0.02519192
-0.04525947 0.13768166 -0.16150473 0.010293777 0.07045719 -0.11132007 -0.22238912 -0.06560258
0.10765693 -0.10961156 0.061813522 -0.1113982 -0.008660759 0.085905105 -0.050145436 -0.094306275
-0.055931512 -0.017361112 0.0949016 -0.011650158 0.106026314 0.10443103 -0.15519007 0.13958281
0.14296162 -0.14139988 -0.0053797686 -0.14549497 0.009085777 -0.03726476 0.118491136 0.022924246
0.068530954 0.076404236 -0.11427905 0.10578864 -0.08055774 -0.015414318 -0.056813326 -0.19581878
0.067283824 0.009992242 -0.07004991 0.03253611 -0.08112045 -0.1265966 -0.08164324 0.026452092
-0.051690537 -0.010188134 0.08729065 0.001771561 -0.1417731 -0.171327 0.048870936 0.13549162
0.19316426 0.19538353 -0.08467229 -0.124901675 0.045342896 -0.06602415 0.049658872 -0.07651695
-0.17294468 -0.1834211 -0.13140029 -0.063141815 0.059184365 -0.055469178 0.05977112 0.14169104
-0.081531055 -0.2417797 0.022752287 0.018132728 0.012150134 -0.015109301 -0.22886924 0.10661746
0.0022727598 -0.048829086 0.14386593 0.07745616 0.053140204 0.07032468 -0.02712404 -0.07136692
0.074438654 -0.11345106 -0.0070116026 0.06519312 -0.12126566 -0.06153528 0.06169236 0.06405488
-0.18721168 -0.0653002 -0.011869845 0.07058794 -0.025751026 -0.07181043 -0.08877234 0.011311028
0.07592391 0.04588974 -0.087525375 -0.03684194 0.1439689 -0.23826611 -0.2284033 -0.07717558
0.13611104 0.018709477 -0.1597104 -0.052678857 -0.04532533 0.03674837 0.13621801 -0.12818272
-0.06609328 0.05023724 -0.031510893 0.07539411 0.025089 0.033530325 0.015338361 -0.0405244
0.0726776 0.045817427 -0.06874099 -0.057280134 -0.09668556 -0.09477494 -0.041417338 0.012629513
0.109839134 -0.09043099 -0.05149468 0.07886649 0.010329033 -0.12851137 0.14697395 0.0919097
-0.036139805 -0.10158957 0.019399865 -0.18020602 -0.08952337 0.16946794 0.084687985 0.09821136
-0.13462459 -0.036462035 -0.19442955 -0.092266925 0.055879842 -0.15896308 0.08255698 -0.03448557
-0.096339054 -0.17002527 -0.06405363 -0.040974412 -0.048085105 0.03483923 -0.1614148 -0.032234047
-0.107020244 -0.121979244 0.083312325 0.03292557 -0.09402986 -0.06280628 -0.05038385 -0.004767448
00000000: 9ebc 35be c54d 09bd 1d27 113d 4ca8 af3d
00000010: 1bcc b53d 1a3c 563c 2966 e4bc fdeb bcbd
00000020: 3f7d 87bd 8b19 a1ba c522 4ebc c8b3 c6bd
00000030: 7000 3e3e 189a 04bd e6a4 dbbd 8653 c8bd
00000040: 0256 76bd a1b0 ae3d 5645 2a3e 4f4e 1bbe
00000050: 78c1 b8bb 1c54 14bb 9205 673d 3174 0bbe
00000060: 8b6b 61bd 38d5 ec3c c0e0 4e3e 1cbf 0f3d
00000070: 0d28 2d3e 0d96 07bd e234 46bb 6107 04be
00000080: da06 ca3d 7643 e33b 2a00 843d c9a3 d7bd
00000090: 09cb 58bd 578b 9cbd 28cc 12bd 57e2 e73d
000000a0: fc51 093e cd2e 13be de2c 923d 995a 6c3c
000000b0: d5f4 633d 215a 66bc 64c1 873e 2101 cc3d
000000c0: 498a ff3c 9cc9 d4bd 95ec 813d ac29 42be
000000d0: f15e 62bc 3336 e7bc 2e3c 713d 7578 40bd
000000e0: 8844 ffbc 0a48 0fbd b67d 38bd 9e15 323c
000000f0: 465d 963d c008 75bd 62fe 053d 516d 2a3e
00000100: 9a78 57be 614a 70bc 2bfa 83bc 9626 0fbe
00000110: efa2 783d 6e79 84bd 63b9 0bbe 0fc3 983c
00000120: fb5f 64bd b4d2 f83d f0bd 053e e52e 7c3c
00000130: b399 afbd ee9b 303b e49a 89bc 495f ce3c
00000140: fe61 39bd 6cfc 0c3e 7f61 25be 3ba7 283c
00000150: dc4b 903d c7fb e3bd f9b9 63be a55a 86bd
00000160: 3d7b dc3d 077c e0bd 2d30 7d3d bd24 e4bd
00000170: dbe5 0dbc 04ef af3d 4d65 4dbd a623 c1bd
00000180: 7118 65bd e438 8ebc c55b c23d 4ee0 3ebc
00000190: 5324 d93d f0df d53d 25ea 1ebe ccee 0e3e
000001a0: 8864 123e 21cb 10be c548 b0bb a2fc 14be
000001b0: 83dc 143c efa2 18bd 7bab f23d a1cb bb3c
000001c0: f559 8c3d d379 9c3d 220b eabd b7a7 d83d
000001d0: 75fb a4bd 568c 7cbc 17b5 68bd b884 48be
000001e0: 1acc 893d 80b6 233c 5476 8fbd 9644 053d
000001f0: 7a22 a6bd 8aa2 01be 9234 a7bd 0fb2 d83c
00000200: 75b9 53bd 22ec 26bc 71c5 b23d b933 e83a
00000210: f82c 11be 5870 2fbe e42c 483d 51be 0a3e
00000220: dacc 453e 9f12 483e aa68 adbd 73cc ffbd
00000230: 79b9 393d ab37 87bd 1a67 4b3d ebb4 9cbd
00000240: 6918 31be bed2 3bbe cc8d 06be 7f50 81bd
00000250: 4e6b 723d a633 63bd 90d2 743d 7517 113e
00000260: c1f9 a6bd 1995 77be 0163 ba3c 168b 943c
00000270: 5b11 473c 008d 77bc b35c 6abe 415a da3d
00000280: 95f2 143b 0201 48bd 9751 133e 56a1 9e3d
00000290: 8ba9 593d 6306 903d 3c33 debc d228 92bd
000002a0: 4b73 983d 0859 e8bd 96c1 e5bb f883 853d
000002b0: 215a f8bd 6b0c 7cbd 21b1 7c3d 342f 833d
000002c0: 6bb4 3fbe 1cbc 85bd bd79 42bc 6990 903d
000002d0: d1f3 d2bc 5911 93bd 46ce b5bd e451 393c
000002e0: ff7d 9b3d e1f6 3b3d 8140 b3bd 93e7 16bd
000002f0: 956c 133e 08fc 73be 8ee2 69be 3b0e 9ebd
00000300: b160 0b3e 9e44 993c 208b 23be c9c5 57bd
00000310: 0ea7 39bd 7585 163d bc7c 0b3e 5542 03be
00000320: ea5b 87bd 90c5 4d3d 9111 01bd 3a68 9a3d
00000330: 7287 cd3c 1857 093d c04d 7b3c eafc 25bd
00000340: fed7 943d 0eab 3b3d 13c8 8cbd 939e 6abd
00000350: 1403 c6bd 5d19 c2bd 3aa5 29bd 04ec 4e3c
00000360: 57f3 e03d e233 b9bd 16ec 52bd c184 a13d
00000370: 1b3b 293c 7c98 03be 5780 163e 273b bc3d
00000380: 5507 14bd 310e d0bd 77ec 9e3c ed87 38be
00000390: 0758 b7bd 0189 2d3e e570 ad3d 0a23 c93d
000003a0: 07db 09be 3759 15bd 8a18 47be 71f6 bcbd
000003b0: 43e2 643d 38c7 22be a213 a93d be40 0dbd
000003c0: 694d c5bd 1b1b 2ebe 8d2e 83bd c9d4 27bd
000003d0: e3f4 44bd 95b3 0e3d ec49 25be d907 04bd
000003e0: 6e2d dbbd 41d0 f9bd a79f aa3d f6dc 063d
000003f0: ba92 c0bd 94a0 80bd 4c5f 4ebd 4138 9cbb

weight f4 [128, 256]
0.29912257 0.26245356 -0.0041743363 0.31565112 0.12796955 -0.15756766 0.18992394 0.37659234
0.11758056 0.05737718 0.22411412 0.08432113 -0.12559457 0.10336228 -0.1893147 0.27076444
-0.33232212 0.14422335 0.48063552 0.19256319 0.086236924 -0.105233416 -0.3943813 -0.0912813
0.57177556 0.52669686 -0.1916652 0.39416388 0.07758135 0.16166669 -0.0677996 -0.01183203
0.0029900079 0.29073215 -0.031596415 -0.1716596 -0.1709156 0.3352928 0.09361426 -0.19565146
0.10339762 0.11210795 0.3238039 0.26584184 -0.060004294 0.30136636 -0.27596906 -0.015166666
-0.058359362 -0.027431563 0.17116094 0.40827543 0.4176269 0.01511268 -0.31555966 -0.17631994
-0.026565796 0.24614075 0.37391064 -0.49797198 -0.17064182 -0.52846915 -0.003820166 0.25182047
0.40404108 0.31108952 0.52745163 0.39572334 0.0789174 0.22627077 -0.00013567419 0.24981838
0.25443757 0.24426992 0.10346331 -0.1758389 0.4451274 0.24538192 -0.43461004 -0.25709528
0.12615515 -0.016774906 -0.3780613 0.38032535 -0.38517684 0.4279541 0.13052769 0.33707637
0.2681479 -0.07919663 -0.45952797 -0.08099446 -0.1889022 0.005129909 -0.46277392 0.24644174
0.026392085 -0.08991634 0.15978363 0.5644871 -0.07012707 -0.04088289 0.20079476 0.07318682
-0.14534764 -0.26005256 -0.2321071 -0.3636082 0.17163634 -0.15748315 -0.6308837 0.27640983
-0.06896598 -0.045294892 -0.051884986 0.25325984 -0.11172938 -0.016411232 0.035375 0.15786017
0.033433713 -0.25175744 0.45467415 -0.017448641 -0.042426318 -0.25674078 -0.059285276 0.36467037
0.3866855 -0.3223202 0.25143817 -0.10833524 -0.25452733 0.20575623 -0.014892393 -0.29368168
0.042760216 -0.13541289 0.37668893 -0.15802178 -0.049931806 0.4043923 0.007734802 -0.010225383
-0.06151814 0.10180071 0.1267199 -0.068059675 0.009785339 -0.22821504 0.50885624 -0.07144497
-0.14601694 0.3124143 0.43939343 0.32192394 0.22401026 -0.39516154 0.06218487 0.13873696
-0.0100044105 -0.44250727 -0.08919743 -0.46385357 0.4072595 -0.20065238 -0.07761102 -0.27221566
-0.102481745 0.21356802 0.06836553 -0.14580405 0.30618626 -0.22246096 0.19026208 -0.17889382
0.50979537 -0.0019153678 0.060455613 -0.36827448 0.14938025 0.27048197 0.16434419 -0.2957951
0.3529287 0.15790667 -0.06590068 -0.16109464 -0.21030797 0.48846933 0.368554 0.39288205
0.13631819 -0.02516265 -0.3385098 0.046026442 0.7434991 0.0033505305 -0.048768695 0.019794814
-0.47306162 -0.25942662 0.28046837 0.23708524 0.184097 -0.5917165 -0.06390314 -0.047371708
-0.35779175 0.5932731 0.074767634 -0.14767009 -0.42715222 0.35746068 0.2933381 -0.14102902
-0.39391372 -0.2984957 -0.24836096 -0.19300936 0.05079205 -0.27681547 -0.2678279 -0.14618605
-0.01682891 -0.16045108 -0.01670089 0.08564283 -0.14888416 -0.35080284 0.18550938 0.48139596
0.6240757 0.5525985 0.33158895 -0.16632895 0.23107126 0.13966252 -0.09312365 -0.52828753
0.043113798 0.1584002 -0.0129504055 0.13454813 -0.21857807 0.1887036 -0.07731725 -0.20417061
-0.55492884 0.08800202 -0.048483457 0.040018633 0.08285633 0.065972604 0.32997 0.12286821
00000000: 9826 993e 5060 863e dfc8 88bb 069d a13e
00000010: 730a 033e 6b59 21be 6c7b 423e b6d0 c03e
00000020: 14ce f03d 5504 6b3d 2c7e 653e 8eb0 ac3d
00000030: dd9b 00be 9aaf d33d b6db 41be a3a1 8a3e
00000040: 2026 aabe 49af 133e dc15 f63e 492f 453e
00000050: fc9c b03d 9e84 d7bd 59ec c9be b1f1 babd
00000060: e25f 123f 9bd5 063f e243 44be d9cf c93e
00000070: f9e2 9e3d f48b 253e 84da 8abd 21db 41bc
00000080: 02f4 433b d8da 943e 3e6b 01bd 89c7 2fbe
00000090: 8004 2fbe 7fab ab3e d5b8 bf3d db58 48be
000000a0: 22c2 d33d da98 e53d a0c9 a53e 6c1c 883e
000000b0: 10c7 75bd b14c 9a3e d14b 8dbe 9c7d 78bc
000000c0: 3a0a 6fbd 28b8 e0bc d044 2f3e 7a09 d13e
000000d0: 31d3 d53e 2d9b 773c 0991 a1be 378d 34be
000000e0: 83a0 d9bc 520c 7c3e 3771 bf3e 2ff6 febe
000000f0: bbbc 2ebe c149 07bf c05b 7abb 9dee 803e
00000100: 79de ce3e 2047 9f3e 1207 073f 409c ca3e
00000110: 729f a13d 86b3 673e c343 0eb9 64d0 7f3e
00000120: a445 823e e521 7a3e 92e4 d33d 1d0f 34be
00000130: bde7 e33e 6645 7b3e 3585 debe fea1 83be
00000140: d12e 013e 876b 89bc 4091 c1be 01ba c23e
00000150: e635 c5be cd1c db3e 0da9 053e 4695 ac3e
00000160: ae4a 893e d831 a2bd 4047 ebbe 6ce0 a5bd
00000170: 946f 41be cc18 a83b b4f0 ecbe 395b 7c3e
00000180: 3734 d83c 0f26 b8bd 529e 233e 3a82 103f
00000190: c89e 8fbd d174 27bd 249d 4d3e f9e2 953d
000001a0: 03d6 14be 9c25 85be 7cad 6dbe db2a babe
000001b0: 70c1 2f3e 4343 21be 9881 21bf 9785 8d3e
000001c0: 093e 8dbd 2387 39bd 5a85 54bd 46ab 813e
000001d0: 60d2 e4bd d970 86bc 60e5 103d 19a6 213e
000001e0: caf1 083d 5ae6 80be 0dcb e83e 74f0 8ebc
000001f0: 38c7 2dbd 8773 83be 1ed5 72bd 13b6 ba3e
00000200: a4fb c53e 2707 a5be 81bc 803e dede ddbd
00000210: 6851 82be c3b1 523e 39ff 73bc 725d 96be
00000220: 5625 2f3d ada9 0abe 5fdd c03e 76d0 21be
00000230: 4b85 4cbd 820c cf3e 3974 fd3b 5d88 27bc
00000240: 72fa 7bbd e47c d03d ddc2 013e df62 8bbd
00000250: b052 203c 34b1 69be 6744 023f be51 92bd
00000260: 7785 15be c4f4 9f3e 2df8 e03e 37d3 a43e
00000270: f262 653e 9d52 cabe 90b5 7e3d 1011 0e3e
00000280: 8ae9 23bc 5090 e2be 24ad b6bd 377e edbe
00000290: 5184 d03e d177 4dbe 87f2 9ebd da5f 8bbe
000002a0: f3e1 d1bd 93b1 5a3e 3a03 8c3d a84d 15be
000002b0: 72c4 9c3e cecc 63be 10d4 423e f12f 37be
000002c0: f381 023f 140d fbba 4ea0 773d 798e bcbe
000002d0: 23f7 183e 9d7c 8a3e d849 283e 7572 97be
000002e0: 12b3 b43e 49b2 213e f0f6 86bd fef5 24be
000002f0: f95a 57be a718 fa3e 1cb3 bc3e d627 c93e
00000300: ff96 0b3e e721 cebc 2851 adbe 3986 3c3d
00000310: f555 3e3f 9394 5b3b afc1 47bd bc28 a23c
00000320: 2235 f2be 91d3 84be 8d99 8f3e 79c6 723e
00000330: ed83 3c3e bc7a 17bf a6df 82bd d608 42bd
00000340: 7b30 b7be bfe0 173f c61f 993d d436 17be
00000350: b2b3 dabe 1605 b73e 6930 963e e969 10be
00000360: 0faf c9be 6ed4 98be 5652 7ebe 3fa4 45be
00000370: 530b 503d c2ba 8dbe bd20 89be ccb1 15be
00000380: c8dc 89bc 4a4d 24be 4ed0 88bc 8265 af3d
00000390: 1775 18be 6e9c b3be 2cf6 3d3e 8879 f63e
000003a0: 6dc3 1f3f 1877 0d3f 07c6 a93e 2352 2abe
000003b0: f29d 6c3e b103 0f3e 9db7 bebd da3d 07bf
000003c0: 1898 303d a933 223e f02d 54bc fcc6 093e
000003d0: eed2 5fbe 843b 413e 8258 9ebd 1a12 51be
000003e0: d10f 0ebf 673a b43d 9796 46bd 94ea 233d
000003f0: 94b0 a93d a51c 873d d4f1 a83e 54a2 fb3d

bias f4 [128]
-0.30640686 -0.016481608 -0.53567964 -0.0013680202 0.0064561367 -0.09749024 -0.048770826 -0.0047107735
-0.13385728 -0.025363274 -0.042897485 -0.056341037 -0.4431568 -0.08261046 -0.13893875 -0.054757968
-0.096989706 0.036613118 -0.24863026 -0.037835 -0.05753163 -0.040947374 -0.14163014 -0.14363801
-0.10850652 -0.03694493 -0.2268424 -0.086915575 -0.23627421 -0.09804432 -0.08809058 -0.08622346
-0.03900619 -0.11166854 -0.06089269 -0.08251859 -0.067440145 -0.08911326 -0.0020301635 -0.018144254
-0.3274984 -0.04637685 -0.3099272 -0.12294927 0.00021789267 -0.26731846 -0.105422 -0.06748899
-0.013972708 0.04077744 -0.091855444 -0.18082483 -0.09258517 -0.19745363 -0.037608057 -0.19087252
-0.07444958 -0.08345407 -0.12522325 0.018853417 -0.06041008 -0.046322912 -0.07686004 -0.42501324
-0.17983663 -0.02103687 -0.043701727 -0.079228565 -0.082755536 -0.06462764 -0.03941663 0.019558186
-0.16511534 -0.004926641 -0.08167955 -0.12874585 0.045330014 -0.08002765 -0.094220296 -0.0401588
-0.04642965 -0.10626871 -0.07072105 -0.13224687 -0.07784721 -0.072232015 -0.054555234 -0.05684716
-0.050770205 -0.10879977 -0.035879012 -0.04894999 -0.035250776 -0.0550991 -0.09778607 -0.051711418
-0.0686348 -0.04575351 -0.14725478 -0.18181653 -0.009695333 -0.12061501 -0.05952738 0.013434782
-0.16375819 -0.16913322 -0.0961631 -0.116525054 -0.12051233 -0.22878261 -0.022553911 -0.35791498
-0.014410121 -0.11595622 -0.17210548 0.05722559 -0.13208638 -0.4377456 -0.043959945 -0.20739572
-0.08181705 -0.11119807 -0.18849595 0.038030334 -0.060056314 -0.10248875 -0.16188318 -0.0043258783
00000000: 5ce1 9cbe 7004 87bc 4d22 09bf 244f b3ba
00000010: 008e d33b f7a8 c7bd ebc3 47bd d55c 9abb
00000020: e211 09be a4c6 cfbc 46b5 2fbd dcc5 66bd
00000030: 73e5 e2be ac2f a9bd f645 0ebe e449 60bd
00000040: 8aa2 c6bd a3f7 153d ee98 7ebe dff8 1abd
00000050: 49a6 6bbd 6fb8 27bd 7e07 11be d815 13be
00000060: ab38 debd 9153 17bd 6049 68be cb00 b2bd
00000070: def1 71be 76cb c8bd d668 b4bd ed95 b0bd
00000080: f4c4 1fbd 7ab2 e4bd 9d6a 79bd 82ff a8bd
00000090: 0f1e 8abd 0381 b6bd 7e0c 05bb 42a3 94bc
000000a0: dfad a7be a7f5 3dbd c7ae 9ebe d4cc fbbd
000000b0: 1e7a 6439 f7dd 88be 7de7 d7bd ab37 8abd
000000c0: c9ed 64bc 3f06 273d b51e bcbd 252a 39be
000000d0: 4b9d bdbd 4931 4abe e80a 1abd 1674 43be
000000e0: 0579 98bd f8e9 aabd 863a 00be 7b72 9a3c
000000f0: 8f70 77bd 18bd 3dbd cc68 9dbd 569b d9be
00000100: 1827 38be 8455 acbc 9500 33bd 9642 a2bd
00000110: bc7b a9bd 7f5b 84bd 5573 21bd 7d38 a03c
00000120: ff13 29be a96f a1bb 9c47 a7bd f4d5 03be
00000130: f7ab 393d 89e5 a3bd 92f6 c0bd 8e7d 24bd
00000140: 042d 3ebd 69a3 d9bd 33d6 90bd b96b 07be
00000150: 5c6e 9fbd 61ee 93bd 4f75 5fbd 91d8 68bd
00000160: 6bf4 4fbd 6ad2 debd dff5 12bd c97f 48bd
00000170: 1e63 10bd 98af 61bd 1044 c8bd 5acf 53bd
00000180: 6790 8cbd 0868 3bbd f5c9 16be 1d2e 3abe
00000190: 2dd9 1ebc 0105 f7bd fbd2 73bd 8f1d 5c3c
000001a0: 3ab0 27be 4231 2dbe 29f1 c4bd b0a4 eebd
000001b0: 2bcf f6bd fd45 6abe fbc2 b8bc a240 b7be
000001c0: 6e18 6cbc 747a edbd 6b3c 30be 6165 6a3d
000001d0: a741 07be 3120 e0be 580f 34bd 8b5f 54be
000001e0: b38f a7bd d0bb e3bd 1505 41be b2c5 1b3d
000001f0: 9cfd 75bd 9fe5 d1bd b4c4 25be 19c0 8dbb

weight f4 [128, 128]
0.0023449599 -0.00019180396 0.117774464 0.004724218 0.001218848 0.023673708 -0.051152546 -0.011187554
0.059585758 0.21495184 0.069676325 0.052039273 0.01425715 -0.042890683 -0.052598324 -0.022468666
-0.054452766 -0.03178108 0.10206073 0.071707115 0.04127959 -0.003229839 0.04307844 -0.019979184
-0.05849726 0.019408887 -0.028817713 0.0396353 -0.0122627495 0.038135923 0.14343074 -0.01834515
0.08538468 0.02532358 0.016861208 -0.022727154 0.085458726 -0.06271421 0.014386698 0.063595034
0.021894952 -0.039822523 -0.14209695 -0.030323455 -0.018241864 0.039635587 0.025682345 -0.11570705
-0.049779233 0.026977275 -0.13838519 -0.011479974 -0.041091327 0.054930616 0.025620466 -0.03598307
0.017553335 0.003502301 -0.056305047 -0.029085185 -0.043640196 0.13346128 0.043398965 0.0019739766
0.052217074 0.004490209 0.02529219 -0.029326035 -0.16228141 -0.009230304 -0.044675756 -0.03280437
-0.031355325 -0.0050321044 0.10658815 0.04728163 -0.029817093 -0.0153625775 -0.009136662 0.15900752
-0.037412394 -0.056958377 -0.06296929 0.086510815 -0.123496905 -0.10072042 -0.0070798243 0.017201845
0.05126628 -0.04694962 0.010853505 0.032643627 0.011938811 -0.0985722 0.020543631 -0.06793181
0.03137077 -0.090914994 0.050058275 0.0052339984 -0.015226903 -0.10841916 -0.09011069 0.009079376
0.057562396 0.03552568 0.13675053 -0.008849441 0.14007826 0.013112253 -0.040116042 -0.021014156
0.084492885 -0.0606487 0.048586503 0.10803113 0.02191208 -0.034022912 0.02628507 0.0146738
0.060125954 0.010244814 0.00038509216 -0.0010686395 -0.030222062 0.049920294 -0.08612374 0.004854481
0.04085165 0.024901783 0.02544833 0.008702805 -0.07905467 -0.054329056 0.02212975 -0.028793462
0.012274547 -0.043373413 -0.11244525 0.031372402 -0.0044685085 0.020996679 0.034009114 -0.06441975
0.051203337 -0.029603807 0.08461325 0.023191374 -0.048549008 0.03472134 -0.072727226 0.0042917673
-0.006857613 -0.076879054 -0.0054498655 0.06617627 0.04077296 -0.058052666 0.018330589 0.0037160756
-0.045810573 -0.02407731 -0.0025586186 0.037165664 -0.010983191 -0.0067531103 0.036762957 0.013214762
-0.012305425 -0.10709586 0.009580705 -0.03431658 0.017320493 -0.011687135 -0.018601969 0.05700233
-0.02204632 -0.012569595 -0.043361068 0.04957158 -0.025728673 -0.01936872 0.027055347 0.039977185
0.0058487114 -0.054197706 0.061369475 0.027971819 -0.0136691015 -0.089203246 -0.0039024947 -0.027555292
-0.035031423 -0.016811345 -0.034633286 0.043041117 0.049326934 -0.0024672588 -0.038564205 0.09937838
0.023860253 0.057407912 0.0117433 0.0008100375 -0.0011816388 0.04232437 -0.0685637 -0.017266745
0.028513353 0.054005887 0.013967934 -0.050665963 0.038691923 0.039330155 -0.07662496 0.029241055
0.009802453 -0.0035516168 0.038602807 0.017136915 -0.040425535 -0.059540097 0.015619676 0.011618488
-0.022874074 -0.028784597 0.04965774 0.05901873 -0.03251437 0.01621374 0.008627494 0.0045281136
-0.013506298 -0.08513376 -0.026873076 -0.03785605 0.045461636 -0.020993423 0.083911054 0.06282906
0.008958599 0.010373887 0.031851392 -0.06996577 -0.035300996 -0.014894199 -0.05206196 -0.03983967
0.062307183 0.011602662 -0.08160673 -0.042595062 0.04513373 -0.028861368 0.016224544 0.019610142
00000000: e6ad 193b fc1e 49b9 bd33 f13d 9dcd 9a3b
00000010: c1c1 9f3a 5def c13c 5585 51bd 014c 37bc
00000020: 3210 743d 561c 5c3e 76b2 8e3d 2227 553d
00000030: d296 693c 24ae 2fbd 5771 57bd 3510 b8bc
00000040: dd09 5fbd e12c 02bd 3705 d13d 2edb 923d
00000050: ca14 293d b5ab 53bb 0573 303d 63ab a3bc
00000060: d39a 6fbd 63ff 9e3c 2013 ecbc a058 223d
00000070: b3e9 48bc 6a34 1c3d 82df 123e 9148 96bc
00000080: 2ade ae3d 6573 cf3c 8420 8a3c 4c2e babc
00000090: fc04 af3d 4f70 80bd 2fb6 6b3c 1d3e 823d
000000a0: 0b5d b33c f11c 23bd dd81 11be e568 f8bc
000000b0: f66f 95bc ed58 223d c863 d23c d1f7 ecbd
000000c0: 4fe5 4bbd 72ff dc3c d9b4 0dbe 8016 3cbc
000000d0: 614f 28bd edfe 603d 03e2 d13c fc62 13bd
000000e0: 03cc 8f3c dc86 653b 1fa0 66bd 0e44 eebc
000000f0: 10c0 32bd 13aa 083e 1dc3 313d d55d 013b
00000100: 92e1 553d 9a22 933b 9131 cf3c 273d f0bc
00000110: 192d 26be b33a 17bc edfd 36bd e05d 06bd
00000120: 716e 00bd 5ae4 a4bb e34a da3d 62aa 413d
00000130: fa42 f4bc 52b3 7bbc f0b1 15bc ded2 223e
00000140: bd3d 19bd 304d 69bd 0bf6 80bd 952c b13d
00000150: f2eb fcbd 8246 cebd dffd e7bb e2ea 8c3c
00000160: 97fc 513d 3f4e 40bd e6d2 313c 53b5 053d
00000170: 019b 433c 39e0 c9bd 1e4b a83c d51f 8bbd
00000180: a37e 003d a431 babd e809 4d3d f681 ab3b
00000190: 437a 79bc dd0a debd f48b b8bd aac1 143c
000001a0: 8cc6 6b3d 6083 113d 5508 0c3e 3ffd 10bc
000001b0: ad70 0f3e c6d4 563c b850 24bd e125 acbc
000001c0: 9b0a ad3d c56a 78bd a402 473d 6d3f dd3d
000001d0: f680 b33c 9c5b 0bbd ca53 d73c 616a 703c
000001e0: a246 763d ddd9 273c 32e6 c939 9711 8cba
000001f0: 4294 f7bc 3979 4c3d a561 b0bd 5712 9f3b
00000200: 0f54 273d d3fe cb3c 0479 d03c 3696 0e3c
00000210: 6ae7 a1bd 2588 5ebd 7349 b53c 44e0 ebbc
00000220: 2e1b 493c 52a8 31bd b249 e6bd 5980 003d
00000230: 916c 92bb 3a01 ac3c 244d 0b3d 80ee 83bd
00000240: 97ba 513d af83 f2bc b649 ad3d d6fb bd3c
00000250: 53db 46bd f737 0e3d 03f2 94bd f4a1 8c3b
00000260: d4b5 e0bb c472 9dbd c994 b2bb 6d87 873d
00000270: 8c01 273d a2c8 6dbd 082a 963c 6789 733b
00000280: dea3 3bbd c73d c5bc 7fae 27bb 063b 183d
00000290: d8f2 33bc 3249 ddbb c194 163d bb82 583c
000002a0: b19c 49bc 1355 dbbd 64f8 1c3c 8b8f 0cbd
000002b0: b5e3 8d3c 667b 3fbc 2863 98bc 467b 693d
000002c0: 7c9a b4bc b4f0 4dbc 609b 31bd 920b 4b3d
000002d0: f0c4 d2bc 26ab 9ebc 2da3 dd3c 1ebf 233d
000002e0: 8ca6 bf3b 6afe 5dbd 8f5e 7b3d 2825 e53c
000002f0: 5ef4 5fbc 31b0 b6bd ffc0 7fbb a3bb e1bc
00000300: 1c7d 0fbd f2b7 89bc a2db 0dbd e24b 303d
00000310: 0a0b 4a3d bcb1 21bb 80f5 1dbd e486 cb3d
00000320: 9476 c33c 8f24 6b3d f866 403c b258 543a
00000330: 38e1 9aba 525c 2d3d 206b 8cbd fd72 8dbc
00000340: d694 e93c 4735 5d3d c3d9 643c 1d87 4fbd
00000350: 6c7b 1e3d a818 213d 8ced 9cbd f08a ef3c
00000360: 789a 203c 3ec2 68bb fa1d 1e3d b762 8c3c
00000370: 3f95 25bd 51e0 73bd abe9 7f3c 785b 3e3c
00000380: 6962 bbbc adcd ebbc ea65 4b3d a0bd 713d
00000390: ca2d 05bd add2 843c 555a 0d3c 9260 943b
000003a0: 8549 5dbc 9c5a aebd ed24 dcbc f20e 1bbd
000003b0: fb35 3a3d 66fa abbc 8fd9 ab3d 86ac 803d
000003c0: 16c7 123c 3cf7 293c 9b76 023d 374a 8fbd
000003d0: c797 10bd cc06 74bc ec3e 55bd ec2e 23bd
000003e0: d135 7f3d 1719 3e3c 6e21 a7bd 2978 2ebd
000003f0: 25de 383d ad6e ecbc 56e9 843c 73a5 a03c

bias f4 [128]
0.009956199 0.000854165 0.008842731 -0.14567891 0.02997782 0.009261871 -0.10851849 -0.02049129
-0.008617853 -0.015764795 0.013334995 0.00023943311 -0.014820423 -0.006317021 -0.03486055 -0.06293643
-0.047838196 0.00057913794 -0.008921223 -0.02281562 -0.01780312 -0.052157655 0.012922672 -0.067051746
-0.016634135 -0.13716373 -0.038553275 0.0034998427 -0.19334981 -0.00731076 -0.018718295 -0.050628416
-0.025537968 -0.011734631 -0.14702435 -0.02145883 -0.0076152226 -0.012229442 -0.022717087 -0.032894854
-0.10002839 -0.1468016 0.05868628 -0.027950434 -0.027421076 -0.054976463 -0.075566374 -0.17386883
-0.052764397 0.03735026 -0.05719569 0.00032621203 -0.018280298 -0.037695758 -0.14584091 -0.02665444
-0.030610774 -0.03361281 0.021525608 -0.051853783 -0.046666946 0.019821463 -0.26665643 -0.02105299
-0.0012593792 0.01074485 -0.026623266 0.019170957 -0.26145092 -0.040849034 -0.03265681 -0.025683075
-0.04693774 0.0031157087 -0.049109586 -0.006607911 -0.019933011 0.02103037 -0.06111605 -0.12220053
-0.0077348766 -0.021541916 -0.037935264 -0.026286762 -0.0027815246 -0.2225288 0.013158251 0.019027608
-0.030805392 -0.31780243 -0.06977103 -0.20991823 -0.032858275 -0.085756116 -0.010687302 -0.018854683
-0.10504948 0.025943717 -0.024416627 -0.029920204 -0.021940002 -0.13557114 -0.01885229 -0.021305706
-0.023167344 -0.051249806 -0.039483413 -0.03071289 -0.056416057 -0.06909282 0.0154471705 -0.015002455
-0.046261437 -0.2647745 0.0050687045 0.08358962 -0.019113863 -0.06624711 0.022462238 -0.14320089
-0.015938474 -0.024848107 -0.06061078 -0.08681267 0.0014816624 -0.18406822 -0.02157221 0.03027519
00000000: 531f 233c 0bea 5f3a 1ae1 103c da2c 15be
00000010: 0c94 f53c 1abf 173c f13e debd 5add a7bc
00000020: e531 0dbc 2c25 81bc 067b 5a3c 5610 7b39
00000030: 5cd1 72bc 03ff cebb f0c9 0ebd d1e4 80bd
00000040: fcf1 43bd 4ad1 173a 522a 12bc d3e7 babc
00000050: d9d7 91bc 44a3 55bd 9db9 533c 6d52 89bd
00000060: 4f44 88bc a674 0cbe 0aea 1dbd 9e5d 653b
00000070: 7efd 45be 1a8f efbb 1c57 99bc be5f 4fbd
00000080: 0035 d1bc 9c42 40bc 8d8d 16be 6eca afbc
00000090: 1e89 f9bb ff5d 48bc 2f19 babc c1bc 06bd
000000a0: afdb ccbd 2953 16be 0661 703d 4ff8 e4bc
000000b0: 2aa2 e0bc 002f 61bd 8bc2 9abd ac0a 32be
000000c0: 7b1f 58bd 96fc 183d 0746 6abd 7007 ab39
000000d0: 90c0 95bc de66 1abd 5257 15be 6a5a dabc
000000e0: 72c3 fabc 96ad 09bd 7956 b03c a264 54bd
000000f0: d725 3fbd 9f60 a23c 3187 88be 5277 acbc
00000100: c111 a5ba 2b0b 303c 0919 dabc 690c 9d3c
00000110: e5dc 85be 5151 27bd 26c3 05bd 5065 d2bc
00000120: ca41 40bd eb30 4c3b 2227 49bd 2d87 d8bb
00000130: 8e4a a3bc e247 ac3c d354 7abd 4544 fabd
00000140: d974 fdbb ac78 b0bc 0262 1bbd 5657 d7bc
00000150: 3d4a 36bb 97de 63be b495 573c c9df 9b3c
00000160: 975b fcbc 00b7 a2be 1de4 8ebd cef4 56be
00000170: 6696 06bd e7a0 afbd cb19 2fbc 2375 9abc
00000180: 2f24 d7bd eb87 d43c 6105 c8bc 371b f5bc
00000190: 85bb b3bc 29d3 0abe 1e70 9abc 4e89 aebc
000001a0: 71c9 bdbc 51eb 51bd 5cb9 21bd 9999 fbbc
000001b0: 8614 67bd 8980 8dbd 2116 7d3c dbcc 75bc
000001c0: a27c 3dbd 8690 87be 6017 a63b 0931 ab3d
000001d0: ad94 9cbc 91ac 87bd ba02 b83c 41a3 12be
000001e0: 6791 82bc 428e cbbc 0243 78bd d7ca b1bd
000001f0: 5734 c23a 617c 3cbe 34b8 b0bc ad03 f83c

weight f4 [8, 128]
-0.00673669 0.0021472487 -0.018474473 0.0013940594 0.0047813123 0.0007006507 0.009950902 -0.0039650947
-0.0033913522 0.0042218273 -0.009282947 0.017314427 0.0010768374 -0.0034688695 -0.0032936595 -0.026558826
-0.016593082 0.007674441 -0.0012235342 8.760522e-05 -0.0043864404 -0.0148298405 0.0048844726 0.013578867
0.0064030904 -0.0030345623 -0.015748207 -0.00578704 -0.012951032 0.0014352566 0.006824938 -0.001833347
0.0021178538 0.00026052797 -0.011744765 -0.010624481 0.008008738 0.00025938332 -3.915133e-05 0.0028238609
-0.008294251 0.0065462505 0.013301997 -0.001427989 0.0052865874 0.0008679327 0.02672 -0.0046687694
0.005699632 0.009997089 0.0018741634 0.011662632 -0.0030393829 -0.008417611 -0.04143827 0.00333305
0.015843036 -0.0042767585 0.013430816 0.017267492 0.01438396 -0.0021459097 -0.030324925 -0.0019601781
0.0063111107 -0.0031567118 -0.0053306646 -0.008758813 -0.033827443 0.016717602 -0.004321037 0.0038746754
-0.005360365 -0.009731457 -0.0035579838 -0.0035150945 0.007014398 -0.0013544734 0.006084611 0.013404036
-0.0066379616 0.0052940403 -0.0074868747 0.002397833 0.021103293 0.006910833 -0.008117422 -0.0031343517
0.00556243 0.017386781 -0.005498205 0.031692963 0.0020089038 -0.0075085126 -0.0010300477 0.008746847
-0.014822845 0.0034039374 -0.0043202597 -0.0016500736 0.0063468595 0.004240564 0.014650714 -0.0033597825
0.003586064 -0.003032941 0.007081754 0.019514477 -0.008271471 0.011211964 0.01364481 -0.0035180643
0.001610954 0.030366603 0.0014110081 -0.0066217044 0.0046967855 -0.0022180814 0.010021819 0.005421513
-0.004563759 0.0043418617 0.009991184 0.012625754 0.009590911 -0.00074643845 0.0014032365 -0.00027786332
0.016101938 0.0039598923 -0.022569468 0.016848372 -0.0027426106 -0.0058491062 0.0012651302 -0.00011866399
0.010003596 -0.018173743 0.00072024664 0.0036354735 0.0010924945 -0.0021398542 0.0037338682 -0.0052168295
-0.012477525 -0.002278679 -0.0019323985 0.010601495 0.0042504673 0.005076547 0.004743783 0.0077020605
-0.006667907 0.031353973 0.00083634024 -0.0003207376 -0.022637287 -0.0011887826 -0.00808836 0.0017723349
-0.0030481196 -0.0023158526 -0.0008383503 0.006407676 -0.0010723483 -0.0009956833 0.0147666205 0.010362625
0.0027770712 -0.0021244404 0.0015015571 0.012326653 -0.006523039 0.01719667 -0.002569097 0.03459018
-0.0006423573 -0.008743169 0.0022635048 -0.006962033 -0.007359748 -0.00731962 0.009796349 -0.0007911327
0.008870813 0.0027962576 -0.0014763994 -0.011088879 0.010864087 -0.00038228102 0.017018925 0.015493066
-0.0102260215 0.0115006585 -0.0065051042 -0.009795139 -0.011719818 -0.003657605 0.0026351125 -0.005117694
0.00084411685 0.019355917 0.0067249746 0.003032289 -0.0030082802 0.0011031751 0.015985303 0.00038027338
-0.0012018542 -0.0009879783 -0.0036459675 -0.0046640895 0.015093695 0.016194738 -0.0050496375 -0.00014321171
0.0007487145 0.009703811 -0.00046175922 -0.007372194 -0.01066015 -0.0069074202 -0.0044245883 -0.0050768964
0.011049077 -0.01906229 -0.008485359 -0.0031383845 8.037716e-05 -0.022917494 0.008391255 0.0029503435
-0.0052804146 0.0044959364 0.0060845586 -0.013887743 0.014003364 0.0065944414 -0.0013137205 0.022142207
0.00095123233 -0.045212805 -0.0035552059 -0.0065499316 0.0014342647 -0.015172199 -0.006924115 0.0010248905
0.000305619 0.0033528884 0.0075148256 -0.0064468747 -0.008007142 -0.016675659 -0.0071646255 -0.0037881515
00000000: 74bf dcbb dbb8 0c3b c757 97bc dfb8 b63a
00000010: 8eac 9c3b dfab 373a 1c09 233c a0ed 81bb
00000020: 7341 5ebb 4157 8a3b 8017 18bc fcd6 8d3c
00000030: ab24 8d3a f955 63bb 70da 57bb e591 d9bc
00000040: 37ee 87bc e179 fb3b ff5e a0ba b2b8 b738
00000050: 21bc 8fbb dcf8 72bc ed0d a03b e579 5e3c
00000060: 04d1 d13b 82df 46bb 6202 81bc 36a1 bdbb
00000070: 9130 54bc 381f bc3a bba3 df3b eb4c f0ba
00000080: b1cb 0a3b 7997 8839 1d6d 40bc 4e12 2ebc
00000090: 1537 033c d7fd 8739 6c36 24b8 8610 393b
000000a0: 9ce4 07bc ee81 d63b 9ff0 593c 5c2b bbba
000000b0: 1c3b ad3b fa85 633a e7e3 da3c 7afc 98bb
000000c0: fbc3 ba3b d5ca 233c 7da6 f53a a014 3f3c
000000d0: 6230 47bb 05ea 09bc 2dbb 29bd 4d6f 5a3b
000000e0: 41c9 813c 0d24 8cbb ed0c 5c3c 8e74 8d3c
000000f0: b3aa 6b3c 64a2 0cbb fa6b f8bc 5576 00bb
00000100: 6fcd ce3b d6e0 4ebb dbac aebb 2081 0fbc
00000110: a58e 0abd 5af3 883c 7c97 8dbb 44ee 7d3b
00000120: 00a6 afbb b070 1fbc 102d 69bb 805d 66bb
00000130: 09d9 e53b 9688 b1ba 6b61 c73b 9a9c 5b3c
00000140: 4283 d9bb a179 ad3b 7554 f5bb f624 1d3b
00000150: d0e0 ac3c 4574 e23b f0fe 04bc b269 4dbb
00000160: 0b45 b63b b96e 8e3c 492a b4bb 7bd0 013d
00000170: d0a7 033b f809 f6bb aa02 87ba ef4e 0f3c
00000180: 85db 72bc 9814 5f3b f790 8dbb 4847 d8ba
00000190: 51f9 cf3b 6ef4 8a3b 8c09 703c cc2f 5cbb
000001a0: 2c04 6b3b 4ec4 46bb 0f0e e83b d3dc 9f3c
000001b0: 1085 07bc 63b2 373c 7b8e 5f3c 538f 66bb
000001c0: a526 d33a 62c3 f83c 93f1 b83a e2fa d8bb
000001d0: 7ee7 993b 3b5d 11bb 8e32 243c f3a6 b13b
000001e0: 968b 95bb 2d46 8e3b 10b2 233c 40dc 4e3c
000001f0: 3223 1d3c a3ac 43ba ceec b73a 2fae 91b9
00000200: 36e8 833c fcc1 813b 9be3 b8bc 9905 8a3c
00000210: 5fbd 33bb dca9 bfbb bad2 a53a 3fdb f8b8
00000220: 1fe6 233c 1ae1 94bc efce 3c3a 2041 6e3b
00000230: 0832 8f3a cc3c 0cbb eab3 743b f0f1 aabb
00000240: 886e 4cbc e455 15bb 8948 fdba e5b1 2d3c
00000250: 8147 8b3b 2a59 a63b bc71 9b3b 9161 fc3b
00000260: 757e dabb 066d 003d d83d 5b3a ac28 a8b9
00000270: d571 b9bc edd0 9bba 0a85 04bc b14d e83a
00000280: f6c2 47bb 8fc5 17bb bcc4 5bba 7bf7 d13b
00000290: 0a8e 8cba 9681 82ba b2ef 713c 00c8 293c
000002a0: 86ff 353b 323a 0bbb e5cf c43a bbf5 493c
000002b0: 38bf d5bb 08e0 8c3c 4c5e 28bb 6fae 0d3d
000002c0: de63 28ba 823f 0fbc 4f57 143b c421 e4bb
000002d0: 0a2a f1bb 6cd9 efbb de80 203c 0464 4fba
000002e0: e356 113c 6b41 373b be83 c1ba 21ae 35bc
000002f0: 49ff 313c e46c c8b9 466b 8b3c a1d6 7d3c
00000300: 0b8b 27bc 426d 3c3c c528 d5bb ca7b 20bc
00000310: 7b04 40bc 6eb4 6fbb dab1 2c3b 54b2 a7bb
00000320: b947 5d3a 4d90 9e3c 2d5d dc3b 5eb9 463b
00000330: 9126 45bb 6a98 903a 9cf3 823c 6e5f c739
00000340: 8987 9dba 0d7f 81ba 2ff1 6ebb 38d5 98bb
00000350: 8c4b 773c d4aa 843c 6e77 a5bb 1a2b 16b9
00000360: 6145 443a bcfc 1e3c 4618 f2b9 7292 f1bb
00000370: e9a7 2ebc a457 e2bb 23fc 90bb 185c a6bb
00000380: 3007 353c 8528 9cbc 2d06 0bbc 5bad 4dbb
00000390: 2990 a838 78bd bbbc 797b 093c 8d5a 413b
000003a0: 5407 adbb a652 933b fa60 c73b 6b89 63bc
000003b0: 5e6e 653c 2f16 d83b 2531 acba 9363 b53c
000003c0: 1f5c 793a 1031 39bd 75fe 68bb cfa0 d6bb
000003d0: f0fd bb3a d194 78bc b0e3 e2bb 9e55 863a
000003e0: 7d3b a039 22bc 5b3b ed3e f63b 4e40 d3bb
000003f0: 6330 03bc 649b 88bc 3cc5 eabb a342 78bb

bias f4 [8]
0.03058681 -0.014670311 0.13587223 -0.03908733 -0.052661568 0.0035772854 0.054339122 0.055438235
00000000: 3191 fa3c be5b 70bc 1722 0b3e 091a 20bd
00000010: a8b3 57bd e470 6a3b b392 5e3d 3413 633d
