deploy/models/booster_gym_exp_knee/model_2000.pt (torch, 296190 bytes, 8 tensors)

weight f4 [256, 80]
0	0xbf2e4219	-0.68069607
1	0x3f98daa0	1.1941719
2	0xbd35e5d1	-0.044408623
3	0xbdf9406e	-0.12170492
4	0xbe86e46c	-0.26346147
5	0xbdbc94d9	-0.09208078
6	0x3de0a8a2	0.10969664
7	0x3db0f171	0.08639801
8	0xbd85eb55	-0.06539027
9	0x3ddc125e	0.10745691
10	0x3ce1f7b1	0.027583929
11	0x3d4858ef	0.04891294
12	0xbd223e66	-0.03961029
13	0x3d26ac97	0.04069194
14	0xbdfdb95d	-0.12388871
15	0xbc27efe0	-0.010250062
16	0xbd973ebf	-0.07385015
17	0x3d66b535	0.056325156
18	0x3bce62a7	0.0062983814
19	0x3d4f7306	0.050646804
20	0x3d6aa71f	0.057288285
21	0xbf836fda	-1.0268509
22	0xbe45e265	-0.19324644
23	0xbe3411b7	-0.17584883
24	0x3d33c11f	0.043885347
25	0x3cbbc0f6	0.02291916
26	0xbda38605	-0.079845466
27	0xbf880bda	-1.0628617
28	0xbec953db	-0.3932179
29	0xbe3bd280	-0.18342018
30	0xbf24a10c	-0.6430824
31	0xbdbca983	-0.09212019
32	0xbe9ccec4	-0.306265
33	0xbe0aac4b	-0.13542287
34	0x3e05de09	0.13072981
35	0x3e9d7387	0.30752203
36	0x3e43b636	0.19112477
37	0x3d9bd372	0.07608689
38	0x3dc65b67	0.09685402
39	0xbecb4708	-0.3970263
40	0xbbe0426b	-0.006843855
41	0xbdb6f9ad	-0.089343406
42	0x3d2c32a5	0.042040486
43	0xbf0d7888	-0.5526204
44	0xbf766479	-0.9624706
45	0xbf21f3d1	-0.6326266
46	0xbe8613e6	-0.26187056
47	0x3e2d3656	0.16915259
48	0x3ed86d24	0.42270768
49	0xbd135889	-0.035973106
50	0x3c6f851d	0.014619139
51	0xbf11e8ee	-0.5699605
52	0x3ea94666	0.33061522
53	0x3df43b90	0.11925423
54	0xbe9d2cef	-0.30698344
55	0x3e1cfc29	0.15330566
56	0x3e3d22ce	0.18470308
57	0xbda6639c	-0.08124468
58	0xbe7316b9	-0.23739137
59	0xbd118cdb	-0.03553472
60	0xbdf2b353	-0.1185061
61	0xbe303ea7	-0.172114
62	0xbdcff52c	-0.10154185
63	0xbb6e37ba	-0.0036349134
64	0x3b631c04	0.003465415
65	0xbd6f3944	-0.058404222
66	0x3e531682	0.20614055
67	0xbf5abeee	-0.85447586
68	0xbf1e254f	-0.6177568
69	0xbe6788da	-0.22610798
70	0x3ee22936	0.44172066
71	0x3d9a9240	0.07547426
72	0xbde90185	-0.11377243
73	0xbe70f3ac	-0.23530453
74	0xbf1e44be	-0.6182364
75	0xbe5f9322	-0.2183347
76	0xbc8ce1ff	-0.017197607
77	0xbd5daad9	-0.05411801
78	0xbe237644	-0.15963084
79	0x3e14ffc9	0.145507
80	0xbf396b4e	-0.7242936
81	0xbe809300	-0.25112152
82	0xbd9f48a3	-0.07777526
83	0xbd3e80bf	-0.0465095
84	0x3d6a6f3f	0.057235
85	0x3bb793b2	0.0056023235
86	0xbd6b5d77	-0.057462182
87	0xbd9b6d32	-0.07589187
88	0x3d5626c8	0.05228308
89	0xbd2ae672	-0.041723676
90	0xbdc4dd61	-0.09612537
91	0xbc3832fd	-0.011242625
92	0x3dc3a083	0.095520996
93	0xbcd47c0a	-0.025938053
94	0x3cc1ae81	0.02364278
95	0xbbf25b79	-0.0073961583
96	0xbe0005a1	-0.12502147
97	0x3d909512	0.07059683
98	0x3d742cc5	0.059613008
99	0x3c16442c	0.009171527
100	0x3c53ca7a	0.012926692
101	0xbf8f40e1	-1.1191674
102	0x3ebcc3af	0.36868045
103	0xbd72ce93	-0.059279036
104	0xbfb84da5	-1.4398695
105	0x3de96b07	0.11397367
106	0xbdf58f86	-0.119902655
107	0xbe78aafc	-0.24283975
108	0x3e191175	0.14948066
109	0xbee38783	-0.44439325
110	0xbdf0f62f	-0.11765706
111	0xbd3506a6	-0.044195794
112	0xbea4062d	-0.32035962
113	0x3d74f3a0	0.05980265
114	0x3dcbf6fc	0.09959218
115	0xbec28804	-0.37994397
116	0x3db49caf	0.088189475
117	0xbd866918	-0.06563014
118	0x3d34e785	0.044166107
119	0xbe0f304c	-0.13983268
120	0xbcdebd67	-0.027189923
121	0x3e0b5789	0.13607611
122	0x3cf74c4f	0.030187754
123	0x3ef3ca91	0.47615483
124	0xbe87a67b	-0.26494202
125	0xbeae26cb	-0.34013972
126	0xbe84f785	-0.25970092
127	0xbe7922a6	-0.24329624
128	0x3e6a2dd1	0.2286904
129	0xbc8711fc	-0.016488068
130	0x3c5ca4d8	0.013467036
131	0xbe0497a6	-0.12948474
132	0x3f538f92	0.82640946
133	0xbdf6d3e7	-0.12052136
134	0x3dd5b1fe	0.1043434
135	0xbd6685bd	-0.056279887
136	0x3d3eb0ab	0.046555202
137	0xbce8c218	-0.028412864
138	0xbbf0d9c4	-0.0073501784
139	0x3cc5d0d1	0.024147423
140	0x3ca9755e	0.020685848
141	0xbc993c9a	-0.018705655
142	0x3ca31ad0	0.019910246
143	0xbddc9d9c	-0.10772249
144	0xbd92477c	-0.07142541
145	0xbd2f6097	-0.042816725
146	0x3dee55be	0.11637448
147	0xbdee2a1c	-0.116291255
148	0xbe930d38	-0.28721023
149	0xbcc95e46	-0.024581086
150	0xbb99ec8b	-0.0046973876
151	0x3e880945	0.26569572
152	0xbd129219	-0.03578386
153	0xbe473cfb	-0.19456856
154	0xbe887734	-0.26653445
155	0x3e0f5e89	0.14000906
156	0x3e435340	0.19074726
157	0x3d7bbddb	0.061460357
158	0x3d6f286b	0.058388155
159	0xbea4b0a5	-0.3216602
160	0x3e125d69	0.14293446
161	0xbe83a59d	-0.2571229
162	0xbb866428	-0.004101295
163	0x3d89ec1c	0.067344874
164	0x3d855555	0.065104164
165	0xbbbdc2d6	-0.0057910485
166	0xbd1d3f55	-0.038390476
167	0xbceb3659	-0.028712438
168	0x3ce5e4a3	0.028063124
169	0x3dd590e2	0.10428025
170	0xbc2ffaca	-0.010740945
171	0x3cd993ac	0.026559673
172	0x3cb953ee	0.022623029
173	0x3d3b5d74	0.04574342
174	0x3d1a7eda	0.03771863
175	0xbd84653b	-0.06464621
176	0x3d3949fe	0.04523658
177	0xbe26e4dd	-0.16298242
178	0x3dcad025	0.09902982
179	0x3c383cf6	0.011245003
180	0x3d85f431	0.065407164
181	0xbf38ada2	-0.7213994
182	0xbe8b9f5e	-0.27270025
183	0x3db93aa8	0.09044391
184	0xbf8d3736	-1.1032474
185	0x3dd68e7e	0.10476397
186	0x3e6f5c69	0.23375095
187	0xbd77c03d	-0.060486067
188	0xbf195fe2	-0.5991193
189	0xbe9cf7fe	-0.30657953
190	0x3d2e4ac5	0.042551775
191	0xbdca8cd8	-0.09890145
192	0x3e25e038	0.16198814
193	0x3e21df06	0.15807733
194	0xbdaa420f	-0.08313381
195	0x3e2d8b29	0.16947617
196	0xbdec6407	-0.11542516
197	0x3e910c1d	0.28329554
198	0xbcc920e9	-0.024551826
199	0xbe9f566d	-0.31120625
200	0xbe18307f	-0.1486225
201	0xbd8d103d	-0.06887863
202	0xbbca2d9c	-0.006169988
203	0x3dcb6fae	0.099334106
204	0xbe83fa72	-0.25777012
205	0x3f195ab6	0.5990404
206	0x3ea7513c	0.32679164
207	0xbda40ffd	-0.08010862
208	0x3e8244cf	0.25443122
209	0xbc99f0ae	-0.018791523
210	0xbd4499a6	-0.047998093
211	0xbe807b7f	-0.2509422
212	0x3ddd14ca	0.10794981
213	0xbdb9207b	-0.09039398
214	0xbe0be64d	-0.13662072
215	0x3e135e7b	0.1439151
216	0xbd3d6908	-0.046242744
217	0xbe41fee8	-0.18944895
218	0x3c80d956	0.015728634
219	0x3e00c813	0.12576322
220	0xbe02398d	-0.12717266
221	0x3c862f35	0.016379932
222	0xbdb6c31e	-0.089239344
223	0x3d814828	0.06312591
224	0xbb82e7c9	-0.003994916
225	0x3dbf4461	0.09339214
226	0x3d11397c	0.035455212
227	0x3da7588d	0.081711866
228	0x3f154f1f	0.58323854
229	0x3dfadb54	0.12248865
230	0x3e1da345	0.15394314
231	0x3d45f66b	0.048330706
232	0xbc743a4c	-0.014906477
233	0xbdaaf759	-0.08347959
234	0x3ea70657	0.32622024
235	0x3e0562e3	0.13026004
236	0x3e4ff493	0.20308141
237	0xbe06ce28	-0.1316458
238	0xbe05019b	-0.12988894
239	0x3bee4e11	0.00727249
240	0x3df47bb2	0.119376555
241	0x3f177aba	0.5917164
242	0x3dd4ef18	0.10397166
243	0x3df986d3	0.12183919
244	0xbbd79153	-0.0065786033
245	0x3d5b388d	0.053520728
246	0xbd8bf06c	-0.06832966
247	0x3dddd173	0.10830965
248	0xbd928caf	-0.071557395
249	0x3d0c9a47	0.034326818
250	0x3dd64ce1	0.10463882
251	0xbd8da13a	-0.06915517
252	0xbd49514c	-0.049149796
253	0x3d2879f8	0.041131943
254	0x3e88bee2	0.26708132
255	0xbd3310b4	-0.0437171

bias f4 [256]
0	0xbe05035b	-0.12989561
1	0xbc582bca	-0.013194034
2	0x3cf62685	0.030047664
3	0x3da8b220	0.082371
4	0x3dce3286	0.1006823
5	0xbc7d7ad5	-0.01547118
6	0xbd14f5ad	-0.036367107
7	0xbde34bbf	-0.11098432
8	0xbcfa73f5	-0.03057287
9	0x3c121a00	0.008917332
10	0xbba5eac1	-0.0050633852
11	0xbdb5f45d	-0.08884499
12	0x3e2dcdc0	0.16973019
13	0xbd2bf04d	-0.041977216
14	0xbdcf6484	-0.10126594
15	0xbdb58a5a	-0.08864279
16	0xbd8bf8e2	-0.0683458
17	0x3db60b08	0.08888823
18	0x3e21a211	0.1578448
19	0xbe080bb9	-0.13285722
20	0x3bfefb1f	0.007781401
21	0x3b000e13	0.001953964
22	0x3d835ad3	0.06413808
23	0xbdd4242f	-0.10358464
24	0xbd4728c3	-0.048622858
25	0x3cb83f46	0.022491109
26	0x3e307cae	0.17235062
27	0x3d0d67ae	0.034522705
28	0x3e2f1759	0.1709875
29	0xbcf90f6c	-0.030402862
30	0xbc5ed165	-0.013599728
31	0xbddd3462	-0.10801007
32	0x3dafed79	0.08590216
33	0x3cc46ce1	0.023977699
34	0x3d80ab6f	0.06282698
35	0xbdd35bf4	-0.10320273
36	0xbd978f70	-0.074004054
37	0xbd2a1904	-0.041527763
38	0xbd93f582	-0.07224561
39	0x3e01b514	0.12666732
40	0x3de40885	0.111344375
41	0xbe09bf50	-0.13451886
42	0x3d6eff91	0.058349196
43	0x3c7e8bf0	0.015536293
44	0x3d5347bd	0.051582087
45	0xbbb6a011	-0.0055732806
46	0x3e78b754	0.24288684
47	0x3daae259	0.08343954
48	0x3c6d75a8	0.0144933835
49	0xbd9dbea2	-0.07702376
50	0x3dbdcb67	0.092673115
51	0xbe2a5db4	-0.16637307
52	0xbd02c2e8	-0.03192416
53	0xbd02ecae	-0.031963997
54	0x3d4916a3	0.049093854
55	0xbd1b6fad	-0.0379483
56	0xbc018a55	-0.007906516
57	0xbcffa885	-0.031208286
58	0xbd47e4ec	-0.0488023
59	0x3b27f689	0.0025629124
60	0x3db93696	0.090436146
61	0xbd18aafb	-0.037272435
62	0x3d1ccf5a	0.038283683
63	0x3e10301a	0.1408085
64	0xbe42ee1a	-0.19036141
65	0x3d230c13	0.039806437
66	0x3d3f1e03	0.04665948
67	0xbe203397	-0.1564468
68	0x3d9379ec	0.07200989
69	0xbcb86341	-0.022508265
70	0xbdc9e799	-0.09858627
71	0x3ce13f81	0.027496101
72	0xbd3ea9cc	-0.04654865
73	0x3dec856a	0.11548884
74	0x3dfffcbd	0.12499378
75	0xb9b22dcd	-0.0003398493
76	0xbdb2ecda	-0.08736582
77	0x3b2fa2d1	0.0026799927
78	0xbd0fca9f	-0.035105344
79	0x3c2a2a7c	0.010386106
80	0xbd320878	-0.043465108
81	0x3deb4212	0.11487211
82	0xbe12205a	-0.14270154
83	0x3c660132	0.014038371
84	0x3d90ea0f	0.07075893
85	0xbd95c998	-0.073138416
86	0xbe461244	-0.19342905
87	0xbdbbaf1d	-0.091642596
88	0x3daed7a0	0.08537221
89	0xbdbae0a1	-0.09124876
90	0x3db76733	0.089552306
91	0xbdbd0102	-0.09228708
92	0xbb129ff9	-0.0022373183
93	0x3da3b529	0.07993538
94	0xbd8045c0	-0.06263304
95	0xbd2419f9	-0.040063832
96	0xbd3cd210	-0.04609877
97	0xbc7498e0	-0.014929026
98	0x3dc62e72	0.096768275
99	0x3b0ce118	0.002149647
100	0x3dc25741	0.094892986
101	0x3def4330	0.11682737
102	0xbded9279	-0.11600203
103	0xbcf099df	-0.029370246
104	0x3e2c3ae8	0.16819346
105	0xbdfd095b	-0.123553
106	0x3c34a321	0.011025221
107	0xbe0c2321	-0.13685276
108	0x3c0ae3b5	0.008477141
109	0xbd0e9428	-0.03480926
110	0x3d8ffd5d	0.07030747
111	0x3caa095c	0.020756416
112	0x3dbee115	0.09320275
113	0x3dd5db96	0.10442273
114	0xbda26c10	-0.079307675
115	0x3de4be83	0.1116915
116	0xbd658f3b	-0.0560448
117	0xbba52e1a	-0.005040896
118	0xbd34a857	-0.044105854
119	0xbe2bdeb6	-0.16784176
120	0x3c1096a9	0.008824983
121	0x3ca62017	0.020278974
122	0xbce13de5	-0.027495334
123	0x3d33f464	0.04393424
124	0xbd4a37f1	-0.049369756
125	0xbdd0eb1d	-0.10201094
126	0xbdce5380	-0.1007452
127	0x3d406004	0.046966568
128	0xbd0f685c	-0.035011634
129	0xbc1aa57c	-0.009438869
130	0x3d9d969e	0.076947436
131	0x3c19dcf2	0.009391056
132	0xbdbb4592	-0.09144129
133	0xbe28e108	-0.16492093
134	0x3b707af8	0.003669439
135	0x3e061d5a	0.13097134
136	0x3e294d55	0.16533406
137	0x3e461763	0.19344859
138	0xbd5406df	-0.051764365
139	0xbdd00d4c	-0.10158786
140	0x3cfc52c9	0.030801194
141	0x3ccdfda1	0.025145354
142	0x3d6724cf	0.056431588
143	0xbd88f4e1	-0.06687332
144	0xbe047b6f	-0.12937711
145	0xbe1b1631	-0.15145184
146	0xbdcd1af5	-0.10014907
147	0xbd2ca55c	-0.042149886
148	0x3d405f64	0.04696597
149	0xbc915911	-0.017742665
150	0x3d42c3e4	0.047550097
151	0x3e0ac8b6	0.13553128
152	0xbd33254d	-0.043736745
153	0xbe47b015	-0.19500764
154	0x3d004049	0.031311307
155	0x3d430100	0.047608376
156	0x3d3402fd	0.043948162
157	0x3ca13d65	0.019682596
158	0xbe2e0251	-0.16993071
159	0x3db9387e	0.09043978
160	0xbc990aea	-0.018681962
161	0xbcb633c0	-0.022241473
162	0x3e02f703	0.1278954
163	0x3de56d02	0.11202432
164	0x3d733b83	0.059382927
165	0x3d97ec95	0.07418171
166	0xbd451ed8	-0.048125118
167	0xbd591a19	-0.053003404
168	0x3da8007d	0.08203218
169	0xbda13f6c	-0.07873425
170	0x3c536d1d	0.012904433
171	0x3d882439	0.06647534
172	0xbd8befc0	-0.06832838
173	0xbd1b2d0a	-0.03788475
174	0x3db280d1	0.08715976
175	0x3d8b5442	0.0680318
176	0xbe35bee5	-0.17748602
177	0xbd0af0d3	-0.033921074
178	0x3c3d4bca	0.011553714
179	0x3d0e8353	0.03479321
180	0xbd0bfe91	-0.03417832
181	0xbd91321d	-0.070896365
182	0xbd8a4866	-0.0675209
183	0x3d270dba	0.040784575
184	0x3d8b3d78	0.067988336
185	0x3cc92700	0.02455473
186	0xbd843513	-0.064554356
187	0xbc9fb22c	-0.019494139
188	0x3dfac5e3	0.12244775
189	0xbe291adb	-0.16514151
190	0xbe398240	-0.18116093
191	0xbd961c06	-0.07329564
192	0x3e05a48d	0.13051052
193	0x3bf0df2f	0.0073508243
194	0xbe154873	-0.14578418
195	0xbd32b7a9	-0.043632183
196	0xbd29a252	-0.041414566
197	0x3d55f73a	0.052237727
198	0x3e047d6f	0.12938474
199	0xbe0b60f3	-0.13611202
200	0xbd71c6d1	-0.059027497
201	0x3d75b02d	0.059982467
202	0xbd42fe55	-0.04760583
203	0x3cea5662	0.028605644
204	0x3cec096e	0.02881309
205	0x3d255e96	0.040373407
206	0x3bf51f78	0.007480558
207	0xbca678f4	-0.020321347
208	0x3d7db368	0.061938673
209	0x3d87c77f	0.06629848
210	0xbd34289c	-0.04398404
211	0xbd5d89cb	-0.054086488
212	0xbdafde60	-0.085873365
213	0xbd99c891	-0.07508958
214	0xbd5831b1	-0.052781764
215	0x3c61a0fc	0.013771292
216	0x3d9d3334	0.07675782
217	0xbd977c6d	-0.07396779
218	0xbcdf8605	-0.027285585
219	0x3dc09eed	0.09405313
220	0x3d219af6	0.039454423
221	0xbdec6817	-0.11543291
222	0x3ddc537f	0.10758113
223	0x3dc0e681	0.09418965
224	0xbd1b09ec	-0.03785126
225	0xbdbe4fd3	-0.09292569
226	0xbb68e0c3	-0.003553436
227	0xbe29ff2b	-0.16601245
228	0xbdaee316	-0.08539407
229	0x3e1308b8	0.14358795
230	0x3dadd9f7	0.08488839
231	0x3db8168a	0.08988674
232	0xbdaf6c7b	-0.08565613
233	0xbc1fabd0	-0.009745553
234	0xbe146b31	-0.14494015
235	0xbd9780fd	-0.073976494
236	0x3d594cca	0.053051747
237	0xbdf5e1da	-0.120059684
238	0x3d7af043	0.061264288
239	0x3d056a2d	0.03257196
240	0xbd99908a	-0.07498272
241	0xbe155782	-0.14584163
242	0xbd11f7bb	-0.035636645
243	0xbc6ffb92	-0.014647381
244	0xbd0d9f78	-0.03457591
245	0x3cd9b270	0.026574343
246	0xbe008ea0	-0.12554407
247	0xbc93700d	-0.017997766
248	0xbddfbc0d	-0.1092454
249	0xbdcd9e83	-0.10039999
250	0x3daeb567	0.085306935
251	0x3ce19367	0.027536107
252	0xbdbcb127	-0.09213477
253	0xbd3625c7	-0.04446962
254	0xbd589906	-0.05288031
255	0x3adde58d	0.0016929373

weight f4 [128, 256]
0	0x3e53114b	0.20612065
1	0x3e1641c8	0.14673531
2	0x3d4b6b07	0.049662616
3	0x3e6b5c53	0.22984438
4	0x3e29b1e7	0.1657177
5	0x3e99cc42	0.3003865
6	0x3e32894d	0.17435189
7	0x3eccdc92	0.40012032
8	0x3d8159ca	0.06315954
9	0xbd9ac2fb	-0.07556721
10	0xbe295069	-0.1653458
11	0xbb5e8a92	-0.0033957106
12	0x3d1a06f3	0.037604284
13	0xbe90eed6	-0.28307217
14	0x3d8cbdea	0.06872161
15	0x3d865bb2	0.06560458
16	0xbe6551a2	-0.22394422
17	0x3ef9571a	0.48699266
18	0x3e06f45a	0.1317915
19	0xbc3eef0f	-0.011653676
20	0x3e3b3a6a	0.18284002
21	0xbda3cdd5	-0.07998244
22	0xbe948b82	-0.29012686
23	0x3e1fe643	0.15615182
24	0x3eb475e9	0.35246208
25	0x3e644910	0.22293496
26	0xbdc12be8	-0.094322026
27	0x3e7bc870	0.2458818
28	0x3e03114b	0.12799565
29	0xbc27a316	-0.010231754
30	0x3d3d221b	0.046175104
31	0xbda3c1cd	-0.07995949
32	0x3daf6889	0.085648604
33	0xbd4c7517	-0.049916353
34	0x3e3888a4	0.18020874
35	0xbdecda3c	-0.115650624
36	0x3cbf999b	0.023388674
37	0x3eb45250	0.3521905
38	0x3e72458f	0.23659347
39	0xbe352d47	-0.17693053
40	0x3e3b70fc	0.18304819
41	0x3d9f4a2c	0.07777819
42	0xbe848b1d	-0.25887385
43	0x3e00a756	0.12563834
44	0xbdce3c6e	-0.1007012
45	0x3cf4bb77	0.029874546
46	0xbe8178e8	-0.25287557
47	0x3dbc6cec	0.09200463
48	0xbcea5f57	-0.028609915
49	0xbe6f1b62	-0.2335029
50	0xbe0a75dc	-0.13521522
51	0x3e862a67	0.26204225
52	0x3e9b6644	0.3035146
53	0xbd95b6b7	-0.07310241
54	0xbe0da941	-0.13834096
55	0x3c695ef1	0.014243827
56	0x3d9b93ed	0.07596574
57	0x3e7a83c1	0.24464323
58	0x3e16c4fd	0.14723583
59	0xbe58393a	-0.2111558
60	0xbd6ddf1c	-0.0580741
61	0xbcadaf51	-0.021201761
62	0x3bb94a5d	0.0056546167
63	0xbc3a3a77	-0.011366478
64	0x3e9e85aa	0.30961353
65	0x3e878d36	0.26474923
66	0x3e8f79ab	0.28022513
67	0x3eac273d	0.33623686
68	0x3e80d71a	0.2516411
69	0x3e4aa884	0.19790846
70	0x3d28f5aa	0.04124991
71	0x3e6e59a6	0.23276386
72	0x3eb8ecbf	0.36118123
73	0x3e36d793	0.17855673
74	0xbded596f	-0.11589324
75	0xbc09b926	-0.008405959
76	0x3e36e2ef	0.17860006
77	0x3e50c850	0.20388913
78	0xbeb9da66	-0.36299437
79	0xbd8636c5	-0.06553415
80	0x3cd7cff0	0.02634427
81	0x3e27ac42	0.16374305
82	0xbe8f899b	-0.28034672
83	0x3dfa2190	0.12213433
84	0x3c363542	0.011121096
85	0x3e9e210d	0.3088459
86	0x3e10351b	0.14082758
87	0x3e960596	0.29301137
88	0x3e58d580	0.21175194
89	0xbde304cf	-0.110849015
90	0xbe91c0a3	-0.28467283
91	0x3e585655	0.21126683
92	0xbd7d5b52	-0.061854668
93	0x3e5b720d	0.21430226
94	0xbd0cf5bf	-0.03441405
95	0x3e19f093	0.15033178
96	0x3e71a89a	0.23599473
97	0xbd22f5b3	-0.0397851
98	0xbda08ba8	-0.07839137
99	0x3ea6f749	0.3261054
100	0xbdae4fc2	-0.08511306
101	0xbd906d7e	-0.07052134
102	0xbc2cb0a2	-0.010540159
103	0x3e00d291	0.12580325
104	0xbcad7abc	-0.021176688
105	0xbcebf47f	-0.028803108
106	0xbe3779fb	-0.17917626
107	0xbd6db2f8	-0.058032006
108	0x3e46a0c6	0.19397268
109	0x3d4ed03d	0.05049156
110	0xbeabc079	-0.33545282
111	0x3eb9407b	0.36182007
112	0x3d053c92	0.032528467
113	0xbe7c5536	-0.2464188
114	0xbddec98d	-0.108782865
115	0xbc24e344	-0.01006395
116	0x3dde0166	0.108401105
117	0x3e413235	0.18866809
118	0x3d772689	0.060339484
119	0x3deeca6e	0.11659704
120	0xbdc82f07	-0.09774595
121	0xbe71a538	-0.23598182
122	0x3e1bd393	0.15217428
123	0x3deb3f41	0.11486674
124	0xbb0331d7	-0.002001872
125	0xbe15e65b	-0.14638655
126	0x3c64ede2	0.013972731
127	0x3daa0559	0.08301801
128	0x3edda6ca	0.43291312
129	0xbe7ec9c4	-0.24881655
130	0x3e3bba39	0.18332757
131	0xbe43ec4e	-0.19133112
132	0xbe6dd36a	-0.2322518
133	0x3e26e1e6	0.16297111
134	0xbd5f28c9	-0.054482255
135	0xbe92388d	-0.2855877
136	0xbdcecd5c	-0.10097763
137	0xbdbd8f1c	-0.092558116
138	0x3bf684c2	0.00752315
139	0xbe122838	-0.14273155
140	0xbdaef084	-0.085419685
141	0x3e652876	0.22378716
142	0x3a49b45a	0.0007694416
143	0xbe2b1880	-0.16708565
144	0xbe1704a2	-0.14747861
145	0x3cf80e19	0.03028016
146	0x3dd94b47	0.10610061
147	0x3e3fe963	0.18741374
148	0xbd661e40	-0.056181192
149	0xbe06decd	-0.13170929
150	0x3dccd333	0.100012206
151	0x3caf3c50	0.021391064
152	0xbdda13a3	-0.10648277
153	0x3e1fc795	0.15603478
154	0x3f1cfaa6	0.6131996
155	0x3d97d6a4	0.07413986
156	0x3e139424	0.1441198
157	0xbe8d27a2	-0.275693
158	0x3db570d5	0.088594116
159	0xbd00c3a2	-0.03143657
160	0xbdb02a23	-0.08601787
161	0xbe2b4217	-0.1672443
162	0xbe65f56d	-0.22456904
163	0xbe119be7	-0.14219628
164	0x3e8f9dd5	0.28050104
165	0xbe4b4288	-0.19849598
166	0x3e79615c	0.24353546
167	0x3e6bd874	0.23031789
168	0xbd4ed657	-0.05049738
169	0x3e367245	0.17817028
170	0xbe0439e4	-0.12912709
171	0xbe14546d	-0.14485331
172	0xbdd2f1e7	-0.103000455
173	0x3d4e572f	0.050376114
174	0xbcdaa3f4	-0.026689507
175	0x3dce26d2	0.10065998
176	0x3ebc9b4b	0.3683723
177	0xbe12c12e	-0.14331505
178	0x3db1f00a	0.08688362
179	0xbe947282	-0.28993613
180	0x3d69a0a2	0.057037957
181	0xbdef9284	-0.116978675
182	0x3dc6104c	0.09671077
183	0xbe4ecf42	-0.2019625
184	0x3ea28bea	0.3174737
185	0xbea2c8b8	-0.3179376
186	0x3d542f5a	0.05180297
187	0x3dad91d0	0.08475077
188	0x3aac3704	0.0013138955
189	0x3ea8331f	0.32851502
190	0x3ebe9178	0.3722036
191	0x3ec80e07	0.39073202
192	0x3e2b5bf2	0.16734293
193	0x3ddf4048	0.109009326
194	0xbe4ac31d	-0.19800992
195	0x3d25e756	0.040503822
196	0x3ead63f9	0.33865336
197	0x3e0e2e66	0.13884887
198	0x3e0edab9	0.13950624
199	0x3cdbfd11	0.02685407
200	0xbec3b75c	-0.3822583
201	0xbe338abf	-0.17533396
202	0x3e694674	0.22780782
203	0x3e079297	0.13239513
204	0x3eb9f2a0	0.3631792
205	0xbe1171d2	-0.14203575
206	0x3d6e18bc	0.058129057
207	0x3e0d1ecd	0.13781281
208	0xbe8727ff	-0.26397702
209	0x3e81c147	0.2534277
210	0x3d843fd3	0.06457486
211	0xbcf5733b	-0.029962173
212	0xbd22c3c0	-0.039737463
213	0x3eeed155	0.46644083
214	0x3e9d4a1a	0.30720598
215	0x3e4d3d91	0.20043017
216	0xbe0cb478	-0.13740718
217	0xbe846728	-0.25859952
218	0xbd2b6018	-0.04183969
219	0xbe069b75	-0.1314524
220	0x3c8b4e59	0.017005133
221	0xbeea9780	-0.4581871
222	0xbf317e01	-0.6933289
223	0xbc4636f3	-0.012098062
224	0xbe3b860a	-0.1831285
225	0xbd2edd1b	-0.04269133
226	0x3e01538f	0.12629531
227	0x3f09c7fe	0.5382079
228	0x3d9382f6	0.07202713
229	0xbe9ee56a	-0.31034404
230	0x3de56dd2	0.11202587
231	0x3e849ec7	0.25902387
232	0x3ec00f36	0.37511605
233	0x3deae35b	0.11469146
234	0x3ec5a811	0.38604787
235	0x3db414e1	0.08793045
236	0xbd49f033	-0.049301337
237	0x3e3eeeb1	0.18645741
238	0x3e06e437	0.13172995
239	0xbe41d81b	-0.18930094
240	0xbced307b	-0.028953781
241	0x3d953999	0.072863765
242	0xbd00c336	-0.031436168
243	0x3e74ebb2	0.23918036
244	0xbd916ad9	-0.07100458
245	0x3d0934c3	0.033497583
246	0xbd9740d1	-0.073854096
247	0xbd88cc93	-0.066796444
248	0xbe06a2f5	-0.131481
249	0x3db13a5e	0.08653711
250	0xbd1938ab	-0.03740756
251	0x3e9c7b8a	0.30563003
252	0x3da6f8db	0.08152934
253	0x3dcbf4dd	0.09958813
254	0x3e89d5bf	0.26920888
255	0x3df693fe	0.12039946

bias f4 [128]
0	0xbe60bd9f	-0.21947335
1	0xbc05f40b	-0.00817586
2	0xbec87c4b	-0.39157328
3	0x3bd34881	0.006447852
4	0x3cb0e847	0.021595133
5	0xbd91296a	-0.07087977
6	0xbd113b22	-0.035456784
7	0xbb8099f5	-0.003924603
8	0xbdbf3fef	-0.09338366
9	0xbc9336f3	-0.017970538
10	0xbd3a1060	-0.045425773
11	0xbd807998	-0.06273192
12	0xbe69e983	-0.22842984
13	0xbcfe5e54	-0.031050839
14	0xbdb2e7a0	-0.08735585
15	0xbd58d634	-0.052938655
16	0xbdafea4a	-0.08589609
17	0x3d34b74c	0.044120118
18	0xbde9622f	-0.1139568
19	0xbd169265	-0.036760706
20	0xbd71b1fe	-0.059007637
21	0xbcc8e32b	-0.024522385
22	0xbdf911dc	-0.121616095
23	0xbe07c84c	-0.13260001
24	0xbda68d36	-0.081324026
25	0xbcb93c9b	-0.022611907
26	0xbdfc78ec	-0.123277515
27	0xbd3293f4	-0.04359813
28	0xbe3ac3fc	-0.18238825
29	0xbde2363d	-0.110455014
30	0xbd4f5cc0	-0.050625563
31	0xbccb8f6e	-0.024848666
32	0xbcdb07e5	-0.026737163
33	0xbdd10383	-0.10205748
34	0xbd474439	-0.048649047
35	0xbd98edd9	-0.07467241
36	0xbd26face	-0.04076653
37	0xbdb68321	-0.089117296
38	0x3ccdeea9	0.025138216
39	0xbd3e1a12	-0.04641158
40	0xbe8334c3	-0.25626191
41	0xbcfd398f	-0.030911235
42	0xbe87d6a9	-0.2653096
43	0xbdba2721	-0.090894945
44	0xbc9a9153	-0.018868124
45	0xbe42d6cf	-0.19027255
46	0xbd434484	-0.047672763
47	0xbc9c3820	-0.019069731
48	0xbbb21107	-0.0054341587
49	0x3d01f2ad	0.031725574
50	0xbd971b1f	-0.0737822
51	0xbe0e460b	-0.13893907
52	0xbdb15495	-0.08658711
53	0xbe19e57e	-0.1502895
54	0xbd1146b7	-0.03546783
55	0xbe08bfca	-0.13354412
56	0xbc9497fc	-0.018138878
57	0xbd49b0a1	-0.049240712
58	0xbdbefc13	-0.09325423
59	0x3ba35341	0.00498429
60	0xbd5f2547	-0.05447891
61	0xbd0925b7	-0.033483233
62	0xbd983660	-0.07432246
63	0xbe48f218	-0.19623601
64	0xbdf4ccee	-0.1195315
65	0xbd36da8f	-0.044642027
66	0xbd205d29	-0.039151344
67	0xbd1a4d2c	-0.037671253
68	0xbd4a3564	-0.049367324
69	0xbd876d9e	-0.06612705
70	0xbcbe316c	-0.023216926
71	0xbb88c555	-0.0041739144
72	0xbdbdd47a	-0.09269042
73	0x3c0f42c4	0.0087439455
74	0xbd8e7e89	-0.069577284
75	0xbdd308e6	-0.103044316
76	0x3c5763df	0.01314637
77	0xbd40dae7	-0.04708376
78	0xbce6dbbb	-0.028180948
79	0xbcb2af6a	-0.02181216
80	0xbcaa4d56	-0.02078883
81	0xbdc28741	-0.09498454
82	0xbd853aed	-0.0650538
83	0xbde01900	-0.10942268
84	0xbd85c611	-0.06531919
85	0xbd96fa1b	-0.073719226
86	0xbd39cdb4	-0.04536219
87	0xbd75c882	-0.060005672
88	0xbd3284da	-0.04358373
89	0xbd92be79	-0.07165236
90	0xba8843ea	-0.0010396217
91	0xbd26573a	-0.04061053
92	0xbc5363f9	-0.012902253
93	0xbd4447cb	-0.04792003
94	0xbd60c36b	-0.054873865
95	0xbccb33cf	-0.024804978
96	0xbd59d4f6	-0.05318161
97	0xbd2d261f	-0.042272683
98	0xbe055c4d	-0.13023491
99	0xbe072543	-0.13197808
100	0xbc17631f	-0.009239941
101	0xbda2cb51	-0.07948936
102	0xbd13857b	-0.03601597
103	0x3d216514	0.039403036
104	0xbdd4788e	-0.103745565
105	0xbe22cbd1	-0.15898062
106	0xbd88519a	-0.06656189
107	0xbd6b5879	-0.05745742
108	0xbdd8ba3f	-0.105823986
109	0xbdbd4d25	-0.0924323
110	0xbcb733ac	-0.022363506
111	0xbe5fb329	-0.21845688
112	0xbb8dd27e	-0.004328071
113	0xbd48156e	-0.048848562
114	0xbe191329	-0.14948715
115	0x3da0dea6	0.07854967
116	0xbda5385e	-0.08067392
117	0xbe9699a6	-0.294141
118	0xbd7257a8	-0.059165627
119	0xbe419e30	-0.18908
120	0xbd3b7ab3	-0.045771312
121	0xbdcc415c	-0.09973404
122	0xbe37c1d6	-0.17945036
123	0x3d6c3020	0.057663083
124	0xbd7a70c0	-0.061142683
125	0xbc7bae04	-0.015361313
126	0xbe10daa7	-0.14145909
127	0x3bf5c838	0.0075006746

weight f4 [128, 128]
0	0xbcf48756	-0.02984969
1	0xbc2414c7	-0.010014719
2	0x3dbd84c0	0.09253836
3	0x3d41870f	0.047247943
4	0xbcae8d0a	-0.021307487
5	0xbd024b92	-0.03181035
6	0xbdb7a0f5	-0.08966247
7	0xbd2af030	-0.041732967
8	0x3c978dfe	0.018500324
9	0x3d5136ea	0.05107776
10	0xbbbfd3eb	-0.00585412
11	0x3d49fab0	0.04931134
12	0x3c358604	0.011079315
13	0x3bd79c24	0.0065798927
14	0xbce86c05	-0.02837182
15	0xbd438611	-0.047735278
16	0xbc31775f	-0.010831683
17	0x3bf85239	0.007578161
18	0x3d81c2b1	0.063359626
19	0x3d780997	0.06055602
20	0x3c18ca65	0.009325598
21	0x3ca3b39c	0.019983105
22	0x3dc0c270	0.09412086
23	0xbd354cc3	-0.04426266
24	0xbbfa81a1	-0.0076448475
25	0x3d1a1482	0.037617214
26	0xbcefb2a8	-0.029259995
27	0x3d516dea	0.051130213
28	0x3bdc0d93	0.0067154854
29	0x3d494edd	0.049147476
30	0x3e338702	0.1753197
31	0xbd77c29f	-0.06048834
32	0x3d452d31	0.0481388
33	0x3ad02c0a	0.0015882265
34	0x3bcb94ef	0.0062128226
35	0x3c791e6c	0.015205007
36	0x3d01ab94	0.03165777
37	0xbd7c8716	-0.061652265
38	0x3c9a4dd4	0.01883594
39	0x3dbfa6f6	0.09358017
40	0x3caae5bc	0.020861499
41	0xbcfb112a	-0.030647833
42	0xbdace29c	-0.0844166
43	0xbdbcfc42	-0.09227802
44	0xbd524e5c	-0.05134426
45	0x3d237e9d	0.03991567
46	0xbb1970dd	-0.002341322
47	0xbd6f5d44	-0.058438554
48	0x3cc3a908	0.023884311
49	0xbce97cac	-0.028501831
50	0xbdc2c603	-0.09510424
51	0xbc9f940d	-0.019479776
52	0xbd8e2191	-0.06939996
53	0x3d1447d8	0.036201328
54	0x3d61ead7	0.0551556
55	0xbba35b75	-0.0049852678
56	0xbc321ff1	-0.010871873
57	0x3d3dbe51	0.046324078
58	0xbd001087	-0.03126576
59	0xbd100884	-0.03516437
60	0xbdbf6653	-0.09345689
61	0xbcf27bfb	-0.029600134
62	0x3ce179be	0.027523872
63	0xbc06c568	-0.008225776
64	0x3c6bb952	0.0143874455
65	0x3cfa8a2f	0.03058347
66	0x3cc700eb	0.02429243
67	0xbd3b0a6f	-0.045664247
68	0xbe2de7f1	-0.1698301
69	0xbd13788e	-0.03600364
70	0xbd3bc194	-0.045838907
71	0xbd65c6b0	-0.056097686
72	0xbbbf1874	-0.0058317725
73	0xbcfa713e	-0.030571576
74	0x3db38de0	0.08767295
75	0x3d7d773d	0.061881293
76	0x3b893a74	0.0041878764
77	0xbd3b8920	-0.04578507
78	0xbdaf5d58	-0.08562726
79	0x3c16824c	0.009186339
80	0xbce1d1e7	-0.02756591
81	0xbbf8dbca	-0.0075945603
82	0xbc76508c	-0.015033852
83	0x3d36fcd0	0.044674695
84	0xbd181778	-0.037131757
85	0xbdec8ec4	-0.11550668
86	0xbd8d43f9	-0.068977304
87	0xbc449409	-0.011998185
88	0x3cd3e0f8	0.02586411
89	0xbd423ba6	-0.047420166
90	0x3cb2e964	0.021839805
91	0x3d5bf450	0.05369979
92	0x3d7a156e	0.061055593
93	0xbd5f8e5b	-0.05457912
94	0x3daba65b	0.08381339
95	0x3c2bbbfc	0.010481831
96	0x3b8bc2c3	0.0042651608
97	0xbd3ac3bc	-0.045596823
98	0xbd3d0997	-0.046151724
99	0xbd22de72	-0.03976292
100	0xbb974e37	-0.0046174782
101	0xbca34a96	-0.019933026
102	0xba5cca69	-0.00084224954
103	0xbd29ed98	-0.041486353
104	0x3d2b69a7	0.041848805
105	0x3d4de8df	0.05027091
106	0x3d7d2351	0.06180126
107	0xbd68e2f8	-0.05685708
108	0x3d58e4cb	0.05295257
109	0x3d1044c2	0.035221823
110	0xbdc0311f	-0.09384369
111	0x3d088d08	0.033337623
112	0x3d899b84	0.067191154
113	0xbd825111	-0.063631184
114	0xba9ba78e	-0.0011875497
115	0x3c81aca1	0.015829386
116	0x3c895886	0.016765844
117	0xbc04a604	-0.008096222
118	0x3c9f5b81	0.019452812
119	0x3d233709	0.039847407
120	0x3d8d1829	0.06889374
121	0xbaa62175	-0.0012674766
122	0xba946167	-0.0011320532
123	0xbd528656	-0.051397644
124	0xbdabb798	-0.08384627
125	0x3d5482c1	0.05188251
126	0x3ba49a39	0.0050232676
127	0xbca356ef	-0.019938914
128	0x3d4d14e5	0.050068755
129	0x3b68b02a	0.0035505393
130	0x3cd672ae	0.02617773
131	0x3cd67a05	0.02618123
132	0xbd654c2c	-0.055980846
133	0xbc7446aa	-0.014909426
134	0xbcc1eb7c	-0.023671858
135	0x3c0992b9	0.008396798
136	0x3cbb15bd	0.022837514
137	0xbd10b77e	-0.03533124
138	0xbcebfcea	-0.028807122
139	0x3c97fa7f	0.018552063
140	0xbc385803	-0.011251452
141	0x3c269c8d	0.010169161
142	0x3d68df29	0.056853447
143	0xbceec0e3	-0.02914471
144	0x3d14ad0d	0.036297847
145	0x3c4cccca	0.012499997
146	0x3d94b112	0.07260336
147	0x3a8b2b7b	0.0010617817
148	0xbd0cde13	-0.034391474
149	0x3c9fc251	0.019501837
150	0xbb69a50a	-0.003565135
151	0x3d0fe3c5	0.035129327
152	0x3c6fce4f	0.01463659
153	0x3cdfdbb2	0.027326439
154	0x3cc050fb	0.023476114
155	0x3ca324d0	0.019915015
156	0xbc2b2205	-0.010445123
157	0xbdd9f2c3	-0.10642006
158	0x39cb583d	0.0003878492
159	0x3ce4194a	0.02784409
160	0xbd2d915a	-0.042374946
161	0xbcade7a1	-0.021228613
162	0xbcb232bd	-0.02175271
163	0x3c1842a3	0.009293231
164	0x3cf87e88	0.030333772
165	0xbc63b8bf	-0.013899027
166	0xbd016bdc	-0.031597003
167	0x3c1880fa	0.009308094
168	0xbd236052	-0.03988678
169	0xbc68a7ca	-0.01420016
170	0x3c619cce	0.013770295
171	0xbcd314cd	-0.025766755
172	0xbd208a3f	-0.03919434
173	0xbd2fba28	-0.04290214
174	0x3b99f7b5	0.0046987184
175	0x3cf341cb	0.029694458
176	0x3d8e28bb	0.069413625
177	0xbb8151d5	-0.0039465227
178	0xbd813d98	-0.06310576
179	0x3cd6bdc0	0.026213527
180	0xbca1ce31	-0.01975164
181	0xbcf60c6d	-0.030035222
182	0x3d0e706a	0.034775175
183	0x3ab1e006	0.0013570793
184	0x3c9244fd	0.017855162
185	0xbc59022e	-0.013245149
186	0x3cdf528a	0.027261037
187	0x3c851921	0.016247334
188	0xbcefad2b	-0.029257378
189	0xbd7655e0	-0.06014049
190	0x3cfe5da4	0.03105051
191	0xbbbaa489	-0.0056958837
192	0x3a7199ea	0.00092163554
193	0xbd7ee692	-0.062231608
194	0xbcb2df6e	-0.021835055
195	0x3dd4a753	0.10383477
196	0x3c8d45ab	0.017245134
197	0x3ce78d31	0.028265567
198	0xbc6d4b29	-0.014483252
199	0xbccfcc03	-0.025365835
200	0x3ceee283	0.029160744
201	0x3c9e4722	0.019321028
202	0x3d6001f6	0.05468937
203	0xbd0974a8	-0.033558518
204	0x3d65c165	0.05609264
205	0x3d03e25f	0.032198306
206	0xbd316d07	-0.043316867
207	0xbd1245fe	-0.03571128
208	0xbc475855	-0.012167056
209	0xbd90e632	-0.07075156
210	0xbc971c17	-0.018446011
211	0xbb1a5250	-0.0023547597
212	0x3c44c006	0.012008673
213	0x3ca0af5a	0.019614864
214	0xbd36c25f	-0.04461896
215	0x3d3f0044	0.046631113
216	0xbd676e30	-0.056501567
217	0xbd514f4f	-0.051101025
218	0x3d6bdeb8	0.057585448
219	0x3d5457c5	0.051841516
220	0xbbf43f1e	-0.007453813
221	0xbc29bd6f	-0.010360106
222	0xbc0d2231	-0.008614109
223	0x3c74872d	0.014924807
224	0xbcc2e81d	-0.02379232
225	0xbcceb463	-0.0252325
226	0x3c6e2c5b	0.014536942
227	0x3d966309	0.07343108
228	0xbd2c6cd6	-0.04209598
229	0x3c11ec86	0.008906489
230	0xbbac8bbb	-0.0052656806
231	0xbd9475f1	-0.07249058
232	0x3bea395b	0.0071479506
233	0xbd85a311	-0.06525243
234	0x3cb8668f	0.022509841
235	0xbb56eb07	-0.0032793896
236	0x3d842c5c	0.064537734
237	0xbc9313dc	-0.017953806
238	0x3c8959c3	0.016766435
239	0x3d87b171	0.06625641
240	0x3d05455c	0.03253685
241	0x3cae6a95	0.021291057
242	0x3c9ca04b	0.019119402
243	0xbcbd3cfe	-0.023100372
244	0xbd00a0d0	-0.031403363
245	0x3b1efe92	0.0024260622
246	0xbd36159a	-0.044454195
247	0xbd0da9f9	-0.034585927
248	0x3d0ab911	0.0338679
249	0x3d1d555c	0.038411483
250	0xbdb72b59	-0.08943815
251	0xbd127ce1	-0.035763625
252	0x3c2adc01	0.01042843
253	0xbcdcf276	-0.026971083
254	0xbc497f53	-0.012298423
255	0xbc14389d	-0.009046701

bias f4 [128]
0	0x3c9e0f5c	0.019294433
1	0xbb3357bf	-0.0027365533
2	0x3bcf5978	0.006327804
3	0xbe169f7c	-0.14709276
4	0x3cded870	0.027202815
5	0x3c8e2eec	0.017356358
6	0xbdbe16dd	-0.092817046
7	0xbd211845	-0.039329786
8	0x3b0fd97b	0.0021949697
9	0xbcb7d19d	-0.022438819
10	0x3ca5fbc0	0.020261645
11	0x3a7e9c26	0.0009712599
12	0xbc8138e4	-0.015774198
13	0xbc5e3c73	-0.013564217
14	0xbcd11a48	-0.025525227
15	0xbd6c45d4	-0.05768378
16	0xbd43c532	-0.047795482
17	0x3b8d1549	0.004305516
18	0xbccbb5ba	-0.024866927
19	0xbbea0251	-0.0071413894
20	0xbc618df9	-0.013766759
21	0xbd37ed9d	-0.04490434
22	0x3bd68fe2	0.006547914
23	0xbd5206ec	-0.051276132
24	0xbc3744b8	-0.011185817
25	0xbdc745b1	-0.097300895
26	0xbcca07fa	-0.024662007
27	0x3c5d44d9	0.013505184
28	0xbe2539be	-0.16135308
29	0xbc135a43	-0.008993688
30	0xbccbe818	-0.024890944
31	0xbd2fc1dc	-0.042909488
32	0xbb0df6e4	-0.002166205
33	0xbb1a3cbb	-0.0023534733
34	0xbe127442	-0.14302161
35	0xbcdc9acc	-0.026929282
36	0xbc55a2b3	-0.013039279
37	0x3c1c2006	0.009529119
38	0xbc06aa3d	-0.008219299
39	0xbc727fa9	-0.014800944
40	0xbdb876e8	-0.090070546
41	0xbe06fea8	-0.13183081
42	0x3d090351	0.03345043
43	0xbcf03b39	-0.029325115
44	0xbcd54dc3	-0.026038056
45	0xbd141591	-0.03615338
46	0xbd8fbf76	-0.0701894
47	0xbe1ec931	-0.15506436
48	0xbd25dde2	-0.040494807
49	0x3d0cd1df	0.034379836
50	0xbd26e4f5	-0.040745694
51	0x3bccb237	0.006246831
52	0x3bc1fb6a	0.0059198635
53	0xbcdd007b	-0.026977768
54	0xbe05cadd	-0.13065667
55	0xbc496d0d	-0.012294066
56	0x3a864830	0.0010244902
57	0xbc8f7800	-0.017513275
58	0x3caf3ccc	0.021391295
59	0xbd6962eb	-0.0569791
60	0xbb9791b5	-0.004625524
61	0x3cc38495	0.023866931
62	0xbe0133ed	-0.12617464
63	0xbccffa4c	-0.025387906
64	0xbc9bafb7	-0.019004686
65	0x3d158d72	0.036511846
66	0xbbaf68dd	-0.005353077
67	0x3bb6fac8	0.0055840947
68	0xbe36f028	-0.1786505
69	0xbce2d7cc	-0.02769079
70	0xbc969508	-0.01838161
71	0xbd08d275	-0.033403832
72	0xbd3a09e9	-0.045419607
73	0x3c18aed7	0.009319029
74	0xbd6f2512	-0.058384962
75	0x3b4e73cd	0.0031502128
76	0xbd3d67d9	-0.046241615
77	0x3cedfebf	0.029052136
78	0xbd506d13	-0.05088527
79	0xbded5a8b	-0.11589535
80	0xbb5a3cb5	-0.0033300344
81	0xbca4168f	-0.020030288
82	0xbcbf38e2	-0.023342554
83	0xbc2924de	-0.010323731
84	0xbca3e931	-0.020008655
85	0xbe119bcc	-0.14219588
86	0xbbeabe0b	-0.007163768
87	0x3c9df03c	0.019279592
88	0xbb98c25d	-0.004661842
89	0xbe419c7a	-0.18907347
90	0xbd8da118	-0.06915492
91	0xbe33596d	-0.17514582
92	0xbc1ef39e	-0.009701638
93	0xbd903072	-0.0704049
94	0x3b8013fd	0.003908633
95	0xbbc720bc	-0.0060769003
96	0xbdd6a0d7	-0.104798965
97	0x3d09aec9	0.033613954
98	0xbc5a2e8e	-0.013316764
99	0xbd315d89	-0.043302093
100	0xbbadb7a1	-0.0053014313
101	0xbde1cbdc	-0.11025211
102	0x3c4cf9ba	0.012510711
103	0xbce42e97	-0.027854247
104	0xbbe7a073	-0.0070686876
105	0xbcec0228	-0.028809622
106	0xbcfac3c6	-0.03061093
107	0xbbedb01a	-0.007253659
108	0xbd094edb	-0.033522468
109	0xbd60528a	-0.054766215
110	0xbc9c26d1	-0.019061478
111	0xbbbab9a9	-0.005698402
112	0xbd39e685	-0.045385856
113	0xbe390d59	-0.18071498
114	0x3c0fb32e	0.008770747
115	0x3d9f6e50	0.07784712
116	0xbb75a0eb	-0.0037479948
117	0xbd6910e7	-0.056900885
118	0x3c392726	0.011300838
119	0xbdf92a1e	-0.12166236
120	0xbc294164	-0.010330532
121	0xbbe66ba8	-0.0070318766
122	0xbd5f3ee5	-0.05450334
123	0xbda2da90	-0.07951844
124	0x3c545516	0.012959739
125	0xbe1355ab	-0.14388148
126	0xbbfb3c58	-0.0076671056
127	0x3c642276	0.013924232

weight f4 [8, 128]
0	0x3b8a254a	0.004215871
1	0xbb57ec3d	-0.0032947205
2	0x39b3c4b2	0.0003428809
3	0x3c252bb7	0.010081223
4	0x3bc6171f	0.0060452367
5	0xba2ec0ea	-0.00066663197
6	0x3a7c13b7	0.0009615975
7	0x3b9c541a	0.004770768
8	0x3b99dcaf	0.004695497
9	0xbc07d5d1	-0.008290724
10	0x3c0ada50	0.008474901
11	0x3bbc92c8	0.0057548024
12	0xbaee049b	-0.0018159332
13	0xbb6eba86	-0.0036427095
14	0xbc22d20e	-0.009937776
15	0xbc2197b0	-0.009862825
16	0x3a85643d	0.0010176968
17	0xb9bbbf0f	-0.0003580977
18	0xbad2236f	-0.0016032289
19	0x3aefd159	0.0018296643
20	0x3b7e1c57	0.0038774216
21	0xbc385ef1	-0.011253105
22	0x3bd4354e	0.006476081
23	0x3b26a7ff	0.0025429723
24	0x3bed050d	0.007233268
25	0xbb9bb5f8	-0.004751917
26	0x3ae9bcd6	0.0017832767
27	0xb945c0fd	-0.00018859278
28	0xbcc14e74	-0.02359698
29	0x3aff04d0	0.001945639
30	0x3b946ae4	0.004529344
31	0xbaeb9c73	-0.0017975703
32	0x3c1facfe	0.009745834
33	0x38996d70	7.315993e-05
34	0xbb9cc97d	-0.0047847615
35	0xba10b87f	-0.0005520656
36	0x3a676119	0.00088264194
37	0xbb69e3f4	-0.003568885
38	0xba598101	-0.0008297116
39	0x39bb5193	0.00035728197
40	0xbb65e634	-0.0035079839
41	0x3bb85c98	0.0056262724
42	0x3b01a75b	0.001978359
43	0x3a8b2661	0.0010616296
44	0x3b62fc44	0.0034635225
45	0x3bede9d2	0.0072605396
46	0x3c88cc6d	0.01669904
47	0x3b988836	0.0046549095
48	0xbb365987	-0.0027824359
49	0x3cade050	0.021225125
50	0x3b074c4c	0.0020644842
51	0x3ac026d2	0.0014660007
52	0xbb4685e9	-0.003029222
53	0xbc4695ee	-0.012120707
54	0xbd06612f	-0.032807525
55	0xbae7fe01	-0.00176996
56	0xba3bc6fd	-0.00071631355
57	0x3c249f91	0.010047809
58	0x3a4d7f75	0.0007839122
59	0xbbf01e4b	-0.00732783
60	0x3be9bba1	0.007132963
61	0xb9e95cab	-0.00044510266
62	0xbcf87121	-0.030327382
63	0xbb231ae4	-0.0024887854
64	0x3b819566	0.0039545773
65	0x3c0f294d	0.008737874
66	0xbab885a3	-0.0014077913
67	0x3c1d17c2	0.009588184
68	0xbcde54eb	-0.027140101
69	0x3bc0417c	0.0058671813
70	0xbc4a1db3	-0.012336182
71	0x3bbfdec0	0.0058554113
72	0xbbd36e72	-0.006452375
73	0xbb05b4fb	-0.0020402062
74	0xbbc75e20	-0.0060842186
75	0xbb05c628	-0.00204123
76	0xbbd13dc7	-0.0063855383
77	0xbba1e24f	-0.004940308
78	0x3c5ac8fc	0.0133535825
79	0x3bb05d76	0.005382235
80	0xbb8f5712	-0.0043743933
81	0xbb8571bb	-0.0040723956
82	0x3805a30d	3.1861524e-05
83	0x3c1a3784	0.00941265
84	0x3c822f08	0.015891567
85	0x3c8fe783	0.017566448
86	0xbbf9bfa9	-0.0076217246
87	0x39f99aa3	0.00047608194
88	0x3c4f7bf5	0.012663831
89	0x3c2b35e0	0.0104498565
90	0x3c1e386c	0.009657007
91	0x3c827023	0.015922612
92	0x3bf91b5a	0.0076021375
93	0x3b8323ba	0.0040020617
94	0x3b558761	0.0032581913
95	0x3b6dd8a9	0.003629247
96	0xbbe2abba	-0.006917444
97	0xbc2f5c2b	-0.010703127
98	0x3bb2f281	0.0054610376
99	0xbc36ae39	-0.011149936
100	0x3b924488	0.004463736
101	0x3ca0e211	0.019639047
102	0x3b133e18	0.002246743
103	0xb8a27579	-7.746643e-05
104	0x3b51c07d	0.00320056
105	0x3c082fd9	0.008312189
106	0xba99e724	-0.0011741859
107	0x3c8fbc99	0.017545985
108	0x3c165e36	0.009177735
109	0xbb013f20	-0.0019721463
110	0x3c605d49	0.013694116
111	0xbc287266	-0.010281181
112	0x3c293785	0.010328178
113	0x3a899f63	0.0010499771
114	0x3bb328b9	0.005467501
115	0xbc30f4dd	-0.010800567
116	0x3b635b46	0.0034691854
117	0x3c06ab0f	0.0082194945
118	0xbbcbb141	-0.0062161987
119	0xbb7a8650	-0.003822703
120	0xba7aa6ac	-0.0009561579
121	0x3c07ff39	0.008300596
122	0x3bcc4472	0.0062337453
123	0xbbc88fb4	-0.0061206464
124	0xbb423272	-0.0029632119
125	0x3c0cafad	0.008586806
126	0xbc40bcbc	-0.011763748
127	0x3af58b37	0.0018733506
128	0x3a161f07	0.00057266693
129	0xb8cab261	-9.665336e-05
130	0xbc9d872d	-0.019229496
131	0x3c1f1bf5	0.009711255
132	0xbc38a218	-0.011269115
133	0xbb1b2cc9	-0.0023677817
134	0x3b0aae11	0.002116088
135	0xbb5c3e1b	-0.0033606354
136	0x38c29e8d	9.280173e-05
137	0xbb4f1c9c	-0.0031602746
138	0xbc47816e	-0.012176855
139	0xbb158177	-0.0022812763
140	0x3c094104	0.008377317
141	0xbbcb2acc	-0.00620017
142	0xbb3d38ad	-0.0028872893
143	0x3cc7947a	0.024362791
144	0x3b10a5d7	0.0022071504
145	0xbc74b610	-0.014935985
146	0xbb6be517	-0.0035994702
147	0xbc2669f1	-0.010157094
148	0x3bfd728e	0.0077346032
149	0x39d78c38	0.00041112467
150	0xbb652f42	-0.0034970795
151	0x3c1aa6f9	0.009439223
152	0xb8dc2703	-0.00010497684
153	0x3d0ef856	0.0349048
154	0x3bba05be	0.005676954
155	0xbbe44548	-0.006966267
156	0xbceef43c	-0.029169194
157	0x3b9a90dc	0.0047169756
158	0x3c01f644	0.007932249
159	0x3a0b5379	0.00053148676
160	0xbb743340	-0.0037261993
161	0xbb1a4811	-0.002354149
162	0xbb34e735	-0.002760363
163	0x3ba3a74e	0.0049943095
164	0x3c05c324	0.008164201
165	0xbc487d52	-0.01223691
166	0x3c6e1435	0.014531185
167	0xbbea272a	-0.007145782
168	0x3b47699c	0.0030427938
169	0x3bcc36e2	0.0062321285
170	0xba2e6f62	-0.00066541706
171	0xbb9a310a	-0.004705553
172	0xbbe4c251	-0.006981172
173	0x3a993034	0.0011687339
174	0x3c12118e	0.008915318
175	0x3d1a76d0	0.037710965
176	0xbadb235f	-0.0016718915
177	0xbc545b2e	-0.012961192
178	0xbb52a950	-0.0032144375
179	0x3bc07bce	0.0058741337
180	0x3c24d574	0.010060657
181	0x3baf936a	0.0053581493
182	0xbc223629	-0.009900608
183	0x3a070ab9	0.0005151439
184	0x3cc69d4b	0.024244925
185	0x3bc2ceac	0.0059450474
186	0xbc13abfa	-0.00901317
187	0xbc96a166	-0.018387508
188	0xbbef2e5c	-0.0072992276
189	0xb9eebb8d	-0.00045534634
190	0x3c85df11	0.016341718
191	0x3a704f04	0.00091670477
192	0xbc4d4dfe	-0.012530802
193	0xbc4121fa	-0.011787886
194	0xb9d86210	-0.00041271793
195	0xbca2b9c1	-0.019863965
196	0xbc8d8334	-0.017274477
197	0xbb8233f2	-0.0039734775
198	0xbc16cb3b	-0.009203727
199	0xbb0b05e8	-0.0021213237
200	0xbc1724a1	-0.009225042
201	0xbb62d6bc	-0.0034612855
202	0x3c30ccab	0.010790984
203	0xbc2009cf	-0.009767964
204	0xb7bdcbf6	-2.2625532e-05
205	0x3bade1d0	0.00530646
206	0x3c19d6fd	0.009389636
207	0xbbd8f459	-0.0066209254
208	0x3abc6824	0.0014374298
209	0xbc43b64b	-0.0119453175
210	0xbc2c1936	-0.010504058
211	0x3b6a73e8	0.0035774652
212	0xbbbe5d52	-0.0058094645
213	0x3c4dad33	0.012553501
214	0xbbac7cf9	-0.0052639213
215	0x3b4b5cec	0.0031030728
216	0xbb7dc285	-0.003872068
217	0x3c738ace	0.014864637
218	0xbbbe9dd4	-0.0058171544
219	0xbc1237e0	-0.008924454
220	0xbc495f4e	-0.012290789
221	0xbcc2100b	-0.02368929
222	0x3b767b70	0.0037610196
223	0xba15e57d	-0.00057180953
224	0xbba12416	-0.004917632
225	0xbc2ee46f	-0.01067458
226	0x3baee9b0	0.0053379163
227	0x3b1ea28d	0.0024205775
228	0xbc02f49b	-0.007992889
229	0xbcd3ae5e	-0.02583998
230	0xbb1bdeb2	-0.002378386
231	0x3b91e184	0.0044519324
232	0x394372a4	0.00018639356
233	0x3bb4244e	0.005497492
234	0x3b1d52a8	0.0024005566
235	0xbc9f79d3	-0.01946727
236	0x3a324ae9	0.00068013236
237	0x3c4ea5e5	0.0126127945
238	0x3afde252	0.0019369817
239	0x3cd682b6	0.026185375
240	0xbb889d62	-0.004169152
241	0xbcbeef14	-0.02330736
242	0xbb4b357d	-0.0031007223
243	0xbb76b44f	-0.0037644093
244	0xb9d1f4ce	-0.0004004598
245	0x3c2e06ad	0.010621709
246	0x3bac8734	0.005265141
247	0xbc4c2537	-0.012460045
248	0xbbdab29e	-0.006674125
249	0xba9dae32	-0.0012030064
250	0x3c08ca61	0.008349032
251	0xb9996378	-0.00029256544
252	0xba098f85	-0.00052475213
253	0xbc847e67	-0.016173555
254	0x3bbac4dc	0.005699737
255	0xb7991658	-1.8249426e-05

bias f4 [8]
0	0x3d19cb26	0.037547253
1	0xbc8e123d	-0.017342681
2	0x3e125f08	0.14294064
3	0xbd6a6491	-0.057224814
4	0xbd9682de	-0.0734918
5	0xbc9c1326	-0.0190521
6	0x3d8a1c8e	0.067437276
7	0x3d7df2a7	0.06199899
