deploy/models/booster_gym_exp_knee/model_1000.pt (torch, 296190 bytes, 8 tensors)

weight f4 [256, 80]
000000 ce 0e de be 55 65 83 3f d4 75 74 bd 21 67 51 bd
       -0.4337067 1.0265299 -0.059682682 -0.051123742
000010 a2 e3 4c be 5c 16 22 be a2 a8 e0 3d 71 f1 b0 3d
       -0.2000871 -0.15828842 0.10969664 0.08639801
000020 55 eb 85 bd 5e 12 dc 3d b1 f7 e1 3c 93 f6 05 3c
       -0.06539027 0.10745691 0.027583929 0.008176464
000030 33 d5 59 bb bc 78 0a 3d ec 03 82 bd a5 df 09 bc
       -0.003323865 0.033806548 -0.06348404 -0.008415137
000040 30 1d 9e bd 15 98 4d 3d dc ce 76 3d 4c 0b 93 3c
       -0.07720411 0.050193865 0.06025587 0.017949723
000050 e8 b9 66 3d 33 45 3b bf 40 0e 03 ba 3c 5a d6 bd
       0.056329638 -0.73152465 -0.0004999377 -0.104664296
000060 7a 08 8b bc 74 de 23 3d fc 9e 6b bd 6f b2 57 bf
       -0.016971815 0.04000707 -0.057524666 -0.84256643
000070 08 d8 93 be bb 3e 37 bd 98 47 14 bf 6e 20 59 bd
       -0.28875756 -0.04473756 -0.57921743 -0.053009443
000080 a1 c9 75 be 4b c2 9c 3d ce 9f 1f 3d 6b 70 be 3e
       -0.24002697 0.07654246 0.03897076 0.37195143
000090 a6 ba 6c 3e b0 1a 82 3e 23 d9 66 3d 1a f0 b6 bd
       0.23118076 0.25410986 0.05635942 -0.089325145
0000a0 d4 43 88 3e ca f7 e7 bd bf e2 55 3c ba 8d 1e 3d
       0.2661425 -0.11326559 0.013054549 0.03870938
0000b0 45 f0 30 bf 83 7d dd be 58 5c 36 be a7 36 48 3e
       -0.6911662 -0.4325982 -0.17808664 0.19552098
0000c0 81 da cc 3d 03 84 58 bd 30 22 0f bd e7 f5 b9 be
       0.10002614 -0.05286027 -0.034944713 -0.3632042
0000d0 e1 7e 52 3e 83 4c da 3d fe a4 d6 be 5e 16 8f 3d
       0.20556213 0.10659125 -0.41922754 0.06986688
0000e0 e0 e9 e0 3d 35 62 9f 3d e4 f3 ab bd 24 fd df bc
       0.10982108 0.077824034 -0.08396128 -0.027342387
0000f0 5e 96 d6 bc 43 1a 19 be dd 2b 85 bd b6 84 9a ba
       -0.026194748 -0.14951424 -0.06502507 -0.0011788819
000100 c4 38 6c 3c 61 df 43 bd a2 2f 4a 3e d7 80 c3 be
       0.014417831 -0.047820453 0.19744733 -0.38184234
000110 4d 58 d5 be 18 de 8a be eb 45 95 3e 74 89 21 bc
       -0.4166893 -0.2712257 0.29154906 -0.009859432
000120 f4 b7 c9 bd b6 b8 ea bd 19 b3 e4 be e5 fd 04 3d
       -0.098495394 -0.11461012 -0.4466789 0.032468695
000130 21 af 93 bb a9 a7 bb bd aa dd 24 be 1b e6 02 3e
       -0.004506961 -0.09162838 -0.16100183 0.12783091
000140 bd a2 07 bf 01 25 05 be f5 ef bb bd f7 8a a7 bc
       -0.52982694 -0.13002397 -0.091766275 -0.020452006
000150 4e 78 81 bc b4 2b 19 bd 77 5d 6b bd 32 6d 9b bd
       -0.015804436 -0.037395194 -0.057462182 -0.07589187
000160 c8 26 56 3d 72 e6 2a bd 61 dd c4 bd 48 fa 52 bd
       0.05228308 -0.041723676 -0.09612537 -0.051508218
000170 3a f8 db 3d 91 af a2 bc 78 29 84 bc 2a e7 6a bb
       0.10740705 -0.019859107 -0.016133055 -0.003584335
000180 f4 66 da bd 52 4c a1 3d c6 b4 b3 bc 04 60 cb 3c
       -0.10664168 0.07875885 -0.021936785 0.024826057
000190 09 20 9b bc 56 d9 8b bf 7e 87 53 3e fe 7d b4 bd
       -0.018936174 -1.0925701 0.20657155 -0.088130936
0001a0 60 9f 96 bf 6e 22 c9 3d 9b b4 91 bd 37 98 3c be
       -1.1767387 0.0982102 -0.07114526 -0.1841744
0001b0 3d 46 47 bb 67 49 8c be f1 f1 64 be 3e 05 6e bd
       -0.0030406856 -0.27399752 -0.22357918 -0.058110468
0001c0 19 9f 96 be 57 ca fc 3b a7 e2 18 3e 28 35 af be
       -0.29418257 0.0077145505 0.14930211 -0.34220243
0001d0 d4 01 1d 3d aa 9a 16 be e9 49 eb 3b ca 5e 32 3d
       0.03833182 -0.14707437 0.0071804416 0.04354743
0001e0 c0 fb 25 be 34 df 96 3c 91 24 17 3c e1 63 a5 3e
       -0.16209316 0.018416978 0.009225027 0.32302764
0001f0 7d 97 8c be af d5 49 be 8d a9 46 be 22 97 f8 bd
       -0.27459326 -0.1971042 -0.19400616 -0.12138201
000200 21 91 3b 3e 50 9e 94 3c a9 20 8a bc 33 8b 59 be
       0.18317081 0.018141896 -0.016861277 -0.21244507
000210 bc b1 5f 3f eb 2b 4e 3d 52 70 42 3e 75 ba 8f bd
       0.87380576 0.050334852 0.1898816 -0.07017986
000220 26 66 3a 3d 09 e4 10 3e 60 3d 16 bd 4a 8c ff 3c
       0.045507573 0.14149489 -0.036679626 0.031194825
000230 e8 15 5a 3d 6b 0c 97 bc a3 9d 4b 3d a8 13 be bd
       0.053243548 -0.018438539 0.04971088 -0.09281093
000240 90 cc 21 be 17 10 2e bd ca 1d dd 3d cf 48 ac be
       -0.1580069 -0.042495813 0.107966974 -0.336493
000250 20 21 99 be e0 b7 a0 3d ca 4f a4 3d de 69 39 3e
       -0.29908085 0.078475714 0.08023031 0.18106791
000260 81 08 52 3b e4 d1 de bd 51 6b 59 be 83 12 55 3d
       0.0032048526 -0.10879877 -0.21232344 0.052019607
000270 a3 50 fc 3d b5 5f bb 3c a4 b2 31 3d 97 cf 6d be
       0.12320068 0.022872785 0.043383256 -0.2322372
000280 74 3c 64 3e 0a 5a a8 be f0 60 a4 bc 59 f3 89 39
       0.22288686 -0.32881194 -0.020065755 0.00026311984
000290 f3 13 48 3c 5a 71 93 3c 55 3f 1d bd 59 36 eb bc
       0.0122117875 0.017998386 -0.038390476 -0.028712438
0002a0 a3 e4 e5 3c e2 90 d5 3d ca fa 2f bc d4 6f 48 3c
       0.028063124 0.10428025 -0.010740945 0.012233693
0002b0 63 28 10 3d 1b d6 4d 3d 8a 45 2e 3c d5 80 39 bd
       0.035194766 0.050253015 0.010636697 -0.04528888
0002c0 94 92 91 3c ac 96 11 be 28 d5 f2 3d 0e 28 80 3d
       0.01777009 -0.14217633 0.118570626 0.0625764
0002d0 d9 d6 4d 3d b6 41 09 bf 79 35 3e be ef 52 cc bb
       0.050253723 -0.5361589 -0.18575086 -0.0062354724
0002e0 b5 e4 6c bf 24 e8 7c 3d 07 be 67 3e 2b 6d 80 be
       -0.9253648 0.061744824 0.22631083 -0.2508329
0002f0 79 29 c2 be 50 73 83 be 7b 8b 83 bb bc c5 ab bd
       -0.37922266 -0.25673914 -0.00401443 -0.08387324
000300 62 18 55 3e b7 1e 1d 3e 2a 6d 29 bd 34 c5 30 3d
       0.20810083 0.15343748 -0.041363873 0.043156818
000310 db 9a 3b 3d 38 0c 52 3e 21 54 cf bb 3a 1b 49 be
       0.04580198 0.20512474 -0.0063271676 -0.19639292
000320 2a 0e 15 be e1 11 41 be fb 69 18 bd 3b 33 c0 3d
       -0.14556184 -0.18854477 -0.037210446 0.093847714
000330 d4 72 da bd f9 b8 88 3e 06 d2 85 3e e4 3c 4f bd
       -0.10666433 0.26703623 0.26136798 -0.05059518
000340 60 af 1a 3e b7 eb 01 bd 00 4c ed bd 7e f9 70 bd
       0.15105963 -0.031718936 -0.115867615 -0.058831684
000350 05 01 58 3e e3 0c 82 bd 83 8c 00 be 89 fc 42 bb
       0.21094139 -0.06350114 -0.12553601 -0.0029752573
000360 12 95 03 bd 9e 76 16 be 26 ca ae 3c fa 67 f5 3d
       -0.032124586 -0.14693686 0.021336626 0.119827226
000370 5b 68 df bd 17 1f 95 3c 30 b8 d0 bd 8f 5d 99 3d
       -0.10908576 0.018203301 -0.10191381 0.07488548
000380 9e be 3a 3c b8 4b c2 3d 31 24 3a 3d 4d 4b 35 be
       0.011397986 0.094870985 0.04544467 -0.17704506
000390 1c 39 ce 3e 48 a4 dc 3d 58 9c da 3c 51 a3 3b 3d
       0.40277946 0.10773522 0.026685879 0.045810048
0003a0 a7 c3 43 39 4d dc c5 bd ed 7d 95 3e 02 f0 b5 3c
       0.00018669535 -0.0966116 0.29197636 0.022209171
0003b0 ca d9 af 3d c6 e4 97 bd 92 55 0c be e0 39 cb 3c
       0.08586462 -0.07416682 -0.13704517 0.02480787
0003c0 2f 3f a5 3d de 25 eb 3e 07 70 b9 3d 8b 60 b5 3c
       0.08068692 0.45927328 0.09054571 0.022140762
0003d0 0f 3e 7b 3d 5f e3 2e 3d 6c f0 8b bd 73 d1 dd 3d
       0.06133848 0.042697307 -0.06832966 0.10830965
0003e0 af 8c 92 bd 47 9a 0c 3d e1 4c d6 3d 06 10 2a bd
       -0.071557395 0.034326818 0.10463882 -0.041519187
0003f0 2b ce 1a be d3 9e 0e 3d 0d 6c 6f 3e b4 b6 86 bc
       -0.1511771 0.034819435 0.23381062 -0.016444542

bias f4 [256]
000000 36 9f e3 bd 2e ce fc 39 3c b8 39 3d a1 b2 b8 3d
       -0.111143515 0.000482188 0.045341715 0.09018446
000010 95 46 c0 3d ed 91 2d 3b 0e 31 97 bc 1b 8e ce bd
       0.093884625 0.0026484684 -0.018456008 -0.10085698
000020 15 16 3d 3b 31 6b 32 ba 2d 77 b7 bc c8 5c b2 bd
       0.0028852273 -0.0006806134 -0.022395695 -0.08709103
000030 5f c9 18 3e e7 2f 1f bd 45 1d ab bd 9a cd 94 bd
       0.14920567 -0.038864043 -0.08355192 -0.07265778
000040 10 6a 4f bd 37 32 c4 3d d4 fe 0f 3e 65 21 d5 bd
       -0.05063826 0.0957989 0.14062053 -0.1040676
000050 0d 7a 68 3c f0 cb 27 bb d5 86 9a 3d 72 31 b1 bd
       0.014189255 -0.0025603734 0.075452484 -0.08652009
000060 a0 c0 ee bc ba 42 28 3d 63 c4 21 3e b7 73 f5 3c
       -0.029144585 0.04107926 0.15797572 0.029962404
000070 35 43 1f 3e 08 24 fa bc bf b8 d9 bc 4e 40 df bd
       0.15552981 -0.03053476 -0.026577352 -0.10900937
000080 f7 3e a7 3d b5 a8 2c 3d 49 0c 68 3d fa e0 f2 bd
       0.081663065 0.04215308 0.05665234 -0.11859317
000090 4a a5 51 bd 62 ce 1f bd 78 6e c0 bd 05 d9 01 3e
       -0.051183023 -0.03901518 -0.0939607 0.12680443
0000a0 7e ff 91 3d f6 9c f2 bd 3d 8f 76 3c 54 b3 c7 3c
       0.071288094 -0.11846344 0.015048799 0.024377503
0000b0 0d b9 c3 3c af a6 36 bc e9 4b 5b 3e bf 41 b2 3d
       0.02389195 -0.011148139 0.21415676 0.08703946
0000c0 80 2b bb 3c 64 b1 89 bd 69 1e d1 3d c7 fb 06 be
       0.02284789 -0.06723288 0.102108784 -0.13181983
0000d0 0d 4e ba 3c 89 68 00 bd 7f b8 f4 3c a8 b1 b1 bc
       0.022742296 -0.031349692 0.02987313 -0.021691158
0000e0 0f ab 31 bc a7 1b 4e bc fd ef d5 bc 4c eb 06 bc
       -0.010844006 -0.012579835 -0.026115412 -0.00823481
0000f0 d3 4e ae 3d 06 58 da bc f1 08 60 3d 7f 97 db 3d
       0.08511128 -0.026653301 0.054696027 0.10722255
000100 a3 b6 0f be 4d 4d 93 3d f4 05 8f 3d d9 38 00 be
       -0.14034514 0.07192478 0.06983557 -0.12521686
000110 5a b0 78 3d 1b d4 3e 3d 17 98 b4 bd f3 cd 11 3d
       0.060715057 0.046589 -0.08818071 0.0355968
000120 91 2f d4 bc dd 37 d6 3d d2 97 f1 3d 76 9a 14 bc
       -0.025901588 0.10459874 0.117965356 -0.0090700295
000130 bf f1 8b bd 76 76 32 3d 84 57 ea bc c5 9d 02 3d
       -0.06833219 0.043570004 -0.028606184 0.031888742
000140 2f af 59 bd bc 72 e1 3d 51 04 e0 bd 29 ba e9 3c
       -0.053145584 0.11008212 -0.10938323 0.02853115
000150 0f f8 80 3d d0 0d 80 bb 71 28 1c be ca a0 a5 bd
       0.062973134 -0.0039078966 -0.15249802 -0.08087309
000160 c4 6c b6 3d 98 85 95 bd 65 9a 80 3d ee a2 9b bd
       0.08907464 -0.073008716 0.062794484 -0.07599436
000170 9d 98 9c 3b 2b c5 8e 3d c9 7d 84 bd c6 22 02 3b
       0.004778935 0.069712006 -0.06469304 0.0019857152
000180 69 f1 83 bd 94 f6 3f bc 3d f6 c3 3d 40 49 64 3c
       -0.0644253 -0.011716504 0.095684506 0.01393348
000190 f6 2b b9 3d 61 34 ea 3d 94 e7 ad bd 2d bb e7 bd
       0.09041588 0.11435772 -0.08491436 -0.11314998
0001a0 46 f8 23 3e 42 13 d0 bd e2 36 1e 3d 3f dd da bd
       0.16012678 -0.10159923 0.03862656 -0.106867306
0001b0 5f 8f 1d 3d ee 55 12 bd 96 5b 53 3d e0 2f 50 3c
       0.038466807 -0.03572648 0.051601015 0.012706727
0001c0 bf 66 c9 3d 9a 94 e1 3d 1d 08 8d bd d8 f2 c9 3d
       0.098340504 0.110146716 -0.06886313 0.09860772
0001d0 e5 62 26 bd ca 01 4d bc 55 16 2f bd ec 14 fd bd
       -0.040621657 -0.012512634 -0.042745907 -0.12357506
0001e0 c9 d6 1f 3d 96 d8 9d 3c 9c 8d cd bb 0c b9 69 3d
       0.039023194 0.019268315 -0.0062729847 0.05706124
0001f0 24 4e 04 bd 63 a7 9a bd ea 8c e4 bd e1 ad 74 3d
       -0.032301083 -0.07551458 -0.1115969 0.059736136
000200 a5 2c 5e bc 5e be 5c bc c0 26 7b 3d e7 66 2a 3c
       -0.013560449 -0.013473121 0.06131625 0.01040051
000210 a2 ff 76 bd 30 af ee bd f8 53 d2 bc b0 92 07 3e
       -0.060302384 -0.11654508 -0.025674805 0.1323955
000220 90 3a f7 3d ef 65 2f 3e bc b9 8f bc c6 c7 83 bd
       0.12071717 0.17128728 -0.01754462 -0.06434588
000230 2e 29 ba bb 1e 7b 4c 3d 87 38 89 3d 95 85 67 bd
       -0.0056811785 0.0499221 0.06700235 -0.056523878
000240 16 9f f2 bd d2 d0 fc bd 8e 8b 96 bd 3f 1e 00 bd
       -0.118467495 -0.12344517 -0.07350837 -0.031278845
000250 7a cd 59 3d 1a 4b 84 bc bc f5 5e 3d 1f 88 fa 3d
       0.053174473 -0.016149092 0.05443357 0.12232994
000260 71 a8 06 bd 14 a3 16 be 50 b1 1a 3d 1b d2 8e 3d
       -0.032875482 -0.14710647 0.037766755 0.06973668
000270 c9 2b 26 3d 22 eb 24 3d 09 13 23 be 24 6d cb 3d
       0.0405691 0.040263303 -0.1592523 0.09932926
000280 5d b7 28 bd 88 d7 8f bc 19 2a ce 3d 95 78 f9 3d
       -0.041190494 -0.017558828 0.10066623 0.12181202
000290 11 74 9e 3d d2 96 94 3d 75 b4 82 bd 68 9c 23 bd
       0.07736982 0.07255329 -0.06382076 -0.039944082
0002a0 a5 e4 aa 3d d3 d8 47 bd 12 c0 4c 3d 07 5c 68 3d
       0.08344392 -0.048790764 0.04998786 0.05672839
0002b0 35 5d ef bc 31 53 0d bb e3 b3 ca 3d 5c 6f c2 3d
       -0.02921925 -0.0021564479 0.09897592 0.09493896
0002c0 41 93 01 be b5 18 35 bd 08 34 ef 3c 37 4a fe 3c
       -0.12653829 -0.044213016 0.029199615 0.031041248
0002d0 44 46 10 bd 56 d3 43 bd 3a 95 84 bd a3 da 2b 3d
       -0.03522326 -0.047808968 -0.06473775 0.041956555
0002e0 35 36 4a 3d 4c f5 83 bc a4 79 2e bd b6 be 2b bc
       0.049368102 -0.016108178 -0.042596474 -0.010482481
0002f0 a0 c3 c3 3d 76 d2 7f bd 96 74 1c be 81 77 39 bd
       0.09558797 -0.06245657 -0.15278849 -0.045279983
000300 a2 0b 08 3e d0 8f 20 3c a4 49 03 be c2 3c 13 bd
       0.13285688 0.009799913 -0.1282106 -0.035946615
000310 d7 d7 0d bd a2 25 50 3d fb 29 09 3e a6 f0 13 be
       -0.03462967 0.05081714 0.1339492 -0.14447269
000320 54 0e 65 bd 2b 04 81 3d 83 86 68 bd 31 c6 0c 3c
       -0.055921867 0.06299623 -0.056768905 0.008592174
000330 10 f3 7e 3d 3a 39 61 3d 9c c7 3d 3c b8 7d 2c bc
       0.06224352 0.054986216 0.011583235 -0.010528021
000340 4f 52 4b 3d 65 a6 92 3d 26 bd cb bc 53 fd 3e bd
       0.049639042 0.071606435 -0.024870466 -0.046628308
000350 4a 38 7b bd af 21 62 bd 64 49 06 bd 4b 8b c5 3c
       -0.06133298 -0.055207904 -0.032784835 0.024114272
000360 4d eb a6 3d 5f 4b 76 bd f3 db 00 3b 9d 71 c6 3d
       0.08150349 -0.060130473 0.001966235 0.09689639
000370 1d e5 3a 3d 64 6b da bd 12 b4 7c 3d bc 66 e2 3d
       0.045628656 -0.106650144 0.061695166 0.11054751
000380 c5 28 21 bd 25 81 a3 bd c0 0e 52 3c e5 39 fe bd
       -0.03934552 -0.07983617 0.0128208995 -0.12413386
000390 72 3a 86 bd 15 91 e4 3d c3 f9 3c 3d 93 de 94 3d
       -0.06554116 0.11160485 0.04613663 0.07269015
0003a0 d1 0a 45 bd 5b 77 17 3c 62 2f b5 bd f3 56 54 bd
       -0.04810602 0.009244765 -0.08846928 -0.051840734
0003b0 14 64 64 3d 78 37 cd bd ac 79 20 3d cd 88 8f 3d
       0.055759504 -0.100203454 0.039178535 0.070085146
0003c0 e5 40 7c bd 13 94 ea bd af 84 72 bc b9 9b b6 3c
       -0.061585326 -0.11454024 -0.014802142 0.022291051
0003d0 85 66 73 bc 5a f8 3f 3c 0d 00 e6 bd 1c aa 2b bc
       -0.0148559855 0.0117169265 -0.112304784 -0.010477569
0003e0 cb 37 e0 bd fa 78 af bd b3 5b 94 3d ac c3 dd 3c
       -0.10948142 -0.08567996 0.07244053 0.027070843
0003f0 7c 24 9b bd e8 44 db bc 5b b8 a7 bc 38 23 f0 3c
       -0.07575318 -0.026766255 -0.02047365 0.029313669

weight f4 [128, 256]
000000 bc 6e 05 3e b0 fc ff 3c 66 d9 c8 3d 0e a4 24 3e
       0.13030523 0.03124842 0.098070905 0.16078207
000010 f6 3e cf 3c bc 2b 26 3e fa b1 10 3d 9f 31 90 3e
       0.025298577 0.16227621 0.03532598 0.28162858
000020 be 46 24 be d6 b3 fe bd 8c 4d 96 bd 7b e8 9d 39
       -0.16042611 -0.12436645 -0.0733901 0.00030118585
000030 f0 a3 05 3c e9 9f 65 be 4b af 60 bd e8 bc 2d bc
       0.0081567615 -0.22424282 -0.054854672 -0.010604121
000040 14 93 e7 bd 7e e5 c5 3d 1b db 81 3e f3 59 65 3c
       -0.1130735 0.09662913 0.25362477 0.013998496
000050 ec 5a ce 3d 57 99 98 3c 21 d8 1f bd dc 0b 15 3d
       0.10075936 0.018627806 -0.039024476 0.036388263
000060 ea 10 3b 3d 04 63 11 3e 90 83 3d bd 94 58 2c bd
       0.045670427 0.14197928 -0.046268046 -0.042076662
000070 56 8b 07 3b 60 d6 24 be 77 b7 3d 3d 36 90 65 bd
       0.0020682416 -0.16097403 0.046317544 -0.056045733
000080 2e 34 1e 3a 2e 36 68 bc 84 f1 65 3d 5a 4f eb bd
       0.0006034997 -0.014173074 0.05613853 -0.114897445
000090 75 0f 44 be 92 47 f1 bc 66 5f 27 3e 58 39 17 3a
       -0.19146521 -0.029453073 0.16344985 0.0005768738
0000a0 5b fa b7 bd 13 a1 5c 3c 7a 7b a6 bd e3 b4 62 3e
       -0.089832984 0.013466137 -0.0812902 0.22139315
0000b0 a0 13 93 bd 62 15 c1 3c 02 0b ea bd dd 7a 7a 3d
       -0.071814775 0.023569766 -0.11427881 0.061152328
0000c0 49 02 53 3d 67 d0 01 be 36 3c c7 bd 75 17 29 3e
       0.05151585 -0.12677155 -0.09728281 0.16512854
0000d0 96 34 2e 3d 1e e7 c0 3d d4 65 e6 bd 21 89 4e bd
       0.04253062 0.09419082 -0.11249891 -0.050423745
0000e0 0e 2f 39 be 69 51 b8 3d 10 f5 de 3d d9 1b 14 3e
       -0.18084356 0.08999903 0.10886586 0.14463748
0000f0 4b 32 ec bd 74 65 a3 b9 5a 86 02 3d 56 e5 49 3e
       -0.1153303 -0.0003116537 0.03186641 0.19716391
000100 c4 26 92 3d 70 1c 0c 3e 3e 16 56 3d 32 5f 68 bc
       0.071363 0.13682723 0.052267306 -0.014182853
000110 3e cf da 3d f8 1d ca 3d 88 ec d3 bc 21 7d ff 3d
       0.106840596 0.09868997 -0.025869623 0.12475038
000120 a2 8f 73 3e 64 af 30 3d f7 8f e2 bc 3c 0c 2b 3e
       0.2378526 0.043136016 -0.027656538 0.16703886
000130 e0 ab a5 3d 99 39 5b bd 2a 95 54 be 06 37 a6 3d
       0.08089423 -0.053521726 -0.20760027 0.08115964
000140 74 93 96 bd ce cf 40 bc 47 fb 0d be 1d c7 2c 3e
       -0.07352343 -0.0117682945 -0.13865386 0.1687283
000150 a8 b6 9a bd 3d e0 29 3e 00 0e 5e 3e 5b 2c 3b 3e
       -0.0755437 0.16589446 0.21685028 0.18278639
000160 94 3f b1 3d 5a 0f 05 be f3 25 58 be e5 87 9e 3d
       0.08654705 -0.12994137 -0.21108226 0.077407636
000170 c1 c5 73 bc d1 35 e3 3d d1 05 b4 bb 52 f2 ab 3d
       -0.014878691 0.11094249 -0.0054938574 0.08395828
000180 7c 5e d1 3d 85 93 4b 3d e9 cb 49 bc e6 f9 5e 3e
       0.102230996 0.049701232 -0.012316682 0.21775016
000190 da 26 38 3d a3 47 61 bd ab 48 cd bd c2 b9 6f 3c
       0.044958927 -0.05499996 -0.10023626 0.01463169
0001a0 9c af 38 be da ce 97 bd a2 68 15 be d6 83 d1 bd
       -0.1803574 -0.07412501 -0.14590696 -0.10230224
0001b0 ca 99 1a 3e 14 28 be 3c 3f e9 20 be 35 00 34 3e
       0.15097728 0.02321247 -0.15713976 0.17578204
0001c0 e3 3e ac 3d 3d 2d 14 bc a6 63 92 bd 2f 4b fb 3d
       0.08410432 -0.009043989 -0.07147913 0.122701995
0001d0 28 b0 ac 3d a0 1d 62 3d 0d 95 25 be 47 26 f4 3d
       0.08432037 0.055204034 -0.1617014 0.11921363
0001e0 46 c0 02 bd 82 aa 2f 3c 72 dc 1c 3e 47 69 06 3d
       -0.031921647 0.010721805 0.15318468 0.032815244
0001f0 e6 c5 0f be 0f cb 1c be 1e b6 38 3c fc 89 84 3c
       -0.14040336 -0.15311836 0.011273889 0.016179077
000200 53 ef 1f 3e a9 30 b1 bc 5d 62 d0 3d cb 3e 19 be
       0.15618639 -0.021629648 0.10175011 -0.1496536
000210 0d 0e 33 be 47 2f 47 3d 8b 2d 88 3d 39 f7 58 bd
       -0.17485829 0.04862907 0.06649312 -0.052970145
000220 25 57 6e bd 2b 04 90 bd 64 40 97 3d 29 dd f1 bd
       -0.058188576 -0.07032045 0.073853284 -0.11809761
000230 dd a5 1b be 77 df b9 3d b0 1a 35 3c d2 ef 62 bd
       -0.1519999 0.09075826 0.011053726 -0.05540449
000240 f0 a4 2c be 65 87 26 3d c2 9c 75 bd d3 c6 fd bc
       -0.16859794 0.040656466 -0.05996395 -0.030978596
000250 9d 65 3f bd 1a 77 47 3d db 0e dc 3d 0e 4a 30 3d
       -0.046727765 0.04869757 0.10745021 0.043039374
000260 d2 14 25 be 83 07 8c 3d a0 30 33 3e 87 2e 24 3e
       -0.16121224 0.0683737 0.17499018 0.16033374
000270 a3 a7 29 3e 36 a4 aa bd 6f af 9e 3d 0b 29 2b 3d
       0.16567855 -0.08332102 0.07748305 0.04178719
000280 42 61 0b be e8 13 be bc 83 f0 15 be 3d 71 20 be
       -0.1361132 -0.023202851 -0.14642529 -0.15668197
000290 af f8 5b 3e d2 96 b2 bd 05 53 48 3d 37 f1 dc 3d
       0.21481584 -0.08720173 0.0489073 0.107881956
0002a0 d7 96 be bb d5 86 88 bd 5b cd 0a be de 32 48 3d
       -0.0058163214 -0.06666342 -0.135549 0.048876636
0002b0 88 53 af 3d 2d 4e 19 3d bb 3c 01 be e2 7c f1 3c
       0.08560854 0.03742807 -0.12620823 0.029478494
0002c0 f4 e1 51 3e 3b 31 cb 3c dd ff e9 3c f0 07 75 3c
       0.2049635 0.024803748 0.028564388 0.014955506
0002d0 b7 f1 dd 3c 78 e4 9d bd f5 3b c4 3d 17 3e 75 be
       0.027092798 -0.077095926 0.095817484 -0.23949467
0002e0 84 28 83 3e f3 76 1f be 8f 4a 91 bd 3e f4 ee bc
       0.25616848 -0.1557272 -0.07094299 -0.029169198
0002f0 95 be 05 be 38 2f 00 3e 50 03 ae 3e c4 5e c8 3d
       -0.13060983 0.12518013 0.33986902 0.097837
000300 62 5d b0 3d f1 b6 0a 3e 31 5f 2d bd d6 dd 6f bd
       0.08611561 0.13546349 -0.04232711 -0.05856117
000310 86 c8 0a 3e 8d 1e 9a 3d de 11 07 3e e1 b3 c5 3d
       0.13553056 0.07525358 0.1319041 0.0965345
000320 f0 81 4d be 2e 97 bb bd 9e 2c 24 3e 9d a1 9d 3d
       -0.20069098 -0.091596946 0.16032645 0.07696841
000330 a3 59 95 3e d9 63 06 3c 54 33 c0 3c 0f e5 40 3d
       0.2916995 0.0082025165 0.023461975 0.047093447
000340 e4 3e 5a be d3 a9 13 3e 72 e7 8d bd 97 6c e3 bb
       -0.21313053 0.14420252 -0.0692891 -0.006940435
000350 5f 9f 28 bd 5d c0 01 3e 93 73 0e 3e 59 41 c7 3d
       -0.041167613 0.12671037 0.13911276 0.09729261
000360 0e 9e e1 bd 23 05 0d be 9b 32 92 3c 80 d0 20 be
       -0.11016475 -0.13771491 0.017846396 -0.15704536
000370 13 b2 ab 3d 00 76 d8 bd 0b 43 f1 bd 83 fc eb bd
       0.08383574 -0.10569382 -0.117803656 -0.11522772
000380 07 42 b4 bc 66 c8 75 3d 70 f3 7a 3d a9 a6 6a 3d
       -0.02200414 0.060005568 0.061267316 0.057287846
000390 cc 01 dd 3c 6c f0 a6 bb e0 19 d1 3b 10 6c 15 3e
       0.026978396 -0.0050945785 0.0063812584 0.14592004
0003a0 5a b3 47 3e 2b cb 3e 3e af 49 10 be 74 50 d1 3c
       0.19502011 0.1863219 -0.14090608 0.025551058
0003b0 6c a3 bc 3c da 26 3b bd d6 50 24 3e 5a 7d 9e bd
       0.023027144 -0.04569135 0.16046461 -0.07738753
0003c0 89 25 0e bc 3d 31 52 bd 7c a9 85 3c 61 d6 da 3c
       -0.008675941 -0.05131649 0.016316168 0.026713552
0003d0 00 e4 7b bd 55 5a 9e 3d fc f6 70 3c 59 50 10 bd
       -0.061496735 0.07732073 0.014707323 -0.035232875
0003e0 83 20 7f 3c df 3e 53 3d dc e7 be 3d 18 e0 9c 3d
       0.015571716 0.05157363 0.093215674 0.0765993
0003f0 e8 2b 4c 3d 7d 09 a2 3d fb e6 58 3e 5d e6 28 3e
       0.04984656 0.07911966 0.21181862 0.16494127

bias f4 [128]
000000 f0 09 82 bd 95 e9 c8 3a 0a 1b 45 be 9e 08 b3 bc
       -0.06349552 0.0015328402 -0.19248596 -0.021854695
000010 48 23 7d 3c b2 ad 0e bd 3e f3 cd bc 72 15 be bb
       0.015450306 -0.034833618 -0.025140401 -0.0058008963
000020 4f 9d 02 bc bb 17 82 bc 44 1a 26 bc 5b 65 12 bd
       -0.007972076 -0.015880456 -0.010138098 -0.03574119
000030 7e 25 cf bd ae ec c9 bc 51 ae 33 bd 7e 9d fd bc
       -0.10114573 -0.02464899 -0.043867413 -0.030958887
000040 ff 43 43 bd ee aa 4c 3d 7b 85 c7 bc 21 ce db bc
       -0.047672268 0.0499677 -0.02435564 -0.026831688
000050 58 51 bc bc e2 ea c1 bc b8 5e bc bd c4 f8 ff bd
       -0.022988006 -0.023671571 -0.09197754 -0.1249862
000060 00 03 80 bd 79 aa 8d bc 30 2c 86 bd d1 a3 86 bc
       -0.06250572 -0.017293202 -0.06551397 -0.016435536
000070 a4 30 a8 bd 92 bb 7d bd fd 93 ab b9 43 38 92 bc
       -0.082124025 -0.06194646 -0.00032725921 -0.017849093
000080 ec 3c a1 bb c3 00 81 bd ae 28 0e bd 5d b5 36 bd
       -0.0049205925 -0.062989734 -0.034706764 -0.044606555
000090 aa 5c 08 bd fa 4b 85 bd b7 04 ee 3c f3 be 2b bd
       -0.033291496 -0.06508632 0.029054983 -0.04193015
0000a0 15 a9 c3 bd f9 57 ae bc 98 41 1a be 7d f3 99 bd
       -0.09553734 -0.021282183 -0.15064085 -0.07517145
0000b0 eb 40 bc bb 63 3e d6 bd 6d 3b ed bc 76 22 36 bb
       -0.0057450435 -0.10461118 -0.028959 -0.0027791536
0000c0 52 33 89 bc 33 9b c2 3c 30 18 81 bd 0a fb 03 be
       -0.016748104 0.023755645 -0.063034415 -0.12888733
0000d0 ce 53 97 bd f0 9d 80 bd 16 d2 00 bb f3 94 c4 bd
       -0.07389031 -0.06280124 -0.001965647 -0.09598722
0000e0 a0 d4 8a bb f2 10 05 bd 14 c3 95 bc 25 6d 5c bc
       -0.0042367727 -0.032486863 -0.018281497 -0.013453756
0000f0 fb ac 09 bd e1 92 84 bc db d0 bf 3b bf d1 96 bd
       -0.033612233 -0.016183319 0.005853755 -0.07364225
000100 4f bf 15 bd 25 3c 29 bd c5 a8 b7 bb 60 23 16 bd
       -0.0365594 -0.041317124 -0.0056048357 -0.03665483
000110 c7 bc e2 bb 75 27 b3 bc f8 ba da bc 67 59 95 3c
       -0.0069194767 -0.0218694 -0.026700482 0.018231107
000120 64 94 5f bd f3 60 ca 3c a3 3c 0c bc c4 c2 45 bd
       -0.054584876 0.024704432 -0.008559379 -0.048281446
000130 46 dc 82 3c 4b 71 d6 bc 66 fc e8 bc b8 70 c2 bc
       0.015974175 -0.02617707 -0.028440665 -0.02373539
000140 79 ef 02 bd 85 47 88 bd 21 50 d2 bc f9 72 c4 bd
       -0.03196666 -0.06654266 -0.025672974 -0.09592242
000150 5b 0d 36 bd 76 8f 92 bd c8 e8 1c bb 68 e0 a0 bc
       -0.04444633 -0.07156269 -0.002394246 -0.019638255
000160 60 93 ef bc 97 a4 72 bc 82 8a 87 3c 8a 2d 98 bd
       -0.029245079 -0.014809749 0.016545538 -0.07430561
000170 0c f8 4e bc 26 ca a5 bc 2b 30 55 bd ce aa ef bc
       -0.012632381 -0.020237993 -0.05204789 -0.02925625
000180 e1 c3 ff bc 5e 7d a9 3b 0b 0b 59 bd 4b fe 56 bd
       -0.031221332 0.0051724156 -0.052989047 -0.052488606
000190 d7 4e 84 3b be 8f eb bc f4 60 4b bc 44 7b ab 3c
       0.0040377188 -0.028755065 -0.012413252 0.020932801
0001a0 73 f9 9d bd 1f ad e7 bd 4d 87 1e bd 2a da 21 bd
       -0.07713594 -0.11312317 -0.03870325 -0.039514698
0001b0 94 53 c0 bd 92 d0 81 3b 27 8b 48 bc 68 37 b5 bd
       -0.09390941 0.003961631 -0.012240208 -0.088484585
0001c0 90 e4 c2 bc 65 32 4a 3c 00 05 cf bd 7a bd a0 3d
       -0.023790628 0.012341117 -0.101083755 0.0784864
0001d0 d1 25 1d bd 7e 36 08 be 79 fb 0d bd 92 f9 be bd
       -0.038366143 -0.13302037 -0.03466365 -0.093249455
0001e0 15 cb a3 bc 86 30 aa bd ce 64 17 be 1b 49 fa 3c
       -0.019994298 -0.08310036 -0.14784548 0.030552438
0001f0 c2 18 38 bd 61 d0 0f 3c 2c 81 e4 bd b4 92 02 bc
       -0.044945486 0.008777709 -0.1115745 -0.007969547

weight f4 [128, 128]
000000 d1 28 11 bd 93 52 96 bc 00 1c 5a 3d 56 f5 6b bb
       -0.035439316 -0.018349921 0.05324936 -0.0036004386
000010 ff 33 90 3c ea 42 98 bc ce 42 ff bd 48 36 58 bd
       0.017602919 -0.018586595 -0.12463914 -0.05278614
000020 98 ec 6d 3d 23 13 89 3d c2 5d 91 3d 02 a1 e5 3d
       0.05808696 0.06693103 0.07097961 0.112123504
000030 54 60 32 bd a6 60 d3 3c d4 9f 64 bb 8a 2e 60 bc
       -0.043548897 0.025802922 -0.0034885304 -0.013682971
000040 65 8c e6 bc 5c cf 24 3d 89 c9 87 3d 02 30 8c bc
       -0.028143117 0.040236816 0.06630237 -0.017112736
000050 5b 2b f9 bc 7c b9 9e 3b 3b b9 85 3d f1 ec 31 bd
       -0.030416181 0.004843889 0.065294705 -0.043438856
000060 47 31 17 3d 10 df 71 3d cd 53 84 3c 98 03 1a ba
       0.03691223 0.05905062 0.01615324 -0.00058751693
000070 27 f7 e4 bb b9 33 8b 3d 31 3a 7c 3d 29 27 ac bd
       -0.0069874707 0.06796975 0.061578933 -0.08405907
000080 71 d8 ec bd e1 7e a6 bc 0d b4 40 3c 5e 51 a1 3c
       -0.115647204 -0.020324172 0.011761677 0.01969212
000090 ff f5 8e 3c 18 30 a6 bd fd f7 9c 3d 08 b1 38 3d
       0.017451284 -0.08114642 0.076644875 0.045090705
0000a0 90 b7 a3 3c d6 b3 96 3c b1 b3 99 bd c5 b6 ef bc
       0.01998499 0.0183963 -0.075049765 -0.029261956
0000b0 6f f9 72 3c ec aa 71 bb 52 e5 b7 bc c2 b6 5f bc
       0.014829977 -0.003687556 -0.022448216 -0.013654413
0000c0 82 ac ea 3c 08 7c bd bd dc 35 b8 bc 62 7c b6 3d
       0.028646711 -0.09252173 -0.02248662 0.08910443
0000d0 75 1a 16 bd 12 3a 59 3d 12 a3 81 3d 6f b8 ba bc
       -0.036646325 0.053033896 0.06329931 -0.022793023
0000e0 2c 32 d6 bb cf fb 70 bc 32 c7 13 3a e9 d4 0d bd
       -0.0065367427 -0.014708473 0.00056372874 -0.034626875
0000f0 33 95 4b bd 17 bf 61 3b c0 4f 7f 3d 3d 8e bf bc
       -0.049702834 0.0034446174 0.062331915 -0.023383254
000100 59 82 f6 3c 14 5a 9d 3d 38 49 b7 3c cc 75 18 3d
       0.030091451 0.07683197 0.02237378 0.037221715
000110 fc c2 8e bd 9f d9 5b 3d b1 f2 2b 3c be 90 2d bd
       -0.06970784 0.053674337 0.010494874 -0.042374365
000120 5a 99 64 3d f4 d6 a4 bc 85 46 6a 3d c5 a8 db 3d
       0.05581031 -0.020122029 0.05719616 0.107255496
000130 5a 20 41 bd 53 65 2e bb 3b 1f 03 bc 4a bd a3 bd
       -0.047149993 -0.0026610687 -0.008003051 -0.079950884
000140 19 af 17 3d 87 63 92 bd 3c f0 34 bd 00 8a c7 3d
       0.03703222 -0.071478896 -0.044174418 0.09743118
000150 f7 a7 ce bd 9f de f4 bd 9e 94 ea bc 57 05 4d bb
       -0.100906305 -0.11956524 -0.02863532 -0.00312837
000160 74 32 e7 bc 7e e5 79 3c eb 5a 97 3d 09 bc 64 3d
       -0.0282223 0.015252469 0.07390388 0.055843387
000170 f5 59 30 3c 5f 82 ab bb 85 01 da 3d 1b 1f 50 bb
       0.010763635 -0.0052340473 0.10644821 -0.0031756822
000180 d6 ae aa 3b b0 bb b0 bd b0 1c 81 bd 0f 8e b2 3c
       0.0052088303 -0.086295485 -0.063043 0.021796254
000190 1e 30 4c bd e1 97 6c bd 68 a2 0d bd 31 e6 58 bd
       -0.049850576 -0.05776203 -0.03457871 -0.052953903
0001a0 96 70 71 3b 04 bd fe 3c e4 30 3a 3d 4e 7f a0 bb
       0.0036840788 0.031095989 0.045456782 -0.0048979884
0001b0 46 1d 97 3d 54 84 2b 3d 5c 70 5c bd 1b e6 7b 3b
       0.0737863 0.041874245 -0.05381809 0.0038436714
0001c0 0e de b6 3c ef 4d 93 bb 2e c8 9a 3b 81 81 c5 ba
       0.02232268 -0.0044953744 0.0047235703 -0.0015068502
0001d0 f9 84 17 bd 25 7c 4e bd a1 fd 3f bd e7 62 28 bc
       -0.036992047 -0.050411362 -0.04687274 -0.010277486
0001e0 b5 3a 82 3d a6 dd b5 3c 2c ec 01 3d 6b f1 01 3c
       0.06358854 0.022200417 0.03171937 0.007931094
0001f0 9e 65 8d bd 54 61 1d 3d 1f b9 0a bc 78 d9 a3 3d
       -0.069041476 0.038422897 -0.008466988 0.08000463
000200 42 88 22 3d 79 74 41 bd 1e db 9f 3c ba 17 89 bb
       0.039680727 -0.047230218 0.019513663 -0.0041837366
000210 a1 17 72 3d 6a 1f 0f 3d 4f 0f d6 3b 70 3e 0d 3d
       0.059104566 0.03494207 0.0065325866 0.034483373
000220 68 3f ba bc e9 55 0d 3c 26 1e 28 bd 82 a4 25 3c
       -0.022735313 0.00862644 -0.041044377 0.0101100225
000230 97 64 11 3c 67 e1 82 3c 98 fc 67 3d cb e3 04 bd
       0.00887408 0.01597662 0.056637377 -0.032443803
000240 e5 2c 72 bc d1 53 cb 3c 27 54 9d 3d ff f3 7c bc
       -0.0147812115 0.02482024 0.076820664 -0.015439033
000250 6a 03 cf bb 93 95 23 3d 17 50 6c bd 0d a3 be 3c
       -0.0063175457 0.039937567 -0.057693567 0.023271108
000260 0c 1e e9 bb 7a 5e 8e bc e9 55 6b 3c c3 eb 95 bc
       -0.0071141776 -0.017379034 0.014363744 -0.018300897
000270 d4 0f 6e 3a fb 9e 9b bd 61 83 4f bd 17 82 e7 3c
       0.0009081338 -0.075986825 -0.050662402 0.028260274
000280 fa 49 fb bc 81 4e 54 bd 06 87 7a bc 8c dc 46 3d
       -0.030674923 -0.05183268 -0.015290981 0.048550174
000290 ae 95 02 bd 42 99 1c 3c d0 13 85 bd b9 40 c8 ba
       -0.031881027 0.009558024 -0.064979196 -0.0015278078
0002a0 df 89 e0 bc f7 07 7c bc e8 54 89 bb 99 b4 4f bc
       -0.027409492 -0.015382758 -0.00419103 -0.012677335
0002b0 ed c6 16 bd 0a cd 34 bd ef bb a9 bb 5b 23 f2 3b
       -0.036810804 -0.044140853 -0.005179874 0.0073894686
0002c0 74 16 dd 3b 96 ed 9a 3c 25 76 c3 3b 05 f7 63 bd
       0.0067470614 0.018912118 0.0059650117 -0.055655498
0002d0 ac a2 c8 3c 9d 46 33 3c f5 76 9d 3a f3 22 b1 3b
       0.02449163 0.0109421285 0.0012013601 0.0054057776
0002e0 b9 c9 59 3d 00 37 3f bc a3 0f 2f bd 0c 71 7d 3b
       0.053170893 -0.011670828 -0.04273952 0.0038672118
0002f0 ee 57 b3 3c 07 45 d9 3c d0 ee 83 ba ee 54 20 3d
       0.021892514 0.026522173 -0.0010065679 0.039143495
000300 41 29 bd bb d8 9d 97 bd 2a f0 dd 3a 05 1d 2b 3d
       -0.00577274 -0.07403153 0.0016932536 0.041775722
000310 21 16 64 3d 5a da 16 3d 5b d2 18 bd 56 e5 07 bd
       0.055685166 0.03682933 -0.037309986 -0.033177696
000320 24 0a 18 bd 7e 17 f8 bb 4e 42 14 bb c3 c4 b4 bc
       -0.037119046 -0.00757116 -0.0022622528 -0.02206648
000330 ab 2c a9 3b 80 f3 82 3c 92 bc 47 3d 4b 6f 07 3d
       0.0051627955 0.01598525 0.04876382 0.03306512
000340 cb 83 03 3d 7a f9 39 bd 25 c0 7b bb a1 fd 72 3b
       0.03210811 -0.045403935 -0.0038414088 0.0037077444
000350 83 b8 11 bd 13 71 9b bc db d2 bc bc 7a d5 dc 3c
       -0.035576355 -0.018974816 -0.023049762 0.026957262
000360 b9 4f 86 bd 5c 8a 36 bd 54 70 44 3d 19 92 25 3d
       -0.06558175 -0.044565544 0.047958687 0.040422533
000370 9e c3 7b bb d1 32 e7 3c dd 02 e1 3b 38 7f a9 3d
       -0.0038416157 0.028222473 0.0068667964 0.08276218
000380 80 47 0d bd c1 9a 7a bd ff 37 c9 bb 96 55 9d bb
       -0.034492016 -0.06118274 -0.0061407085 -0.0048014624
000390 0c eb 70 bd 1b 13 12 bd d8 b1 5d 3b 17 e0 97 bd
       -0.05881791 -0.03566275 0.0033827927 -0.074157886
0003a0 f8 ca 01 bd 75 73 3e 3c 9e 9d 84 3d aa be df bc
       -0.031687707 0.011624207 0.064753756 -0.027312595
0003b0 f1 7b d1 3c 87 d2 96 bc e8 b5 cd 3d cd 04 59 3c
       0.025571795 -0.018410934 0.100444615 0.0132457735
0003c0 a2 84 59 3c 08 3d 48 3c c9 d6 ea bb f0 39 23 bd
       0.013276251 0.012221582 -0.0071667177 -0.039850175
0003d0 d4 1e 35 bd 12 cc 33 bd 5e da fc 3c 76 a5 82 3c
       -0.044218853 -0.04389579 0.030865844 0.015948039
0003e0 d1 84 e7 3a 7d ce 7a 3d 7c 89 6a bd 9d c2 41 bc
       0.0017663484 0.06123208 -0.05726002 -0.011826185
0003f0 85 ea 1a bd c8 0e 2d bd c6 4b 46 bd 57 5b e9 3c
       -0.03782131 -0.042250425 -0.048412107 0.028485937

bias f4 [128]
000000 4e 55 17 3d 1b 7c 26 3c 6b 11 66 3b 3e e8 03 be
       0.036946587 0.010161425 0.0035105597 -0.12881562
000010 88 73 27 3d 34 dc 0e 3d a7 07 81 bd 68 a4 c7 bc
       0.040881664 0.03487797 -0.06300288 -0.024370387
000020 18 72 74 3b 83 c0 81 bc 1f 9c 30 3b b2 09 80 bb
       0.003729945 -0.015838867 0.0026948524 -0.003907406
000030 ad f0 90 bc 62 66 91 3c d2 e9 84 bc 88 ee e2 bc
       -0.017692888 0.017749015 -0.016224775 -0.027701631
000040 b1 38 1e bd cd ca 53 3b ce 16 e9 bb e0 6e 2c bc
       -0.038628284 0.0032316924 -0.0071133142 -0.010524482
000050 72 a5 8f 3b e8 31 eb bc a0 21 06 bc 7f b6 0f bd
       0.0043837363 -0.02871032 -0.008186728 -0.03508615
000060 35 88 b4 3b 3e 52 5d bd dc e1 bc bb 2b 3e c8 3c
       0.005509401 -0.05403351 -0.005764229 0.024443706
000070 20 38 08 be 7c d4 1f bc 45 1f 79 bc 21 39 ce bc
       -0.1330266 -0.00975525 -0.015205209 -0.025173726
000080 96 cd 1f bc 37 15 a9 38 81 a0 ca bd 90 31 31 bc
       -0.009753605 8.0624995e-05 -0.09893895 -0.010815039
000090 b8 43 81 bc ff 8e 9c 3c d1 fc 92 3c 09 0e b8 bc
       -0.015779361 0.019111155 0.017942818 -0.02246763
0000a0 95 2f 21 bd 4d 2d 18 be 44 c5 59 3d d3 6f 09 3c
       -0.03935202 -0.14861031 0.053166643 0.008388477
0000b0 0d 51 52 bc 32 de f6 bc 8b 48 31 bd 7a 1e cd bd
       -0.012836707 -0.030135248 -0.043282073 -0.100155786
0000c0 a7 2b 17 bd f2 5c ed 3c f4 6c 03 bd 9f 3e 0e bb
       -0.036906864 0.028974984 -0.032086328 -0.0021704806
0000d0 34 04 ac 3c 92 7e 5a bb 21 5d a8 bd 4f fe 25 3c
       0.020998098 -0.0033339602 -0.08220888 0.010131433
0000e0 ea 10 7b 3d 1a 11 14 bc 85 5b 67 3c 7b e5 48 bd
       0.061295427 -0.00903728 0.014120941 -0.049046975
0000f0 42 56 95 3c 07 87 97 3c 5c 14 ae bd 51 48 37 bc
       0.018229607 0.018497003 -0.08499977 -0.011186675
000100 50 7b 5d bc 62 6f 39 3d 11 96 19 3c e4 bb 4a bc
       -0.0135181695 0.04527224 0.0093741575 -0.012373898
000110 5b a0 3b be b5 11 f6 bb 10 a8 76 bc 61 ba 85 bc
       -0.1832289 -0.007509435 -0.015054718 -0.016324224
000120 0f 53 0f bd 24 bb 37 3c 79 cb 56 bd b1 76 99 3b
       -0.03499132 0.011214051 -0.05244014 0.0046833386
000130 d9 6a 40 bc f1 06 22 3d 4f ce 1f bd c4 49 9b bd
       -0.0117442245 0.0395574 -0.03901511 -0.07582429
000140 bd f0 b6 3a 9b a2 81 bc 5d 66 27 bc 22 a2 76 bb
       0.0013957244 -0.015824607 -0.010217276 -0.003763326
000150 c3 16 e2 bc d0 f6 4b bd 7f c4 45 3a e5 4d d2 3c
       -0.027598744 -0.049795926 0.0007544234 0.025671909
000160 8a 89 a2 3c a2 18 f6 bd 48 bf 2c bd 0c d6 02 be
       0.019840974 -0.12016417 -0.042174608 -0.12776965
000170 bd d2 64 b9 d9 61 44 bd 22 0a 0b 3c 9e e6 51 bc
       -0.0002182228 -0.047944877 0.008486303 -0.012811331
000180 40 2b c4 bd 1b 29 dd 3c 55 2a f9 bb cf 20 61 bd
       -0.09578562 0.02699714 -0.0076039233 -0.05496293
000190 ad 1e 1d 3a f6 e9 84 bd 01 4a da 3c 10 5a 9c bb
       0.0005993646 -0.06489937 0.026646616 -0.0047714785
0001a0 e5 e1 f4 3b ba 5e bf 3a eb df ec bc 46 f7 0f 3d
       0.007473218 0.0014600374 -0.028915366 0.035147928
0001b0 12 0c fa bc e2 bd 0e bb e9 b3 6c 3b af 24 76 3a
       -0.030523334 -0.002178066 0.0036117977 0.00093896216
0001c0 61 7e bc bc d7 7e cc bd d5 ac ad 3c 5d 64 5e 3d
       -0.02300948 -0.0998513 0.021200577 0.054294933
0001d0 76 33 81 bc 3f 72 3b bd e3 fd 7a 3c f5 13 85 bd
       -0.015771609 -0.04576325 0.01531932 -0.06497947
0001e0 d8 2d fe ba 90 c1 1c bb f5 11 d2 bc 1e 9e 60 bd
       -0.0019392325 -0.0023919083 -0.025643328 -0.054838292
0001f0 b7 d5 b3 3c dd fe ce bd 4e d7 4a 3c 6a 26 f5 3c
       0.021952493 -0.10107205 0.012380434 0.029925544

weight f4 [8, 128]
000000 48 f2 08 ba 32 4f 78 3b 20 55 3e 3b a1 b5 0a 3c
       -0.0005224091 0.0037889 0.0029042438 0.008466155
000010 37 94 47 3c 81 a9 f0 3b 60 d6 df bc b5 73 20 bc
       0.012181333 0.007344425 -0.027323902 -0.009793212
000020 5c fb 17 3c 05 65 2f bc 06 57 a1 3b e7 dd a1 3a
       0.009276237 -0.010705237 0.004923704 0.0012349457
000030 49 bb dd 3a 4a 57 0e 3c 89 92 a0 3b 17 57 88 bc
       0.0016916777 0.0086878035 0.004900281 -0.01664309
000040 ec 3b 90 bc 65 77 c1 3a 4b 43 07 3c 52 01 bc ba
       -0.017606698 0.0014760314 0.00825579 -0.0014343655
000050 7e de 33 3b 99 bd 2a 3c ba fb 2a bc df 20 4a 3b
       0.0027445848 0.01042118 -0.010435993 0.0030842347
000060 aa 2b 27 3c 79 77 34 3c ff 84 85 3b 36 58 ae bb
       0.010203281 0.011014813 0.0040746923 -0.005320574
000070 86 36 68 bc 78 73 fc ba 81 8d b4 bb 73 62 6c bb
       -0.014173156 -0.0019260487 -0.0055100326 -0.0036069422
000080 70 33 b5 3a e9 3f aa bb f6 0c cf bc 1d 6e a0 3a
       0.0013824534 -0.005195607 -0.025274735 0.0012239848
000090 5c b6 f8 3a 9b f4 20 3a 3a b2 cc ba cd bf 0b bc
       0.0018975246 0.00061399647 -0.001561708 -0.008529616
0000a0 70 e2 0d ba 96 a9 d0 ba a1 e8 47 bb f4 31 c0 bb
       -0.0005412465 -0.0015919681 -0.0030503648 -0.00586533
0000b0 31 2d 91 bb 58 dc d2 3a 95 d7 a7 3b 92 90 01 ba
       -0.004430436 0.0016087396 0.005122135 -0.0004942502
0000c0 0e 1f 6c ba d4 7b 81 b8 1d ee 25 3c 87 ce 0b bb
       -0.0009007313 -6.174264e-05 0.010127571 -0.0021332817
0000d0 75 47 af bb 2f e4 88 ba df 47 81 bd 6b a7 2d 3c
       -0.0053490945 -0.001044398 -0.063125364 0.010598998
0000e0 e3 86 94 3b f2 82 05 3d de 0e 02 3a 7c bd a1 3b
       0.0045326813 0.032595582 0.0004961322 0.0049359184
0000f0 07 74 17 3c eb c1 8b bb e8 1c 81 bc 58 88 b8 ba
       0.009243972 -0.00426506 -0.015760854 -0.001407872
000100 36 36 c9 bb e7 26 6a bb ca f8 13 3c d0 b3 fd 3b
       -0.0061404957 -0.0035728754 0.009031484 0.0077423826
000110 07 fd 20 bc a3 bf 87 3c b4 10 0d 3b 26 29 ed bb
       -0.009825951 0.016570872 0.0021524848 -0.0072375713
000120 5a 7d f4 bb e8 62 2f bb a7 c6 00 3c 59 db 50 b9
       -0.007461232 -0.0026761834 0.007859862 -0.00019918139
000130 6f 5c 41 3b 52 b1 49 3b e2 1a 5f 3c fe 77 0c 3a
       0.0029504558 0.0030775857 0.013617249 0.00053584564
000140 6f ca 93 3a ef f1 a9 3b 37 c6 05 ba 15 ff 9a 3b
       0.001127554 0.0051863114 -0.00051030837 0.004730115
000150 4f 04 da 3c f4 ea af 3c d8 09 f3 3b 7e 52 a0 bb
       0.026613383 0.021474339 0.007416945 -0.0048926463
000160 93 82 81 bb ff 3d 64 3c ba fa 05 3a 88 69 85 3c
       -0.0039523332 0.013930797 0.00051109085 0.016285673
000170 f4 23 ac 3c c8 36 6d bc 3b 18 62 3c eb 3a b5 bb
       0.021013238 -0.014478393 0.013799722 -0.005530705
000180 6f ea d0 bc 23 de 42 3b 7e eb ad 3a 47 95 f4 bb
       -0.025502412 0.0029734455 0.0013269035 -0.0074640843
000190 77 4e a4 bb b0 4f 2d bb 84 0d a2 bb 9f 63 1e ba
       -0.0050142366 -0.0026445203 -0.004945459 -0.00060420664
0001a0 6e fb 27 bc f7 92 53 3b d3 0a 06 3c a3 22 28 3b
       -0.010252817 0.0032283643 0.008181292 0.002565541
0001b0 4a 57 85 bb cf 47 14 bc f6 d9 92 3c f3 fa 7d bc
       -0.0040692436 -0.009050324 0.017926197 -0.0155017255
0001c0 bf 16 e7 ba 71 02 41 3c f9 b6 b5 bb 18 fe 58 bc
       -0.001763068 0.011780367 -0.0055454937 -0.013244174
0001d0 90 ae 15 3b 9b 33 77 bb 46 5a 02 bc 86 11 a9 bb
       0.0022839643 -0.0037719968 -0.007956093 -0.0051595597
0001e0 41 9d 02 3c b7 e2 09 bb b9 2a 5a bc 50 14 f4 b9
       0.007972063 -0.0021039674 -0.01331585 -0.0004655444
0001f0 3a 9e d5 3a 65 0a 7a 3c 40 df df ba 11 3f 96 ba
       0.0016297766 0.015261267 -0.0017080083 -0.0011462887
000200 56 3e bc 3b 2d cd cf 3a c0 4e 03 bc 01 88 fb 3c
       0.0057447357 0.0015853994 -0.008014381 0.0307045
000210 9a 96 87 3a 51 b3 4b bc bf a8 d1 3b 94 47 99 3b
       0.0010344565 -0.012432889 0.00639829 0.004677722
000220 d3 5b 94 bb f3 88 80 39 11 00 2c bb 99 07 23 b9
       -0.004527548 0.00024516098 -0.0026245157 -0.00015547722
000230 3c d9 09 bc 63 0a bc 3b de 37 66 3a 76 b9 b6 3c
       -0.008413609 0.005738543 0.00087821286 0.022305232
000240 d9 06 18 bc a7 86 87 3c b6 e0 5b bb 5a 16 d8 3b
       -0.009278976 0.0165437 -0.0033550686 0.0065944614
000250 33 88 e3 3b f5 5e 2b bb 84 14 c4 39 ce c4 de bb
       0.0069437264 -0.0026149128 0.00037399319 -0.0067983633
000260 22 0f 13 bc 10 0c 82 3c 7d 7f 8d bb ba 77 ea 3a
       -0.008975776 0.015874892 -0.0043181763 0.0017888464
000270 4f c7 28 bd 7e a5 b7 ba 49 85 cc bb 5b 6c 21 3c
       -0.0412057 -0.0014011113 -0.0062414748 0.009852494
000280 9f 92 5d 3b 17 99 83 bb f9 b1 d4 bb a6 c5 f8 3a
       0.0033809317 -0.0040160525 -0.0064909426 0.0018979802
000290 f1 71 87 ba fc d8 32 ba d8 e4 08 bc b3 4a 50 bc
       -0.001033364 -0.00068224943 -0.008355342 -0.012713122
0002a0 c7 7b 42 3c 6c c2 c6 ba 19 11 fe bb 2b 5a a3 3c
       0.011870331 -0.0015164143 -0.007753503 0.019940456
0002b0 86 bd 78 bc 9c d3 5b 3c 51 20 8e 3a bc 03 78 3d
       -0.015181905 0.013417151 0.0010843371 0.060550436
0002c0 0d 11 74 3c 3a 21 b3 3c c2 de ef bb 9b 4d 2e bb
       0.014896643 0.02186643 -0.007320256 -0.002659655
0002d0 d5 11 29 bc eb e7 17 3c 04 1b 9b 3c 3b 59 4b 3b
       -0.010319193 0.009271602 0.01893378 0.0031028527
0002e0 7e ac 9f 3c 4f 7f d3 bb 69 a9 9b 3b 73 db 96 3a
       0.01949143 -0.0064543854 0.00475042 0.0011509493
0002f0 10 40 13 3c 7d e1 8c 3b f0 0b c0 3b e8 f8 b7 bb
       0.008987442 0.0042993412 0.005860798 -0.0056143887
000300 79 c6 04 3c a0 52 38 3c 5f e5 f3 39 e3 5b 35 3c
       0.00810396 0.011250168 0.00046519467 0.011069271
000310 c9 99 bb bc 42 29 cf b9 cd 75 12 3c 85 31 53 3c
       -0.022900479 -0.00039512856 0.008939219 0.012890224
000320 18 73 0d 3b 5f 48 4b 3b 12 81 40 39 d7 6e f9 ba
       0.0021583494 0.0031018478 0.0001835863 -0.0019030225
000330 8d ed 52 3c ee 4d b7 3b 6d 5f cd 3c f6 3d ad 3b
       0.012874019 0.0055940067 0.025069917 0.0052869273
000340 14 10 7d bb 92 15 6c bb 3c dc c7 ba aa df 5b 3c
       -0.003861432 -0.00360236 -0.001524813 0.013420025
000350 50 4f e5 bc a0 52 af bb 7b 82 27 bb 96 59 02 3c
       -0.02799192 -0.005350426 -0.002555995 0.007955929
000360 5a 8b 26 3c 30 86 47 3d 62 aa 06 bc 88 f0 c6 bc
       0.01016506 0.048711956 -0.008219333 -0.024284616
000370 19 5a 6e bb 5a 87 1d bd 7e cf 70 bc c1 1d ba 3a
       -0.003636962 -0.03845916 -0.0146979075 0.0014199541
000380 c4 49 91 3a f7 64 0f bc db 81 a4 3a 7d 28 1e 3c
       0.0011084606 -0.008752099 0.0012550907 0.009653208
000390 23 7d ba bb 56 f2 b0 bc 51 6e 6f 3c 04 3e 81 bb
       -0.005691187 -0.02159993 0.014613704 -0.0039441604
0003a0 b0 5a 6d 3b 81 35 98 3c ed 72 3b ba 8d 7d 84 bc
       0.0036217384 0.0185802 -0.0007150609 -0.016173149
0003b0 53 a5 c6 ba 54 9b 62 3b 2a a4 46 3b 42 1f 1b 3c
       -0.0015155472 0.0034577446 0.0030310252 0.009467902
0003c0 0f e2 40 bc 2a 75 77 bc 2e 00 71 bc e6 30 f3 bc
       -0.011772647 -0.015103618 -0.0147095155 -0.029686403
0003d0 52 61 f0 3b 92 17 77 3b 95 42 c5 3b ce 0c 09 bc
       0.0073358202 0.0037703258 0.0060199 -0.008364869
0003e0 48 5c 82 3a 30 d2 de 3b d6 40 e7 3b fd 93 ac bc
       0.0009945715 0.0067999586 0.0070572896 -0.02106666
0003f0 de cb 1f 3c d5 7c 22 bb 21 9d 46 3b 34 ec 17 bc
       0.009753196 -0.0024793644 0.0030306058 -0.009272624

bias f4 [8]
000000 35 de 4b 3d ad ef cc bc 91 68 13 3e 88 22 6d bd
       0.04977246 -0.02501663 0.14395358 -0.05789426
000010 81 3f 35 bd d2 58 83 bc c6 de 91 3d 24 6b 63 3d
       -0.044250015 -0.016033564 0.07122569 0.0555221
