deploy/models/booster_gym_exp_knee/model_3200.pt (torch, 296190 bytes, 8 tensors)

weight f4 [256, 80]
-0.78615206 1.1883008 0.001610647 -0.03705108 -0.2143968 -0.20305969 0.10969664 0.08639801
-0.06539027 0.10745691 0.027583929 0.119550616 -0.18559006 0.039798766 -0.12034232 -0.012326598
-0.1302025 0.053385533 -0.00055204827 0.055242155 0.08074497 -1.0861204 -0.28844464 -0.1745571
0.033424914 -0.02085935 -0.11967093 -1.103945 -0.605808 -0.08044593 -0.5639688 -0.112425715
-0.3791471 -0.23248766 0.3252877 0.3875698 0.42745367 -0.07879486 0.11026526 -0.2946327
0.045537237 -0.09125541 -0.033021197 -0.52213216 -1.1469251 -0.7321137 -0.56587154 0.06541092
0.26077834 -0.01887486 0.03363532 -0.5294925 0.5057717 0.42373675 -0.5635466 0.26351002
0.1125833 0.03344313 -0.36232138 -0.037166942 -0.14901517 -0.21289472 -0.134104 -0.005237353
0.0018402298 -0.084134504 0.21550089 -0.6791341 -0.74953896 -0.111041464 0.56668496 0.12951785
-0.07468745 -0.27258018 -0.7942381 -0.19694056 -0.038501944 -0.0010312328 -0.29955554 0.07453687
-0.9218993 -0.24771038 -0.058573194 -0.14222306 -0.026633117 -0.042672094 -0.057462182 -0.07589187
0.05228308 -0.041723676 -0.09612537 -0.051753677 0.12257752 -0.0181435 0.06738945 -0.034842607
-0.1307555 0.078965865 0.03663219 -0.004050568 0.05711048 -1.4143448 0.4882952 -0.06944495
-1.5124137 0.12327999 -0.23222546 -0.3174605 0.22298501 -0.44236723 -0.016567357 -0.017201679
-0.35081083 0.10888216 0.09520216 -0.39658457 -0.08012351 0.07654409 0.08061649 -0.0061739082
-0.26031393 0.34808666 0.06392833 0.30620584 -0.26080787 0.07899045 -0.37642255 -0.26658496
0.15537901 -0.23230827 0.13761519 0.010390111 0.83797777 -0.22804618 0.1987994 0.019007921
0.2231307 -0.1888213 -0.033386692 0.025781497 0.055652667 -0.04563107 0.0017712048 -0.11015307
-0.1468358 -0.055635944 0.12596667 -0.22445814 -0.23377788 -0.052184828 -0.005428009 0.30316105
-0.098016776 -0.14819333 -0.190342 0.12196345 0.2115426 0.104507186 0.03134258 -0.39288297
0.17900954 -0.19563244 -0.01140541 -0.041849304 0.048581477 0.024087027 -0.038390476 -0.028712438
0.028063124 0.10428025 -0.010740945 0.09988577 0.009007576 0.044464372 -0.024089051 -0.067089856
-0.0013210669 -0.16529123 0.13322955 0.022156179 0.06463725 -0.86582106 -0.43620518 0.099171504
-1.0499216 0.1353382 0.1475164 -0.12932737 -0.8379639 -0.3249642 -0.00063987484 -0.088159986
0.13149361 0.142615 -0.0058669765 0.0044947607 -0.11662283 0.2873117 -0.022908486 -0.09949166
-0.30330986 0.03751792 -0.033379596 -0.23323482 0.0408224 0.5058182 0.45276782 -0.21451654
0.40666404 0.07933717 0.0033597932 -0.11330333 -0.022843944 -0.12215336 -0.11809413 0.093698636
0.09997677 -0.06001622 -0.102900304 0.13288951 -0.15176196 0.030169869 -0.11678163 0.06485738
-0.0068332143 0.10576908 0.01628893 0.12335655 0.49936104 -0.0059952396 0.35617092 0.052427243
-0.044513334 -0.107828386 0.40195414 0.22551285 0.16360718 -0.14103392 -0.14990892 -0.022672744
0.10585402 0.60915715 0.09977175 0.05045157 0.04359984 -0.021319522 -0.06832966 0.10830965
-0.071557395 0.034326818 0.10463882 0.022354236 -0.049625546 0.031076083 0.23297967 -0.023929898
00000000: 4341 49bf 3e1a 983f 581c d33a e0c2 17bd
00000010: d68a 5bbe e1ee 4fbe a2a8 e03d 71f1 b03d
00000020: 55eb 85bd 5e12 dc3d b1f7 e13c f4d6 f43d
00000030: 520b 3ebe 0804 233d 0976 f6bd 80f5 49bc
00000040: ce53 05be caaa 5a3d 55b7 10ba 9945 623d
00000050: 9e5d a53d fe05 8bbf 04af 93be 19bf 32be
00000060: 90e8 083d 3ae1 aabc 0816 f5bd 124e 8dbf
00000070: 3c16 1bbf d6c0 a4bd 4260 10bf 743f e6bd
00000080: 921f c2be 3f11 6ebe 1c8c a63e 8c6f c63e
00000090: 35db da3e 335f a1bd c1d2 e13d 19da 96be
000000a0: 4185 3a3d 1ee4 babd 3c41 07bd 74aa 05bf
000000b0: 71ce 92bf ce6b 3bbf f5dc 10bf 29f6 853d
000000c0: bd84 853e 739f 9abc 30c5 093d d28c 07bf
000000d0: 417a 013f 06f4 d83e 9744 10bf c9ea 863e
000000e0: 1392 e63d aafb 083d 3082 b9be 5d3c 18bd
000000f0: 6f97 18be 1301 5abe 8f52 09be 1a9e abbb
00000100: de33 f13a b64e acbd 44ac 5c3e bbdb 2dbf
00000110: c9e1 3fbf b569 e3bd 4412 113f 54a0 043e
00000120: bcf5 98bd a18f 8bbe 3053 4bbf c9aa 49be
00000130: 37b4 1dbd 6e2a 87ba 585f 99be c9a6 983d
00000140: 9801 6cbf caa7 7dbe 72ea 6fbd eca2 11be
00000150: b22d dabc efc8 2ebd 775d 6bbd 326d 9bbd
00000160: c826 563d 72e6 2abd 61dd c4bd aafb 53bd
00000170: ec09 fb3d ada1 94bc 7b03 8a3d 1fb7 0ebd
00000180: c5e4 05be dbb8 a13d a30b 163d a1ba 84bb
00000190: aeec 693d 4009 b5bf d401 fa3e 2739 8ebd
000001a0: c696 c1bf 387a fc3d 83cc 6dbe 2f8a a2be
000001b0: 2f56 643e f57d e2be 44b8 87bc 89ea 8cbc
000001c0: 7a9d b3be 9cfd de3d 5af9 c23d 220d cbbe
000001d0: cb17 a4bd 26c3 9c3d 421a a53d 7f4e cabb
000001e0: de47 85be 6a38 b23e dbec 823d 03c7 9c3e
000001f0: 9c88 85be bfc5 a13d 75ba c0be d37d 88be
00000200: ad1b 1f3e 38e2 6dbe ffea 0c3e 493b 2a3c
00000210: b685 563f f084 69be 1292 4b3e 80b6 9b3c
00000220: 607c 643e 5f5a 41be 7cc0 08bd b833 d33c
00000230: 0df4 633d a5e7 3abd c527 e83a ef97 e1bd
00000240: 205c 16be 84e2 63bd 68fd 003e 5bd8 65be
00000250: 7863 6fbe c2bf 55bd 71dd b1bb ed37 9b3e
00000260: 05bd c8bd febf 17be 03e9 42be f9c7 f93d
00000270: a09e 583e dd07 d63d 1461 003d f527 c9be
00000280: 474e 373e df53 48be c2dd 3abc 2d6a 2bbd
00000290: 5ffd 463d 2852 c53c 553f 1dbd 5936 ebbc
000002a0: a3e4 e53c e290 d53d cafa 2fbc e990 cc3d
000002b0: 8394 133c 4620 363d 6756 c5bc 6866 89bd
000002c0: a627 adba 1b42 29be 546d 083e e080 b53c
000002d0: 8960 843d 73a6 5dbf 4956 dfbe 6e1a cb3d
000002e0: d563 86bf 1996 0a3e 8a0e 173e 656e 04be
000002f0: cd84 56bf b561 a6be 46bd 27ba 398d b4bd
00000300: 43a6 063e ab09 123e c43f c0bb c948 933b
00000310: f3d7 eebd 851a 933e 94aa bbbc 49c2 cbbd
00000320: 6e4b 9bbe 64ac 193d 0bb9 08bd 1cd5 6ebe
00000330: 6435 273d 4d7d 013f 2fd1 e73e 39aa 5bbe
00000340: 4536 d03e 877b a23d fa2f 5c3b 940b e8bd
00000350: 3923 bbbc 8a2b fabd 56db f1bd 12e5 bf3d
00000360: 9fc0 cc3d 91d3 75bd 65bd d2bd 3014 083e
00000370: 7d67 1bbe cd26 f73c 352b efbd f2d3 843d
00000380: 28e9 dfbb 769d d83d 5d70 853c 5ca2 fc3d
00000390: 40ac ff3e b773 c4bb 095c b63e f3bd 563d
000003a0: 9d53 36bd 21d5 dcbd efcc cd3e d7ec 663e
000003b0: a488 273e 326b 10be b981 19be 31bc b9bc
000003c0: fec9 d83d b9f1 1b3f 2255 cc3d 4ea6 4e3d
000003d0: bf95 323d 47a6 aebc 6cf0 8bbd 73d1 dd3d
000003e0: af8c 92bd 479a 0c3d e14c d63d 3b20 b73c
000003f0: 2844 4bbd 4593 fe3c 3992 6e3e a208 c4bc

bias f4 [256]
-0.18343525 -0.03371494 0.035126884 0.08767025 0.08493316 0.0014750909 -0.029195847 -0.09243207
-0.063267514 0.013570721 -0.011496442 -0.09405167 0.18146601 -0.032260984 -0.09772814 -0.10299664
-0.061861824 0.10051627 0.15778553 -0.15430446 -0.008834005 -0.011286023 0.056096986 -0.121506155
-0.053130813 0.02856184 0.20300218 0.034847658 0.16763335 -0.031092914 -0.005806946 -0.14013855
0.09936358 -0.0050337045 0.058609676 -0.10638804 -0.049303934 -0.08509357 -0.044407222 0.117088296
0.1254914 -0.14812438 0.076111935 0.008651018 0.04819453 -0.016240727 0.26923373 0.0943713
0.026136633 -0.095097385 0.058169786 -0.18844503 -0.011384613 -0.028775664 0.063010156 -0.050625984
-0.025254881 -0.03891195 -0.04256416 0.0019172286 0.076021746 -0.06932382 0.028795198 0.15144707
-0.2162842 -0.029916808 -0.023072634 -0.13587028 0.054943316 -0.081472784 -0.13533989 0.017819934
-0.061637715 0.11817161 0.13123794 0.026303003 -0.09012683 0.005835122 -0.00019812291 0.029106477
-0.052142322 0.14156504 -0.16540395 0.012097105 0.07818514 -0.10767432 -0.2342382 -0.06117435
0.10628479 -0.10702005 0.075015284 -0.110438876 -0.012437031 0.1018194 -0.058871068 -0.08465159
-0.058532268 -0.022907678 0.09497218 -0.009043354 0.10056693 0.09396812 -0.16312908 0.17108767
0.14592704 -0.14619277 -0.0018648233 -0.14885062 0.01574595 -0.043967612 0.106410444 0.017243793
0.07751856 0.07238723 -0.10765926 0.107338145 -0.07859004 -0.015756555 -0.057479467 -0.19663776
0.060337752 0.008601817 -0.0815962 0.029081231 -0.06733855 -0.12399049 -0.08199294 0.018418139
-0.05636315 -0.0063281585 0.08703641 -0.00059867394 -0.14589623 -0.15855822 0.037661213 0.13647039
0.18491653 0.18652005 -0.0863053 -0.12054607 0.039494064 -0.07308306 0.04623617 -0.07632396
-0.16742797 -0.18216048 -0.13225031 -0.052314088 0.05551949 -0.055380236 0.061215352 0.14133242
-0.08589423 -0.23249578 0.023152553 0.019726736 0.013966726 -0.014635929 -0.2353259 0.09417864
0.005549795 -0.051355258 0.15035552 0.09218947 0.051904406 0.078280926 -0.022947256 -0.08233632
0.0759294 -0.11321836 0.008124104 0.068866774 -0.13783449 -0.06055956 0.05845444 0.05827541
-0.2002828 -0.07115695 -0.0040777912 0.05746494 -0.024449794 -0.06805255 -0.093821876 0.016202701
0.07941728 0.03752158 -0.084357455 -0.04290918 0.14793396 -0.23506884 -0.23877281 -0.060859904
0.14043415 0.009703698 -0.16372772 -0.050045382 -0.04738307 0.038398772 0.14485085 -0.14043829
-0.06333924 0.045992214 -0.020894976 0.06346662 0.030192358 0.032970715 0.016415963 -0.039392926
0.088014126 0.046969093 -0.079617865 -0.06715098 -0.0971105 -0.09158471 -0.044983175 0.027175639
0.097380824 -0.0945635 -0.053972326 0.07680582 0.011457575 -0.13517012 0.14633067 0.08765694
-0.032484885 -0.10831163 0.005626923 -0.17024793 -0.08588542 0.16161501 0.07483581 0.10231494
-0.14101292 -0.045195118 -0.19299488 -0.09298253 0.050137702 -0.16585934 0.08614918 -0.028267285
-0.09648299 -0.16733076 -0.06123912 -0.0668448 -0.0533026 0.03562962 -0.15360348 -0.0270528
-0.104442544 -0.1267515 0.089153215 0.024706146 -0.09155176 -0.06700966 -0.047658328 -0.0050516664
00000000: 73d6 3bbe ad18 0abd 35e1 0f3d 768c b33d
00000010: 70f1 ad3d d657 c13a 212c efbc 064d bdbd
00000020: 6692 81bd bb57 5e3c 935b 3cbc 299e c0bd
00000030: 3ad2 393e 1824 04bd b125 c8bd e7ef d2bd
00000040: d362 7dbd 79db cd3d 8892 213e fd01 1ebe
00000050: 81bc 10bc 03e9 38bc f4c5 653d 38d8 f8bd
00000060: b29f 59bd 85fa e93c cedf 4f3e 6bbc 0e3d
00000070: 14a8 2b3e 91b6 febc 3248 bebb 7b80 0fbe
00000080: 227f cb3d c6f1 a4bb b310 703d f9e1 d9bd
00000090: ecf2 49bd 8a45 aebd 59e4 35bd fdcb ef3d
000000a0: d180 003e ebad 17be 93e0 9b3d 00bd 0d3c
000000b0: a167 453d 460b 85bc 01d9 893e bd45 c13d
000000c0: 7e1c d63c 6bc2 c2bd 7143 6e3d bcf7 40be
000000d0: 8786 3abc f1ba ebbc 780b 813d 315d 4fbd
000000e0: 53e3 cebc 2362 1fbd c257 2ebd 844b fb3a
000000f0: 4ab1 9b3d a6f9 8dbd e8e3 eb3c f114 1b3e
00000100: 9b79 5dbe 1814 f5bc d202 bdbc 9421 0bbe
00000110: 3e0c 613d 34db a6bd 8a96 0abe 1cfb 913c
00000120: d477 7cbd f503 f23d 3d63 063e 6579 d73c
00000130: 6a94 b8bd 8d34 bf3b 37bf 4fb9 b570 ee3c
00000140: 3093 55bd 6df6 103e a75f 29be f032 463c
00000150: 881f a03d 5b84 dcbd 24dc 6fbe f591 7abd
00000160: d7ab d93d 542d dbbd 9da1 993d c72d e2bd
00000170: b0c4 4bbc b186 d03d ca22 71bd d05d adbd
00000180: 88bf 6fbd e2a8 bbbc c680 c23d 932a 14bc
00000190: 09f6 cd3d 5c72 c03d 4f0b 27be 9b31 2f3e
000001a0: e66d 153e 8fb3 15be 166d f4ba 4c6c 18be
000001b0: a7fd 803c 6217 34bd b8ed d93d db42 8d3c
000001c0: 0dc2 9e3d c23f 943d 757c dcbd 1ad4 db3d
000001d0: d1f3 a0bd e413 81bc 976f 6bbd 695b 49be
000001e0: b824 773d a3ee 0c3c e91b a7bd c33b ee3c
000001f0: cbe8 89bd baee fdbd eaeb a7bd a3e1 963c
00000200: 0cdd 66bd 715c cfbb 2540 b23d 54f0 1cba
00000210: d265 15be 165d 22be a542 1a3d e5be 0b3e
00000220: c25a 3d3e 1dff 3e3e d5c0 b0bd dce0 f6bd
00000230: 87c4 213d 92ac 95bd 2362 3d3d bd4f 9cbd
00000240: 3d72 2bbe 4788 3abe a06c 07be 4c47 56bd
00000250: 6868 633d 63d6 62bd f3bc 7a3d 72b9 103e
00000260: 50e9 afbd 6013 6ebe 6caa bd3c f799 a13c
00000270: b2d4 643c 89cb 6fbc 46f9 70be bbe0 c03d
00000280: 0edb b53b e459 52bd ccf6 193e d5cd bc3d
00000290: b799 543d c051 a03d e2fb bbbc f29f a8bd
000002a0: e080 9b3d 07df e7bd f61a 053c 060a 8d3d
000002b0: 7c24 0dbe 4d0d 78bd ec6d 6f3d 32b2 6e3d
000002c0: ef16 4dbe bcba 91bd fe9e 85bb 5b60 6b3d
000002d0: ef4a c8bc 235f 8bbd af25 c0bd 87bb 843c
000002e0: 87a5 a23d 3ab0 193d 9ac3 acbd 89c1 2fbd
000002f0: 007c 173e e3b5 70be dc80 74be 3c48 79bd
00000300: f8cd 0f3e 42fc 1e3c 3da8 27be 63fc 4cbd
00000310: c014 42bd 0848 1d3d c853 143e 0ecf 0fbe
00000320: 01b8 81bd 5562 3c3d f12b abbc cafa 813d
00000330: f755 f73c 4d0c 073d c57a 863c 7a5a 21bd
00000340: c040 b43d aa62 403d b10e a3bd 7486 89bd
00000350: dfe1 c6bd c490 bbbd 4740 38bd 729f de3c
00000360: 996f c73d 82aa c1bd 1612 5dbd 5f4c 9d3d
00000370: 8db8 3b3c 096a 0abe b5d7 153e 7b85 b33d
00000380: df0e 05bd 7dd2 ddbd 0d62 b83b 7955 2ebe
00000390: b2e4 afbd 687e 253e 8443 993d 7f8a d13d
000003a0: b165 10be 841e 39bd 73a0 45be a06d bebd
000003b0: 315d 4d3d 08d7 29be fb6e b03d cb90 e7bc
000003c0: e098 c5bd c158 2bbe dfd5 7abd ede5 88bd
000003d0: d453 5abd 5df0 113d 3b4a 1dbe d59d ddbc
000003e0: f9e5 d5bd 25cb 01be f695 b63d 8b64 ca3c
000003f0: 7d7f bbbd 5c3c 89bd 6135 43bd 7388 a5bb

weight f4 [128, 256]
0.35882902 0.42976832 -0.037490256 0.20128068 0.10491089 -0.18522263 0.2650865 0.3555075
0.098320894 0.070791245 0.037868176 -0.037449643 -0.15714312 0.044613536 -0.14360014 0.22861776
-0.29169592 0.1860377 0.5154986 0.33278424 0.0046878927 -0.12377643 -0.42897323 -0.013361324
0.54331344 0.545761 -0.21722011 0.33399588 0.15604888 0.26889864 -0.17267679 0.10184345
-0.03857889 0.16181545 -0.137389 -0.05618129 -0.25655094 0.34685722 0.12796476 -0.19582587
0.15161775 0.026302718 0.2956509 0.1483166 0.084804274 0.27610573 -0.2536857 -0.00016399755
-0.16995206 -0.0041452968 0.39443254 0.32424387 0.45948416 -0.11698632 -0.19139247 -0.30723497
0.08405149 0.30022338 0.2544989 -0.5027912 -0.029441979 -0.43474376 -0.08642034 0.26608554
0.41259074 0.5211333 0.7072787 0.30189365 0.16789989 0.22083694 -0.033279963 0.24507609
0.26167494 0.15994671 -0.121060595 -0.25947797 0.4031129 0.38582563 -0.6423515 -0.06586336
0.24886411 0.1875735 -0.42354375 0.3613724 -0.45164567 0.3901643 0.15088935 0.28316194
0.27727124 -0.06073144 -0.50665873 -0.037725475 -0.25359574 -0.019660922 -0.44928235 0.402274
0.082545415 0.012144885 0.2845248 0.59112585 -0.19013144 0.0028886723 0.16665517 0.100078896
-0.1512898 -0.119166024 -0.22664624 -0.35718694 0.2757598 -0.119783774 -0.536756 0.26355028
-0.20642087 0.06253104 -0.09917032 0.28185332 -0.12173934 0.0020973096 0.27098 0.31472325
-0.09808989 -0.31182134 0.49869585 -0.12971017 -0.10905386 -0.28343245 -0.07165362 0.46545944
0.31287685 -0.26300782 0.16607665 -0.18635948 -0.3063165 0.110443555 0.07721569 -0.11621061
0.21343945 -0.076089986 0.450918 -0.23980282 -0.06729553 0.39197272 0.012438183 -0.018221617
-0.14176083 0.26157445 0.053090848 0.06999266 0.10870968 -0.14889203 0.43411407 0.01571672
-0.018065449 0.2658371 0.37183285 0.3408323 0.29354596 -0.2913578 0.12170021 0.31065246
0.09776137 -0.467974 -0.08721501 -0.39736778 0.52654463 -0.28556797 -0.121500425 -0.23313725
-0.019072076 0.13026178 0.3012333 -0.2059923 0.32887918 -0.2824785 0.2299376 0.024146281
0.52429247 0.0067860414 0.04067793 -0.30129188 0.10556922 0.27639386 0.1420789 -0.19295117
0.3415569 0.19602896 -0.030667407 -0.03801794 -0.15334229 0.61136866 0.33571687 0.37231433
0.17801583 0.005112834 -0.31717625 -0.014853777 0.58337367 0.023503745 -0.0045866743 0.0017646722
-0.4166349 -0.26364574 0.3116262 0.15069409 0.23238666 -0.4100481 -0.025662852 -0.0039238064
-0.29845324 0.66781706 -0.0771343 -0.19633691 -0.32860306 0.29216543 0.23894975 -0.011195365
-0.47111458 -0.27166754 -0.28558716 -0.24047808 0.002199065 -0.5014711 -0.26932666 -0.21042
-0.24339257 -0.23026632 -0.017672453 0.17403774 -0.20933606 -0.26687458 0.2606954 0.5328469
0.5260467 0.639455 0.4265715 -0.2797466 0.3915039 0.11509647 -0.19078068 -0.2735353
0.09137763 0.20518541 -0.0037059707 0.17950678 -0.2467361 0.12834832 -0.09108688 -0.17517094
-0.54033387 0.2083074 -0.1220063 0.09016415 0.110967025 0.19910887 0.41485435 0.03151784
00000000: 70b8 b73e 980a dc3e 628f 19bd 861c 4e3e
00000010: 85db d63d 00ab 3dbe 6bb9 873e 1405 b63e
00000020: 775c c93d 00fb 903d a91b 1b3d cc64 19bd
00000030: 20ea 20be afbc 363d ea0b 13be c61a 6a3e
00000040: 2b59 95be ab80 3e3e b7f7 033f b262 aa3e
00000050: e59c 993b 7f7e fdbd 61a2 dbbe 74e9 5abc
00000060: 9716 0b3f feb6 0b3f f36e 5ebe 8201 ab3e
00000070: 47cb 1f3e 15ad 893e 2fd2 30be 4c93 d03d
00000080: e604 1ebd f3b2 253e b4af 0cbe 5a1e 66bd
00000090: a55a 83be 4597 b13e 3209 033e 9486 48be
000000a0: af41 1b3e cc78 d73c 8e5f 973e 4fe0 173e
000000b0: ddad ad3d bb5d 8d3e 18e3 81be c2f6 2bb9
000000c0: ea07 2ebe 45d5 87bb 10f3 c93e 4b03 a63e
000000d0: 8241 eb3e 8696 efbd 63fc 43be e74d 9dbe
000000e0: 3023 ac3d e1b6 993e ae4d 823e edb6 00bf
000000f0: 4e30 f1bc bc96 debe 26fd b0bd 5d3c 883e
00000100: 183f d33e fe68 053f 3810 353f ce91 9a3e
00000110: f3ed 2b3e 1423 623e 9250 08bd 3af5 7a3e
00000120: 42fa 853e 12c9 233e 9eee f7bd 4cda 84be
00000130: d064 ce3e f08a c53e 2671 24bf 5fe3 86bd
00000140: 3cd6 7e3e 4513 403e bada d8be ce05 b93e
00000150: 1a3e e7be 9dc3 c73e bd82 1a3e 9afa 903e
00000160: 7ff6 8d3e 88c1 78bd 63b4 01bf 0786 1abd
00000170: 4dd7 81be f10f a1bc 5608 e6be dcf6 cd3e
00000180: 920d a93d 57fb 463c 3cad 913e 0654 173f
00000190: d1b1 42be e14f 3d3b a7a7 2a3e 2af6 cc3d
000001a0: b7eb 1abe 510d f4bd f415 68be 35e1 b6be
000001b0: 6330 8d3e 3251 f5bd d768 09bf 10f0 863e
000001c0: fe5f 53be 4610 803d cf19 cbbd 144f 903e
000001d0: 7a52 f9bd 0473 093b e4bd 8a3e 6823 a13e
000001e0: 5ae3 c8bd 0ca7 9fbe 1055 ff3e bed2 04be
000001f0: a157 dfbd 0f1e 91be 22bf 92bd b350 ee3e
00000200: 6531 a03e f6a8 86be ff0f 2a3e 05d5 3ebe
00000210: 84d5 9cbe 3b30 e23d 4223 9e3d d4ff edbd
00000220: df8f 5a3e 11d5 9bbd b9de e63e df8e 75be
00000230: 3dd2 89bd a6b0 c83e 85c9 4b3c 8045 95bc
00000240: c029 11be 16ed 853e ca75 593d 5058 8f3d
00000250: 2ea3 de3d 2777 18be 3344 de3e 5ac0 803c
00000260: fefd 93bc cd1b 883e e060 be3e 9281 ae3e
00000270: a84b 963e d92c 95be f63d f93d d70d 9f3e
00000280: 1d37 c83d 4a9a efbe c89d b2bd ca73 cbbe
00000290: a1cb 063f f735 92be 37d5 f8bd 88bb 6ebe
000002a0: 0b3d 9cbc 5863 053e 403b 9a3e a5ef 52be
000002b0: da62 a83e 06a1 90be c374 6b3e 6cce c53c
000002c0: 0838 063f 715d de3b e79d 263d ee42 9abe
000002d0: ad34 d83d 7f83 8d3e 227d 113e fe94 45be
000002e0: 8ce0 ae3e d1bb 483e 373a fbbc b3b8 1bbd
000002f0: c305 1dbe a882 1c3f 15e3 ab3e fc9f be3e
00000300: c849 363e 8f89 a73b ed64 a2be 425d 73bc
00000310: fa57 153f ed8a c03c d04b 96bb 934c e73a
00000320: 2b51 d5be 93fc 86be 788d 9f3e 8d4f 1a3e
00000330: c5f6 6d3e d3f1 d1be e73a d2bc 4693 80bb
00000340: ddce 98be 0ff6 2a3f 96f8 9dbd 8b0c 49be
00000350: a93e a8be b596 953e 3eaf 743e c46c 37bc
00000360: ee35 f1be 0218 8bbe 7b38 92be e33f 76be
00000370: 301e 103b 6960 00bf 2fe5 89be 5778 57be
00000380: e73b 79be efca 6bbe d2c5 90bc f336 323e
00000390: 315c 56be c9a3 88be de79 853e a868 083f
000003a0: ffaa 063f 53b3 233f 9467 da3e f23a 8fbe
000003b0: 3373 c83e b3b7 eb3d 035c 43be d20c 8cbe
000003c0: 3224 bb3d 201c 523e dfdf 72bb a0d0 373e
000003d0: 63a8 7cbe be6d 033e c28b babd 0360 33be
000003e0: 5253 0abf 894e 553e 70de f9bd fba7 b83d
000003f0: ae42 e33d 32e3 4b3e ca67 d43e da18 013d

bias f4 [128]
-0.31856683 -0.0136394715 -0.5342073 0.0095962025 -0.010846496 -0.107979566 -0.046433065 -0.001674055
-0.14604531 -0.026831431 -0.057563435 -0.056077644 -0.4977247 -0.05965996 -0.13281384 -0.06107282
-0.09613294 0.030894062 -0.26064754 -0.046851166 -0.06378599 -0.051455557 -0.15083526 -0.1513409
-0.10961286 -0.039068796 -0.27194604 -0.09437245 -0.25991255 -0.113318585 -0.07998718 -0.080524415
-0.0418327 -0.11684645 -0.06137608 -0.07843882 -0.065957196 -0.0798099 -0.00499278 -0.021077119
-0.39461032 -0.047657944 -0.32235944 -0.10887697 -0.019459343 -0.28267482 -0.14403182 -0.08875291
-0.027892057 0.034596555 -0.10089704 -0.19010833 -0.093598425 -0.20325485 -0.043978587 -0.22453591
-0.0801621 -0.073294945 -0.119883426 0.02182202 -0.06988039 -0.038113333 -0.07276835 -0.46702507
-0.16760394 -0.0072623 -0.039105903 -0.102608934 -0.08372817 -0.067899734 -0.049085546 0.029194253
-0.1694084 -0.0226122 -0.09942234 -0.1265086 0.045428045 -0.07775551 -0.09607843 -0.047003347
-0.027792627 -0.114765435 -0.07663245 -0.13648058 -0.066869296 -0.07649629 -0.055455104 -0.06680687
-0.05547066 -0.10788642 -0.014071217 -0.040119257 -0.037270043 -0.071744464 -0.10507446 -0.061295882
-0.06563986 -0.049968 -0.13603286 -0.22143525 0.001689338 -0.11768422 -0.066155605 0.02780406
-0.1778598 -0.1850433 -0.10111851 -0.12088591 -0.12087729 -0.23514836 -0.026952282 -0.35497546
-0.011087788 -0.10679167 -0.16956738 0.05519903 -0.14774927 -0.45722234 -0.044625897 -0.21653809
-0.07939684 -0.11552783 -0.20183173 0.045654155 -0.052177355 -0.081707954 -0.1629846 0.010876756
00000000: 311b a3be 1778 5fbc cfc1 08bf 6439 1d3c
00000010: 80b5 31bc 6424 ddbd 9930 3ebd f76b dbba
00000020: e78c 15be 97cd dbbc a3c7 6bbd acb1 65bd
00000030: c6d5 febe 015e 74bd 5a00 08be 7e27 7abd
00000040: 59e1 c4bd 8b15 fd3c 9873 85be 02e7 3fbd
00000050: 3ba2 82bd 10c3 52bd 8f74 1abe 1cf9 1abe
00000060: b57c e0bd 9a06 20bd 833c 8bbe 5846 c1bd
00000070: 4213 85be 9313 e8bd 52d0 a3bd fce9 a4bd
00000080: c458 2bbd 314d efbd 7c65 7bbd 88a4 a0bd
00000090: 9114 87bd 5f73 a3bd 799a a3bb eca9 acbc
000000a0: 5d0a cabe fa34 43bd 4c0c a5be e4fa debd
000000b0: 3369 9fbc c1ba 90be 147d 13be 16c4 b5bd
000000c0: e27d e4bc 1eb5 0d3d 1ba3 cebd c2ab 42be
000000d0: 88b0 bfbd 0a22 50be e422 34bd beec 65be
000000e0: 072c a4bd a91b 96bd 7185 f5bd 18c4 b23c
000000f0: 731d 8fbd ba1c 1cbd 9307 95bd e91d efbe
00000100: 5ea0 2bbe 96f8 edbb 832d 20bd a224 d2bd
00000110: ad79 abbd 040f 8bbd ed0d 49bd c928 ef3c
00000120: 6579 2dbe 383d b9bc f19d cbbd 788b 01be
00000130: c212 3a3d 483e 9fbd c5c4 c4bd 9586 40bd
00000140: 5dad e3bc 240a ebbd 79f1 9cbd 91c1 0bbe
00000150: c5f2 88bd 16aa 9cbd e424 63bd 0ad2 88bd
00000160: 3435 63bd 8ef3 dcbd f68a 66bc 1754 24bd
00000170: 79a8 18bd c3ee 92bd 4731 d7bd 6411 7bbd
00000180: 316e 86bd 3fab 4cbd 334c 0bbe ecbf 62be
00000190: c76c dd3a 6d04 f1bd 977c 87bd 57c5 e33c
000001a0: e120 36be fe7b 3dbe 3917 cfbd 0893 f7bd
000001b0: 838e f7bd bbca 70be 08cb dcbc 58bf b5be
000001c0: 8ea9 35bc 97b5 dabd 12a3 2dbe 6118 623d
000001d0: 964b 17be 0c19 eabe a5c9 36bd 29bc 5dbe
000001e0: cf9a a2bd db99 ecbd faac 4ebe daff 3a3d
000001f0: ecb7 55bd 8056 a7bd 6fe5 26be 6c34 323c

weight f4 [128, 128]
0.0021489959 -0.012643351 0.11873026 0.008329318 -0.0061078607 0.033485476 -0.093009874 -0.04362517
0.077229805 0.18932624 0.06535424 0.029416742 0.012113176 -0.053909812 -0.050253276 -0.02626675
-0.032590225 -0.03376093 0.11805095 0.09468961 0.033597857 0.0070700035 0.06374252 -0.02017096
-0.07519555 0.06649975 -0.032830577 0.06653289 -0.019145858 0.06428117 0.14301558 -0.016497692
0.045512132 0.031665284 0.026102377 -0.043314144 0.097391464 -0.04989066 -0.007600469 0.09221047
0.0115903495 -0.069039315 -0.14026445 -0.0035564678 -0.026181519 0.020420868 -0.0017022907 -0.10310908
-0.054969907 -0.004617651 -0.10925263 0.03468098 -0.030853212 0.064375184 0.033811443 -0.03289426
0.018324664 0.021663388 -0.040906105 -0.035028215 -0.04907628 0.13813326 0.02920454 -0.0031087424
0.021696046 -0.020416785 0.033134244 -0.04617191 -0.15835659 -0.02940427 -0.025161752 -0.054298535
-0.024823885 -0.007637509 0.123742044 0.03577369 0.0013080036 -0.026545333 -0.00080221816 0.12623534
-0.054641422 -0.0188324 -0.09192244 0.09955742 -0.14060712 -0.1039135 0.010997817 0.012981012
0.013648944 -0.053064 0.014493126 0.026309444 -0.010349335 -0.09690153 0.038901642 -0.023859417
0.059626017 -0.09929601 0.012062404 0.014140805 -0.04170702 -0.10889502 -0.09945195 -0.003736863
0.045331366 0.032431323 0.13933045 0.015882265 0.0804498 0.015469699 -0.0669868 -0.02602312
0.055281717 -0.058568593 0.033453062 0.10154479 0.018693028 -0.020661468 -0.0066117086 0.021356998
0.06990758 -0.023325384 -0.006676273 -0.003973199 -0.0521334 0.054843705 -0.0574016 -0.01033851
0.036629472 0.0018772238 0.028542941 0.0531154 -0.08454737 -0.024688702 0.00641822 -0.022296226
-0.005718933 -0.039498523 -0.0934682 0.015358109 0.00029306757 0.0287378 0.034439713 -0.054493874
0.05730918 -0.0575265 0.08253919 0.019384898 -0.038608484 0.029167604 -0.053194977 0.016846301
-0.034484565 -0.03418975 -0.012646531 0.051129304 0.05119963 -0.056028817 -0.0070302845 0.002709978
-0.033451963 -0.023154318 -0.005264994 0.031869195 0.024021339 -0.0059312056 0.027264021 0.006673503
-0.007936486 -0.09671475 -0.008729217 -0.047647104 -0.01566385 -0.0099025145 -0.022849385 0.064942695
-0.021264443 -0.0120993 -0.02678899 0.042761944 -0.028353006 -0.013358396 0.03888667 0.038335707
0.003863188 -0.03618132 0.06787976 0.02152789 -0.043492045 -0.06543631 0.00089453574 -0.02741646
-0.04198608 0.018407738 -0.027819112 0.04409222 0.038364585 -0.0044539375 -0.071940936 0.06337656
0.02031113 0.05134313 0.014777411 0.0044932174 -0.019011328 0.040737256 -0.07060974 0.006146516
0.031932175 0.06232172 7.663615e-05 -0.041262977 0.027298842 0.058385443 -0.082080536 0.026447171
0.0396432 -0.0016060618 0.05112099 0.0057193795 -0.02336881 -0.04371342 -0.015883196 0.012417557
-0.0055067926 -0.032870173 0.053848635 0.061217334 -0.027922474 0.015105037 0.006303855 0.010488365
-0.010181179 -0.08427346 0.0047982694 -0.030694503 0.0445743 -0.0008495812 0.06648879 0.06004171
0.0052902484 -0.0006983682 0.023068061 -0.06098947 -0.029705593 -0.0182839 -0.045090266 -0.03695613
0.05030915 0.026421355 -0.0709259 -0.023442097 0.028600808 -0.030581543 0.01970136 0.0021020756
00000000: 2bd6 0c3b 0f26 4fbc da28 f33d b177 083c
00000010: 7324 c8bb 1128 093d f67b bebd 4eb0 32bd
00000020: a92a 9e3d bdde 413e 72d8 853d 61fb f03c
00000030: 5876 463c 89d0 5cbd 61d6 4dbd 5e2d d7bc
00000040: 547d 05bd e748 0abd b2c4 f13d a0ec c13d
00000050: e89d 093d 7dab e73b 708b 823d 923d a5bc
00000060: 2000 9abd 0531 883d 5b79 06bd 6542 883d
00000070: c6d7 9cbc d9a5 833d ad72 123e 2b26 87bc
00000080: ee6a 3a3d 75b3 013d a7d4 d53c 2c6a 31bd
00000090: 2d75 c73d 265a 4cbd 5b0d f9bb d8d8 bc3d
000000a0: 73e5 3d3c 7c64 8dbd 7ca1 0fbe a113 69bb
000000b0: a07a d6bc aa49 a73c 661f dfba da2a d3bd
000000c0: 2028 61bd aa4f 97bb d8bf dfbd a50d 0e3d
000000d0: e0bf fcbc 23d7 833d de7d 0a3d 22bc 06bd
000000e0: 9b1d 963c 6b77 b13c 298d 27bd bf79 0fbd
000000f0: 3604 49bd ce72 0d3e 5c3e ef3c 0bbc 4bbb
00000100: e8bb b13c 1a41 a7bc c6b7 073d c21e 3dbd
00000110: 3b28 22be 39e1 f0bc 0520 cebc 2468 5ebd
00000120: 765b cbbc 1244 fabb 786c fd3d 6f87 123d
00000130: 5171 ab3a 9975 d9bc f34b 52ba d643 013e
00000140: afcf 5fbd 6846 9abc d541 bcbd c3e4 cb3d
00000150: 50fb 0fbe 9ad0 d4bd 3030 343c 50ae 543c
00000160: d29f 5f3c a359 59bd 9474 6d3c e786 d73c
00000170: 4290 29bc 4f74 c6bd 5457 1f3d d374 c3bc
00000180: 693a 743d b55b cbbd 64a1 453c d6ae 673c
00000190: fbd4 2abd 5a04 dfbd 77ad cbbd 28e6 74bb
000001a0: 62ad 393d b5d6 043d a4ac 0e3e 861b 823c
000001b0: ddc2 a43d 9f74 7d3c 6030 89bd 702e d5bc
000001c0: 156f 623d 9fe5 6fbd 1406 093d b7f6 cf3d
000001d0: 1f22 993c 3d42 a9bc 08a7 d8bb dff4 ae3c
000001e0: b52b 8f3d e014 bfbc a3c4 dabb 9c31 82bb
000001f0: d589 55bd cba3 603d f11d 6bbd db62 29bc
00000200: c908 163d 2e0d f63a e3d2 e93c 898f 593d
00000210: 2c27 adbd f63f cabc ee4f d23b 93a6 b6bc
00000220: e365 bbbb 34c9 21bd 416c bfbd 94a0 7b3c
00000230: dda6 9939 896b eb3c a810 0d3d f834 5fbd
00000240: 08bd 6a3d e8a0 6bbd 4f0a a93d 14cd 9e3c
00000250: ee23 1ebd e6f0 ee3c fae2 59bd 4101 8a3c
00000260: b03f 0dbd 8d0a 0cbd 6533 4fbc f66c 513d
00000270: b4b6 513d 797e 65bd 4d5e e6bb e399 313b
00000280: ed04 09bd 20ae bdbc f985 acbb 4689 023d
00000290: 66c8 c43c 8f5a c2bb cc58 df3c 67ad da3b
000002a0: 0908 02bc 6212 c6bd fd04 0fbc 9c29 43bd
000002b0: 7951 80bc 283e 22bc a22e bbbc ad00 853d
000002c0: c532 aebc 243c 46bc 9574 dbbc 2627 2f3d
000002d0: 9044 e8bc 2cdd 5abc a147 1f3d e705 1d3d
000002e0: 8a2d 7d3b dd32 14bd 8b04 8b3d 425b b03c
000002f0: b724 32bd 7903 86bd 477f 6a3a 7c98 e0bc
00000300: 99f9 2bbd d3cb 963c e8e4 e3bc 0b9a 343d
00000310: 2f24 1d3d 56f2 91bb c555 93bd 92cb 813d
00000320: 8763 a63c 2d4d 523d f41c 723c d73b 933b
00000330: a5bd 9bbc 1cdc 263d d79b 90bd b768 c93b
00000340: 50cb 023d 0f45 7f3d b8b7 a038 5e03 29bd
00000350: d2a1 df3c 9325 6f3d d719 a8bd bda7 d83c
00000360: e860 223d 7e82 d2ba 3e64 513d a269 bb3b
00000370: f26f bfbc d80c 33bd 7a1d 82bc 0273 4b3c
00000380: 5372 b4bb e0a2 06bd 6390 5c3d 07bf 7a3d
00000390: acbd e4bc 1e7b 773c 9290 ce3b 64d7 2b3c
000003a0: f6ce 26bc 9097 acbd cd3a 9d3b 0a73 fbbc
000003b0: 8b93 363d 6eb6 5eba 462b 883d 4cee 753d
000003c0: d259 ad3b b212 37ba 3bf9 bc3c 18d0 79bd
000003d0: 2559 f3bc 1ec8 95bc 92b0 38bd 505f 17bd
000003e0: f810 4e3d 9971 d83c 9941 91bd a409 c0bc
000003f0: 3e4c ea3c 2586 fabc bf64 a13c fac2 093b

bias f4 [128]
0.00578248 -0.004831431 0.00858217 -0.14503704 0.023014948 0.006421157 -0.10784768 -0.02428713
-0.009607805 -0.013538723 0.009098674 -0.0011530898 -0.017628193 -0.004609055 -0.038392182 -0.07095361
-0.04334001 -0.0060732337 -0.01043625 -0.031475727 -0.018432396 -0.045435563 0.0040504346 -0.0698842
-0.021755511 -0.13894649 -0.03407779 -0.0009377503 -0.19607775 -0.008978949 -0.017227264 -0.053925518
-0.0315413 -0.011654396 -0.15530111 -0.024528688 -0.011593903 -0.016888943 -0.025889294 -0.033707645
-0.09563221 -0.15108854 0.05907728 -0.028689971 -0.026310807 -0.0573908 -0.078398906 -0.16963203
-0.05525699 0.0337146 -0.06020036 -0.0023572426 -0.01660228 -0.038113065 -0.14840163 -0.029549839
-0.030205028 -0.035406943 0.013902169 -0.048207555 -0.04949822 0.017477462 -0.28877702 -0.016075632
-0.0022902174 0.006896717 -0.024657708 0.018479245 -0.28672525 -0.046834584 -0.029514305 -0.029502174
-0.046105485 0.002554463 -0.052686006 -0.0063381456 -0.030906625 0.020716777 -0.062659055 -0.12385129
-0.0065211635 -0.026145995 -0.037536345 -0.030074453 -0.0022995572 -0.21737982 0.015380191 0.019494303
-0.03148714 -0.37814268 -0.06920734 -0.22266608 -0.03484855 -0.078873895 -0.012742303 -0.017055193
-0.106600285 0.025842924 -0.026894245 -0.031388126 -0.025700636 -0.13863401 -0.015183845 -0.025268732
-0.027985092 -0.053781103 -0.042682692 -0.026451096 -0.060700983 -0.06648916 0.016070236 -0.024850722
-0.050370887 -0.2587692 0.008766453 0.083231576 -0.021273255 -0.070461676 0.02211583 -0.15610746
-0.018590717 -0.025745537 -0.062581286 -0.08339908 0.00025050947 -0.17605752 -0.016255155 0.025052384
00000000: f57a bd3b fb50 9ebb 3b9c 0c3c 9784 14be
00000010: d889 bc3c 9268 d23b 3fdf dcbd cef5 c6bc
00000020: 0e6a 1dbc 85d1 5dbc 9b12 153c 4623 97ba
00000030: 0069 90bc 8e07 97bb 1f41 1dbd 2050 91bd
00000040: 4b85 31bd fa01 c7bb cefc 2abc b1ec 00bd
00000050: 89ff 96bc a41a 3abd 82b9 843b 731f 8fbd
00000060: 9d38 b2bc fd47 0ebe 2795 0bbd 5bd3 75ba
00000070: 9bc8 48be 711c 13bc 3120 8dbc 01e1 5cbd
00000080: 7331 01bd 14f2 3ebc 4107 1fbe 63f0 c8bc
00000090: 5bf4 3dbc ae5a 8abc c915 d4bc 0711 0abd
000000a0: d2da c3bd f4b6 1abe 05fb 713d 3b07 ebbc
000000b0: c389 d7bc 9e12 6bbd 9b8f a0bd 05b4 2dbe
000000c0: 2755 62bd 5218 0a3d a794 76bd f87b 1abb
000000d0: 8101 88bc 721c 1cbd 99f6 17be 8112 f2bc
000000e0: 8970 f7bc df06 11bd ecc5 633c 4975 45bd
000000f0: a5be 4abd e52c 8f3c 95da 93be 0bb1 83bc
00000100: 7917 16bb dbfd e13b f6fe c9bc c961 973c
00000110: a7cd 92be 9fd5 3fbd fcc7 f1bc 8bae f1bc
00000120: 1bd9 3cbd c768 273b 48cd 57bd 38b0 cfbb
00000130: e42f fdbc 3bb6 a93c 6453 80bd bfa5 fdbd
00000140: 7caf d5bb 2030 d6bc b6bf 19bd b35e f6bc
00000150: 2bb4 16bb d198 5ebe 32fd 7b3c 84b2 9f3c
00000160: a9f8 00bd eb9b c1be 94bc 8dbd 9402 64be
00000170: 5abd 0ebd a388 a1bd 18c5 50bc 55b7 8bbc
00000180: 4051 dabd 8ab4 d33c 5251 dcbc d690 00bd
00000190: 248a d2bc 13f6 0dbe a9c5 78bc 5f00 cfbc
000001a0: fe40 e5bc 9349 5cbd 0cd4 2ebd f8af d8bc
000001b0: 98a1 78bd 782b 88bd baa5 833c be93 cbbc
000001c0: b451 4ebd 667d 84be 2ba1 0f3c 5175 aa3d
000001d0: 4045 aebc 364e 90bd 422c b53c a2da 1fbe
000001e0: 8f4b 98bc 4ee8 d2bc 9e2a 80bd 23cd aabd
000001f0: d056 8339 6c48 34be 8829 85bc a83a cd3c

weight f4 [8, 128]
0.0009735431 0.0036928027 -0.019084854 -0.0018083757 0.0016600629 -0.013483578 0.0011888664 -0.0013798482
-0.006872917 -0.01577592 0.008475062 -0.0069405977 -0.008183064 -0.0017348748 0.0049682283 -0.014934147
-0.017703125 0.0044070478 0.0005042721 0.0049195793 -0.0049652234 -0.006123383 0.0010460798 -0.0053725904
0.002673586 -0.0027966052 0.00041149431 0.008540155 -0.010922688 -0.0068112295 0.0068077436 0.0042408183
0.000296041 -0.00081920536 0.0013691159 -0.0010852803 0.009912253 -0.017808685 -0.0065406556 0.009062641
-0.012146518 0.009946881 0.013661956 0.0036029627 -0.0030008806 0.009554734 0.02711163 0.0030162567
-0.012639164 -0.0012667961 -0.0031557244 -0.007054146 -0.005041881 -0.004485605 -0.02680899 -0.011331961
-0.0007524992 -0.0017164974 -0.0014155008 -0.00270223 0.016644605 0.0012100128 -0.024696046 -0.0020926967
0.0052530034 0.014476995 -0.006765182 -0.011827542 -0.02824462 0.016896006 0.006080031 0.01201007
-0.0065943585 0.00860603 -0.005311401 0.0096886 0.008105155 0.013292677 0.0005437879 0.0065040085
0.0019416836 0.0023998788 0.0006493333 0.0012191029 0.013655439 0.0055853385 0.0008458784 0.008368364
0.00021431614 0.014674948 -0.0060924934 0.04006936 0.001589399 -0.008298606 -0.003271214 -0.0034729212
-0.013460029 0.0065078293 -0.003452614 -0.0009080068 0.0019235155 0.011087074 0.0005419613 -0.0012845782
-0.0012815275 0.004946554 0.0009415752 0.011556352 0.007415785 0.004764879 -0.007879423 -0.00986586
0.00545949 0.033615198 -0.0040013003 -0.0015048024 0.0018211071 0.0029744904 -0.0024559817 0.0014597344
0.009180878 0.004647388 0.011697354 0.010361399 -0.0015234861 0.0052954685 0.004725596 0.008042285
0.0073354696 -0.001280964 -0.02200136 0.020865124 -0.0044144103 -0.016834445 0.0029404822 0.00204617
0.00531651 0.006387358 0.003709783 -0.0039321035 -0.012945137 0.0035347417 0.00042189032 0.008309991
0.0032398535 -0.0063837497 -0.004893422 2.7195383e-05 -0.006744849 0.013266026 -0.0068323826 0.009314763
0.001571908 0.029774904 -0.0004236146 -0.013376376 -0.02829434 0.001173663 -0.0075524575 0.010343512
0.0035128596 -0.0056220256 0.0134468805 0.003090697 -0.004203267 -0.0038977116 0.0074590673 0.003462318
0.0026368843 -0.0074008154 0.0037868489 0.01076844 -0.004870346 -0.003469762 0.0067247525 0.029417546
0.009744117 -0.008806495 0.0064391713 0.008939519 -0.009881731 -0.0038704125 0.007846147 0.0069379034
0.016930284 0.013210571 -0.010374786 -0.0133446 0.010532024 -0.011869925 0.018401656 0.0054554795
-0.005239825 0.009660523 -0.009439845 -0.013873303 -0.0065179314 0.002489448 0.013625198 -0.0023665496
0.004262949 0.0023623528 0.0115202665 0.0017804838 0.0006488074 -0.0054882616 0.008259403 0.0054047825
0.0045542405 0.003281641 -0.0072268825 0.0029185596 0.0042814505 0.011721682 0.0022808462 -0.0005270278
0.0005206551 0.00210902 0.01398384 -0.0046580443 -0.01648043 -0.002752347 0.003729434 -0.0013507325
0.0066702375 -0.008311122 -0.0009062827 -0.0063457736 -0.006059559 -0.019908436 0.00096661417 0.0028702545
-0.004158508 -0.010160067 -0.0012775486 -0.01929383 0.003232456 0.0007124912 0.0010824553 0.024605613
-0.0041480954 -0.036811676 -0.016277263 -0.014049297 0.00073412596 0.010105813 0.007035762 -0.0045779515
0.0021904109 0.013204917 -0.0064992406 -0.012178684 -0.011646199 -0.018501898 -0.001819625 -0.0034670408
00000000: 5f35 7f3a f302 723b d757 9cbc 0507 edba
00000010: 7896 d93a 3aea 5cbc bdd3 9b3a 06dc b4ba
00000020: 3536 e1bb 813c 81bc fdda 0a3c f46d e3bb
00000030: 4212 06bc bd64 e3ba 85cc a23b 5aae 74bc
00000040: 2506 91bc ff68 903b 2131 043a 6c34 a13b
00000050: 50b3 a2bb a9a6 c8bb 9d1c 893a 8e0c b0bb
00000060: 5437 2f3b 4047 37bb d5bd d739 02ec 0b3c
00000070: 13f5 32bc bc30 dfbb 7e13 df3b 90f6 8a3b
00000080: f335 9b39 f1bf 56ba e873 b33a f73f 8eba
00000090: 0167 223c 85e3 91bc ff52 d6bb 797b 143c
000000a0: 3002 47bc 3ef8 223c 66d6 5f3c af1f 6c3b
000000b0: 6caa 44bb 768b 1c3c 3619 de3c 64ac 453b
000000c0: 7f14 4fbc a00a a6ba 45d0 4ebb 7726 e7bb
000000d0: 5d36 a5bb fbfb 92bb 879e dbbc b0a9 39bc
000000e0: 5e43 45ba 18fc e0ba 5388 b9ba e517 31bb
000000f0: 445a 883c 4b99 9e3a 5d4f cabc a025 09bb
00000100: 6321 ac3b eb30 6d3c 76ae ddbb 4fc8 41bc
00000110: 4361 e7bc 7e69 8a3c ff3a c73b e2c5 443c
00000120: 7d15 d8bb 4e00 0d3c 430b aebb efbc 1e3c
00000130: 7ccb 043c 87c9 593c fd8c 0e3a 941f d53b
00000140: 1780 fe3a 4947 1d3b 0538 2a3a 4eca 9f3a
00000150: 10bb 5f3c 3705 b73b f0bd 5d3a 761b 093c
00000160: 0dba 6039 316f 703c 8aa3 c7bb c51f 243d
00000170: 6153 d03a e0f6 07bc dd61 56bb f399 63bb
00000180: 7487 5cbc a13f d53b 4045 62bb 4e07 6eba
00000190: 781e fc3a 8fa6 353c 6812 0e3a 4b5f a8ba
000001a0: edf8 a7ba b416 a23b 0bd4 763a da56 3d3c
000001b0: 1d00 f33b b422 9c3b b218 01bc 6ba4 21bc
000001c0: 86e5 b23b 17b0 093d 571d 83bb ca3c c5ba
000001d0: 37b2 ee3a abef 423b 89f4 20bb 8f54 bf3a
000001e0: 656b 163c 1e49 983b 42a6 3f3c dbc2 293c
000001f0: b6af c7ba 9c85 ad3b 2cd9 9a3b cac3 033c
00000200: 615e f03b 05e6 a7ba 323c b4bc 56ed aa3c
00000210: c2a6 90bb 64e8 89bc 1bb5 403b 0919 063b
00000220: 1e36 ae3b 0b4d d13b d51f 733b e0d8 80bb
00000230: d717 54bc 20a7 673b 2931 dd39 a126 083c
00000240: b953 543b c62e d1bb 0059 a0bb a421 e437
00000250: e503 ddbb bf59 593c 2ee2 dfbb f39c 183c
00000260: 7b08 ce3a 80ea f33c 9718 deb9 9628 5bbc
00000270: 88c9 e7bc 98d5 993a 9b7a f7bb d577 293c
00000280: 0138 663b f838 b8bb 4e50 5c3c 4b8d 4a3b
00000290: 8fbb 89bb c070 7fbb 316b f43b 0fe8 623b
000002a0: 94cf 2c3b 8a82 f2bb c82c 783b 1c6e 303c
000002b0: 6c97 9fbb f264 63bb 505b dc3b 11fd f03c
000002c0: caa5 1f3c 1e49 10bc afff d23b 0f77 123c
000002d0: fce6 21bc bfa6 7dbb 208d 003c 5a57 e33b
000002e0: 61b1 8a3c 2771 583c 02fb 29bc 4fa3 5abc
000002f0: 838e 2c3c 137a 42bc 12bf 963c e1c3 b23b
00000300: d7b2 abbb 2c47 1e3c 94a9 1abc da4c 63bc
00000310: 5f94 d5bb 0226 233b 393c 5f3c 1d18 1bbb
00000320: 35b0 8b3b b4d1 1a3b 80bf 3c3c 1f5f e93a
00000330: ba14 2a3a e0d6 b3bb 7252 073c 9a1a b13b
00000340: bd3b 953b cd10 573b 7ccf ecbb 4e45 3f3b
00000350: 694b 8c3b 4c0c 403c 407a 153b 3d28 0aba
00000360: 937c 083a 7c37 0a3b 7a1c 653c 82a2 98bb
00000370: f701 87bc b860 34bb 8569 743b 100b b1ba
00000380: 0292 da3b 5f2b 08bc 9a93 6dba 35f0 cfbb
00000390: 448f c6bb 0417 a3bc 6164 7d3a e11a 3c3b
000003a0: 1844 88bb 6976 26bc 6b73 a7ba 180e 9ebc
000003b0: 9dd7 533b 7ac6 3a3a 2ce1 8d3a b691 c93c
000003c0: bfec 87bb d7c7 16bd e557 85bc 062f 66bc
000003d0: 5c72 403a da92 253c 408c e63b a402 96bb
000003e0: ff8c 0f3b 7059 583c 95f7 d4bb 1a89 47bc
000003f0: b3cf 3ebc 4b91 97bc 7c80 eeba 4b37 63bb

bias f4 [8]
0.034308843 -0.025733436 0.13597013 -0.03503816 -0.04841074 -0.008461091 0.055105343 0.05594738
00000000: 6e87 0c3d edce d2bc c13b 0b3e 2c84 0fbd
00000010: 574a 46bd 63a0 0abc 24b6 613d 1429 653d
