deploy/models/booster_gym_v5/model_4000.pt (torch, 297214 bytes, 8 tensors)

weight f4 [256, 80]
-0.9618472 0.024783257 -0.05475141 0.07419254 -0.1035776 0.02020384 0.10969664 0.08639801
-0.06539027 0.10745691 0.027583929 0.1043967 0.011698896 0.0038971202 -0.00783546 0.0024298343
0.045911573 0.021369606 0.08730941 0.03491933 -0.041043572 0.015767248 -0.50530106 0.20984252
-0.057824768 -0.14443035 -0.14377725 0.17758416 -0.3935663 -0.07438388 0.16642116 -0.28176925
-0.16525201 0.43220475 0.028417138 0.09595243 0.005563072 0.20068793 -0.024170289 0.048341203
0.0070281955 0.037997093 0.03262949 -0.106418796 -0.108897254 -0.58187944 0.43887007 -0.07555663
-0.3357977 -0.14481203 0.03645367 0.22655363 0.21905987 -0.060635835 -0.070793 -0.032354183
0.042300317 -0.021282466 0.0032706093 -0.043882124 -0.027135637 -0.09777385 0.016019665 0.000893933
-0.09958912 0.01956117 0.041257303 0.10038515 -0.09906149 0.049698204 0.15230426 -0.13027896
-0.19042662 0.108676344 -0.053862162 0.12186316 -0.0923401 -0.0831396 0.19506082 -0.11094684
-0.7467479 -0.29020423 -0.09850745 -0.08602055 0.029214486 0.027733803 -0.057462182 -0.07589187
0.05228308 -0.041723676 -0.09612537 -0.08315868 0.10314512 -0.018523354 -0.1108896 0.008738378
-0.030922133 0.10274141 0.05651407 -0.012752969 -0.08967084 -0.016783234 -0.21892838 0.5086732
-0.16988064 0.14705296 0.033678584 0.01187435 0.4288706 -0.10177576 0.102348 -0.24255843
-0.33838093 -0.025442857 -0.14169668 0.13197811 0.060198776 0.049106754 -0.06379718 0.3373043
-0.1572294 0.14574006 -0.062393274 -0.12814347 -0.024177698 0.010409873 -0.10345278 -0.024296608
0.05579301 -0.09468007 -0.051599625 -0.56974274 0.0041436274 0.09652249 -0.24756074 -0.103081316
-0.00044475426 0.12198318 -0.11572318 0.041591074 -0.04298024 -0.024575125 0.021519475 -0.077787876
-0.16017297 -0.015704026 0.0785324 -0.19965899 -0.061640423 -0.16967507 0.032276276 0.12867077
-0.12564936 0.22790462 -0.14556348 0.055405643 0.0625741 0.10174257 -0.023868257 -0.10650244
0.29373935 -0.26682395 0.03935444 -0.013626142 0.008094281 0.046446282 -0.038390476 -0.028712438
0.028063124 0.10428025 -0.010740945 -0.003914018 -0.052454952 0.045951504 0.02581642 -0.06828988
0.09507548 -0.13227749 0.10675263 0.006647257 0.026860004 0.12635005 0.5037356 -0.56856996
-0.10972572 0.07287039 -0.17396583 0.06867544 -0.10629737 -0.06508687 0.0028123222 -0.039249253
0.21987522 0.052684646 -0.11570099 0.0026263478 0.016274372 -0.022500802 -0.02543278 0.0010642653
0.090204164 -0.29592898 -0.031933684 -0.033114485 0.15305448 0.021266991 -0.11268271 0.1679405
0.040484764 -0.04874602 0.09662468 -0.23334639 0.07589016 -0.058644533 -0.06272888 0.02226915
0.028600907 0.0010578831 0.0033399619 0.099405974 0.06733518 0.0849601 -0.06100075 0.05112309
0.14989103 0.06342812 0.024461953 0.26323158 0.06295416 0.11641397 0.122375116 0.08532009
0.030892095 -0.2289102 -0.07501244 0.16168287 0.098496296 -0.24008304 -0.10028434 -0.0027182866
-0.031202622 0.5921742 0.092512615 -0.06730697 -0.0018452501 0.08695565 -0.06832966 0.10830965
-0.071557395 0.034326818 0.10463882 0.11144756 0.00090259954 0.060254596 -0.003913705 -0.053925503
00000000: 9e3b 76bf 4206 cb3c 0443 60bd 42f2 973d
00000010: 7e20 d4bd 8682 a53c a2a8 e03d 71f1 b03d
00000020: 55eb 85bd 5e12 dc3d b1f7 e13c f0cd d53d
00000030: baac 3f3c d466 7f3b 4d60 00bc db3d 1f3b
00000040: c60d 3c3d 500f af3c 47cf b23d 9207 0f3d
00000050: 4e1d 28bd 512a 813c 695b 01bf f5e0 563e
00000060: aad9 6cbd 8de5 13be 583a 13be 9fd8 353e
00000070: 8681 c9be 9356 98bd 4f6a 2a3e 0f44 90be
00000080: d337 29be f149 dd3e 0fcb e83c b582 c43d
00000090: 6e4a b63b 2381 4d3e c500 c6bc 6d01 463d
000000a0: c74c e63b d7a2 1b3d 80a6 053d 19f2 d9bd
000000b0: 8605 dfbd 0df6 14bf 94b3 e03e 6fbd 9abd
000000c0: aded abbe 9b49 14be 7250 153d adfd 673e
000000d0: 3b51 603e 485d 78bd ecfb 90bd d285 04bd
000000e0: 1943 2d3d 9158 aebc b857 563b bebd 33bd
000000f0: 8e4b debc a83d c8bd ac3b 833c d456 6a3a
00000100: 61f5 cbbd bf3e a03c 6bfd 283d bb96 cd3d
00000110: c0e0 cabd 5890 4b3d a6f5 1b3e d967 05be
00000120: 32ff 42be b491 de3d 929e 5cbd 6493 f93d
00000130: ce1c bdbd 1845 aabd 06be 473e 1938 e3bd
00000140: df2a 3fbf a695 94be 46be c9bd 8b2b b0bd
00000150: 3853 ef3c 0032 e33c 775d 6bbd 326d 9bbd
00000160: c826 563d 72e6 2abd 61dd c4bd 194f aabd
00000170: c03d d33d 4abe 97bc 161a e3bd 6a2b 0f3c
00000180: 6a50 fdbc 176a d23d 4c7b 673d d4f1 50bc
00000190: 58a5 b7bd fe7c 89bc c32e 60be 6838 023f
000001a0: 31f5 2dbe 0d95 163e 8ef2 093d a28c 423c
000001b0: ed94 db3e cf6f d0bd d49b d13d 3d61 78be
000001c0: 4440 adbe 8a6d d0bc ef18 11be 4525 073e
000001d0: fe92 763d 2a24 493d 19a8 82bd 26b3 ac3e
000001e0: be00 21be e23c 153e 1790 7fbd 0b38 03be
000001f0: 4f10 c6bc 2c8e 2a3c 0ddf d3bd ae09 c7bc
00000200: 3687 643d a0e7 c1bd 215a 53bd a9da 11bf
00000210: 44c7 873b 95ad c53d 9080 7dbe 4c1c d3bd
00000220: e82d e9b9 51d2 f93d 4600 edbd 675b 2a3d
00000230: 0c0c 30bd c651 c9bc 9c49 b03c 404f 9fbd
00000240: 6204 24be bba5 80bc 98d5 a03d 6873 4cbe
00000250: ab7a 7cbd 4dbf 2dbe 2134 043d 45c2 033e
00000260: 3aaa 00be d45f 693e 980e 15be 07f1 623d
00000270: da26 803d 695e d03d 5d87 c3bc f41d dabd
00000280: 0165 963e 269d 88be 1f32 213d 2f40 5fbc
00000290: e09d 043c 753e 3e3d 553f 1dbd 5936 ebbc
000002a0: a3e4 e53c e290 d53d cafa 2fbc 2a41 80bb
000002b0: 01db 56bd a537 3c3d f57c d33c 91db 8bbd
000002c0: efb6 c23d c073 07be 1fa1 da3d 3cd1 d93b
000002d0: 8309 dc3c e861 013e d1f4 003f cd8d 11bf
000002e0: e1b7 e0bd 123d 953d 1924 32be b6a5 8c3d
000002f0: 6fb2 d9bd 444c 85bd f04e 383b d3c3 20bd
00000300: f826 613e dbcb 573d a4f4 ecbd ce1e 2c3b
00000310: d551 853c 9a53 b8bc 6858 d0bc d17e 8b3a
00000320: f6bc b83d 0184 97be e5cc 02bd 0ea3 07bd
00000330: 50ba 1c3e 1d38 ae3c 31c6 e6bd 98f8 2b3e
00000340: 5ad3 253d e8a9 47bd 29e3 c53d 5bf2 6ebe
00000350: 4d6c 9b3d 4035 70bd 0078 80bd cb6d b63c
00000360: 734c ea3c aba8 8a3a 43e3 5a3b 5c95 cb3d
00000370: 07e7 893d 90ff ad3d ecdb 79bd 7266 513d
00000380: 097d 193e 9ae6 813d 6f64 c83c 4ac6 863e
00000390: 1cee 803d 736a ee3d ce9f fa3d 4dbc ae3d
000003a0: 6b11 fd3c 6f67 6abe 1fa0 99bd 3290 253e
000003b0: 6db8 c93d 54d8 75be e061 cdbd 4825 32bb
000003c0: a49c ffbc ba98 173f 4177 bd3d 3dd8 89bd
000003d0: 52dc f1ba ce15 b23d 6cf0 8bbd 73d1 dd3d
000003e0: af8c 92bd 479a 0c3d e14c d63d 9e3e e43d
000003f0: 6e9c 6c3a 86cd 763d 893e 80bb fde0 5cbd

bias f4 [256]
-0.084918536 0.030757155 0.11314696 0.11944062 0.11096416 0.021885365 -0.026348772 -0.049669877
-0.02548855 0.104136996 -0.0861373 -0.06599468 0.14926836 -0.05336697 -0.1634376 -0.005921527
-0.031438917 0.09984328 0.0880884 -0.12664162 -0.13020863 -0.06441641 0.114190795 -0.20265995
-0.10286576 0.13164112 0.15198956 0.03543239 0.07610937 -0.09126768 -0.08454867 -0.19733018
0.08489733 0.033714592 -0.018521983 -0.18270224 -0.07371641 -0.07749906 -0.10650434 0.08606812
-0.020048333 -0.13092735 0.046192914 -0.046940256 0.07741448 -0.111521706 0.1314121 0.05641232
-0.026789853 -0.12592739 0.076561175 -0.09673235 0.022339433 0.010349512 0.073474795 -0.008405703
-0.11636583 0.10949462 -0.11981098 0.009142662 0.05331736 -0.02456336 0.14220521 0.080432795
-0.12652114 0.07003473 0.13796389 -0.12806085 0.049582012 0.19218461 -0.0896308 -0.024669718
-0.030222332 0.06765146 0.10252939 -0.075990744 -0.12256468 -0.033788312 -0.04319602 0.0079693785
-0.12906507 0.15446834 -0.17012717 0.00585112 0.0830117 0.03283589 -0.05736658 -0.06814199
0.03654582 -0.15885773 -0.07248328 -0.0979945 -0.07774153 0.03200456 -0.177075 -0.06603923
-0.12938204 -0.08549911 0.08878727 0.0567183 0.10054482 0.11784895 -0.12259638 -0.15094554
0.04352102 -0.1109267 0.040650457 -0.097398564 -0.0019306863 -0.11666388 -0.02669354 -0.11544233
0.106328316 0.09826888 0.020065175 0.0764193 -0.058928385 -0.026372978 0.033245962 -0.07640872
0.10464128 0.068195626 -0.034065254 0.06740921 -0.04014748 -0.11276383 -0.13252841 0.032184534
-0.09854315 -0.01944294 0.023632545 0.0022384955 -0.07172171 -0.08043693 -0.07593561 0.1628629
0.16146281 0.087653436 -0.121230714 -0.010587204 0.06418474 0.020066084 0.12564982 -0.022532571
-0.03881066 -0.11672961 -0.09071637 -0.07208791 0.10011209 -0.10500722 0.029032106 0.14516686
-0.13785848 -0.0650827 -0.028286489 -0.028479848 -0.04439377 -0.011256306 -0.24707137 0.10693656
-0.15240203 -0.054073557 0.113351405 0.12279927 0.088846065 -0.025854692 -0.093799636 -0.11432181
0.11625788 -0.10771715 0.117070295 -0.0697277 -0.01004325 0.11040229 0.049179766 0.07681714
-0.14692277 -0.09484139 0.07276327 -0.022032304 -0.044959087 -0.020947518 -0.16912752 0.043281734
-0.05243329 -0.03510183 -0.11903508 -0.04234577 0.060781196 -0.032830596 -0.13851854 -0.092722714
0.13020785 -0.08840986 -0.03651971 -0.06654138 -0.17044313 -0.052035645 0.05958015 -0.12450975
-0.100074634 0.06726249 -0.07744926 -0.10825442 0.07600989 -0.06443469 0.044330284 -0.07840653
0.081526995 -0.0010417729 -0.03709712 -0.13835451 0.0065248627 -0.13558188 -0.04214155 0.0133783175
0.05317808 -0.018146235 -0.010717942 0.17722012 0.008669542 -0.093112476 0.053593945 0.123399094
-0.039545704 -0.044980492 0.03886175 -0.0987103 -0.013941845 0.108400226 0.019481465 0.100151464
-0.08191775 -0.05126729 -0.096728444 -0.039842594 0.048389275 -0.06603812 0.038149465 0.13659772
-0.10636318 -0.063805506 -0.00086839416 -0.0063311066 0.034760688 -0.10989059 -0.05686496 -0.05011751
-0.15953605 -0.14371781 0.06886898 -0.020694751 -0.015775183 0.0028470932 -0.1333613 0.01261028
00000000: c5e9 adbd 6ef6 fb3c 98b9 e73d 499d f43d
00000010: 2d41 e33d f048 b33c 61d9 d7bc a472 4bbd
00000020: 5dcd d0bc c745 d53d c168 b0bd 3828 87bd
00000030: ced9 183e 5397 5abd 305c 27be 5e09 c2bb
00000040: 18c6 00bd a27a cc3d b167 b43d 57ae 01be
00000050: 6955 05be c0ec 83bd dddc e93d 1786 4fbe
00000060: 49ab d2bd eecc 063e 27a3 1b3e 8e21 113d
00000070: 3bdf 9b3d 8dea babd da27 adbd ec10 4abe
00000080: a7de ad3d 5018 0a3d 6abb 97bc 4c16 3bbe
00000090: a1f8 96bd d4b7 9ebd f31e dabd 7c44 b03d
000000a0: 673c a4bc d211 06be c834 3d3d 6d44 40bd
000000b0: 7c8b 9e3d 7e65 e4bd e590 063e 9b10 673d
000000c0: 6576 dbbc 1cf3 00be 1bcc 9c3d 9c1b c6bd
000000d0: 3001 b73c 0091 293c f479 963d 13b8 09bc
000000e0: 3551 eebd b73e e03d 765f f5bd 1bcb 153c
000000f0: 4e63 5a3d 1939 c9bc 3e9e 113e f3b9 a43d
00000100: c28e 01be 5e6e 8f3d 6846 0d3e 6222 03be
00000110: 8216 4b3d 0bcc 443e 5a90 b7bd 2618 cabc
00000120: d394 f7bc d98c 8a3d eefa d13d 09a1 9bbd
00000130: 3103 fbbd 9d65 0abd 4fee 30bd ff91 023c
00000140: a229 04be f32c 1e3e d135 2ebe c1ba bf3b
00000150: 0a02 aa3d ed7e 063d 38f9 6abd 078e 8bbd
00000160: 12b1 153d 9aab 22be 1d72 94bd 57b1 c8bd
00000170: f436 9fbd 3717 033d 2653 35be 933f 87bd
00000180: ba7c 04be 281a afbd 1ad6 b53d 7351 683d
00000190: 71ea cd3d ca5a f13d d013 fbbd 7891 1abe
000001a0: 1943 323d 8a2d e3bd 1881 263d e678 c7bd
000001b0: 150f fdba 79ed eebd 69ac dabc 076d ecbd
000001c0: a9c2 d93d 3241 c93d b95f a43c b981 9c3d
000001d0: e45e 71bd 250c d8bc eb2c 083d 2d7c 9cbd
000001e0: 2b4e d63d 26aa 8b3d 0288 0bbd d70d 8a3d
000001f0: af71 24bd b9f0 e6bd 87b5 07be eed3 033d
00000200: fed0 c9bd cd46 9fbc 0a99 c13c b9b3 123b
00000210: d5e2 92bd 1ebc a4bd 2184 9bbd 88c5 263e
00000220: 8256 253e a583 b33d cf47 f8bd f475 2dbc
00000230: 4a73 833d a161 a43c 59aa 003e 3a96 b8bc
00000240: edf7 1ebd ef0f efbd 81c9 b9bd d3a2 93bd
00000250: 9107 cd3d 060e d7bd bdd4 ed3c 9fa6 143e
00000260: c62a 0dbe 144a 85bd 11b9 e7bc 924e e9bc
00000270: 3ed6 35bd 5f6c 38bc 4700 7dbe 8e01 db3d
00000280: 470f 1cbe 3c7c 5dbd c824 e83d 2f7e fb3d
00000290: edf4 b53d 38cd d3bc 061a c0bd 8e21 eabd
000002a0: 9d18 ee3d cf9a dcbd 8dc2 ef3d 65cd 8ebd
000002b0: 728c 24bc 991a e23d b970 493d 4e52 9d3d
000002c0: ec72 16be 343c c2bd e904 953d 177d b4bc
000002d0: 0527 38bd 219a abbc c42f 2dbe 3048 313d
000002e0: 4ac4 56bd f0c6 0fbd aac8 f3bd c272 2dbd
000002f0: b4f5 783d 6079 06bd ced7 0dbe 68e5 bdbd
00000300: 3555 053e 3b10 b5bd b195 15bd d946 88bd
00000310: a588 2ebe 5423 55bd 510a 743d f8fe febd
00000320: eef3 ccbd ebc0 893d b89d 9ebd 7eb4 ddbd
00000330: 13ab 9b3d 56f6 83bd ac93 353d 9a93 a0bd
00000340: a0f7 a63d 198c 88ba 26f3 17bd ceac 0dbe
00000350: 84ce d53b fad5 0abe 9e9c 2cbd bb30 5b3c
00000360: 42d1 593d 6aa7 94bc 4f9a 2fbc 3179 353e
00000370: b20a 0e3c c1b1 bebd 5385 5b3d aab8 fc3d
00000380: adfa 21bd 773d 38bd 802d 1f3d a028 cabd
00000390: 566c 64bc f000 de3d 9897 9f3c 361c cd3d
000003a0: 7ec4 a7bd a6fd 51bd 9019 c6bd fd31 23bd
000003b0: d533 463d fe3e 87bd 9d42 1c3d 46e0 0b3e
000003c0: f0d4 d9bd 76ac 82bd f2a4 63ba 2c75 cfbb
000003d0: 3961 0e3d 510e e1bd 3beb 68bd 0548 4dbd
000003e0: 6b5d 23be c32a 13be 2e0b 8d3d 0a88 a9bc
000003f0: f53a 81bc 4c96 3a3b dd8f 08be 599b 4e3c

weight f4 [128, 256]
0.091819756 0.036932185 0.049905613 -0.18197499 -0.03783573 -0.0014641294 0.027965115 -0.06452966
-0.011823876 -0.09918364 -0.03323838 -0.024129432 0.09985157 -0.083037056 0.032824922 -0.021369467
0.021464465 -0.07697141 0.18901803 -0.070733435 0.11351933 -0.01116714 0.1436222 0.10552536
0.057393037 -0.0037896745 0.113626406 -0.022286717 0.14507845 0.055303354 -0.009975063 0.06298053
-0.02509688 0.11491947 0.14846738 0.07586858 0.049537197 0.017339302 0.043921556 0.012483004
0.043455493 -0.0110745495 0.08265727 0.090358384 -0.25420278 0.025786413 -0.10086505 0.13126236
0.09457361 0.058366165 -0.1302425 0.096919045 -0.03650751 -0.08203513 -0.09240664 -0.11305999
0.12843418 -0.23791826 0.30031565 0.06849928 0.06190771 0.16091362 -0.11832423 0.0028905033
0.12429766 -0.06674291 0.006825134 -0.0009546299 -0.044358116 -0.119084656 0.0882039 0.2002232
-0.037759304 -0.1440269 0.11534873 0.024845434 -0.062085636 -0.011780165 0.003393592 0.041148406
0.06854515 -0.13201912 0.084299 -0.005166092 -0.13708396 -0.08779014 0.02830769 -0.0029713311
-0.07137618 0.072957896 0.03919911 0.014684569 -0.03332693 0.017606985 0.046642244 -0.008104074
0.18543275 0.24777235 0.05139744 -0.04137446 -0.14715755 0.1508969 0.05889572 -0.05051697
0.016593304 0.0139604965 0.091079764 0.15425104 0.09557289 -0.12783724 -0.026995309 -0.001791044
-0.04197298 -0.028773686 -0.11190773 -0.006277739 0.047683444 0.05863251 -0.024250139 -0.21612453
-0.06246507 0.023827685 0.06606567 -0.07726945 0.07272505 0.010489836 -0.04146984 -0.047564797
0.085054554 -0.16063584 0.18351726 -0.006987962 -0.120310955 -0.056348342 0.08771663 -0.0068805814
-0.019171849 -0.22877641 0.05099896 -0.04003417 -0.02531284 -0.14965019 -0.19161399 0.03262706
0.011828952 0.06406917 0.08920506 -0.016655104 -0.12440817 0.025505915 -0.047592185 0.009014896
-0.0130183725 0.03419086 0.047636308 0.03211156 0.052284144 0.052187845 0.09153999 -0.010262134
-0.0728353 -0.024481045 -0.10386243 0.09465064 0.022213764 -0.021865586 -0.14648077 0.18243268
0.048900142 0.035791248 -0.13103454 0.060678437 -0.19567266 0.037348516 -0.018029733 0.002146795
0.10710583 -0.14810827 -0.16072549 -0.027873484 0.07635149 -0.0033187058 0.2252557 0.07594913
-0.05677062 -0.02648933 0.01910079 0.051016048 -0.16190378 -0.04557687 0.0021646721 0.12413714
-0.017296668 0.025117043 -0.08146341 0.020060282 0.04656061 0.07257241 0.12451127 -0.15297392
-0.10060005 -0.030231811 0.09486491 0.028041553 0.0644311 0.106998086 -0.21508151 -1.1251953e-05
-0.14083897 0.14900951 -0.122646555 -0.017770804 -0.026779596 0.13361779 0.08419661 -0.0940157
-0.09046344 -0.12025088 -0.037201766 -0.220419 0.02777563 -0.07252077 -0.02778925 -0.18731058
0.022367395 -0.078019336 0.04639073 -0.08915373 -0.20078938 -0.021783598 -0.12456931 -0.15358524
0.06002903 0.019668922 -0.0666665 0.048639797 -0.11013802 -0.054723088 0.020854326 -0.15124317
0.18870588 -0.042726208 -0.2574784 0.13461287 -0.08074143 0.19621357 -0.017866086 0.06383771
0.1685398 -0.005372282 0.016378203 0.01023314 0.090037934 0.010147111 0.2507373 -0.08671336
00000000: ff0b bc3d 3446 173d d469 4c3d a757 3abe
00000010: a3f9 1abd 08e8 bfba 1917 e53c 2028 84bd
00000020: eeb8 41bc cb20 cbbd f824 08bd 16ab c5bc
00000030: fb7e cc3d 550f aabd 6d73 063d 050f afbc
00000040: 3fd6 af3c 30a3 9dbd f18d 413e b1dc 90bd
00000050: d37c e83d 61f6 36bc b311 133e ae1d d83d
00000060: f614 6b3d 305c 78bb f6b4 e83d a292 b6bc
00000070: 728f 143e c585 623d 726e 23bc f0fb 803d
00000080: f997 cdbc e65a eb3d d507 183e fc60 9b3d
00000090: 84e7 4a3d 270b 8e3c 17e7 333d 8385 4c3c
000000a0: 63fe 313d 0772 35bc 3748 a93d d10d b93d
000000b0: de26 82be 073e d33c 5692 cebd a469 063e
000000c0: cfaf c13d 5c11 6f3d 4a5e 05be 7e7d c63d
000000d0: e688 15bd 0902 a8bd b13f bdbd ff8b e7bd
000000e0: 4084 033e d8a0 73be f9c2 993e 5a49 8c3d
000000f0: f092 7d3d 8ac6 243e f953 f2bd 996e 3d3b
00000100: c68f fe3d 82b0 88bd 60a5 df3b 2140 7aba
00000110: dbb0 35bd a8e2 f3bd 3fa4 b43d 4f07 4d3e
00000120: 80a9 1abd ca7b 13be f43b ec3d a788 cb3c
00000130: 824d 7ebd 9801 41bc 0767 5e3b 3b8b 283d
00000140: 6661 8c3d 0530 07be f4a4 ac3d 5248 a9bb
00000150: bd5f 0cbe 51cb b3bd 87e5 e73c aaba 42bb
00000160: ad2d 92bd f36a 953d 3f8f 203d 8c97 703c
00000170: d281 08bd 863c 903c f00b 3f3d f3c6 04bc
00000180: 15e2 3d3e 09b8 7d3e 1f86 523d 4478 29bd
00000190: 78b0 16be b884 1a3e a33c 713d e2ea 4ebd
000001a0: aeee 873c 91ba 643c 0788 ba3d fcf3 1d3e
000001b0: b8bb c33d c4e7 02be 4425 ddbc 77c1 eaba
000001c0: dceb 2bbd cbb6 ebbc e12f e5bd 7eb5 cdbb
000001d0: b74f 433d a528 703d 3aa8 c6bc c04f 5dbe
000001e0: 60db 7fbd 4732 c33c 704d 873d 723f 9ebd
000001f0: dff0 943d 90dd 2b3c 47dc 29bd 4ed3 42bd
00000200: 1531 ae3d b97d 24be f3eb 3b3e 46fb e4bb
00000210: 9765 f6bd 85cd 66bd c7a4 b33d 8076 e1bb
00000220: 480e 9dbc 5d44 6abe 49e4 503d dffa 23bd
00000230: df5c cfbc e63d 19be 7536 44be f4a3 053d
00000240: 38ce 413c b236 833d 24b1 b63d 4970 88bc
00000250: b6c9 febd c8f1 d03c 06f0 42bd 37b3 133c
00000260: 034b 55bc b70b 0c3d 4a1e 433d 6987 033d
00000270: e627 563d ecc2 553d 5179 bb3d 8222 28bc
00000280: ac2a 95bd 798c c8bc d3b5 d4bd 32d8 c13d
00000290: a4f9 b53c 751f b3bc 0eff 15be a2cf 3a3e
000002a0: 844b 483d d899 123d eb2d 06be f489 783d
000002b0: 6a5e 48be c2fa 183d 17b3 93bc 3eb1 0c3b
000002c0: 4d5a db3d b2a9 17be 3995 24be ef56 e4bc
000002d0: 2c5e 9c3d a57e 59bb 6ea9 663e 388b 9b3d
000002e0: 4f88 68bd 2700 d9bc 4379 9c3c 34f6 503d
000002f0: 1bca 25be d0ae 3abd 2cdd 0d3b 9d3b fe3d
00000300: beb1 8dbc 42c2 cd3c 4ad6 a6bd 7655 a43c
00000310: 57b6 3e3d d8a0 943d c4ff fe3d 32a5 1cbe
00000320: 6607 cebd b4a8 f7bc 8948 c23d 66b7 e53c
00000330: 74f4 833d d021 db3d 543e 5cbe c5c6 3cb7
00000340: 1738 10be f395 183e 1e2e fbbd 1494 91bc
00000350: e260 dbbc 1ad3 083e 466f ac3d 4e8b c0bd
00000360: e544 b9bd 1846 f6bd e160 18bd 85b5 61be
00000370: b889 e33c c585 94bd 48a6 e3bc 58ce 3fbe
00000380: d43b b73c 9ac8 9fbd 3504 3e3d 3b96 b6bd
00000390: bb9b 4dbe 8473 b2bc 321e ffbd 7345 1dbe
000003a0: 00e1 753d b820 a13c 7288 88bd 863a 473d
000003b0: 0b90 e1bd 5125 60bd b1d6 aa3c 7ddf 1abe
000003c0: 1d3c 413e ad01 2fbd 35d4 83be f5d7 093e
000003d0: c35b a5bd 36ec 483e e65b 92bc 58bd 823d
000003e0: b395 2c3e f809 b0bb 952b 863c e6a8 273c
000003f0: cf65 b83d 1140 263c a460 803e c696 b1bd

bias f4 [128]
-0.063954294 0.06697028 -0.057894606 -0.07772929 -0.23245427 -0.048823092 -0.0073116957 0.013683564
-0.011822649 -0.019929592 -0.071196236 -0.06577999 -0.052838072 0.026078105 -0.02819559 -0.077945575
-0.046019237 -0.13761666 0.028330171 -0.07460177 0.0016922143 -0.026021963 0.021467797 -0.044946786
-0.13070142 0.02742847 -0.015415416 -0.077187955 -0.035134748 0.034189012 -0.25965676 -0.04018867
-0.15914951 -0.11197546 0.0015543827 -0.07169549 0.00223565 -0.0026327102 -0.007233432 -0.1950116
0.04951824 0.00818482 -0.0026975533 -0.24151024 -0.069749996 -0.16209465 -0.18826994 -0.06732514
-0.006352679 -0.15142043 -0.024892882 -0.18638861 -0.06286811 -0.0005617297 0.036668405 -0.077541344
-0.09300115 -0.098105185 0.028085679 -0.03079787 -0.08274288 -0.050535336 -0.08332425 -0.07076221
0.007118953 0.08451927 -0.108650215 -0.029472945 0.011766908 -0.002405368 0.02626302 0.027542656
-0.18484262 0.04258538 -0.078761265 -0.11486314 -0.15821525 -0.014219885 0.030583799 -0.05351303
-0.08262814 -0.012673668 -0.03325321 -0.06524896 -0.023860356 -0.095545255 -0.038720753 0.053777054
0.025341943 0.07306453 0.012791529 -0.038856592 -0.06489046 -0.0609207 -0.13945141 -0.047086764
-0.05430113 -0.0038068392 0.017532552 -0.0787899 -0.04932988 -0.111314595 -0.03705586 0.000429489
-0.09140391 -0.053659044 0.008013743 -0.017100528 -0.06388301 -0.040010594 0.010012778 -0.064881556
-0.0034789501 -0.0015210108 -0.02122028 0.016140796 -0.036232296 -0.046548918 -0.040797867 -0.04879072
-0.013914402 -0.09378291 -0.08998723 0.048985288 0.012806372 -0.02395655 -0.07120029 0.037105408
00000000: 78fa 82bd b727 893d e522 6dbd 8930 9fbd
00000010: 7e08 6ebe b9fa 47bd f396 efbb 0731 603c
00000020: c9b3 41bc 6243 a3bc 55cf 91bd a9b7 86bd
00000030: bc6c 58bd c0a1 d53c 70fa e6bc eea1 9fbd
00000040: ab7e 3cbd 62eb 0cbe ad14 e83c d0c8 98bd
00000050: 4acd dd3a 032c d5bc 3cdd af3c 1f1a 38bd
00000060: 98d6 05be acb1 e03c f190 7cbc b814 9ebd
00000070: 74e9 0fbd c709 0c3d bbf1 84be e09c 24bd
00000080: 17f8 22be 6453 e5bd 6ebc cb3a 16d5 92bd
00000090: fc83 123b 8c89 2cbb 6d06 edbb 1fb1 47be
000000a0: a3d3 4a3d a019 063c 6fc9 30bb 764e 77be
000000b0: 16d9 8ebd 24fc 25be d6c9 40be c3e1 89bd
000000c0: 222a d0bb f50d 1bbe 28ec cbbc a8dc 3ebe
000000d0: ffc0 80bd 0b41 13ba 9c31 163d ffcd 9ebd
000000e0: 6377 bebd 5feb c8bd f013 e63c d14b fcbc
000000f0: 1975 a9bd 24fe 4ebd e8a5 aabd c7eb 90bd
00000100: 1b46 e93b 7018 ad3d 0184 debd 3f71 f1bc
00000110: fdc9 403c 61a3 1dbb 8b25 d73c 23a1 e13c
00000120: 6247 3dbe 026e 2e3d 964d a1bd 5e3d ebbd
00000130: 2e03 22be 85fa 68bc e08a fa3c 7b30 5bbd
00000140: f138 a9bd 37a5 4fbc 8534 08bd 3fa1 85bd
00000150: cb76 c3bc 3bad c3bd a799 1ebd 5445 5c3d
00000160: e899 cf3c dba2 953d 9093 513c 1728 1fbd
00000170: 4ae5 84bd fc87 79bd 5acc 0ebe 0dde 40bd
00000180: dd6a 5ebd 2a7c 79bb 6da0 8f3c 995c a1bd
00000190: 210e 4abd e8f8 e3bd e3c7 17bd 0a2d e139
000001a0: f931 bbbd 96c9 5bbd 134c 033c 6816 8cbc
000001b0: 18d5 82bd 26e2 23bd a30c 243c 9fe0 84bd
000001c0: 19ff 63bb a75c c7ba 27d6 adbc b439 843c
000001d0: 5168 14bd 14aa 3ebd aa1b 27bd c7d8 47bd
000001e0: 3bf9 63bc 4111 c0bd 3a4b b8bd cca4 483d
000001f0: d1d1 513c 8740 c4bc 75d1 91bd d7fb 173d

weight f4 [128, 128]
-0.027526822 -0.02776959 0.07907833 -0.0021909897 -0.04049918 -0.027035013 -0.044327565 -0.06270095
-0.025705997 -0.003243432 -0.0072410936 0.11423928 0.009326562 0.051076867 -0.04302168 0.008006241
-0.07874798 0.0056161536 0.014392033 -0.10015913 -0.027232412 0.029126829 0.042879157 -0.042933583
-0.052912857 0.030484682 -0.0048800725 -0.013181708 -0.007126701 0.0958083 0.012725061 0.036647115
-0.016010482 0.056462605 -0.037368793 0.004850744 0.055846646 -0.024151646 -0.0052574095 0.074607305
-0.027777651 -0.07335659 -0.011230544 0.012533041 -0.014287866 -0.01958257 -0.053126693 0.044299554
-0.041526426 -0.008877274 -0.028095897 0.045632277 0.015350817 0.039791107 -0.0225855 -0.021803044
-0.05510749 -0.011123253 -0.02270744 0.050583415 0.0016668558 0.026783042 -0.047082465 0.08109598
0.022216657 0.036635272 0.055884786 -0.018929366 -0.029335191 0.04988463 -0.039370827 -0.018348146
0.026594965 -0.038104165 0.02135426 0.09457807 0.07937203 -0.035140816 0.023012184 0.041667745
-0.07627957 -0.06412596 -0.038288835 0.037786596 0.002897396 -0.0464495 0.002149417 -0.037214123
0.001304475 -0.043775734 -0.03132318 0.054472048 0.074236326 0.040473685 0.043846097 -0.05526063
-0.028597236 -0.05969697 -0.11412947 0.0013418825 0.031161387 -0.06232258 0.02520655 0.039517414
0.009926915 0.02274018 0.008811386 -0.021494573 0.037178516 -0.049988244 -0.01921943 0.030149098
-0.015908916 0.051521465 0.0115067465 -0.06582208 -0.0030941581 0.010796323 -0.02874385 -0.0033012484
-0.028835164 -0.008275453 0.059056073 0.023739286 -0.049888212 0.03462388 -0.03570422 -0.0047480427
0.009265278 -0.07516524 0.04743593 0.001713656 -0.025196489 -0.05369585 0.06732904 0.00023959744
0.08197196 -0.007761693 0.022263696 0.061080534 0.022063687 0.04782001 0.15882008 -0.080906406
-0.01591419 0.03750933 0.01827654 -0.04072713 -0.0053215115 0.08705399 -0.12980133 0.032538716
0.017382212 -0.06347959 0.0008635785 -0.07711657 -0.04360388 -0.021210458 0.083279416 0.0804322
-0.08108379 -0.023171917 0.04660529 0.03495661 -0.054283902 -0.06035102 -0.01483418 -0.059764434
-0.06397869 -0.030565731 0.015324196 0.040801857 -0.025491424 -0.084947996 -0.034742285 -0.098105334
0.02858906 -0.02944084 0.005696458 -0.0060605905 0.00080842176 -0.0077676503 -0.05086494 -0.018983338
0.03223105 -0.10606986 0.0017988501 0.04893718 -0.0058442107 0.049264323 -0.0637409 0.0010380804
-0.061278086 -0.038584884 0.07593653 0.024157377 -0.06170953 0.042749755 0.017433181 -0.044518214
-0.08282114 0.034953307 0.03774243 -0.05398277 -0.04334499 0.01687628 -0.065490656 0.017884681
0.1419455 -0.029022545 -0.0030386127 -0.045009654 -0.03288718 -0.042344328 0.033414327 0.05683149
-0.016317766 0.05006431 0.0625848 0.11380552 0.0336983 -0.073178135 0.09258991 0.005292065
-0.06558031 -0.0037324084 0.058497846 0.01777538 -0.013692195 -0.044134475 -0.010409492 -0.044834156
-0.010069034 0.032828484 0.11508129 -0.01427897 -0.00057837105 -0.07394433 0.04557228 -0.0030933307
0.049057603 0.030486459 -0.024231201 0.02814768 -0.045616277 -0.0728399 0.03494934 0.058707282
0.04935303 0.002726167 -0.032302443 -0.037999924 -0.026786497 -0.04701413 0.02065575 0.068360806
00000000: ee7f e1bc 0d7d e3bc d2f3 a13d b596 0fbb
00000010: 78e2 25bd 8878 ddbc d290 35bd 5b69 80bd
00000020: 6295 d2bc c28f 54bb b246 edbb 49f6 e93d
00000030: 70ce 183c fa35 513d 8037 30bd 9c2c 033c
00000040: 9f46 a1bd b607 b83b 90cc 6b3c 3b20 cdbd
00000050: 8216 dfbc 639b ee3c 0ea2 2f3d 20db 2fbd
00000060: 27bb 58bd 03bb f93c 04e9 9fbb 17f8 57bc
00000070: 1a87 e9bb 2437 c43d c67c 503c 491b 163d
00000080: 6a28 83bc 5545 673d 0510 19bd fdf2 9e3b
00000090: 74bf 643d acd9 c5bc 5946 acbb b7cb 983d
000000a0: f58d e3bc fb3b 96bd 5100 38bc 6257 4d3c
000000b0: a717 6abc a06b a0bc 609b 59bd 7373 353d
000000c0: 9d17 2abd fc71 11bc 5e29 e6bc e9e8 3a3d
000000d0: fe81 7b3c 00fc 223d 3a05 b9bc 4c9c b2bc
000000e0: 64b8 61bd 4e3e 36bc f404 babc 8e30 4f3d
000000f0: 667a da3a 1c68 db3c 8bd9 40bd a615 a63d
00000100: b5ff b53c de0e 163d 72e7 643d c211 9bbc
00000110: 5b50 f0bc d353 4c3d 4e43 21bd da4e 96bc
00000120: afdd d93c 1d13 1cbd 21ef ae3c 26b2 c13d
00000130: ce8d a23d d1ef 0fbd 0c84 bc3c ccab 2a3d
00000140: 7738 9cbd 7954 83bd c1d4 1cbd 1ec6 1a3d
00000150: 3de2 3d3b d541 3ebd 3cdd 0c3b d66d 18bd
00000160: ebfa aa3a 2f4e 33bd bc4c 00bd 151e 5f3d
00000170: 3709 983d bcc7 253d f797 333d f858 62bd
00000180: c044 eabc cf84 74bd b6bc e9bd 1be2 af3a
00000190: 2a46 ff3c f645 7fbd f77d ce3c 03dd 213d
000001a0: 80a4 223c 9d49 ba3c a25d 103c 6315 b0bc
000001b0: 8048 183d 79c0 4cbd 1172 9dbc 3efb f63c
000001c0: 6a53 82bc 2c08 533d cb86 3c3c bacd 86bd
000001d0: 5cc7 4abb 10e3 303c 3978 ebbc c259 58bb
000001e0: b937 ecbc c495 07bc c8e4 713d e478 c23c
000001f0: 9557 4cbd c5d1 0d3d 973e 12bd 7895 9bbb
00000200: 64cd 173c 3cf0 99bd 2e4c 423d c19c e03a
00000210: de68 cebc 2ef0 5bbd cfe3 893d 733c 7b39
00000220: eae0 a73d cd55 febb 5b62 b63c 952f 7a3d
00000230: e8be b43c eade 433d bba1 223e 42b2 a5bd
00000240: 7a5e 82bc 62a3 193d afb8 953c 7ed1 26bd
00000250: 1360 aebb 5d49 b23d a4ea 04be 5147 053d
00000260: 2465 8e3c 9601 82bd c661 623a 4bef 9dbd
00000270: fb99 32bd 8ec1 adbc 668e aa3d a3b9 a43d
00000280: 420f a6bd 08d3 bdbc 30e5 3e3d aa2e 0f3d
00000290: cc58 5ebd a232 77bd 0f0b 73bc 8dcb 74bd
000002a0: 4207 83bd fc64 fabc 5612 7b3c d91f 273d
000002b0: 64d3 d0bc 37f9 adbd ed4d 0ebd 73eb c8bd
000002c0: 9b33 ea3c eb2d f1bc 5aa9 ba3b eb97 c6bb
000002d0: 44ec 533a c687 febb c157 50bd f282 9bbc
000002e0: b504 043d 283b d9bd 65c7 eb3a 5a72 483d
000002f0: cb80 bfbb 63c9 493d 978a 82bd 3310 883a
00000300: bbfe 7abd 2f0b 1ebd 9d84 9b3d b1e5 c53c
00000310: 22c3 7cbd 5e1a 2f3d 08d0 8e3c bb58 36bd
00000320: 219e a9bd 332b 0f3d ce97 1a3d 091d 5dbd
00000330: 848a 31bd 2040 8a3c f71f 86bd e582 923c
00000340: 295a 113e b0c0 edbc 7623 47bb 0b5c 38bd
00000350: b5b4 06bd 3f71 2dbd 76dd 083d 23c8 683d
00000360: d6ac 85bc 3c10 4d3d 762c 803d de12 e93d
00000370: 3b07 0a3d 6bde 95bd c79f bd3d 0f69 ad3b
00000380: f84e 86bd 6c9b 74bb 709b 6f3d ac9d 913c
00000390: 3a55 60bc 5ac6 34bd 938c 2abc 05a4 37bd
000003a0: 97f8 24bc 2977 063d bdaf eb3d 57f2 69bc
000003b0: d39d 17ba 2070 97bd 00aa 3a3d 7ab9 4abb
000003c0: a0f0 483d bdbe f93c 8380 c6bc f795 e63c
000003d0: 22d8 3abd 162d 95bd 0a27 0f3d 0c77 703d
000003e0: 6726 4a3d 7ea9 323b 914f 04bd cfa5 1bbd
000003f0: 5b6f dbbc e391 40bd 3f36 a93c c000 8c3d

bias f4 [128]
0.009862953 0.026022598 0.041027904 -0.037072223 0.051490787 0.053361487 -0.26112273 -0.016709328
0.019986242 -0.013245092 -0.0224462 0.004191815 -0.017335705 -0.05172773 -0.0022929367 -0.008881059
-0.108170375 0.003389538 0.032743994 -0.02190062 -0.10779139 -0.0061718067 -0.04396761 0.010772025
0.00028863066 -0.006934182 0.008251936 0.04523994 -0.12662019 -0.04020957 0.01813303 -0.08356718
-0.002919218 -0.036207628 -0.15471366 -0.036619943 -0.024956828 0.04705971 -0.013742994 -0.015827678
0.037468344 -0.08386132 -0.019239943 0.017785978 -0.012889311 -0.013340254 -0.09494911 -0.062169842
-0.046806935 0.04384998 -0.033458505 -0.070414744 0.011339379 -0.012554435 -0.115760125 0.016098525
0.024767362 0.038489956 0.019991726 -0.03471524 -0.10065021 -0.0103067085 -0.009146739 -0.015548491
-0.026917811 0.009040037 -0.010605079 0.01431137 -0.10176959 -0.00014984235 -0.03219043 -0.03320636
-0.05496065 0.018801438 0.03615561 -0.059715062 -0.012266992 0.049294595 0.09836433 -0.07508817
-0.017480412 -0.046417963 0.00508807 -0.00725542 -0.001093488 -0.024107946 -0.038236227 -0.014599418
0.0715078 -0.050944638 -0.030160177 -0.044800613 -0.021382919 -0.07949397 0.059679758 -0.058243915
-0.04281328 -0.029697895 0.024235036 -0.10294214 0.021676002 -0.14706819 0.008037552 0.0040151337
0.011814796 0.028596243 0.013139719 0.0010487337 -0.09853454 0.080938935 0.060089547 -0.16604345
-0.057280082 0.05354829 0.0026358392 -0.15162174 0.027843153 -0.014614071 0.04623372 -0.0770015
0.0066483766 0.017761126 0.01883301 -0.23935708 0.022135293 -0.08910376 0.041787878 0.020183839
00000000: 3998 213c 582d d53c e00c 283d 0bd9 17bd
00000010: 01e8 523d 9391 5a3d e1b1 85be 00e2 88bc
00000020: 30ba a33c f101 59bc 18e1 b7bc 7e5b 893b
00000030: 9c03 8ebc 75e0 53bd 1845 16bb dc81 11bc
00000040: 6e88 ddbd 0323 5e3b 911e 063d ee68 b3bc
00000050: bbc1 dcbd de3c cabb 6117 34bd 267d 303c
00000060: 5a53 9739 2238 e3bb 2133 073c 844d 393d
00000070: b9a8 01be cab2 24bd b88b 943c 4525 abbd
00000080: 5a50 3fbb 734e 14bd 426d 1ebe cbfe 15bd
00000090: 4372 ccbc afc1 403d 4b2a 61bc 0ca9 81bc
000000a0: 6878 193d 7cbf abbd 169d 9dbc e6b3 913c
000000b0: b02d 53bc 1591 5abc ae74 c2bd cea5 7ebd
000000c0: a1b8 3fbd 099c 333d c90b 09bd 9b35 90bd
000000d0: cdc8 393c 1eb1 4dbc a513 edbd 0ee1 833c
000000e0: ece4 ca3c a5a7 1d3d b0c5 a33c 9131 0ebd
000000f0: b321 cebd 78dd 28bc 34dc 15bc 19bf 7ebc
00000100: be82 dcbc aa1c 143c edc0 2dbc 3d7a 6a3c
00000110: 936c d0bd 001f 1db9 1dda 03bd 6403 08bd
00000120: 6b1e 61bd 7905 9a3c e817 143d c897 74bd
00000130: 7efb 48bc 21e9 493d 3d73 c93d d4c7 99bd
00000140: 1533 8fbc c320 3ebd d3b9 a63b e0be edbb
00000150: 5e53 8fba 077e c5bc 979d 1cbd 6632 6fbc
00000160: ae72 923d 53ab 50bd 7a12 f7bc d980 37bd
00000170: 3b2b afbc bccd a2bd c372 743d 2c91 6ebd
00000180: fa5c 2fbd 0049 f3bc 8e88 c63c 54d3 d2bd
00000190: df91 b13c 0b99 16be f0af 033c 6291 833b
000001a0: d992 413c ab42 ea3c fa47 573c aa75 893a
000001b0: 7acc c9bd 50c3 a53d 7520 763d 4b07 2abe
000001c0: 859e 6abd 7455 5b3d 0bbe 2c3b bb42 1bbe
000001d0: 5317 e43c db6f 6fbc 925f 3d3d f6b2 9dbd
000001e0: a0da d93b c87f 913c af47 9a3c 061a 75be
000001f0: 1355 b53c 087c b6bd c429 2b3d 9458 a53c

weight f4 [10, 128]
0.012035298 -0.0013692484 0.0027082763 0.00861834 -0.003235867 -0.004290022 0.030458631 -0.012769534
0.010839815 -0.0077991094 -0.011692129 -0.003755074 -0.0010948378 0.011427754 -0.008142825 -0.0038914
-0.0065573547 -0.004631848 -0.0091546215 0.017717877 0.0365955 0.010696434 -0.009408558 -0.019680649
0.0015364893 0.007986363 0.004503503 -0.0022766339 -0.017939834 -0.009817192 0.013396047 -0.03439574
0.01476891 0.016570078 -0.015402414 0.009769658 0.0054268152 -0.004640689 0.022893442 0.005478401
0.011433351 -0.01166343 -0.026089117 0.023994245 -0.0118833715 0.0066234106 -0.0048528505 0.0062340614
0.006693841 0.00067235576 0.009128025 0.0030407268 -0.012724716 -0.03274741 -0.025062982 0.00095411437
-0.028613964 0.0023828985 -0.0039336085 0.026603376 0.016960338 0.00718592 -0.08023799 -0.00046699768
-0.0052208835 -0.0047460776 0.01139708 0.0030609763 -0.019962069 0.0219081 -0.0037055162 0.0038623028
-0.013659217 0.0014394003 0.0048531727 0.025201762 0.012254307 -0.0020919978 -0.011384251 -0.028145049
-0.0078064417 -0.0029160439 0.01298915 0.01580529 -0.0124899335 0.026775382 0.000855466 -0.005318574
0.039137892 0.013141692 -0.016103942 0.013993114 0.0043981923 0.0123824505 -0.0028731772 -0.013402541
0.0076785376 0.020611772 -0.005920233 -0.027036173 0.0013588527 0.06958956 0.012338553 -0.0028321305
0.0017926185 0.0081052715 0.008171076 0.023074653 0.006247596 0.00018314322 0.0020159313 0.04674534
0.003986053 -0.032499537 0.0072931624 -0.06524536 0.0006185377 0.008983891 0.00024207274 -0.02533898
0.005878688 0.017004197 0.019320609 -0.0051048934 0.014789258 0.009986414 0.015168696 -0.0034288915
0.0021930167 -0.0052187005 -0.01480094 0.015987655 0.012373436 -0.0062191226 -0.03666641 0.0006050305
-0.003231598 0.014321438 -0.0050957943 -0.002237892 0.015167097 0.008703767 -0.0045895763 0.012013893
0.0161227 -0.010277739 -0.0019044391 0.0051123463 0.0044250614 0.019536188 0.010780968 0.015573124
-0.021555955 -0.008805283 -0.0051640794 0.010610074 -0.010093092 -0.0074591516 0.0054468196 -0.006765463
0.0063056555 0.008128023 -0.052322716 -0.010371077 0.011263608 0.003100064 -0.01945061 0.00090545067
0.009493021 -0.014249606 -0.0034895255 0.0033719426 -0.00030481428 -0.016768418 -0.024831116 0.0012391111
0.023065781 -0.014962466 0.0009946045 -0.010953889 0.019276418 -0.019863574 0.021197096 0.004170931
-0.0040774764 -0.0044754623 -0.006106741 0.0009115294 -0.011265131 0.0069102296 0.012393955 -0.00054944545
0.0033275757 0.0004567099 -0.002247396 0.008072956 -0.05120856 -0.012850879 -0.010634757 0.0062427265
0.041016776 -0.007979736 0.018696675 -0.022933384 -0.00886865 -0.0044728373 0.03293578 0.0005202732
-0.0037589264 0.0037498686 -0.011076348 -0.018236315 0.04261528 0.017605022 0.0069060316 -0.0044239233
0.0033244404 0.008714531 0.0060798978 -0.00749313 -0.0054726796 0.01434276 0.012286236 -0.0023403892
0.010309672 0.016335951 -0.0043543032 -0.023714721 0.0030255453 0.0010041217 0.008286147 -0.00049670244
-0.0058305217 0.014069555 -0.005259123 -0.01260648 0.0039726184 -0.0007534911 0.011821265 -0.029277777
0.011450053 -0.016811008 -0.040414095 -0.0016293305 0.010852867 0.0054544522 -0.005407558 0.030423775
-0.01111072 0.003100381 0.017681673 -0.044971563 -0.006281154 0.02768181 -0.022647595 -0.00024570996
00000000: b32f 453c 5a78 b3ba 567d 313b f033 0d3c
00000010: d710 54bb 5093 8cbb 6184 f93c 4f37 51bc
00000020: 7b99 313c ac8f ffbb 5890 3fbc b017 76bb
00000030: a980 8fba 793b 3b3c 7c69 05bc dc06 7fbb
00000040: 14df d6bb c2c6 97bb 44fd 15bc 1525 913c
00000050: 2ae5 153d 1940 2f3c 5a26 1abc 5039 a1bc
00000060: 0764 c93a 3cd9 023c 1f92 933b 9433 15bb
00000070: 8ff6 92bc 4ad8 20bc 187b 5b3c 8ce2 0cbd
00000080: 4cf9 713c f9bd 873c 685a 7cbc ea10 203c
00000090: 6dd3 b13b ec10 98bb 078b bb3c 2984 b33b
000000a0: f352 3b3c f917 3fbc d8b8 d5bc 948f c43c
000000b0: 79b2 42bc 3209 d93b a904 9fbb 1947 cc3b
000000c0: 0258 db3b 0841 303a b68d 153c ee46 473b
000000d0: 547b 50bc 2622 06bd e250 cdbc 881d 7a3a
000000e0: d567 eabc 672a 1c3b 80e5 80bb 53ef d93c
000000f0: 68f0 8a3c de77 eb3b d153 a4bd 5ed7 f4b9
00000100: f213 abbb fc84 9bbb d1ba 3a3c a99a 483b
00000110: 7e87 a3bc 9e78 b33c 3fd8 72bb b01e 7d3b
00000120: e9ca 5fbc 42aa bc3a 5d07 9f3b ed73 ce3c
00000130: 4ac6 483c e619 09bb 0285 3abc 7290 e6bc
00000140: 2ecd ffbb 191b 3fbb 72d0 543c 187a 813c
00000150: 94a2 4cbc 0c58 db3c 5a41 603a 6f47 aebb
00000160: 0e4f 203d 4050 573c 6aec 83bc 6043 653c
00000170: b61e 903b c3df 4a3c ea4b 3cbb 5596 5bbc
00000180: 3e9c fb3b 05da a83c 84fe c1bb f77a ddbc
00000190: 881b b23a f984 8e3d a427 4a3c 449b 39bb
000001a0: 4cf6 ea3a f9cb 043c fadf 053c 0e07 bd3c
000001b0: a2b8 cc3b 220a 4039 b71d 043b 0b78 3f3d
000001c0: 709d 823b 3c1e 05bd 7bfb ee3b 5c9f 85bd
000001d0: 5d25 223a 2c31 133c e8d4 7d39 b193 cfbc
000001e0: 02a2 c03b 634c 8b3c 4146 9e3c f346 a7bb
000001f0: a54e 723c 0e9e 233c 1f86 783c 41b7 60bb
00000200: b7b8 0f3b a201 abbb a47f 72bc 8bf8 823c
00000210: f4b9 4a3c c8c9 cbbb 842f 16bd e99a 1e3a
00000220: 38c9 53bb 77a4 6a3c 9ffa a6bb 99a9 12bb
00000230: 6a7f 783c 3f9a 0e3c 2864 96bb ebd5 443c
00000240: c113 843c f663 28bc 5f9e f9ba 7885 a73b
00000250: 1b00 913b 5b0a a03c a8a2 303c 6b26 7f3c
00000260: 1d96 b0bc 0944 10bc 7037 a9bb e0d5 2d3c
00000270: 7f5d 25bc e66b f4bb 3c7b b23b d1b0 ddbb
00000280: ac9f ce3b 662b 053c 5850 56bd 73eb 29bc
00000290: ff8a 383c 712a 4b3b e356 9fbc c45b 6d3a
000002a0: 9e88 1b3c 2e77 69bc 86b0 64bb cffb 5c3b
000002b0: 7bcf 9fb9 ec5d 89bc a06a cbbc ab69 a23a
000002c0: 73f4 bc3c 2225 75bc 645d 823a f177 33bc
000002d0: 94e9 9d3c efb8 a2bc 88a5 ad3c 4eac 883b
000002e0: 5a9c 85bb e6a6 92bb 0e1b c8bb b4f3 6e3a
000002f0: 6291 38bc 356f e23b 0410 4b3c a908 10ba
00000300: 7513 5a3b 9172 ef39 0c49 13bb 6f44 043c
00000310: 11c0 51bd 7e8c 52bc 673d 2ebc c98f cc3b
00000320: 3501 283d 70bd 02bc c529 993c cbde bbbc
00000330: d04d 11bc e190 92bb abe7 063d f262 083a
00000340: 5258 76bb 5bc0 753b 9279 35bc 5364 95bc
00000350: 5c8d 2e3d 6838 903c fe4b e23b 8ff6 90bb
00000360: dbde 593b 64c7 0e3c e139 c73b ee88 f5bb
00000370: 2a54 b3bb e5fd 6a3c 354c 493c 3761 19bb
00000380: e6e9 283c f9d2 853c 8bae 8ebb 6045 c2bc
00000390: 3a48 463b bc9c 833a 9fc2 073c 2335 02ba
000003a0: f60d bfbb fe83 663c b954 acbb 698b 4ebc
000003b0: bd2c 823b ef85 45ba fbad 413c f3d7 efbc
000003c0: 0199 3b3c 3db7 89bc 4089 25bd 428f d5ba
000003d0: 39d0 313c 43bb b23b e231 b1bb 483b f93c
000003e0: bd09 36bc c32f 4b3b 28d9 903c 1a34 38bd
000003f0: 24d2 cdbb f7c4 e23c 7387 b9bc a2d2 80b9

bias f4 [10]
-0.079497814 -0.011666246 0.044068605 0.05357382 -0.08767301 -0.039119538 0.010226705 -0.02246231
-0.004326661 0.035119604
00000000: c0cf a2bd c823 3fbc 4881 343d 3970 5b3d
00000010: e88d b3bd cf3b 20bd e98d 273c e102 b8bc
00000020: aac6 8dbb 93d9 0f3d
