deploy/models/booster_gym_v5/model_2000.pt (torch, 297214 bytes, 8 tensors)

weight f4 [256, 80]
000000 6d bf 21 bf 72 4a 32 3d ba 7c 94 bd 2c 87 bb 3c
       -0.6318272 0.043528028 -0.07250352 0.022891603
000010 3c 7d cc bb 29 82 f6 3c a2 a8 e0 3d 71 f1 b0 3d
       -0.006240515 0.030091362 0.10969664 0.08639801
000020 55 eb 85 bd 5e 12 dc 3d b1 f7 e1 3c f1 e2 37 3d
       -0.06539027 0.10745691 0.027583929 0.044894163
000030 b0 f0 9f 3c c5 20 a2 3a 1e 1d 49 bd 3c 6d d8 ba
       0.019523948 0.0012369385 -0.049100034 -0.0016512047
000040 c2 fa 14 3d 45 1c d1 3c 77 bb 0e 3e 08 66 05 3d
       0.036371954 0.025526175 0.139387 0.032568008
000050 cb 92 15 bd 61 b0 8a 3d 6f 0b f1 be 60 bc 0f 3e
       -0.036516946 0.06771923 -0.47079036 0.14036703
000060 17 82 b8 bc 30 09 b2 bd e1 d4 28 be c9 9c 40 3e
       -0.02252297 -0.086931586 -0.16487457 0.18809809
000070 27 52 9f be bb 2a af bd 81 22 e2 3d 22 87 52 be
       -0.31117365 -0.08553072 0.11041737 -0.20559362
000080 4b b8 c5 bd 52 03 9f 3e 03 17 c4 3d 52 17 21 3e
       -0.09654292 0.3105722 0.09574702 0.15731552
000090 45 47 2d bd 88 54 5b 3d 83 2d 8f bc 8b 12 5b 3c
       -0.042304296 0.053547412 -0.017477756 0.01337112
0000a0 e4 61 15 3d 45 30 7c bd 5c ab 78 3c d5 18 18 be
       0.03647031 -0.06156947 0.015177574 -0.14853223
0000b0 66 2c a2 bd c8 ae ff be 1d f0 80 3e a7 b5 97 bd
       -0.079186246 -0.49938035 0.25183192 -0.07407694
0000c0 ee 3f 28 be e2 c2 0a be ce 74 7f bc a2 db 9e 3d
       -0.16430637 -0.13550904 -0.015591813 0.077567354
0000d0 87 36 30 3e d2 7a 2e bd f6 73 e5 bd 86 58 80 bd
       0.172083 -0.0425976 -0.112037584 -0.062668845
0000e0 90 b0 82 3d 3b 70 47 bd 56 fa e6 3c 94 4c 15 bd
       0.06381333 -0.048691016 0.028195541 -0.036449984
0000f0 02 27 9c bc d9 ac d4 bd d5 47 d7 3b b7 db 0e 3c
       -0.01906157 -0.103845306 0.0065698423 0.008719376
000100 4c 9e 9f bd ee 5a 4c 3c a6 4a 2c 3d 4e ce 1e 3e
       -0.077938646 0.012472851 0.042063378 0.15508386
000110 6a 18 ae bd 8e 45 62 3d f4 81 18 3e b9 ed e2 bd
       -0.0850075 0.055242114 0.14893323 -0.11080498
000120 e0 d8 20 be a2 cb 8c 3d 61 bc 3f bd 7e ea 0c 3e
       -0.15707731 0.068747774 -0.04681051 0.13761327
000130 e3 c3 88 39 ed ba 81 bd c6 99 2d 3e 3e c0 b7 bd
       0.00026085888 -0.063344814 0.16953191 -0.08972214
000140 9f 70 f9 be f4 3a 3c be 85 f0 d8 bd f8 b6 6b bc
       -0.48718736 -0.18381864 -0.105927505 -0.014386885
000150 67 28 a6 3d 1b db 54 3c 77 5d 6b bd 32 6d 9b bd
       0.08113175 0.012991692 -0.057462182 -0.07589187
000160 c8 26 56 3d 72 e6 2a bd 61 dd c4 bd d8 ec e8 bb
       0.05228308 -0.041723676 -0.09612537 -0.007108312
000170 c7 9d 1b 3e 18 ed d7 bc 12 1b ab bd c6 a9 cb bb
       0.15196906 -0.026358172 -0.083547726 -0.006215307
000180 6b cb 6a bd 83 7c ba 3d 14 fe 4f 3d 54 cd f7 3b
       -0.0573229 0.0910578 0.050779417 0.007562319
000190 0e 02 9e bd 56 30 27 bc db 02 40 be 45 80 d4 3e
       -0.07715236 -0.010204395 -0.1875109 0.41504112
0001a0 22 13 dd bd 3a 70 8a 3d 04 10 cd bd 29 a2 c3 3c
       -0.10794665 0.06759687 -0.1001282 0.023881035
0001b0 e4 21 c3 3e 1c ac 4d bd f5 f3 79 3d 0e 88 05 be
       0.38111794 -0.050212964 0.06102367 -0.13040182
0001c0 81 b9 b5 be 63 87 45 bd 3d b2 90 3b 8e 54 dd 3d
       -0.3549309 -0.048224818 0.004415779 0.10807143
0001d0 53 a4 2d bd 4d c4 80 3d 2f 55 9e bc 14 99 9d 3e
       -0.04239304 0.062874414 -0.019327728 0.30780852
0001e0 01 19 ee bd 3e ed 5e 3d c8 37 e6 bb 43 a5 0b be
       -0.11625863 0.05442547 -0.0070256926 -0.13637261
0001f0 55 6d 6f bd fb 77 90 bd f5 61 08 be a1 f9 ab 3d
       -0.058453877 -0.070541345 -0.13318618 0.08397222
000200 12 b7 a5 bd c7 d7 1a bd cb de 94 bd 10 79 c7 be
       -0.080915585 -0.037803438 -0.07269057 -0.3895955
000210 c6 9b 97 bd 1a 05 98 3c cd 2e 80 be 09 a3 05 be
       -0.07402758 0.01855712 -0.25035706 -0.13050474
000220 70 a5 a2 3a 88 6e 21 3e 2f 41 7a bc 0e f0 43 3d
       0.0012408923 0.1576482 -0.01527433 0.047836356
000230 81 d4 40 3d cd f5 e6 bc b6 55 84 bb 44 11 94 bd
       0.04707766 -0.028193379 -0.004038538 -0.07229856
000240 c6 e1 22 be ab 5f 99 ba 95 73 9d 3d b2 34 51 be
       -0.15906438 -0.0011701485 0.07688061 -0.20430258
000250 bc d0 2a bd aa 29 06 be 6c 45 03 3e 1d 55 f8 3d
       -0.04170297 -0.13101831 0.12819451 0.12125609
000260 fa 68 ad bd 0a 54 70 3e 2b 9d 2d be a8 9a 9c bb
       -0.08467288 0.23469558 -0.16954486 -0.0047791786
000270 0f a4 15 3e e2 42 89 3d 76 9b 82 bd 72 21 27 be
       0.14613365 0.0670221 -0.06377308 -0.16321352
000280 f3 4b 75 3e 52 88 94 be 36 e9 35 3d 3e b8 a5 bd
       0.23954754 -0.29010254 0.04441186 -0.08091782
000290 67 13 ea 3b 33 d8 a5 bb 55 3f 1d bd 59 36 eb bc
       0.007143426 -0.0050611733 -0.038390476 -0.028712438
0002a0 a3 e4 e5 3c e2 90 d5 3d ca fa 2f bc dc f1 a7 bd
       0.028063124 0.10428025 -0.010740945 -0.08200428
0002b0 ab 36 00 3d 68 8e 28 3d 52 89 01 3d f6 dc 50 bd
       0.031302135 0.041151434 0.0316251 -0.050991975
0002c0 63 43 70 3d 19 50 06 be 86 74 86 3c 0a 63 94 3c
       0.058658015 -0.13116492 0.016412985 0.018113632
0002d0 a8 d9 fd 3c e5 ab 62 3d d2 32 d8 3e 88 ad fb be
       0.030987576 0.055339713 0.42226273 -0.4915583
0002e0 bf 20 d7 bd d5 30 5f 3c 78 12 84 bd 66 b0 58 3d
       -0.10504293 0.013622482 -0.06448835 0.0529026
0002f0 03 5c 01 bd a0 94 da bd 5f ba 1b bd 65 97 38 bc
       -0.03158189 -0.10672879 -0.038019534 -0.011266564
000300 07 66 45 3e 2d bc 9e 3d 30 14 13 bd 26 fb 4b 3c
       0.19277202 0.077507354 -0.035907924 0.012450015
000310 3b 80 91 3d a4 4b 2f 3e d7 dc c2 bc 92 7c 06 be
       0.07104536 0.17118698 -0.023786945 -0.13133457
000320 7a a4 a4 3d 91 79 a1 be 16 43 e9 bc 45 a5 ef 3d
       0.08039184 -0.3153806 -0.028474372 0.117014445
000330 a5 86 12 3e fd d2 92 3d 28 ac 7f bd 77 99 ce 3d
       0.14309175 0.07169149 -0.06242004 0.10087865
000340 9d 57 ab bd 98 37 0f bd eb 4c 9e 3d bb f5 bd bd
       -0.0836632 -0.034965128 0.07729515 -0.09275385
000350 73 0b 2a 3e a8 c4 1e bd 3b 70 32 bc 16 9a 79 3c
       0.1660593 -0.038761765 -0.010891016 0.015234491
000360 a6 2c b2 3b ba 70 a7 bd 89 5a 5d 3d ec dc be 3d
       0.0054374514 -0.08175798 0.05404142 0.09319481
000370 43 9c d0 3c d6 2c b8 3d c1 b3 92 bd 18 f9 47 3d
       0.025465136 0.08992927 -0.071631916 0.04882154
000380 ef b8 17 3d 5c cd 86 3d e1 19 be 3c 90 2b 81 3e
       0.0370416 0.06582138 0.0232057 0.25228548
000390 e5 c3 b8 3d d6 a7 f2 3d 3b 03 36 3d e7 8f 29 bd
       0.09021739 0.118484184 0.044436675 -0.041397
0003a0 6c 48 e2 3c a3 9a 97 be cb 7a 99 bd 37 1c 17 3e
       0.027622424 -0.29610166 -0.07494124 0.14756857
0003b0 63 9d de bc 43 c0 54 be f3 9c e5 bd de 04 b1 3c
       -0.027174657 -0.20776467 -0.11211576 0.021608766
0003c0 06 64 77 3d b0 d9 02 3f c5 91 b6 3d d2 28 15 be
       0.060398124 0.51113415 0.08914522 -0.14566353
0003d0 72 41 16 bd c7 9b cb 3d 6c f0 8b bd 73 d1 dd 3d
       -0.036683507 0.099418215 -0.06832966 0.10830965
0003e0 af 8c 92 bd 47 9a 0c 3d e1 4c d6 3d 47 6e 5d 3d
       -0.071557395 0.034326818 0.10463882 0.054060247
0003f0 4a 76 06 be 82 6c 81 3d 0b 97 e4 3c 43 90 84 bd
       -0.13131061 0.06319524 0.027904054 -0.06472828

bias f4 [256]
000000 41 27 84 bd a1 e8 04 3d 5d 85 dc 3d c9 a1 f9 3d
       -0.064527996 0.032448415 0.107676245 0.12189061
000010 67 72 cb 3d b7 bc e0 3c b9 df 3e bc a4 08 79 bd
       0.0993393 0.027433736 -0.011650019 -0.060799256
000020 67 ef a8 3a da e2 99 3d 43 c5 b2 bd 7c 2c 89 bd
       0.001288873 0.075139716 -0.08729031 -0.06697938
000030 7d 79 21 3e 3c ec 37 bd ce b7 04 be 5a 63 04 bd
       0.15769 -0.044903025 -0.12960741 -0.03232131
000040 96 ab ae bc e2 c8 a3 3d 9e 3e b6 3d 6b 1c dc bd
       -0.021322053 0.079973 0.08898662 -0.10747608
000050 84 24 96 bd 2f bb 7a bd af fc e0 3d c9 52 1c be
       -0.073311836 -0.06121367 0.109856956 -0.15265955
000060 4e a4 7d bd 02 e1 e7 3d 04 37 12 3e aa dd b4 3c
       -0.06192427 0.11322214 0.142788 0.022078354
000070 a9 fa af 3d 5d 5d 83 bd f0 f9 91 bd 5b 0c 2c be
       0.085927315 -0.06414292 -0.0712775 -0.16801588
000080 16 f1 8a 3d bf 01 7b 3d 02 94 98 bc 95 41 12 be
       0.06784265 0.061280962 -0.018625263 -0.1428283
000090 08 78 14 bd 46 31 cc bc 15 24 d9 bd d2 59 e1 3d
       -0.036247283 -0.02492584 -0.10602585 0.1100346
0000a0 e6 be 13 3c 01 4c f7 bd a8 5e a0 3c 1b 05 46 3b
       0.009017682 -0.120750435 0.019576386 0.0030215445
0000b0 68 3b 9d 3d 17 2d 96 bd b5 56 02 3e 44 8e 63 3d
       0.076773465 -0.07332819 0.12728389 0.055555597
0000c0 39 53 5c bc c2 63 ac bd 65 a5 b2 3d e1 20 b9 bd
       -0.013447576 -0.08417465 0.08722953 -0.09039474
0000d0 0d 9c aa 3c ea ea 6c bc d5 48 73 3d 95 f0 10 bd
       0.020826364 -0.014460305 0.05939563 -0.035385687
0000e0 98 b6 9d bd c4 62 a7 3d a3 2c d9 bd 31 85 a8 3b
       -0.077008426 0.08173135 -0.10604217 0.005142831
0000f0 49 c0 71 3d c3 34 80 bc 2f 72 f3 3d 88 a2 84 3d
       0.059021268 -0.015650159 0.11887013 0.06476313
000100 91 9e e4 bd b7 91 81 3d b6 77 11 3e 79 29 fa bd
       -0.11163057 0.06326621 0.14205822 -0.122149415
000110 3a 78 59 3d d4 a8 1a 3e 89 a4 80 bd 28 1f 02 bc
       0.053093173 0.15103465 -0.062813826 -0.007941999
000120 86 a4 95 bc 42 14 90 3d 42 e5 c7 3d 7d de 3b bd
       -0.018266927 0.07035114 0.09760524 -0.04586648
000130 61 a6 88 bd 8a fb 20 3c 2d 76 0d bb 4e 96 21 3c
       -0.06672359 0.009825597 -0.002158533 0.009862496
000140 33 c4 d6 bd 78 41 1c 3e 52 b1 02 be 17 77 24 3c
       -0.10486641 0.1525935 -0.12762955 0.010038159
000150 47 6d a6 3d 5f 40 08 3d 7a e5 60 bd 7c 90 c0 bd
       0.08126312 0.033264514 -0.054906346 -0.09402558
000160 6c e8 35 3d 3b 45 ed bd 52 d3 e9 bc 37 b8 c2 bd
       0.044411108 -0.1158547 -0.028543148 -0.095077924
000170 9a 0d 17 bd b3 8c 56 3d 40 8a 1a be 02 50 b1 bc
       -0.036878206 0.052380275 -0.150918 -0.021644596
000180 98 9b df bd 87 43 85 bd cd 75 ba 3d 23 81 97 3d
       -0.10918349 -0.065070204 0.091045 0.07397678
000190 f1 50 dc 3d ac 55 e9 3d 52 40 bb bd f3 72 0d be
       0.10757626 0.11393294 -0.091431275 -0.13813381
0001a0 44 ef a4 3d 55 89 ce bd 7d 77 94 3d 6a aa 93 bd
       0.08053449 -0.10084788 0.07249353 -0.07210238
0001b0 06 bf d8 3c b4 0a af bd d7 f7 b0 bc 2b d2 9c bd
       0.026458275 -0.08546963 -0.021602554 -0.07657274
0001c0 5c 84 d1 3d 7f 7c b9 3d d8 8f 54 3b 42 72 74 3d
       0.10230324 0.09056949 0.003243437 0.059679277
0001d0 c8 1f 30 bc db 15 c1 bc 3a 37 f1 3c f9 e0 7e bd
       -0.010749765 -0.023569992 0.02944528 -0.06222627
0001e0 d2 4a a2 3d 1a 4d 33 3d f2 9a 18 bc 95 ff 0f 3d
       0.07924427 0.0437747 -0.009314286 0.03515585
0001f0 e7 b1 f2 bc 98 73 84 bd d1 56 01 be 24 bd 92 3d
       -0.029625846 -0.0646736 -0.12630774 0.07164982
000200 dd 81 3f bd 78 71 91 bc 40 1c 0f 3d c9 ab 9e bb
       -0.046754707 -0.017754301 0.03493905 -0.0048422557
000210 7f 4d 3f bd d8 4f 6b bd b5 32 8f bd 90 85 f8 3d
       -0.046704765 -0.05744919 -0.069920935 0.1213485
000220 06 97 0c 3e da 28 82 3d 62 ea 15 bd a7 fa 93 3a
       0.13729486 0.06355448 -0.036600478 0.001128991
000230 d9 9b e5 3c 9a b1 26 3d 31 12 b1 3d 06 aa 91 bc
       0.028028416 0.040696718 0.08646048 -0.017781269
000240 82 7b dd bc ba 1c a3 bd 05 80 56 bd 84 03 1f bd
       -0.027036432 -0.079644635 -0.052368183 -0.038821712
000250 da 06 aa 3d 57 26 20 bd 11 78 11 3d 9d a0 fd 3d
       0.08302088 -0.039099064 0.035514895 0.1238415
000260 a7 fc 35 bd 67 f2 91 bd 9a 77 80 bc 30 09 08 3d
       -0.0444304 -0.07126313 -0.01568203 0.033211887
000270 32 78 47 3d 09 45 23 3c ff 6e 4b be d9 27 d5 3d
       0.04869861 0.00996519 -0.1986656 0.10407991
000280 5a 1c d9 bd 6d d6 fd bc d0 76 cc 3d a4 3a 05 3e
       -0.10601111 -0.030986035 0.09983599 0.13010651
000290 27 b8 ca 3d 40 06 c2 ba a9 85 98 bd fc 08 cf bd
       0.098984055 -0.0014802888 -0.07447369 -0.101091355
0002a0 2c a9 bb 3d 47 66 92 bd 05 ac d2 3d 7a 24 93 bb
       0.09163126 -0.07148414 0.10286716 -0.0044904323
0002b0 2e 6f be bb f5 44 ad 3d dc 0d 75 3d 5d cc bb 3d
       -0.0058115935 0.08460418 0.05982767 0.091698386
0002c0 9b a3 f4 bd 01 dc ab bd ef ad 8d 3d 44 da 57 bd
       -0.11945268 -0.08391572 0.06917941 -0.05269839
0002d0 aa 18 2f bd 94 84 14 bd 3c d1 04 be 8b 9f 18 3d
       -0.04274813 -0.03625925 -0.12970442 0.037261527
0002e0 65 35 71 bd d9 6b 29 3b 20 dd e2 bd a7 42 ba bc
       -0.05888881 0.0025851636 -0.110773325 -0.02273686
0002f0 63 d5 8a 3d 66 aa 90 bc 26 21 dc bd 24 b5 91 bd
       0.067789815 -0.017659377 -0.1074851 -0.07114628
000300 8b 08 07 3e 70 36 47 bd 21 8f 39 bd a3 c4 5b bd
       0.13186853 -0.0486359 -0.045302514 -0.053654324
000310 f7 bf aa bd 3a 6e 0d bd 0e f2 83 3d 61 9a f8 bd
       -0.08337396 -0.03452895 0.06442653 -0.121388204
000320 49 f3 b6 bd 59 6a 37 3d ec 6c 85 bd 75 10 6b bd
       -0.08933122 0.044779155 -0.06514916 -0.05738874
000330 c7 36 8d 3d d3 93 4a bd 20 0c e9 3c 87 e0 26 bd
       0.068952136 -0.049457382 0.028448164 -0.04074147
000340 62 82 53 3d fd c7 10 bc f0 58 d7 bc 45 fa d9 bd
       0.051638015 -0.008836743 -0.026287526 -0.10643438
000350 0e a9 d5 3c 33 44 dd bd 2f cc d3 bc 1d 8e 4a 3c
       0.026081588 -0.108040236 -0.025854198 0.012362984
000360 00 04 5f 3d cb ca 4b bc 83 45 b7 bb a7 4d 2a 3e
       0.054447174 -0.012438486 -0.0055930032 0.16631185
000370 b3 19 f7 3c ba 33 9c bd 45 ba 6d 3d c2 55 e1 3d
       0.030163622 -0.076270536 0.05803897 0.11002685
000380 a9 e1 cc bc 12 9d 2b bd b6 fa 1f 3d e1 66 bd bd
       -0.025009947 -0.04189784 0.039057456 -0.09248138
000390 dc db cb bc d0 9f b3 3d 11 09 8d 3c 0e 9e a9 3d
       -0.02488511 0.08770716 0.017216237 0.082821
0003a0 13 ca 11 ba 07 65 d1 bc 1e 7b 92 bd bd 19 01 bd
       -0.00055614224 -0.025560869 -0.07152389 -0.031518687
0003b0 7d d0 79 3d 38 c2 45 bd b9 18 29 3d 53 0a d7 3d
       0.060989846 -0.048280925 0.041283343 0.10500016
0003c0 1e 6a 97 bd bf 35 44 bd 31 2d b6 3c 2b 9d b7 ba
       -0.07393287 -0.04790282 0.022238346 -0.0014008632
0003d0 2c 82 0e 3d 2c 40 c3 bd 71 b7 1a bd 68 c4 25 bb
       0.03479211 -0.09533724 -0.0377726 -0.002529407
0003e0 2c 37 0f be 17 dc e8 bd 31 47 a5 3d b5 c8 a1 bb
       -0.1398589 -0.11370104 0.08070219 -0.004937256
0003f0 0e 45 14 bd da 66 4f 3d 9e 7f f2 bd 7e f3 e4 3c
       -0.03619867 0.050635196 -0.11840747 0.027948137

weight f4 [128, 256]
000000 49 f0 11 3d 94 f1 8a bb ae 96 9c 3d c8 27 34 be
       0.035629544 -0.004240224 0.07645927 -0.175933
000010 4e 3f c3 bc 18 2d 34 bc ec a6 37 3d 79 ed 8a bd
       -0.023833897 -0.010997079 0.044836923 -0.067835756
000020 b7 e4 db 3b dc 58 a3 bd 94 4a 78 bd a5 b4 15 3d
       0.0067106145 -0.07975933 -0.060618 0.03654923
000030 25 36 79 3c 7e 9d 04 be ab ed 20 3d 88 9e e5 bc
       0.015210663 -0.12950704 0.039289158 -0.028029695
000040 20 09 65 bd 1d c4 6e bd 68 81 03 3e a6 44 94 bc
       -0.055916905 -0.058292497 0.12842333 -0.01809914
000050 72 5d c3 3d 2e 14 8f 3c a4 36 de 3c dd 32 ad 3d
       0.09539308 0.017465677 0.027125664 0.08456967
000060 95 52 11 3d 2f 24 6c 3b 35 4a c9 3b 5e 71 c0 3c
       0.035479147 0.003603231 0.0061428794 0.023491558
000070 6f 20 a6 3d 79 7d 60 3b 6a b9 cc b9 21 a4 80 3d
       0.08111655 0.0034254475 -0.00039048056 0.06281305
000080 de b9 54 bc 4e 8d cf 3d 57 38 be 3d 86 97 68 3d
       -0.012983767 0.101343736 0.0928809 0.05678513
000090 39 86 ff 3c d3 26 1f bc 2d 2e 52 bc 7b ad dd 3c
       0.031191932 -0.009713846 -0.012828392 0.027060261
0000a0 23 5d 71 bb 29 3c 6d 3d bd f7 8c 3d 02 05 6e 3d
       -0.0036829195 0.0579187 0.0688319 0.058110245
0000b0 d7 b6 77 be 8a fe f6 3c 52 50 fc bd be 72 c8 3d
       -0.24190842 0.03015067 -0.123200074 0.0978751
0000c0 37 c8 a5 3d ab 97 8f 3d 34 05 d7 bd 95 fb b0 3d
       0.080948286 0.0701135 -0.10499039 0.086417355
0000d0 af 06 08 bd 95 91 23 bd d0 dc 21 bd 1f 95 78 bd
       -0.0332095 -0.03993376 -0.039517224 -0.060689088
0000e0 f1 e8 0e 3e db fd fb bd 9e a2 4b 3e 6e 23 a4 3d
       0.13956048 -0.123042785 0.19886252 0.0801457
0000f0 a4 68 b3 3a e9 4a 25 3e 5f b8 ad bd b6 b5 48 3c
       0.0013687802 0.16141857 -0.084824316 0.0122503545
000100 41 ad f6 3d 56 44 0d bd a9 aa 62 bd 25 98 0d 3d
       0.12044764 -0.034489 -0.055338535 0.034568924
000110 34 73 73 bc b3 4f 67 bd 3c 11 ef 3d c7 0e f1 3d
       -0.0148590095 -0.05647249 0.11673209 0.11770397
000120 6d 9b 36 bd 97 2c 13 be 65 58 aa 3d 76 9f ca 3c
       -0.04458182 -0.14372478 0.08317641 0.02473424
000130 bd 55 66 bd 24 b1 4d bd aa de 72 bc 59 f9 91 3c
       -0.05623411 -0.050217763 -0.014823595 0.017819094
000140 b2 2a dc 3c be f0 db bd cd b8 d1 3d 1d da 99 bb
       0.026875827 -0.10739277 0.10240326 -0.0046951906
000150 14 2c 1b be a3 55 91 bd 86 09 3c 3d a5 aa 87 3c
       -0.15153533 -0.07096412 0.04590752 0.016560862
000160 3a 4e 56 bd 73 39 a1 3d 48 7f 5e ba d3 64 93 bc
       -0.052320696 0.07872286 -0.00084875943 -0.017992413
000170 da 35 3c bd d9 19 0a bb 4b d5 60 3d b0 92 ec 3b
       -0.045949794 -0.0021072535 0.054890912 0.007219635
000180 6d 96 31 3e 06 4e 63 3e e7 ff e9 3c e2 e5 81 bd
       0.17342539 0.22197732 0.028564407 -0.06342675
000190 6f 7d 23 be 36 f6 b5 3d 9b 6b 65 3d c8 60 6b bd
       -0.15965818 0.08884852 0.056010824 -0.057465345
0001a0 a9 fb 06 3c f9 28 32 3d e1 8b 05 3e 78 a3 18 3d
       0.008238711 0.043496106 0.13041641 0.03726527
0001b0 a1 b3 a7 3d ef da ea bd 8f 82 33 bd cf 40 44 bb
       0.08188558 -0.114675395 -0.043825682 -0.0029945855
0001c0 2b a1 85 ba 57 a8 c0 bd d1 f9 ec bd ae fa 54 bc
       -0.0010195127 -0.09407108 -0.11571086 -0.01299922
0001d0 ff d5 44 3c 34 91 03 3d 98 31 8a bd 8a 0f f3 bd
       0.012013911 0.0321209 -0.067477405 -0.11868198
0001e0 d1 70 eb bc 22 5c b0 bc b5 32 61 3d 9c 4d bc bd
       -0.028740318 -0.021528307 0.05498 -0.0919449
0001f0 e0 d7 57 3d 03 38 68 bc 1d ac af bd 4f 51 ef bc
       0.05269611 -0.0141735105 -0.0857775 -0.029213576
000200 13 4d 57 3d 06 03 ab bd 76 12 29 3e 65 54 f9 3c
       0.052563738 -0.08350186 0.16510949 0.03043575
000210 22 b1 e3 bd 8d 0d f2 bc 4a af 1f 3e f5 af 75 bc
       -0.1111777 -0.029547477 0.15594211 -0.014995565
000220 c3 e4 8f 3b 34 2f 0f be d6 37 29 3d f3 57 7a bd
       0.004391284 -0.1398285 0.041313015 -0.06111903
000230 df b0 62 bd b0 da d0 bd 93 0f 17 be 4b 45 7c bc
       -0.05534446 -0.10197961 -0.14752035 -0.01539738
000240 9f 25 66 3b 4c 1c 0b 3d d1 e5 1a 3d b8 b2 99 3c
       0.0035117639 0.033962533 0.037816826 0.018761978
000250 fd fc 87 bd 38 dd 30 3c d4 e6 31 bd 54 9b e9 3c
       -0.066400506 0.01079493 -0.043433025 0.028516449
000260 a8 aa 5b bd 77 23 3d b9 5a dc 4b 3d 93 4c 0b 3c
       -0.053629547 -0.00018037656 0.04977069 0.008502143
000270 fb 3b 20 3d 71 49 22 3d 4b d4 1f 3d 3f a5 cd bc
       0.0391197 0.03962082 0.039020818 -0.02510321
000280 f2 68 a2 bd 81 09 e8 3c e4 c5 22 be 15 d4 ff 3c
       -0.07930173 0.028324844 -0.15895802 0.031229058
000290 8b ac 1d 3d 4e 46 bf bc 6a 01 f3 bd f2 10 2c 3e
       0.038494628 -0.023348954 -0.11865504 0.16803339
0002a0 aa 23 b3 bc 98 7f 94 3c 63 0f ce bd aa 05 2c 3d
       -0.021867592 0.018127248 -0.100615285 0.04199759
0002b0 9b cd a0 bd d8 7c a1 3c dc fc f5 bc 87 70 1c ba
       -0.07851716 0.01971285 -0.0300278 -0.00059676956
0002c0 c9 31 9d 3d a6 b2 45 be 4a 07 47 bd e1 34 ec bb
       0.076755114 -0.1930643 -0.048590936 -0.007208452
0002d0 a0 10 28 bc f0 bf 3b bc 2e 86 c4 3d 91 9f 4a 3d
       -0.01025787 -0.011459336 0.09595905 0.04946858
0002e0 7f a3 13 3d 4d 61 a9 bb d3 25 4a bc ec 8a b2 3d
       0.036044594 -0.00516907 -0.01233812 0.087179035
0002f0 bc e7 2e be b5 52 84 bd 18 a1 a6 bc 08 08 df 3d
       -0.17080587 -0.064610876 -0.020340487 0.10890204
000300 a3 f7 db b9 1f b2 37 3d 62 e9 a0 bd e8 7a 00 bb
       -0.0004195544 0.044847604 -0.07857014 -0.0019604508
000310 e8 e1 eb 3c 4d c4 c4 3d ac 21 a9 3d 2f 6b df bd
       0.028794244 0.09607754 0.082583755 -0.109091155
000320 25 68 c4 bd 57 6e 85 bd 42 b5 a1 3c 3d ba da 3c
       -0.095901765 -0.06515186 0.01973975 0.026700133
000330 89 81 9d 3c 13 25 8b 3d 1c 25 1b be 9a d9 4d 3a
       0.019226806 0.06794181 -0.15150875 0.00078525546
000340 76 2e 04 be fa 71 c9 3d 1c ef 60 bd 44 d4 cc bc
       -0.12908348 0.098361924 -0.054915532 -0.02500356
000350 79 e4 dd bc df a4 b2 3d 3e 12 d3 3d 26 66 57 bd
       -0.027086483 0.08722853 0.10306214 -0.05258765
000360 ad 47 00 3c 47 db 10 be 51 d4 3a bd 7f 18 ac bd
       0.007829589 -0.14146148 -0.045612637 -0.0840311
000370 fd 11 e8 3d 0d 0b 99 bd 49 04 b7 bc fc 91 4a bd
       0.11331556 -0.07472811 -0.02234091 -0.049455628
000380 e8 6e 7c 3c b2 b8 c6 bd 47 66 5a 3d 92 a4 9f bd
       0.0154073015 -0.097031966 0.053320196 -0.07795061
000390 57 4d e0 bd ee 84 ad 3a f7 e1 ad bd 14 8f d7 bd
       -0.109522514 0.0013238469 -0.08490365 -0.10525337
0003a0 3c 6a 1d 3d 8d 29 79 bc 3d f7 89 bd da a2 03 3d
       0.03843139 -0.01520766 -0.0673661 0.03213773
0003b0 80 47 33 bd 6c 23 05 3d 42 9b 89 3d a2 42 fe bd
       -0.04376936 0.032504484 0.06719066 -0.12415053
0003c0 0e bd 05 3e 04 d2 1d bd 27 b8 46 be b7 75 c3 3d
       0.130604 -0.038530365 -0.19406186 0.09543937
0003d0 42 b8 2d bd 3b bc 09 3e ef 6d 49 bd f2 57 96 3d
       -0.04241205 0.1345071 -0.049177106 0.07340993
0003e0 62 05 2b 3e f3 47 e4 3b 24 74 de 3c 5f 1c 2a bc
       0.16701272 0.006966585 0.02715499 -0.010382741
0003f0 e7 ee fa 3d 3b 06 38 3b bd ac 07 3e 96 c2 77 bd
       0.12252598 0.0028079886 0.13249488 -0.060488306

bias f4 [128]
000000 cb ce 28 bd c1 1d 82 3d 00 8b ba bc 9d 7d 72 bd
       -0.04121284 0.06353331 -0.022771358 -0.059201825
000010 68 57 1b be c3 7e 9e bc 2a 6f d7 3b 5b 84 ef 3c
       -0.15170062 -0.019347554 0.006574531 0.029237917
000020 b6 47 41 3a e7 ba 02 bc 4c 98 10 bd b3 4e 34 bd
       0.00073730515 -0.007979131 -0.03530149 -0.044020366
000030 01 81 1f bd cc eb 84 3c 8e e9 71 bc 2f da 55 bd
       -0.038941387 0.016225718 -0.014765156 -0.05221003
000040 a3 3a 8b bc 64 d4 38 bd 4b c4 10 3d 9f 7b 95 bd
       -0.016995734 -0.045124426 0.03534345 -0.072989695
000050 55 a3 17 3c 83 96 cc bc f3 49 32 3c 56 ee 26 bd
       0.00925525 -0.024974113 0.010881889 -0.04075464
000060 b5 ad bd bd 19 32 de 3c a0 5b c1 ba a2 a3 55 bd
       -0.092616476 0.027123498 -0.0014752038 -0.052158006
000070 85 e4 72 bc 62 77 fb 3c 19 ed f2 bd 62 65 1b bd
       -0.014824991 0.030696575 -0.11861629 -0.037938483
000080 d8 5d 7a bd fc 6a b2 bd 05 06 a1 bb fd 11 4f bd
       -0.061124653 -0.08711812 -0.0049140477 -0.050554264
000090 97 07 d1 ba b9 fc b5 bb 8e 7e d2 38 ae ae 16 be
       -0.0015947697 -0.0055538085 0.00010037153 -0.14715073
0000a0 d2 b5 2e 3d cf e8 b5 3b 2b 93 d6 3c 26 17 02 be
       0.042653866 0.0055514346 0.026193222 -0.12704143
0000b0 fd b4 65 bd 5a 7b 9c bd 64 a2 f1 bc d0 a7 57 bd
       -0.056080807 -0.07640715 -0.02949638 -0.052650273
0000c0 bb ca 20 bc 23 6b 4b bd ae f1 e2 bc aa 9f 19 be
       -0.00981396 -0.04966272 -0.027703132 -0.15002313
0000d0 44 5c 30 bd 21 53 be 3c 84 30 a4 3c 97 b4 38 bd
       -0.04305674 0.023232998 0.020042665 -0.0450941
0000e0 82 8b 64 bd ab 25 a0 bd 66 a5 3e 3d fa eb 1d bd
       -0.055797108 -0.078196846 0.046544455 -0.038555123
0000f0 71 7e 86 bd 41 4d 10 bd 32 f5 cf bc 51 5b 51 bd
       -0.065670855 -0.035229925 -0.025385473 -0.051112477
000100 e5 dc 91 3c f2 be a4 3d f7 b8 5c bd dd 01 51 3b
       0.017805526 0.080442324 -0.053887334 0.003189198
000110 0d 4c 1a 3c 81 97 da 3b 73 5d 5a ba ec a9 f4 3c
       0.009417546 0.0066708927 -0.0008329965 0.029866181
000120 a2 c2 d9 bd 12 ca 7a 3d 43 09 7d bd 4a d4 c6 bd
       -0.106328264 0.061227866 -0.06177641 -0.0970846
000130 cb db a3 bd da 5e 83 bc ca b1 99 3c 05 1f 4c bd
       -0.080009066 -0.01603644 0.018761534 -0.04983427
000140 bf 42 44 bd 55 40 b3 ba 76 17 06 bd c2 1a 5f bd
       -0.047915217 -0.0013675789 -0.032737218 -0.054468878
000150 7d 34 c5 bc b1 39 9a bd fd c5 98 bc 5c 78 80 3d
       -0.02407288 -0.07530535 -0.018649096 0.06272957
000160 13 bb 0c 3d 13 9a ae 3d e1 23 37 3c 16 e6 1b bd
       0.034358095 0.08525481 0.011177988 -0.038061224
000170 71 69 3f bd c2 98 d1 bc ed 82 eb bd 29 5a ab bb
       -0.046731416 -0.025585536 -0.114995815 -0.005229254
000180 7f a4 0d bd f6 13 22 bc 2f 6e d3 3c a0 68 83 bd
       -0.034580704 -0.009892454 0.025809376 -0.0641644
000190 94 65 08 bd e4 78 43 bd 7c 94 91 bc a9 60 c0 39
       -0.033299997 -0.047722712 -0.017770998 0.0003669311
0001a0 a8 32 a1 bd aa 7d 30 bd 8c 2d 3a 3c 19 57 dc 3b
       -0.0787099 -0.043088593 0.011363398 0.00672425
0001b0 28 dc 63 bd 56 7d b6 bc 44 2a f8 3b 41 89 6c bd
       -0.05562988 -0.022276562 0.007573398 -0.057748083
0001c0 e9 43 9e 3a 68 f7 61 3c bc 9b ba bc c0 ac 13 3d
       0.0012074682 0.013791896 -0.022779338 0.03605342
0001d0 72 f2 08 bc b4 d3 19 bd ba 02 f2 bc 68 04 4e bc
       -0.008358585 -0.03755541 -0.029542316 -0.012574293
0001e0 3f 4e 7a bc 1a 82 8a bd 85 e9 9a bd c8 88 5f 3d
       -0.015277444 -0.06763096 -0.075640716 0.054573804
0001f0 72 83 ab 3a c7 67 0d bc e0 7c 93 bd e6 8a 1e 3d
       0.0013085438 -0.0086306995 -0.072015524 0.038706683

weight f4 [128, 128]
000000 51 8a 28 bd b9 80 45 bd 30 f8 af 3d ef cf 3d 3d
       -0.041147534 -0.048218463 0.0859226 0.04634088
000010 d7 ce 0f bd c1 97 e7 3c 04 68 76 bd 26 51 9c bb
       -0.035109367 0.028270604 -0.06015779 -0.004770416
000020 4b 15 21 3c 15 1a 08 bb 62 09 1d 3c cb 7b 0f 3e
       0.009831737 -0.00207675 0.009584757 0.14012067
000030 6c 8c 31 3d 71 d8 91 3c 1a 93 e7 bc 18 a1 e1 3c
       0.043346807 0.017803403 -0.028268386 0.027542636
000040 bc 76 93 bd 07 a7 e9 3c 2a 90 29 bc d6 e2 b0 bd
       -0.07200381 0.028522028 -0.010349313 -0.086370155
000050 aa aa 13 bd b6 c6 22 3d 12 cc 9a 3d 08 2a 03 3d
       -0.03605143 0.039740287 0.075584546 0.032022506
000060 a6 92 9f bc 23 5f 3f 3d 3a 19 58 bc 65 d7 9c bc
       -0.019479107 0.04672159 -0.013189608 -0.019145677
000070 33 56 22 bd 37 39 ff 3d fe b1 5b 3c 41 27 3c 3c
       -0.039632987 0.12462085 0.013409136 0.011483968
000080 a6 5e 9e bc 06 58 4b 3d c2 7c 3d bd 19 8c f5 3c
       -0.019332241 0.049644493 -0.046261556 0.02997403
000090 87 45 90 3d e1 81 ef bc 65 d0 e4 bb 3b 73 a4 3d
       0.07044511 -0.029236736 -0.0069828504 0.08029791
0000a0 d8 17 d2 bb 36 e7 a5 bd 7c 26 2e bd 0e 27 33 3c
       -0.006411534 -0.081007406 -0.04251717 0.010934604
0000b0 66 8d 8f bc 58 9f 2d 3b ba f7 73 bd 3d 9c 90 bb
       -0.017523479 0.0026492681 -0.059562422 -0.0044131563
0000c0 24 16 09 bd 0d 89 af bc 3b 1e 90 3c 4e bb 44 3d
       -0.03346838 -0.021427656 0.01759254 0.04803019
0000d0 73 3e ae bc 07 30 7c 3d 0c 79 3a bc f6 6e cd 3c
       -0.021270012 0.06156924 -0.011381399 0.025077324
0000e0 fa a9 7d bd 73 48 00 bd 87 53 d9 bc 61 98 4f 3d
       -0.06192968 -0.031319093 -0.026529087 0.05068243
0000f0 75 c1 28 bd 22 7f 97 3c 47 a3 a2 3b 8e f6 a3 3d
       -0.04120012 0.018493239 0.004963312 0.08006011
000100 ff 24 5e 3d 6e 28 b9 3c c5 ec 94 3d 33 7a 0f 3d
       0.0542345 0.022602286 0.07271723 0.035028648
000110 8d b3 93 bd ca 9e d1 3c c9 77 a5 bc 06 70 37 bc
       -0.07211981 0.025588412 -0.02019872 -0.011196142
000120 44 2b 83 3d 9a ea 8b bd dc ca 83 3c 43 90 c7 3d
       0.06404737 -0.06831856 0.016087942 0.097443126
000130 34 4a 5d 3d ec 70 91 bc 18 20 48 3c 18 fc 53 3d
       0.054025844 -0.01775404 0.012214683 0.051754087
000140 0f 34 c9 bd 0c be d9 bc 9a 59 82 bd 57 1d c7 3d
       -0.098243825 -0.02657988 -0.063647464 0.09722393
000150 93 c6 ef bc ef 48 d2 3b e8 66 2d bd f0 00 d3 bc
       -0.029269492 0.006417386 -0.042334467 -0.025757283
000160 93 f2 fc 3c 13 bd e3 bc c5 51 40 bb 5b af 2a 3d
       0.030877387 -0.027800119 -0.0029345613 0.04167114
000170 f8 42 0c 3d 3e b5 14 3d 02 31 3c 3d f9 55 6f bd
       0.034243554 0.03630566 0.045945175 -0.0584316
000180 47 57 5d bc 01 36 7f bd 0f 72 b6 bd 5a 80 b4 bc
       -0.013509578 -0.06230736 -0.08908474 -0.022033859
000190 38 42 90 3c 16 4f ac bd 50 b0 aa 3c 8e 87 a0 3c
       0.0176097 -0.08413522 0.020836025 0.019595888
0001a0 72 ce 36 bc 73 49 b3 3c 4f f0 d2 bb 4a 9b c9 3c
       -0.011157619 0.02188561 -0.0064373384 0.02461018
0001b0 84 b7 74 3d df 89 9e bd 47 1c f7 3a 38 cc c2 3c
       0.059745327 -0.077411406 0.0018853032 0.02377902
0001c0 b0 b4 eb 3c a0 03 7a 3d e6 74 c5 3c 2c 5c 7e bd
       0.028772682 0.061038613 0.024103593 -0.06209962
0001d0 eb 2d 8c 3c 30 9a 5c 3c 50 24 90 bd 05 bf c2 3c
       0.01711174 0.013464496 -0.07038176 0.023772726
0001e0 98 58 84 3c 0d eb 8f bc a8 08 2b 3c 75 b2 98 3c
       0.016155526 -0.017568136 0.0104390755 0.018639782
0001f0 e0 0c b1 bd 75 16 ba 3d 17 50 80 bd 6d 19 dc bc
       -0.08645034 0.090863146 -0.06265276 -0.026867593
000200 1c bb cf 3c b5 b4 37 bd 77 f1 7a 3d 1b a8 21 bd
       0.025357775 -0.04485007 0.061265435 -0.03946696
000210 1a 3a a6 bc 07 ac db 38 5e 6c 86 3d a6 cc 25 3d
       -0.020291377 0.00010474776 0.06563638 0.04047837
000220 59 4d b7 3d 64 41 e1 bb 81 6b ea bb aa 7d e8 3c
       0.089503 -0.0068742502 -0.0071539287 0.028380234
000230 db e7 af 3d fe 8c b2 3a 02 39 08 3e b7 55 21 be
       0.08589145 0.0013622341 0.13302997 -0.15755354
000240 9b b0 62 ba 66 47 4e 3d 36 9f 3c bd 75 cf a4 bd
       -0.0008647532 0.05036106 -0.046050273 -0.08047382
000250 53 33 05 bc e8 7f a9 3d 8a 1f 09 be cb 4f 6b 3d
       -0.008129912 0.08276349 -0.13390937 0.057449143
000260 b6 a1 59 3d 38 3b 0f bd 92 5a 91 3c 7d 12 81 bd
       0.053132735 -0.034968585 0.017743383 -0.063023545
000270 07 8a 79 bd 2d d7 d2 bc e1 5d 85 3d bf 19 10 3d
       -0.06092265 -0.02573737 0.065120466 0.035180803
000280 c7 59 9c bd 72 61 06 bd 09 03 13 3d 2d bc 38 3d
       -0.07634311 -0.032807775 0.035891566 0.045101333
000290 c9 df dc bd 01 bc c7 bc 41 e0 8d 3a 49 ac 4a bd
       -0.10784871 -0.02438164 0.0010824279 -0.04948071
0002a0 a1 dd 82 bd cd c0 6a bd a1 c2 1d 3c 3c 32 41 3d
       -0.063899286 -0.057312775 0.009628923 0.047167048
0002b0 ff 3d f5 bc 1d 51 60 bd 56 77 98 bc 3e 5e be bd
       -0.029936789 -0.054764856 -0.018611591 -0.09295319
0002c0 38 da af 3d 23 a0 b0 bc 05 57 55 3d c5 ea 9c bc
       0.08586544 -0.021560734 0.05208494 -0.019154916
0002d0 76 5e a6 bc 88 21 c3 3c 42 e3 9b bd 4e e9 22 bd
       -0.020308714 0.0238197 -0.07611705 -0.039773278
0002e0 2a e6 b6 3c 10 a3 ec bd 60 4f 02 3d 25 22 24 3d
       0.022326548 -0.11554539 0.03181398 0.040071625
0002f0 55 9f 08 3d cd 8f 8b 3d e9 36 36 bd 7f 1d 1b b9
       0.033355076 0.06814537 -0.04448596 -0.0001479294
000300 de 68 c0 bd fe e0 8c bc 69 1c f7 3d 77 30 08 3d
       -0.09395002 -0.017197128 0.12065966 0.033249345
000310 fc 63 1d bd 27 4f 9a 3c 73 17 5a bb 82 73 5c bd
       -0.03842543 0.01883657 -0.0033278137 -0.053821094
000320 bc ce 97 bd 18 bd 10 3d 2f 7a 98 3d 27 d0 54 bd
       -0.07412478 0.035336584 0.0744518 -0.051956322
000330 5b a8 95 bc 39 d0 26 bc ec d2 7c bd 75 3a 3d 3d
       -0.018268755 -0.01018148 -0.06172459 0.046198327
000340 bb 12 04 3e bf 8f c6 bd 56 a4 66 3d 1f 78 db bd
       0.1289777 -0.09695386 0.056309067 -0.10716271
000350 a4 93 6f bd 8b 7b ca bc 32 d3 80 3c b5 de 85 3c
       -0.05849041 -0.024717113 0.015725706 0.016341547
000360 63 c0 13 be 5d ae 27 3d 5a be c9 3c 50 f4 c0 3d
       -0.14428858 0.04093777 0.0246269 0.09421599
000370 90 4b 9f 3d ec 24 40 bd 31 7f 9f 3d fd d2 d1 3c
       0.07778084 -0.04691021 0.07787932 0.025613302
000380 0b 08 30 bd 21 ed 91 bc 64 e8 f8 3d 50 b5 85 3d
       -0.04297642 -0.017813267 0.121537 0.06528723
000390 fd 5d cc bc b6 58 20 bd 6f 74 e5 3c 41 eb ee bc
       -0.02494716 -0.0391471 0.028009621 -0.029164912
0003a0 47 e9 c0 bb 0e de 1e 3d 67 1a 00 3e bb 62 3e 3c
       -0.005887184 0.038785987 0.12510072 0.011620219
0003b0 5c 9f 8e 3d 3f 5f a3 bd 83 ce c4 bc 0b 09 ed bc
       0.06963989 -0.07977151 -0.024024254 -0.028934976
0003c0 18 95 a1 3c 40 4a 5f bd 64 75 55 3d ba 7d 9d 3b
       0.019724414 -0.05451417 0.052113906 0.0048062475
0003d0 7a 87 34 bd e6 08 61 bd 12 93 8c 3d 9d bf 83 3c
       -0.044074513 -0.054940127 0.06863989 0.01608258
0003e0 1b a9 e4 bc 81 e9 25 3c de b3 91 bd 4e 43 91 bd
       -0.027912667 0.010126472 -0.07114385 -0.070929155
0003f0 cc e9 4c bd dc 8d 22 bd 85 dc be 3d c3 24 11 3d
       -0.050027654 -0.03968607 0.093194045 0.03543545

bias f4 [128]
000000 c9 52 2e 3b ee 4a 23 3c a5 3a 54 3d 6a 03 65 bd
       0.0026599637 0.009966595 0.05181374 -0.05591146
000010 89 54 5a 3d e3 33 5e 3d cd e6 38 be 90 40 b5 bc
       0.053303275 0.0542487 -0.18056794 -0.022125512
000020 5e 6f 4b 3c 6e 4a be bc 8f 4b 6e bc 4e e3 64 3b
       0.012416689 -0.02322885 -0.014544382 0.0034925523
000030 17 39 8a bc 0a 5d 46 3b 18 50 07 3c 4f 37 eb bb
       -0.016872926 0.0030267858 0.008258842 -0.007178224
000040 55 2d d9 bd 39 0c 85 3c b4 f8 d8 3c 9e d4 13 bb
       -0.106043495 0.01624118 0.026485778 -0.002255715
000050 ec 7c cb bd 6f 93 a3 3b f3 81 2b bd 32 6c 2b 3c
       -0.09935936 0.0049919407 -0.041871976 0.0104628075
000060 10 65 4b 3c 79 85 76 ba 78 c4 92 3b df 61 2c 3d
       0.012414232 -0.0009404044 0.0044789873 0.042085525
000070 97 f4 03 be 98 0c 2d bd c4 46 94 3c e3 33 96 bd
       -0.12886272 -0.04224834 0.01810015 -0.07334115
000080 f1 91 42 bb c1 6e e8 bc b8 c8 1f be 4b 11 07 bd
       -0.0029689039 -0.028373124 -0.15603912 -0.032975476
000090 6a 6b df bc 20 e6 4d 3d 36 ec 3c bc dd 61 52 bc
       -0.027272899 0.050268292 -0.011530926 -0.012840715
0000a0 1a ec 10 3d 87 33 a6 bd 64 b7 03 bc a8 39 b1 3c
       0.035381414 -0.08115297 -0.008039329 0.021633938
0000b0 e0 8d 1e bc ae 9e 17 bc f3 66 a0 bd 27 be 75 bd
       -0.00967738 -0.009254141 -0.07832136 -0.059995797
0000c0 9c 26 59 bd 0b c5 16 3d 15 a3 23 bd a9 72 7b bd
       -0.053015336 0.03680901 -0.03995045 -0.061388645
0000d0 af 37 d3 3c 55 3a 06 bc ba 41 da bd a3 3d 00 bb
       0.025783388 -0.008192618 -0.106570676 -0.0019567988
0000e0 0c e2 ed 3c 54 8c e5 3c ba 5c 00 3d 44 4c 9f bc
       0.029038452 0.028021015 0.03133843 -0.019445546
0000f0 c8 5d 3a bd 69 c4 ce bb 10 76 45 bc ad 29 cf bb
       -0.045499593 -0.006310035 -0.012052074 -0.006322107
000100 d7 24 e5 bc 6a fb 07 b8 1f f9 06 bc a0 ea 8e 3c
       -0.027971668 -3.2420656e-05 -0.008238106 0.017445862
000110 17 5d d9 bd 47 ad 71 3b 61 27 d9 bc aa 2e 25 bd
       -0.106134586 0.0036876963 -0.026508035 -0.040327705
000120 b4 14 29 bd af 4c 03 3d f4 78 33 3d a7 f6 2e bd
       -0.04127951 0.032055553 0.04381652 -0.042715695
000130 3e 61 19 ba 63 b1 33 3d 06 b7 d0 3d e3 be 84 bd
       -0.0005850977 0.04387034 0.10191159 -0.06481721
000140 33 ff ed bc 3a 5e 36 bd fe 96 87 3c 9d bb 43 bc
       -0.029052353 -0.044523455 0.01655149 -0.011946586
000150 61 3a 89 3c 41 87 b2 bc 34 0e 0d bd d9 8d 5e bc
       0.01675147 -0.02179301 -0.034437373 -0.013583624
000160 45 6d a1 3d dc 1d fc bc d3 68 10 bd df 39 37 bd
       0.0788217 -0.030775957 -0.03525622 -0.044732925
000170 e9 b8 bc bc 57 44 8c bd 9c 48 38 3d 27 58 50 bd
       -0.02303739 -0.06848972 0.04499112 -0.05086532
000180 c5 1a f7 bc b2 98 1c bc 72 7b da 3c 8a 55 96 bd
       -0.030164132 -0.00955789 0.026670191 -0.07340534
000190 7e da f9 3c 3a 29 d3 bd e7 a5 24 3c ed 76 1d 3c
       0.030499693 -0.10310598 0.01004932 0.009610874
0001a0 aa 83 1a 3c be 1e 35 3d bb 01 45 3c b7 b6 11 3d
       0.009430805 0.04421877 0.012024338 0.03557464
0001b0 5d 86 c2 bd 5f d7 a3 3d 35 32 67 3d 9e cb 11 be
       -0.09498284 0.08000063 0.056444366 -0.1423783
0001c0 fd 18 4a bd bb 0e 8c 3d 8d b8 67 3c 26 10 d6 bd
       -0.049340237 0.06838747 0.014143121 -0.10452299
0001d0 44 d1 f1 3c 66 83 e8 bc 03 7f 4e 3d 91 0b 82 bd
       0.029518731 -0.028382968 0.050414097 -0.06349862
0001e0 9f 05 ad 3c 49 7a d7 3c 35 b3 83 3c 02 be 1d be
       0.021120844 0.026303427 0.016076664 -0.15404513
0001f0 6f eb 66 3c 24 02 b7 bd eb 06 50 3d e7 e0 d1 3c
       0.014094218 -0.08935955 0.050787847 0.025619937

weight f4 [10, 128]
000000 d6 d4 95 3b f7 5d c7 3b b1 72 85 ba 27 13 1e bb
       0.004572491 0.0060841995 -0.0010181275 -0.0024120302
000010 be fb 49 3c 37 eb 99 3b 3a db f3 3c c6 19 0e 3c
       0.012328086 0.0046972292 0.029767621 0.008673137
000020 d8 97 78 3a 6a d1 21 bc 70 24 0d bc d2 99 70 3c
       0.00094830757 -0.009876588 -0.008614644 0.014685111
000030 d9 ad ca bb c4 89 01 ba d2 a4 65 bc d8 0e 26 3c
       -0.006185275 -0.0004941488 -0.014016347 0.010135375
000040 7e aa cb bc 1b cd 81 3b 62 70 60 bb d4 ba 06 3c
       -0.02486157 0.003961218 -0.0034246673 0.008223254
000050 0a 02 2a 3d ae fe 69 3c 3c c9 8b bc 48 51 c8 3b
       0.04150585 0.014281912 -0.01706373 0.006113205
000060 62 b6 1d 3c af fc b0 bb 14 c8 54 3a 82 c1 1b 3b
       0.009626003 -0.005401216 0.0008116972 0.0023766463
000070 f4 b8 5c bc a8 31 08 bc a6 19 7d bb ef a1 56 bd
       -0.013471831 -0.00831262 -0.0038620024 -0.052400526
000080 7e 4a 09 3c 0e cf 9f 3b de c3 15 bd bb 89 89 3c
       0.008379577 0.0048769778 -0.036563747 0.016789308
000090 2e 91 8a bb 40 06 13 3b 91 37 e5 3b 5f cb 45 3a
       -0.0042287325 0.0022434145 0.0069951494 0.0007545258
0000a0 5c cb 41 bc b0 77 0e bd 3f c7 ca bb 8e f8 d1 ba
       -0.01182827 -0.03478211 -0.0061883028 -0.001601951
0000b0 46 2e 9a 3b ef 79 5c 3c 0e 87 59 bc 74 37 fa 3b
       0.0047052233 0.013456806 -0.013276828 0.007636005
0000c0 dc 9d 74 bc 8d a9 70 bc 39 dc b9 39 3d 30 e3 3b
       -0.014930215 -0.014688862 0.00035450028 0.0069332407
0000d0 b5 ee cb 3b bf b8 0e bd d9 0a 8e bc e1 a4 8b bb
       0.0062235245 -0.034844156 -0.017339157 -0.0042615985
0000e0 e5 5e 8b bb 4a 59 ed 3b 52 f9 95 bb 94 3e 8e 3c
       -0.0042532557 0.00724331 -0.0045768404 0.017363824
0000f0 d0 e1 42 3c 10 17 87 3c 9b 96 b6 bd 4d 6d f4 3b
       0.011894658 0.01649049 -0.089154445 0.0074593187
000100 54 c8 59 3b 68 85 6f 3b a7 3f 70 bc f1 db 46 3c
       0.0033230977 0.0036548022 -0.014663613 0.012137399
000110 3c 06 32 bd 8c 56 d6 3c 70 e3 4b 3c b4 13 08 3c
       -0.043462977 0.026164316 0.012444362 0.008305479
000120 9b bd 91 3b 71 48 1a 3c 86 d1 94 ba ca d2 88 3c
       0.0044476516 0.009416685 -0.0011353947 0.016702075
000130 e6 e9 98 bb 46 d6 89 ba 92 fd 16 bd 11 08 ff bb
       -0.0046665547 -0.0010516129 -0.036862917 -0.007782944
000140 64 c8 f1 bb 67 77 c1 ba 50 ea bd 3c b8 c6 2a bb
       -0.0073786248 -0.0014760316 0.023183018 -0.0026058387
000150 3a ea 99 3c 15 38 a0 3c 93 49 5b 3b 29 6e 7d 3c
       0.018788446 0.019557992 0.0033460602 0.015468159
000160 ed e7 d1 3c a2 18 6f 3b 68 61 13 3b ed 09 0e 3c
       0.025623286 0.0036483188 0.0022488479 0.008669359
000170 18 27 99 bb 49 61 d7 bb db f5 43 bb 7b 7f 07 3b
       -0.00467385 -0.0065728766 -0.002990118 0.002067535
000180 4f c0 8c 3c 57 8b 6e 3c 49 a8 3d bc f0 61 8f bc
       0.017181544 0.014559588 -0.011575767 -0.017502755
000190 65 8a 41 ba e0 e0 96 3d 29 d0 a5 bb 0b 3b 00 3c
       -0.0007382988 0.0736711 -0.005060215 0.007826577
0001a0 b5 ca a5 3b 31 3d 59 bb 68 3f 89 bb 6b 64 35 3d
       0.005059565 -0.0033148045 -0.004188467 0.04428522
0001b0 30 95 21 3d 31 45 d8 3b 22 4c c3 3a 67 fe 2f 3d
       0.039448917 0.006600045 0.0014900009 0.042967226
0001c0 11 83 d1 3c eb 39 cd bc 20 34 88 3c 66 fb 59 bd
       0.025575193 -0.025052032 0.016626418 -0.053218268
0001d0 2e 62 18 bc 1e d4 74 ba c1 63 9d 3b b3 8e a5 bc
       -0.009300752 -0.0009339469 0.0048031514 -0.020209646
0001e0 ec 7f ea 39 da f0 3a 3b 91 51 6f 3c cd 34 dc 3b
       0.00044727267 0.0028524906 0.014606849 0.0067201615
0001f0 cb 1e 98 bb 3b c0 9b bb 25 4c 4d 3c ea 68 3a 3c
       -0.0046423427 -0.0047531403 0.012530361 0.0113775525
000200 db 41 6f bb 92 d6 ae 3a 12 f3 f4 bb 3b e7 fc 3b
       -0.0036507759 0.0013339093 -0.0074752653 0.0077179945
000210 a1 ea 86 bc e6 57 34 bc 7d ad 4b bd f9 a8 84 bc
       -0.016469302 -0.011007285 -0.049726 -0.016193854
000220 4a 8f 61 3c 4e ac ce 3b c2 76 ca ba 16 5b 36 bb
       0.013767073 0.0063071614 -0.001544677 -0.0027825288
000230 f1 32 d0 3b 43 be ce 3b e8 6f 32 3c fb 19 8b 3c
       0.006353729 0.006309302 0.010890938 0.016980162
000240 58 d6 07 3d d3 45 d6 3c 81 a0 1e 3b 1c 82 be 3c
       0.0331634 0.026156342 0.0024204555 0.0232554
000250 b5 b9 89 bb fa f2 b1 3c 2d a5 a6 ba ee 37 00 bb
       -0.004203046 0.021722306 -0.0012714021 -0.0019564587
000260 72 e4 47 bb 3e 4e be 3a d0 d6 1d bc 6d e1 8c b8
       -0.0030501154 0.0014519168 -0.009633735 -6.717709e-05
000270 d2 f1 47 bd 58 85 02 3c 07 ac 58 bc 03 bc 12 3c
       -0.048814602 0.007966362 -0.013224608 0.008955958
000280 7d 55 fd 3b bc 27 ea 3c 9a c6 87 bd bd be 0a ba
       0.0077311383 0.0285834 -0.06629677 -0.00052927044
000290 ec bf b4 3a 66 03 8e bb 69 10 a0 3b 6b 45 d0 3c
       0.0013790107 -0.004333901 0.0048847687 0.025423726
0002a0 13 8d 0a bb eb 83 b6 ba 48 5c 02 3c 62 98 47 3c
       -0.0021141216 -0.0013924813 0.007956572 0.012182327
0002b0 84 46 4e 38 91 17 5b bc ef f6 a9 bc 61 f2 63 bb
       4.91799e-05 -0.013372318 -0.02074763 -0.003478192
0002c0 66 28 9b 3c c4 d7 27 3b a4 17 1f b9 c6 2d fe 3b
       0.018940162 0.0025610784 -0.00015172228 0.0077569215
0002d0 3d 41 01 3c 0c 4b 24 bd 17 83 3e 3d fc 81 ab 3c
       0.007889089 -0.040110633 0.046511736 0.020936005
0002e0 33 7b ba 3c 26 42 81 3c 59 c7 dc 3b 6d 0b 86 bb
       0.022763824 0.015778612 0.0067376313 -0.0040907175
0002f0 dd 76 99 bc 3e 88 0f bc 75 bc 58 3c 8a 4a 17 3b
       -0.018733436 -0.00876051 0.013228525 0.00230852
000300 9e d5 7a bc c0 e4 b7 ba 7e 86 9a bb 80 ef 13 3c
       -0.015309719 -0.0014029965 -0.0047157397 0.009029269
000310 fd 22 85 bd c3 88 d0 bb 5a c7 7a 3b 75 c8 7e 38
       -0.06500814 -0.0063639595 0.0038265795 6.074501e-05
000320 00 ec 1b 3d e9 cd 19 bb 22 27 c2 3b 36 3d f6 bb
       0.038066864 -0.002346868 0.005925075 -0.007514621
000330 63 8d 7b 3b 83 ea 60 bb a9 d2 0e 3d d4 3c 79 bc
       0.0038383834 -0.0034319467 0.03486887 -0.015212256
000340 1e 72 31 bc 2f 2d 6a bc c1 47 c1 3b cf c4 31 3b
       -0.01083043 -0.014292999 0.0058984463 0.0027125364
000350 5f d6 c8 3c 3e ae 28 3d 22 b2 aa bb 36 88 87 3a
       0.024516283 0.041181795 -0.0052092234 0.0010340277
000360 1e 38 53 3b 77 8f e3 3c 07 47 71 3a c0 b8 8c 3b
       0.0032229493 0.02777837 0.00092040043 0.004294485
000370 9b d5 18 3c 88 63 f0 3c 8a e5 bd 3b 78 2b 63 bc
       0.009328271 0.029344335 0.0057951855 -0.013865344
000380 38 05 24 bc 4d 14 a2 3c b4 ba c2 38 4a 26 1b bc
       -0.01001101 0.01978507 9.285417e-05 -0.009469578
000390 b5 b5 e0 3b 4e 36 bf 3b ba 77 dc bb 66 a5 34 38
       0.0068575987 0.005835331 -0.0067281397 4.3069384e-05
0003a0 ca e6 36 3b fb 6a 57 3c 4d 70 e4 bb 3f d7 af bc
       0.0027908557 0.013148065 -0.006971395 -0.021464942
0003b0 ed 65 3e bc 7a e8 ca 3b 02 37 8e 3c ef 81 1d bd
       -0.011620981 0.006192264 0.017360214 -0.038453992
0003c0 0f d1 95 3b 19 ae 07 bc 71 bd c4 bc 82 b2 34 3c
       0.004572041 -0.008281254 -0.024016114 0.011028888
0003d0 05 a5 de ba 26 b1 d3 ba 70 cf 76 3c c7 1c f0 3c
       -0.0016986436 -0.0016150817 0.015064105 0.029310597
0003e0 34 14 09 3c 3f d6 89 3c 2a c6 ca bb 35 1b fe bc
       0.008366633 0.016825793 -0.006188174 -0.031018833
0003f0 8d f0 ae bc 80 d5 16 3d ac a9 a7 3c a1 36 be bb
       -0.021354938 0.036824703 0.020466648 -0.005804852

bias f4 [10]
000000 ab c9 8c bd 5c 35 0a bc 92 38 4e 3d 0e fd 3c 3d
       -0.068744026 -0.008435573 0.05034692 0.04613977
000010 38 c0 ce bd 14 90 3a bd e7 56 7e 3b d5 2f 85 bc
       -0.100952566 -0.04554756 0.0038809122 -0.01625816
000020 89 0a 53 3a 07 b1 00 3d
       0.0008050581 0.031418826
