deploy/models/booster_gym_v5/model_1000.pt (torch, 297214 bytes, 8 tensors)

weight f4 [256, 80]
00000000: d157 dbbe a619 6b3d bc68 94bd 584d 8b3b
00000010: 6612 0fbc f724 5cbc a2a8 e03d 71f1 b03d
00000020: 55eb 85bd 5e12 dc3d b1f7 e13c eedc cd3c
00000030: 312a a33c 1469 913b 7be1 31bd a020 abba
00000040: 523d 223d 9008 c23c ab1c cc3d c06d c43c
00000050: 666d 4dbd 983e c0bc 5e47 e3be c4a1 103e
00000060: 8321 c63b a7a2 9cbb 150b 0dbe e5a1 293e
00000070: 852f 94be 3b0c 74bd ad24 e33d 28d2 20be
00000080: 6306 ddbd 241c a63e 9cb7 053e 33ca d13d
00000090: 15e2 dfbc 26e1 963d a5b9 7ebc fcb2 363d
000000a0: cd1d 3a3d fb3f 0bbd cc0d 703d 8e6e bdbd
000000b0: e709 cd3a cda2 e7be 2ed1 8f3e fa0d a2bd
000000c0: 1bce d3bd a1fa eebd 77af 8d3c 7413 c83d
000000d0: b222 123e c1d4 5cbd fa62 17be 9d7c 67bd
000000e0: d3cd 9d3a eee4 83bd e37a 093d a893 f2bc
000000f0: 4eda f3bc bb18 e8bd 51fb 863c 9a15 1a3c
00000100: 94ff a5bc d7a2 dfbb deba 0e3d 447d 1b3e
00000110: 90cc c2bd b89a 703d 454e fa3d 47f7 acbd
00000120: d466 63be 4180 4d3d f658 96bd 05bb fc3d
00000130: d304 c93b 96dc 8bbd 12f3 1b3e 561c a5bd
00000140: da99 ebbe 9176 1cbe bf4c e2bd 62ef 3bbb
00000150: 958c de3c 1063 863d 775d 6bbd 326d 9bbd
00000160: c826 563d 72e6 2abd 61dd c4bd 6109 64bc
00000170: 3cff e73d 6cc3 b4bc 638a adbd 53d3 f6ba
00000180: c26d 81bd 3475 b83d 229f c9bb 9a5a 8cbb
00000190: 3a70 9ebd a2da cb3b 0c7d 27be fc83 bc3e
000001a0: 7a50 d3bd e9e2 373d 86e2 b2bd b31b 7d3d
000001b0: bc38 c53e 671a 33bd 4a5e a33c 3038 b0bd
000001c0: 4cb9 a1be 5895 0dbd 7160 9c3c 9e4d 07bc
000001d0: 2f56 983c d3b2 6b3b c341 d7bc e93b 5e3e
000001e0: 2847 e7bd a6d0 10bd 9470 0fbd 8bd5 fbbd
000001f0: 5253 afbd a4b5 efbb f27a febd e0ab 973d
00000200: 9fa8 f0bd 6eb1 17bd f494 f3ba 7055 59be
00000210: 9063 2bbd 74e5 c3bc c3b7 9ebe def7 c4bd
00000220: 3210 c8ba 74d0 1a3e 7b04 84bb a6db 6a3d
00000230: e8fd 743d 5c1d cbbc b029 67bc 0dde 8cbd
00000240: dc42 06be 5789 4fbc 8a2d 993d 6db1 48be
00000250: 7159 8cbd 9a1e 03be a92c 013e 6957 f33d
00000260: 536c dfbd 8144 763e 98d6 01be d64f 46bc
00000270: 1d2e 853d 499e 233b 6698 b3bd 0807 19be
00000280: f60a 633e ac89 75be 9b3b 513d 466a 20be
00000290: 9dd7 3f3c 160a c9bb 553f 1dbd 5936 ebbc
000002a0: a3e4 e53c e290 d53d cafa 2fbc 5074 c7bd
000002b0: 0546 4b3d b1d9 2d3d 8233 203d e5a0 79bd
000002c0: 9d56 733d 4b44 f9bd e006 213c c234 a93c
000002d0: ec67 933c 3984 e93d 879a c83e a1f4 f1be
000002e0: 5498 92bd 1075 85bb 85b0 81bd 89fa 7e3d
000002f0: 6e1c 19bb d0f4 02be ec09 51bd c994 ffbc
00000300: c668 063e 2405 893d 7f05 a9bb ccd4 9a3c
00000310: fb60 743d a097 0d3e 8ab9 80bb 76ec efbd
00000320: 288d 043c e82d 79be 2aac 4f3c 333c ba3d
00000330: 224d 3d3e 5402 8a3d d04e 37bd 9970 b33d
00000340: bd46 02be 6d6f ccbd 2077 3d3c 79de 89bb
00000350: e407 643e e806 2dbd 30ba ffbc a078 35bd
00000360: d378 2bbd e3f3 b7bd 10a9 213d 72f7 bc3d
00000370: 55d6 a83b 6b6b a23d a083 87bd 8bc6 5c3d
00000380: 7d55 09bc 20bf 843d 1318 203c 82d7 7d3e
00000390: 1b73 d83d 7b15 053e 1cd9 6f3b 7bd3 adbd
000003a0: b479 8dbc 3731 96be e14f 4fbc 3988 113e
000003b0: 75fd 99bc 5512 04be 64dd fbbd c1be 0139
000003c0: fbb2 953b 0c03 b53e 8555 b53d 7230 a2bd
000003d0: 373d 97bc 72ff 9c3d 6cf0 8bbd 73d1 dd3d
000003e0: af8c 92bd 479a 0c3d e14c d63d 6258 a63d
000003f0: e997 3bbe 63c1 613d 5c52 60bc 7429 68bd
-0.42840436 0.057397507 -0.07246539 0.0042511635 -0.008732414 -0.0134365475 0.10969664 0.08639801
-0.06539027 0.10745691 0.027583929 0.025129762 0.01991758 0.004437575 -0.043427926 -0.0013055988
0.03960926 0.023685724 0.099664055 0.023978114 -0.05015316 -0.023467347 -0.44390386 0.14124209
0.0060464754 -0.004780132 -0.13773759 0.16565664 -0.28942505 -0.059581976 0.1109098 -0.15705168
-0.10792234 0.32443345 0.13058323 0.102436446 -0.027329484 0.073671624 -0.015547191 0.044604287
0.045438576 -0.033996563 0.058606908 -0.09249602 0.001564321 -0.45241395 0.2808928 -0.07912822
-0.10342046 -0.116688974 0.017295582 0.097693354 0.14271048 -0.053913835 -0.1478385 -0.056515325
0.001203949 -0.06440149 0.03356446 -0.029611424 -0.029767182 -0.11332842 0.016477259 0.009404564
-0.02026347 -0.006824832 0.03484618 0.15184504 -0.095116735 0.0587413 0.1222196 -0.08445602
-0.22207195 0.05017114 -0.07341187 0.12340359 0.0061346083 -0.06829183 0.15229443 -0.08062045
-0.46015817 -0.15279604 -0.110497944 -0.0028676619 0.027166644 0.065618634 -0.057462182 -0.07589187
0.05228308 -0.041723676 -0.09612537 -0.013918252 0.11327979 -0.02206584 -0.08473661 -0.001883129
-0.06319763 0.0900673 -0.0061530033 -0.0042832615 -0.07736249 0.0062211314 -0.16356295 0.36819446
-0.10318084 0.044894133 -0.08734612 0.061793994 0.38519847 -0.04372635 0.019942421 -0.08604467
-0.31586683 -0.034566253 0.019088956 -0.0082582515 0.018595783 0.0035964742 -0.026276475 0.21702541
-0.11292869 -0.035355233 -0.035019472 -0.122965895 -0.08560814 -0.0073153544 -0.12425794 0.074058294
-0.11750912 -0.037034445 -0.001858382 -0.21223998 -0.041842997 -0.023913123 -0.30999574 -0.096175894
-0.0015263616 0.15118581 -0.0040288544 0.05733838 0.059812456 -0.024794273 -0.01410906 -0.0687829
-0.13111442 -0.012667022 0.07479389 -0.19598933 -0.06852997 -0.12804642 0.12614693 0.118819065
-0.10909333 0.2404957 -0.12679517 -0.012103995 0.06502936 0.0024966171 -0.08769302 -0.14944088
0.2217215 -0.23978299 0.051082235 -0.1566554 0.011709121 -0.0061352355 -0.038390476 -0.028712438
0.028063124 0.10428025 -0.010740945 -0.09738982 0.049627323 0.042443935 0.03911162 -0.060944457
0.059408773 -0.12171229 0.009828299 0.02065504 0.01799389 0.114021726 0.39180395 -0.4725695
-0.071579605 -0.004072793 -0.063324966 0.062250648 -0.0023362893 -0.12788701 -0.051034853 -0.031198876
0.13125905 0.066904336 -0.005158126 0.018900298 0.0596628 0.13827372 -0.003928368 -0.11715023
0.008090295 -0.24333918 0.012675324 0.09093513 0.18486455 0.06738725 -0.044752896 0.08761711
-0.12722297 -0.0998219 0.011564046 -0.004207429 0.22268635 -0.042242914 -0.03121671 -0.04430449
-0.041863274 -0.089820646 0.03946787 0.09226884 0.0051525035 0.079306446 -0.06616902 0.053900283
-0.008382198 0.06481767 0.009771365 0.24789241 0.105688296 0.12996475 0.0036597913 -0.08487602
-0.017269947 -0.29334423 -0.012653322 0.14212121 -0.018797616 -0.12897618 -0.12298086 0.0001237346
0.0045684553 0.35353887 0.08854202 -0.079193965 -0.018461807 0.0766591 -0.06832966 0.10830965
-0.071557395 0.034326818 0.10463882 0.081223264 -0.18319668 0.05511607 -0.013691511 -0.056680158

bias f4 [256]
00000000: fb64 88bd 9f02 0e3d 349f cf3d ac23 fb3d
00000010: 7ad9 c73d 8216 f53c b181 50bc f0d6 65bd
00000020: 9e34 94bb 21a7 803d fbf2 a6bd e754 9fbd
00000030: dab0 1c3e 065b 5fbd 2a0f f8bd 21e8 04bd
00000040: 7ea8 97bc 66d2 973d 5ec9 b33d e396 cfbd
00000050: 1048 eabc 0a7c 6ebd 166b cf3d 40a7 06be
00000060: 6ed4 49bd 5122 db3d 363b e93d 03be a23c
00000070: 5c95 9d3d 79a1 5abd 7364 84bd d949 1bbe
00000080: 0165 7c3d 91b4 8a3d 1630 9fbc 7096 0fbe
00000090: f981 24bd fc7d d1bc 95b0 cabd c862 e43d
000000a0: f598 c23c 2d89 debd 3535 f03b a1ba eb3c
000000b0: 6858 713d d3f6 75bd 0b7c 013e bfc2 7b3d
000000c0: 8f9e 42bc 0917 b1bd d139 b73d 20a1 a4bd
000000d0: edf2 d13c 5664 a3bc 1eee 513d ece4 fdbc
000000e0: bff8 78bd 6286 983d d24f c1bd 45f4 38bb
000000f0: 0e24 7a3d 3409 73bc 3611 d43d 23d8 8a3d
00000100: 1757 b5bd e2d8 7e3d e0cb 0b3e b8ab dbbd
00000110: 459e 583d 512c 063e 7140 47bd 0f4b 423a
00000120: 4d51 12bc 3f88 983d 1b85 b53d 89d8 1dbd
00000130: 6a24 4fbd 0df7 923c 7dc9 ff3a 32ff 9e3c
00000140: 1f52 c5bd e5ed 0f3e 3cbc d4bd 0591 b03c
00000150: fe70 9b3d c266 e63c 1a66 77bd 7a1e b9bd
00000160: dd6a 6d3d fb3f d1bd eb93 aabc 84af a6bd
00000170: 3120 d0bc 9573 883d 2e22 06be af7e b2bb
00000180: c7fe c9bd fdda 78bd f42d a43d 750c 873d
00000190: d7f3 ca3d 649e c23d 2e6a a5bd f2e1 edbd
000001a0: d7d8 cc3d 375c 9dbd 00df 9f3d 7e2f a8bd
000001b0: cc58 033d d648 8bbd 7c45 bfbc 0e86 7ebd
000001c0: 895d dd3d b609 b83d 00ea 7ebc 0fe6 4c3d
000001d0: 11fb 3bbc ad26 abbc 86f2 b53c f95a 5cbd
000001e0: c2da 6e3d 5d43 d63c 41b9 81bb 4ec9 0c3d
000001f0: 8eb2 f8bc bafb 39bd dabe f4bd 5d7c 9a3d
00000200: ebb5 f5bc 3092 6abc 25ef 3b3d 11c7 09bc
00000210: c571 48bd 0f44 62bd b706 9abd c2b7 f53d
00000220: 6eef fc3d 05fd 7b3d 96c7 b4bc adf4 b6b9
00000230: c01f 773c 6e1d 243d 840a a33d df1b 99bc
00000240: 79d5 febc 153d 9cbd c9ef 3fbd 2d1a e7bc
00000250: c978 ba3d 9f69 b8bc ea6c 253d e673 f33d
00000260: 7548 d8ba c4ce a1bd ce4c b1bb 179f 363d
00000270: 2bbc 9c3d 3909 a23c b1d1 3abe 485b bf3d
00000280: b496 c1bd af96 f6bc 7937 c43d 7fac 063e
00000290: dffe e33d 1297 2f3c d64d 86bd 3423 bbbd
000002a0: b8c1 ab3d ea7e 7dbd 64fe b73d 3d17 be3c
000002b0: d89f 0cbc 6f86 9a3d 4c52 573d 2a61 af3d
000002c0: 9220 f3bd df45 90bd 8737 8f3d bea1 68bd
000002d0: 21e2 1cbd 30af 16bd b5d9 f3bd 0b0c 183d
000002e0: 98aa 56bd 9f7a dd3b a297 d8bd 6c1c babc
000002f0: 73aa 603d 16e7 fdbb 3a3c c5bd 25c5 79bd
00000300: 1ca2 063e a326 fabc 9e1c 39bd c1c0 4ebd
00000310: b7d6 90bd 2cec 91bc e423 823d 8671 f1bd
00000320: bbd6 bbbd 0f4c 1a3d 110f 8ebd 697c 1dbd
00000330: 240f 9b3d 67ac 32bd 9074 fc3c a3d5 dbbc
00000340: a79a 2e3d ed68 87bb 6fab a0bc e51e b5bd
00000350: b7ec 943c aa2d d4bd a9e9 33bc b79d a83c
00000360: aabd 573d 6df1 8fbc 79f6 14ba e1cf 143e
00000370: 1070 1c3d ecc8 8dbd 05ee 3f3d 4d41 d03d
00000380: 2622 99bc 1fb9 4bbd e986 1b3d a33c acbd
00000390: 4e06 cfbc 1db2 ab3d 7b0d 243a e5a0 9b3d
000003a0: 563b b73b 5ac9 1abc b3c7 8bbd 792d d9bc
000003b0: ea8e 703d 7db5 3fbd 432f 363d a6a2 d53d
000003c0: aefd 8cbd 4ad4 35bd be9d e53c 7964 a23b
000003d0: 6d1b 223d 9d6d abbd 2cd9 01bd 7d6f 04bb
000003e0: b82c 05be 8843 e2bd 14cf ab3d 6274 973b
000003f0: a5a0 17bd 8316 413d f543 b3bd 4abf 123d
-0.066598855 0.03467047 0.101377875 0.12262663 0.09758277 0.02991796 -0.012726233 -0.056113183
-0.004522874 0.06281877 -0.081518136 -0.07779866 0.15301839 -0.054530166 -0.12112267 -0.032447938
-0.01851296 0.07413177 0.08778642 -0.10136201 -0.028598815 -0.05822376 0.10127847 -0.13149738
-0.049274854 0.10699905 0.11388247 0.019865995 0.07694504 -0.05337665 -0.06464472 -0.1516489
0.061619762 0.067727216 -0.019432109 -0.14022231 -0.040163014 -0.02557277 -0.098969616 0.111516535
0.023754576 -0.10866008 0.0073305615 0.028775515 0.0589222 -0.060049843 0.12644975 0.06146502
-0.011878624 -0.08646972 0.089465745 -0.08038545 0.025628531 -0.019945305 0.051252477 -0.030992948
-0.060784098 0.074475065 -0.09439053 -0.0028221768 0.06106954 -0.014833737 0.10354845 0.06779506
-0.08854502 0.062218554 0.13651991 -0.10726112 0.052885313 0.13102843 -0.04864544 0.00074116973
-0.008930516 0.07447862 0.088632785 -0.038536582 -0.050571837 0.017940069 0.0019515004 0.019408796
-0.09634804 0.14055593 -0.10387465 0.021553526 0.07589911 0.02812517 -0.060400106 -0.09039016
0.05796324 -0.102172814 -0.020822486 -0.08138946 -0.025405975 0.066626705 -0.13098976 -0.005447231
-0.09863048 -0.06075572 0.08016577 0.06594173 0.0990979 0.09502867 -0.08076893 -0.11615361
0.100022964 -0.07683604 0.07806206 -0.082121834 0.032067105 -0.06801002 -0.023348562 -0.062139563
0.10808856 0.08986227 -0.01555872 0.05002409 -0.011473433 -0.020892465 0.02221037 -0.053797696
0.058314092 0.026155168 -0.0039588516 0.034371667 -0.030358579 -0.04540608 -0.119504645 0.07543252
-0.029993972 -0.01431708 0.045882363 -0.008409278 -0.048936624 -0.055240687 -0.07520812 0.1199794
0.12350355 0.061520595 -0.022067826 -0.00034896043 0.015083253 0.04006713 0.0796099 -0.018690048
-0.031107651 -0.07628838 -0.046859536 -0.028210724 0.09105069 -0.022511302 0.04038707 0.1188734
-0.0016501086 -0.079007655 -0.005410767 0.044585314 0.07653078 0.019779788 -0.18244053 0.093435824
-0.094525725 -0.030101148 0.09580893 0.1315174 0.11132597 0.01071717 -0.06557815 -0.09137574
0.08386558 -0.061888613 0.08984068 0.02320444 -0.008583032 0.075451724 0.05256872 0.085634544
-0.11871447 -0.07044577 0.06993013 -0.056794874 -0.03830159 -0.036788166 -0.11906759 0.03712086
-0.052408785 0.0067590023 -0.10575797 -0.02271863 0.054850053 -0.007748495 -0.09630628 -0.060979027
0.13147777 -0.030536002 -0.045193307 -0.050476793 -0.070722036 -0.01781281 0.06354502 -0.11789231
-0.09171816 0.03767019 -0.069364674 -0.038448725 0.07571247 -0.043621447 0.0308173 -0.026835268
0.042627957 -0.004132381 -0.019612996 -0.08843783 0.01817928 -0.10360272 -0.010981002 0.020583017
0.052671112 -0.017571175 -0.0005682479 0.14532425 0.03819281 -0.069230884 0.046857852 0.10168705
-0.018693041 -0.049737092 0.037970457 -0.08410003 -0.025271561 0.08383582 0.0006258112 0.075990476
0.00559179 -0.00944742 -0.06825199 -0.02651094 0.058730043 -0.04680394 0.044478666 0.10431413
-0.06884323 -0.044391908 0.028029319 0.004955825 0.039576937 -0.083705164 -0.031701252 -0.0020208054
-0.1300534 -0.11048037 0.083891064 0.004622028 -0.037018437 0.04714061 -0.08753196 0.03582696

weight f4 [128, 256]
00000000: a047 833c 86f9 573c 2aac 453d 1035 14bd
00000010: e872 4dbc 13ef 9d3a d6b3 0a3d 180a 38bd
00000020: 892e ffbc 8818 45bd 00cc 62bd 8a6e 6bb9
00000030: e55f 1a3d a22e f0bd fd96 fd3c 6e38 2ebd
00000040: 670d 8abd 4723 cebd c255 dd3d 17a3 99bb
00000050: bec6 c43d 44d9 343d b334 69bc ab3a 8f3d
00000060: 8121 843c be0a 1ebb efc7 bebc b22d 193d
00000070: 694b ab3d 11e2 d3bb f549 20bc ecb3 723d
00000080: 9d0b 25bb 67c2 a33d 792b 0e3d ec03 1b3d
00000090: 9819 cd3c 3aef ff3b 149f 853c f3f5 953c
000000a0: d140 523c 2697 243d e4df f43c 347b 263d
000000b0: 63e0 21be 3098 c13d 995b efbd 1ec6 a53d
000000c0: 7274 c13c 28ce 353d 3ed4 53bd dd7d 8a3d
000000d0: 6b79 09bd 4212 3bbd cb0f bbbc 82c7 5cbd
000000e0: cc8a be3d 76fa 4fbd 14fa c23d cc10 b93d
000000f0: b9ee 07bd 9f89 ca3d d904 72bd 141e 903c
00000100: 59cf 0a3d 537c 79bc 8ae3 f4bc dd21 e23c
00000110: 296e 07b9 0b89 febc 93b6 4b3d 8930 923d
00000120: b8ce 38bc 21ed c4bd 4944 5c3d 5ced f33c
00000130: 07a2 3ebc 8a2d 9dbd 58fe 2ebc 9892 c9bc
00000140: dcea cd3c 81fe abbd 33d0 a83d de83 b1bc
00000150: e2ad 11be 31e3 17bc 7244 4b3d 80ca 313d
00000160: a9d5 2cbd 45f1 8a3d 3a2c 1abc 45bf 57bb
00000170: 97f3 03bd d8f8 6e3c 39d3 733d b42e 0c3d
00000180: 222d ee3d 9fe5 0c3e 8219 d23c 599b 6dbd
00000190: 3985 26be cd86 313c f76c ec3b b005 52bc
000001a0: 5d0e a4bb 0c5e 67bc 1d94 8b3d ef3a 633c
000001b0: 6647 a13d 86ab 98bd e732 85bd 4e3e 913b
000001c0: 05d2 2b3d d9bc c0bd 8329 76bd 7c7e b3bc
000001d0: fcfc d33b 2a59 ea3c c13f 32bd 2764 8cbd
000001e0: 4b3d 82bc 6874 80bc 51f4 183d 47eb 30bd
000001f0: 59b0 713d 0a12 86bc 9b81 2abd 9155 a8bc
00000200: cec4 1f3d 9f4e 76bd f193 bb3c c0c5 fb3c
00000210: 2a02 58bd fe54 43bd 87ee 013e 39b5 85bc
00000220: a34d 7d3c 4de5 e7bd 0335 183d 92f0 13bd
00000230: 6cad 99bc a475 80bd 7f97 eebd 68b5 8abb
00000240: 6dac 5fbd 65fc 233b ce4c fe3c d3c7 963c
00000250: 8fa4 26bd e7ca 273c d11c acbc 293a e73c
00000260: 7565 79bd 6c87 91bb 14b0 f73c c8da 513c
00000270: da3b 003d fca8 d43c c80a 103d 8193 9bbb
00000280: a133 84bd 522f 4d3c 46eb 03be 6057 7a3c
00000290: b727 833d 9bf2 4f3a 97ec 80bd 48dc 993d
000002a0: d69e 06bd 6b0a 2dbc d25d e8bd e00a f33c
000002b0: f04d d6bc 7199 2abb ff61 53bc 2f8c 233c
000002c0: 4e0c 953d 6aae ffbd 4998 5dbd 3f77 10bb
000002d0: bbc6 1cbd c26c fabc 1faf 5f3d 54e9 483d
000002e0: 01a9 0c3d a436 0eba a4eb e9bc 9541 383d
000002f0: 587e 12be dedd 38bd 868f 833c 14a0 483d
00000300: 7c86 c0bc 01a2 c23c ed25 05bd 93dc 62bb
00000310: ae01 d43c 15b4 8a3d 80ba 943d daa3 a3bd
00000320: 653c a9bd c48e 2cbd 7219 42bc 256d c83c
00000330: a1ec 803a d8fa a53c d2c5 83bd df10 8f3b
00000340: 6acf d3bd a8e8 c13d 1778 8fbd ee03 04bc
00000350: 1063 d8bc c422 9b3d 35ff c03d b2d3 25bd
00000360: 478c 413d 6b01 9dbd c63b 36bd 9b39 35bd
00000370: cc4a 853d c308 40bd 844d 98bd 9b49 df3b
00000380: ddca 5fbc df80 01bd faa4 633d 66b6 6fbd
00000390: 4417 b4bd f00b c93b 3b10 8dbd a0df 69bd
000003a0: ca86 283d b7f1 ebbc a782 06bd ece9 b63c
000003b0: bfa6 4fbd eacb 173d b90e a93d 9cf1 dcbd
000003c0: 7234 7d3d 3887 b2bc b494 fdbd 5531 a53d
000003d0: 5c07 d6bc 5799 f53d 4453 5ebd efae 6b3d
000003e0: 7b26 c73d f192 ab3c a4b4 3c3d af8c 293c
000003f0: fb7f b53d b326 363b 6efb a93d b24e 9abd
0.016025364 0.01318205 0.04825989 -0.036183417 -0.012539603 0.0012049399 0.03386291 -0.0449315
-0.03115012 -0.048119098 -0.05537033 -0.00022452525 0.03768911 -0.117276445 0.030955786 -0.042534284
-0.067408375 -0.10065322 0.10807373 -0.0046886313 0.096082196 0.044152513 -0.014233756 0.06993612
0.016129257 -0.002411529 -0.023288695 0.037397094 0.08363993 -0.006466158 -0.009783258 0.059253618
-0.0025183924 0.07996064 0.034709428 0.037845537 0.025036618 0.0078105005 0.016311206 0.018305754
0.012832836 0.04018321 0.029891916 0.04064484 -0.15808253 0.094528556 -0.11687393 0.080944285
0.023615096 0.04438606 -0.05171608 0.06762288 -0.03356306 -0.04567171 -0.02283468 -0.053901203
0.09303817 -0.050775968 0.09520355 0.09036407 -0.033186648 0.098895304 -0.059086654 0.017592467
0.03388915 -0.015227395 -0.029893655 0.027604038 -0.00012915641 -0.031071207 0.049734663 0.071381636
-0.011279754 -0.09615541 0.05377606 0.029776268 -0.01163531 -0.076747015 -0.010680757 -0.024606034
0.025136404 -0.08398152 0.08242836 -0.021669324 -0.14226487 -0.009270475 0.04962582 0.04340601
-0.04219595 0.067843 -0.0094099585 -0.0032920402 -0.032214727 0.014585696 0.05952761 0.034224227
0.11629702 0.13759468 0.025646929 -0.05800948 -0.16261758 0.010835362 0.007215138 -0.012818739
-0.005006595 -0.014121544 0.0681536 0.013869031 0.07874946 -0.074545905 -0.065038495 0.004432476
0.041948337 -0.0941102 -0.060098182 -0.021910898 0.006469367 0.02860697 -0.04351783 -0.0685504
-0.015898367 -0.015680507 0.037342373 -0.043193128 0.05900607 -0.016366024 -0.041627508 -0.020548614
0.039006047 -0.060133573 0.022897692 0.030733943 -0.05273644 -0.047688477 0.12688647 -0.016321765
0.015460405 -0.113230325 0.03715993 -0.036118098 -0.018759452 -0.06272438 -0.11649989 -0.004233051
-0.054607797 0.0025022265 0.031042483 0.01840583 -0.04068428 0.010241247 -0.021009834 0.028225975
-0.060887773 -0.0044411924 0.030235328 0.012808509 0.03130708 0.025959484 0.03516653 -0.0047478084
-0.0645516 0.012523489 -0.12882718 0.015279621 0.064040594 0.00079325744 -0.06295126 0.075127184
-0.03286632 -0.010561566 -0.1134602 0.029668272 -0.02616021 -0.00260314 -0.012901782 0.009982153
0.072777376 -0.12484439 -0.05410031 -0.0022043732 -0.03827546 -0.030569438 0.054610368 0.049050644
0.034340862 -0.0005425012 -0.028554745 0.04498442 -0.14306009 -0.045133464 0.016059648 0.048980787
-0.023501627 0.02375889 -0.032506872 -0.0034616336 0.025879707 0.06772629 0.072621346 -0.079902366
-0.082634725 -0.04212834 -0.011846887 0.024466107 0.0009836146 0.020261213 -0.064342156 0.004366025
-0.103422955 0.09468204 -0.07005327 -0.008057578 -0.026414424 0.075749904 0.09423677 -0.04048509
0.04725292 -0.07666286 -0.0444906 -0.04424439 0.06508407 -0.046883356 -0.0743666 0.0068141944
-0.013659206 -0.03161704 0.055577256 -0.058523558 -0.087935 0.0061354563 -0.06887861 -0.05709803
0.04114417 -0.028801782 -0.032839444 0.02232834 -0.05069613 0.037059702 0.08254761 -0.10788271
0.061817594 -0.021792993 -0.123818785 0.0806605 -0.026126556 0.11992138 -0.054278627 0.057539877
0.097241364 0.02094409 0.04607071 0.010348483 0.08862301 0.0027794063 0.082999095 -0.07534541

bias f4 [128]
00000000: 7d67 05bd 44fd 5c3d 79e6 c7bc c8f0 2fbd
00000010: b69c 7bbd 0dc3 86bc c9d4 2d3c f7be e83c
00000020: 2de4 8d3c 2c7e bbbb e698 cebc 58bc f0bc
00000030: 1c68 c3bc cc22 d93a 9973 20bc 75a6 3ebd
00000040: e099 97bc 36ed 06bd a728 303d 472b 7ebd
00000050: 7dca 9b3c d9e1 a4bc 07d0 72b8 3c35 25bd
00000060: 82b8 a4bd 3945 9d3c e812 89bb 24be 06bd
00000070: be7f d3b8 e4ed 893c 880d 82bd 3aa9 0cbd
00000080: 1d69 d4bc c870 94bd 2f61 07bb 550d 3fbd
00000090: 9ca3 b0bb 8244 3b3b 3f67 793c 5888 41bd
000000a0: 8436 0e3d 38b1 0b3c 2ac5 7f3c 627a 88bd
000000b0: 9f10 3ebd 44ac 5ebd 4148 5b3b 036c 61bc
000000c0: 1552 4abc f6f3 3ebc 4011 e5bc 063b 06be
000000d0: a741 19bd 2567 9d3c 8495 3a3c 78bd 0fbd
000000e0: f612 44bd 6b05 67bd 094e 613d ade3 0abd
000000f0: 7232 46bd a9f9 bcbc ab6e 91bc 0022 eebc
00000100: cc17 cf3c 64a9 313d b65c 27bd a139 393c
00000110: ce25 ae3c 176d 673c d444 81bb be0b eb3c
00000120: 3099 a4bd 14f3 2f3d ef8e 8cbd e324 a6bd
00000130: ed33 8fbd cd59 84bb f18e 013d 69b1 24bd
00000140: 787a 22bd c99a d73a 1c20 b1bc c665 1ebd
00000150: fd15 61bc a5d3 67bd 4280 7dbc 144c 4f3d
00000160: 385e c63c 23e7 933d 2bb9 513c 9941 0abd
00000170: 3dfd 52bd a7d1 2fbc e3f1 bcbd f09d 54bb
00000180: 56e7 c0bc eeaa b6bb ec7c a43c e744 6fbd
00000190: 7dd3 91bc 2732 a7bc 96ed 50bc 1b9b c63b
000001a0: f349 88bd f06e 02bd 4470 993c 5f77 303c
000001b0: b8c2 5abd 21ec bf3a ab9e 1c3c a0c8 3ebd
000001c0: bd1e 763c 96eb e53c 2dbc a5bc d441 2a3d
000001d0: 2f6b 123c 6c08 d6bc 12c6 74bc 13c6 7c3b
000001e0: 89f6 afbc 2180 20bd a99f 8bbd 8262 753d
000001f0: 1d90 5b3b 2946 ac3a bfaa 8cbd 70ce f73c
-0.032569397 0.05395247 -0.02440189 -0.042954236 -0.061428748 -0.01645043 0.010609814 0.028411372
0.017320717 -0.005721828 -0.025219392 -0.029386684 -0.023853354 0.0016566156 -0.009793186 -0.046545465
-0.01850599 -0.032941066 0.04300752 -0.06205299 0.019017452 -0.020127224 -5.7891037e-05 -0.04033397
-0.080430046 0.019198047 -0.004183162 -0.032896176 -0.00010085058 0.016837068 -0.06350237 -0.034341075
-0.025929028 -0.07248074 -0.0020657291 -0.046643574 -0.0053905975 0.002857477 0.01522237 -0.04724917
0.03471996 0.008526139 0.015610972 -0.06663968 -0.04640257 -0.054363504 0.0033459815 -0.013758662
-0.012348671 -0.0116548445 -0.027962327 -0.13108453 -0.037416127 0.019214222 0.011388186 -0.0350928
-0.047869645 -0.05640165 0.05500606 -0.033908535 -0.048387952 -0.023068266 -0.017752966 -0.029068947
0.025279902 0.043374434 -0.0408599 0.011305244 0.021258261 0.01412513 -0.0039449725 0.028692123
-0.08037031 0.042956427 -0.068632 -0.08112504 -0.06992326 -0.0040390254 0.03163046 -0.040208254
-0.039667577 0.0016449328 -0.021621756 -0.038671277 -0.013738153 -0.056598324 -0.015472474 0.050609663
0.024214849 0.0722182 0.012800495 -0.033753965 -0.051511038 -0.010731137 -0.09225824 -0.003244277
-0.02354781 -0.0055745756 0.020079099 -0.05841532 -0.01780104 -0.020409657 -0.012751957 0.0060609705
-0.0665473 -0.03184408 0.01873029 0.010770648 -0.053408355 0.0014642515 0.009559314 -0.04657805
0.015021977 0.028066438 -0.02023133 0.041566685 0.008936687 -0.026127063 -0.014939802 0.003857021
-0.021479862 -0.039184693 -0.06817562 0.059908397 0.0033502646 0.0013143468 -0.06868505 0.030249804

weight f4 [128, 128]
00000000: de81 03bd 6222 c5bc 6112 be3d 170d 813d
00000010: 57f7 88bd 0c20 193d f57b 89bd 193b 683c
00000020: b707 c63c 1614 1e3d da04 513c aa18 113e
00000030: ee1f 0f3d b302 e03b 16af 4dbc 93ef db3c
00000040: 7a03 84bd d4ff c93c 231f 3bbc 5430 a7bd
00000050: 5db3 2dbd 9932 4a3d e9fd b83d d1b5 0d3c
00000060: 16f0 99bc 17d0 1f3d 02ec 783d ab80 16bd
00000070: 45eb 5cbd 8b6b 043e d24f 87ba 2363 663c
00000080: 7999 35bd 7a50 3d3d 301c 1cbd d382 093d
00000090: 7fa8 593d 182f a7bc 41d6 87bc a65e af3d
000000a0: 4933 463c d4d2 91bd 4028 9bbc a0c6 06bb
000000b0: c93d d4bc 26f1 a239 eede 6fbd 83ed f6bb
000000c0: 7ded 99bc 1e58 f1bc 4a4b 60bb 3ce6 8e3d
000000d0: 89ab 70bc baa6 7f3d da83 803b 1bfa 2a3c
000000e0: 3dc2 82bd 3dea 82bb 0f4a 0cbb d95e 703d
000000f0: 32de 39bc 14ff c93b b073 e53b d43e a43d
00000100: 1d50 ac3d f6c7 7f3c a2ec c43d a3c3 0f3d
00000110: 26db b5bd 8fc0 0c3d 78f1 bcbc ecba 12bd
00000120: dd12 8c3d 15c1 49bd 8a2c 79bb 3354 e03d
00000130: 1942 443d 9866 48bc cc5c 8dbb 11b7 533d
00000140: 011c a8bd c1ee 7cbd b3bf 99bd f5e6 023e
00000150: 8ad7 eabc e50f ea3c db0c 3dbd 2b4d 32bd
00000160: f69b 853c c56d 55bd abd0 bc3b 7b69 1b3d
00000170: 409a 423d 3515 113d ad93 0f3d f110 47bd
00000180: 5814 213c 471c 95bd db8d c5bd 2904 a03a
00000190: 5f71 b43c 2b36 c5bd 4f99 0b3d ffb7 373c
000001a0: e97b a2bc 92cd 2d3d 762d 113c 2012 bd3c
000001b0: a655 633c 01b0 88bd 92ff 903a 1aae 563d
000001c0: a5ec 62bc 1a64 bb3d c25c 793c be41 89bd
000001d0: 129e c63c fc9e 56bc 5c55 68bd 1041 753c
000001e0: 740b 00ba 109d bbbc d7e0 9c3c b76e 093c
000001f0: 218a 76bd 9f7f ad3d 9a6b 9abd 5401 6f3c
00000200: 5569 5e3d 3f07 a1bd 7b8b 9e3d 76f9 47bd
00000210: 98ca bfbb 1c80 1f3c 62d8 8a3d 13af 4a3d
00000220: 61a7 d53d 1002 27bd 1840 8a3c 59cf 423d
00000230: f9ba 913d bdbc a23c 85c3 f23d 3bd7 1abe
00000240: f8b2 09bc ec8c 853d 73d5 4dbd 4009 a0bd
00000250: 31a3 dc3c de32 b13d 8324 16be e208 343d
00000260: 00f8 9d3d 6b7a 4dbd c52d 1d3d 9955 1abd
00000270: ba71 37bd 3a00 34bd 782c ab3d 4023 08bc
00000280: 9b0d 89bd 5c7e 17bd e76a 813c f6d6 3b3d
00000290: ae3f bfbd 0ffa 503c 19d9 913c 8ceb e1bc
000002a0: 0b21 4abd 7b35 72bd 46ae 94bb 030e 823d
000002b0: f31d 85bd 131d aebc e29d 92bb 11fd afbd
000002c0: 4109 db3d 6485 06bc e59d 3a3d 1e23 2fbd
000002d0: ee56 683a 7e0d 0c3d 24d0 a6bd ac9d 86bd
000002e0: a1bc 313d 13e6 b5bd 0a81 043d c99b b43c
000002f0: fa92 da3c c4f7 a33d 5154 6bbc 5179 ed3c
00000300: dc9f 9bbd 84c3 b6bc be2a d63d 7347 2c3d
00000310: 5266 37bb bc4f 853c eaa7 74bc 237a 4bbd
00000320: ca75 64bd 2663 3e3d 04ab ae3d 326a 69bd
00000330: 5165 c4bb 28d0 b6bc 94e9 7ebd 3ea5 a93d
00000340: 01cf f13d bcdf a3bd 18c1 7f3d da78 f0bd
00000350: 47dc 72bd cd9c 71bd 7bf7 703b 511f 5b3c
00000360: c75e d4bd d92b 903d feb0 7a3c 9e69 e13d
00000370: cb71 d53d dccb efbc 4358 af3d 1abf 353d
00000380: d7cd debc be0d 32bc 6521 a83d 0b96 0a3d
00000390: 937d b13b 1d7c a0bc d095 fe3c 9c38 5dbc
000003a0: ddfa cebc d85b e93c ad94 e93d da9c d53c
000003b0: b224 c63d 6680 92bd 9f72 95bc 0814 d5bc
000003c0: e7e4 3d3c 2bba e3ba de78 ba3d c7e3 053c
000003d0: 6a23 c5bc 5cb0 4fbd 8c8b 993d 7257 1e3b
000003e0: 7811 4bbd 3820 c43c 4ba1 56bd b53c 86bd
000003f0: 5e8e 6cbd df29 f7bc b337 bf3d bc0d 9a3c
-0.032106273 -0.024064247 0.09280849 0.06301325 -0.06687801 0.037384078 -0.06713096 0.014174246
0.0241736 0.038593374 0.012757504 0.14169565 0.03494256 0.0068362593 -0.012553951 0.026847636
-0.064459756 0.024658121 -0.011420998 -0.08163515 -0.042407382 0.04936466 0.090328045 0.008649305
-0.01879124 0.03901681 0.06077195 -0.0367438 -0.053935308 0.1293165 -0.0010323471 0.014061722
-0.044335816 0.046219327 -0.03811282 0.03357203 0.053139206 -0.020408198 -0.016581656 0.08562975
0.012097188 -0.071202904 -0.018940091 -0.0020565167 -0.025908368 0.00031078717 -0.05856221 -0.007535638
-0.018790001 -0.029460963 -0.0034224563 0.069775075 -0.014689335 0.062414862 0.003921968 0.010435606
-0.06384704 -0.0039952085 -0.0021406447 0.058684204 -0.011344479 0.006164441 0.0070023164 0.08019796
0.08413718 0.015611639 0.096154466 0.035098683 -0.0887969 0.034363326 -0.02306436 -0.035822794
0.068395354 -0.049256403 -0.0038020932 0.1095356 0.047914598 -0.0122314915 -0.0043140408 0.051688258
-0.08208466 -0.06175113 -0.07507267 0.12783416 -0.02866723 0.028572032 -0.046154838 -0.043530624
0.01630972 -0.052106638 0.00576218 0.03794239 0.047510386 0.035420615 0.035052944 -0.04860014
0.0098315105 -0.07280784 -0.096461974 0.0012208271 0.022026716 -0.09629472 0.034081753 0.011213302
-0.019834476 0.042432375 0.008860936 0.023079932 0.013875401 -0.06674195 0.0011062494 0.05241213
-0.013850366 0.09149952 0.015219869 -0.067019925 0.024245296 -0.013099428 -0.05672203 0.014969125
-0.0004884519 -0.022902042 0.01915018 0.008388213 -0.060190324 0.084716074 -0.075400546 0.014587719
0.05429967 -0.0786271 0.077414475 -0.04882189 -0.0058530085 0.0097351335 0.06779553 0.04948337
0.104323156 -0.04077345 0.016876265 0.047561023 0.0711574 0.019865388 0.11853699 -0.15121166
-0.008404486 0.06521019 -0.05025239 -0.07814264 0.026933284 0.0865228 -0.14662366 0.043953784
0.07713318 -0.050165575 0.038373727 -0.03767929 -0.044786192 -0.04394553 0.08358091 -0.0083091855
-0.06692048 -0.03698574 0.015798045 0.0458593 -0.09338318 0.012754931 0.017803716 -0.027578138
-0.04934792 -0.059133034 -0.0045373766 0.06350329 -0.06499853 -0.021254098 -0.0044743875 -0.085931905
0.106951244 -0.008210514 0.045560736 -0.0427581 0.0008863051 0.034192555 -0.081451684 -0.06573042
0.04339278 -0.08881774 0.032349624 0.02204694 0.026681412 0.08006242 -0.014363364 0.028988512
-0.0759885 -0.022310026 0.10457371 0.042060327 -0.0027984572 0.016273372 -0.014932612 -0.049677026
-0.055776395 0.046481274 0.085287124 -0.05698604 -0.005993523 -0.022316054 -0.062234476 0.082834706
0.11807061 -0.08001658 0.062440008 -0.117418006 -0.059292104 -0.058987428 0.0036768604 0.013374166
-0.1036964 0.07039613 0.015300987 0.11006473 0.10422095 -0.029272012 0.085617565 0.0443717
-0.027197761 -0.010867534 0.082094945 0.0338345 0.005416581 -0.019590432 0.031077296 -0.013502266
-0.025266105 0.028486177 0.11405311 0.02607577 0.09674968 -0.07153396 -0.018243132 -0.026010528
0.011590219 -0.0017374208 0.09105085 0.008171982 -0.024064738 -0.0507053 0.074973196 0.0024161008
-0.049577206 0.023941144 -0.052399915 -0.06554548 -0.05775296 -0.030171333 0.09336796 0.018805377

bias f4 [128]
00000000: 6589 663c 228d e2bb 2c6f 693d c6ad 71bd
00000010: 2549 693d 7be6 543d ce75 03be f20d a7bc
00000020: 7f44 333c a1a7 cebc 1858 4cbc dbbb 9837
00000030: 76fb a5bc 21c7 903c 1e34 103c 0807 3dbc
00000040: f905 e4bd 226e 5a3c 28d7 e33c 0601 67bb
00000050: 527a c3bd cfda 143c 5a4e 41bd ac6f db39
00000060: 9ef6 963c e38a e3bb ac46 bb3b a0af 293d
00000070: 6d39 febd 8064 23bd ddcb ac3c 546b 95bd
00000080: c38d 1ebc ca97 c8bc bce6 05be 95d5 1abd
00000090: 6f63 b2bc 6322 663d d550 c3bb 2895 55bc
000000a0: c8ac 033d f4d7 aebd 986b 353c c86c 923c
000000b0: e0bb 1cbc 4f5c 13bc c0cf 88bd 53f4 71bd
000000c0: 1ac2 3ebd 3c5d 033d ca87 50bd 57b9 37bd
000000d0: b368 a03c 1ff0 2f3a 7e3c babd 3e6a 303b
000000e0: f200 dc3c 3072 d03c 7632 173d 0886 abbc
000000f0: a864 3fbc d2bc 19bc 09d3 35bc 33ec 9d3b
00000100: d29e 06bd 6022 8d3b ef01 9dbb 0d6c 8e3c
00000110: 7088 d5bd ba7a ba3b 0341 e9bc adda 28bd
00000120: a6ee 0ebd 6eac 053d c5e1 173d ceae 00bd
00000130: d12b a6bb 30b4 253d 9203 df3d b3c6 5cbd
00000140: f5ea fabc 9439 27bd 9b7b 793c a3a8 57bc
00000150: e23b a23c dd50 d1bc 2a30 e7bc 74d2 ea39
00000160: ec5c ab3d df35 f0bc 69bb 06bd 7b5a 55bd
00000170: 4684 8abc da12 74bd e172 413d bf78 52bd
00000180: bb7d d6bc bed1 8a3b d889 033d f403 7ebd
00000190: ab5e 2b3d d918 a1bd 6536 593c de32 0e3c
000001a0: b990 203b 261c 493d 67de 1e3c b652 083d
000001b0: 7e81 b7bd d961 a43d 4ade 583d f7f7 e2bd
000001c0: 7291 2dbd 86a7 973d 269c 5a3c 5c0c b1bd
000001d0: 5acb 063d 1912 02bd af8c 553d 60af 81bd
000001e0: 8198 803c a979 de3c d93f bf3c b6db 00be
000001f0: 92e1 143c 0062 b0bd 2d78 753d 402a b23c
0.014070843 -0.006913797 0.056990787 -0.059003614 0.05695452 0.051977616 -0.12837908 -0.020392392
0.010941624 -0.025226416 -0.012472175 1.8207289e-05 -0.020261507 0.017673077 0.008801488 -0.011537321
-0.11133952 0.013331922 0.027812555 -0.0035248413 -0.09544815 0.009085371 -0.047193862 0.00041854137
0.018428143 -0.006944047 0.005715212 0.041427255 -0.12413297 -0.039890766 0.021093303 -0.07295862
-0.009677353 -0.024486441 -0.130763 -0.037801344 -0.02177593 0.056185137 -0.0059605637 -0.01303605
0.0321472 -0.085372835 0.011073016 0.017874137 -0.009566277 -0.008994176 -0.0668025 -0.059070896
-0.04657183 0.032071337 -0.05091075 -0.04485449 0.019581174 0.0006711501 -0.09093569 0.0026918794
0.02685592 0.025445074 0.036913358 -0.020937935 -0.011681713 -0.009383397 -0.011097678 0.004819417
-0.032866307 0.0043070763 -0.0047914903 0.017385507 -0.10426414 0.0056908997 -0.028473383 -0.04122417
-0.03489556 0.032635145 0.037080545 -0.031416707 -0.0050711413 0.040455043 0.10889353 -0.05390043
-0.030629614 -0.040826395 0.015227224 -0.013162765 0.019803945 -0.025551254 -0.028221209 0.00044788758
0.08367333 -0.029322563 -0.032893572 -0.052088242 -0.016908776 -0.05958829 0.047228698 -0.051384684
-0.026183 0.004236429 0.03211388 -0.06201549 0.04183833 -0.078660674 0.013257598 0.00867912
0.0024500324 0.04909911 0.00969658 0.033282004 -0.089602455 0.080264755 0.052946366 -0.11082452
-0.042375036 0.074049994 0.013342893 -0.086449355 0.032908775 -0.03175554 0.05213612 -0.06332278
0.01569772 0.027157621 0.023345875 -0.12583813 0.009086983 -0.08612442 0.05992906 0.021748662

weight f4 [10, 128]
00000000: 8223 30bb ca97 953c 022c e7bb f816 8b3b
00000010: b6a4 60bc ee05 053c 8bed 073d e1ef 193c
00000020: aad5 b8bb c376 cabb 25ae 13bc 4139 0bbc
00000030: 8796 d8bb a62d cfba b0cf acbb 8be3 3ebb
00000040: 6c3b f4bc 2695 ef3b b28b e8bb c182 af3b
00000050: e143 2e3d 5e99 973c 6c11 9dbc fdde 0dbb
00000060: 5344 26bb effb 353c e45c f03b 18ae 4d3b
00000070: a2c0 50bc 24c8 a63b 90cb 3bbc e2a8 46bd
00000080: 6c60 d63b 9d2b 3abb 4032 fabc 7485 ebba
00000090: 5920 dcbb 64d6 c6bc 767c 4fb7 b93f 31bc
000000a0: a6b9 d33b 0710 0cbd cd43 d4bb 4a63 bdbb
000000b0: af42 3d3c 8d67 573b 1e2c 75bc ed03 633c
000000c0: 03d8 87bc 2cca b0bc c77d c63b 86d1 53bc
000000d0: 9e26 99bb d7c8 44bd d576 f8bc 492d e0bb
000000e0: 0814 9d3a ae09 463c cabd 6739 ba92 e43c
000000f0: 992d 703c f6b1 863c 6134 afbd cfad cd3a
00000100: 6624 853a f497 973b c560 68bb 059b 633c
00000110: a3cb 5bbd d735 af3c 614d 813c 7e1b ae3c
00000120: 31cd 12bb b056 7dba 53c6 323c 9a83 ea3b
00000130: fc0b 05bc 6536 dcbb a233 42bd 80cc 953a
00000140: ac67 ca39 8c42 40ba 53d8 a33c 3336 ddbb
00000150: 424e dc3b b70d cb3c 8e3b 563c feaa 9abb
00000160: e8ba 8e3c f26b 69bc a40c 503b e086 7abb
00000170: 8fd4 24bc 2e63 033b de55 a73c d18e 4bba
00000180: 1091 a9ba 1260 de3b 53c7 17bc 9283 cabc
00000190: 99db 753b 1bde 7f3d 6851 3bbb 86c2 803b
000001a0: 64ac 443c 1c5c 3ebb 77d9 debb a9ce 2d3d
000001b0: f522 2f3d 8d4b c53b cdd5 04bb 9db6 283d
000001c0: 5432 df39 a9b6 2ebd 7ec9 523c f7bc 47bd
000001d0: 922d e7bb 3e02 b2b9 9566 8d3b 19a9 c8bc
000001e0: 43fa b73b d5c8 4ebc e975 743c c8c4 e43a
000001f0: 58f9 953b 61c3 65bc bab6 83b9 ffd3 2c3c
00000200: 68cc 353b 6a6f 5d3c ca7d 033a 7e2d e43b
00000210: 8928 81bc b592 713c 542b 5bbd b6fd 3bbc
00000220: 9f16 b8bb 4fb8 c9ba 65e9 c23a c30e 1cba
00000230: bb86 363c d21f 31bb 5612 d93b 46b3 e6ba
00000240: 9e12 c03c 4f62 633c d1bc d7b9 94b3 1c3c
00000250: 5b8d 10bc c3e6 a73c 25c4 0c3c 8a2c 533c
00000260: 0e62 70bb ff39 e63b 69e1 cc3b 1609 043c
00000270: 8056 7fbd 6451 7fba 6540 06bc 0cbc 34bc
00000280: 770c a7bb 0d3c bab9 e1d3 a0bd 0b90 8abb
00000290: c140 0b3b e5fd 0f3c cd3e 473c 8761 c83c
000002a0: e20d c2bb 71d3 6dbc deac 523c 09b5 d2bb
000002b0: c042 583b 192f cfbb 6177 09bd 0e25 5fb9
000002c0: 1e3b 2c3c 3279 11bc 3367 bf39 3c5c 63bc
000002d0: 835d 633c feaf 38bd 5165 253d 2ae2 583b
000002e0: d592 b93c 4093 0abb 0825 0abc ef58 b3bb
000002f0: 8397 ecbc 1fd5 21bc bc6b d43c e755 563a
00000300: 25dd 03bc 84d9 05bc 6381 f1bb 05d3 cd3c
00000310: f022 7dbd 5dcf 27bc e761 5bbb c649 80bb
00000320: f5fb 023b 8753 f93b ff32 8c3b aceb 19bd
00000330: 1f80 ac3b 05bf e1ba 4097 693d d5c8 c8bb
00000340: 562d adba 4a7b 11bc ca30 b83c b56f 0f3c
00000350: 447b b33c edc6 5d3d 969b 243b e211 82bb
00000360: dbe2 363c 6070 683c d63c b03a c565 62bc
00000370: 04db 0cbc 1e6b 343c c9d7 ee3a b7ed 20bc
00000380: 87b9 bdba 17e6 cd38 86af c73b 8c8f 30bc
00000390: e652 5d3b 8861 68bc 1740 bdbb 9a5c 0c3c
000003a0: fd5a 733c 6f0a b03b 2ae0 bfbb d2f4 35bc
000003b0: e19e a8bc aeba 4f3b 626e b23c 484e 46bd
000003c0: e7b8 43b9 d525 223b b362 c5bc 83fa 693c
000003d0: 749d 9eb9 18ab 063c ff94 7c3c 2af0 ec3c
000003e0: 413c 93bc c49f 45bc 20ff 8abc cab0 10bd
000003f0: bf7c 75bc 1cb8 1e3d 167f d0ba be07 5d3c
-0.0026876633 0.018260855 -0.0070548067 0.0042446814 -0.013711145 0.0081190895 0.033185523 0.0093955705
-0.005640705 -0.0061787083 -0.009013687 -0.008497537 -0.006609741 -0.0015806451 -0.0052737817 -0.0029127325
-0.02981349 0.007311481 -0.007096731 0.0053561633 0.042545203 0.018505748 -0.019173346 -0.0021647804
-0.0025370314 0.011107429 0.007335292 0.0031384286 -0.01274124 0.0050897766 -0.011462107 -0.048500903
0.006542256 -0.0028407343 -0.03054154 -0.0017968849 -0.0067177233 -0.024272151 -1.236714e-05 -0.010818415
0.00646134 -0.034194972 -0.006477809 -0.0057796584 0.011551543 0.0032868118 -0.014964132 0.013855916
-0.016582495 -0.021580778 0.0060574743 -0.012928372 -0.004673793 -0.0480431 -0.030330101 -0.006841336
0.0011984119 0.012087269 0.00022100579 0.027901996 0.014659309 0.01644228 -0.08554912 0.0015692058
0.0010157942 0.0046262685 -0.003545807 0.01389194 -0.053661 0.021387978 0.015783967 0.021253344
-0.0022400136 -0.00096641015 0.010911542 0.0071568014 -0.008120533 -0.0067203515 -0.047412522 0.0011428744
0.00038605684 -0.0007334135 0.020000612 -0.006750846 0.0067231962 0.024786813 0.013075722 -0.004720091
0.017423108 -0.014246928 0.0031745816 -0.0038227364 -0.010060444 0.002004813 0.020426687 -0.0007765117
-0.0012936909 0.006786355 -0.009263831 -0.02472094 0.0037514924 0.062467676 -0.0028582457 0.003929439
0.012003992 -0.00290466 -0.006800826 0.042433415 0.042757947 0.0060209692 -0.0020269037 0.04118978
0.00042571372 -0.042654667 0.012865422 -0.048764195 -0.007054993 -0.00033952476 0.0043152072 -0.024494695
0.0056145503 -0.012621124 0.01492069 0.0017453665 0.004576843 -0.014023633 -0.0002512241 0.010548591
0.0027740244 0.013515333 0.00050159974 0.006963431 -0.015766399 0.01474445 -0.053508118 -0.011474064
-0.005617931 -0.0015390011 0.0014870582 -0.00059531274 0.011140521 -0.0027027023 0.0066245003 -0.0017601035
0.023446377 0.013878419 -0.00041148675 0.009564299 -0.008822764 0.020495778 0.008591686 0.012889037
-0.003667954 0.0070259566 0.006252457 0.008058807 -0.062338352 -0.0009739606 -0.008194064 -0.011031162
-0.0050979215 -0.00035521426 -0.07852913 -0.004228597 0.0021248313 0.0087885605 0.012160969 0.024460567
-0.005922065 -0.014515744 0.012858598 -0.0064302725 0.003299877 -0.006322753 -0.033561114 -0.00021280741
0.0105121415 -0.008878993 0.00036507248 -0.013876971 0.013877275 -0.045089714 0.040379826 0.0033093789
0.022653023 -0.0021144897 -0.0084316805 -0.005473248 -0.02888084 -0.009877472 0.025930278 0.00081762526
-0.00804833 -0.008169536 -0.0073701604 0.025125036 -0.061800897 -0.01024231 -0.0033475102 -0.0039150445
0.0019986604 0.007608834 0.00427854 -0.03757827 0.0052642967 -0.0017223066 0.05702901 -0.0061274567
-0.0013212364 -0.008879492 0.022484202 0.00875466 0.021909364 0.05414479 0.002511715 -0.003969417
0.011162485 0.014186949 0.0013445865 -0.013818209 -0.008597139 0.011011867 0.0018222268 -0.009822301
-0.0014474847 9.818019e-05 0.006093922 -0.010776412 0.0033771335 -0.0141834095 -0.0057754624 0.008567
0.014853236 0.0053723375 -0.00585558 -0.011105733 -0.020583572 0.0031696963 0.02178115 -0.0484145
-0.0001866553 0.0024741788 -0.024094915 0.014280918 -0.0003025342 0.008219503 0.015416383 0.028923113
-0.017973067 -0.012062017 -0.016967356 -0.03532485 -0.014983355 0.0387498 -0.0015907015 0.013490615

bias f4 [10]
00000000: 9278 89bd a61c 03bc 400b 783d 2136 283d
00000010: 707a cfbd 344b 59bd 83c9 463c 89d4 36bc
00000020: 4eef 5e3b 99d5 053d
-0.0671245 -0.008002436 0.060557604 0.041067246 -0.10130775 -0.053050235 0.012133005 -0.011159071
0.0034017148 0.032674406
