deploy/models/booster_gym_exp_1/model_6000.pt (torch, 303934 bytes, 8 tensors)

weight f4 [256, 80]
000000 3b 64 02 bf 0f 5b 3c 3e aa ef a5 bc d7 71 9a 3b
       -0.5093419 0.18394111 -0.020255882 0.004713278
000010 d4 61 6b 3d 8c 4e 2a bc a2 a8 e0 3d 71 f1 b0 3d
       0.057466343 -0.010394704 0.10969664 0.08639801
000020 55 eb 85 bd 5e 12 dc 3d b1 f7 e1 3c ad 09 2e bd
       -0.06539027 0.10745691 0.027583929 -0.042489696
000030 bb 68 2b bd 0c f4 e6 3b 41 74 f2 3c 20 92 02 3d
       -0.041847926 0.0070481356 0.02959645 0.031877637
000040 fc eb 08 bd 6e 48 6a 3c 5b 0b 88 3d 4d 0c af 3b
       -0.033428177 0.014299495 0.06642791 0.0053420425
000050 71 79 f7 3c 8e a3 37 be 59 3e d2 3e c2 9a 2a be
       0.030209275 -0.17933485 0.41063192 -0.16660598
000060 ff c1 8e be 93 9a c9 3d ba 45 9c 3d 36 06 ee bc
       -0.27882382 0.09843936 0.07630487 -0.029055696
000070 e5 40 ba be 8f ea a2 be e6 7a 72 bd 79 2c c7 be
       -0.36377636 -0.3181958 -0.059199236 -0.38901117
000080 a9 f5 2d be 7a 73 9e 3e ad ba 20 3e 77 1c 28 bc
       -0.16988243 0.30947477 0.15696211 -0.010260693
000090 c8 68 8a 3d 47 d5 80 3e d9 a9 cc 38 3c 35 8c bc
       0.06758267 0.25162718 9.7591146e-05 -0.017115228
0000a0 eb b5 fe 3d 39 bd 29 3e 43 48 cf 3c 14 24 90 bd
       0.12437042 0.16576089 0.025303012 -0.07038131
0000b0 53 1f c1 bd 34 60 61 bd b6 01 bf bd 74 bc 83 bd
       -0.09429803 -0.055023387 -0.09326498 -0.06432429
0000c0 3d 65 af ba c0 b1 17 bd 30 8b aa bd fd c5 0b 3e
       -0.0013381612 -0.03703475 -0.08327329 0.13649745
0000d0 ae 1e 86 3e ee c9 a6 bd 60 10 bf bb 2e 26 fb bd
       0.26195282 -0.08143984 -0.0058308095 -0.122631416
0000e0 70 3b 5d 3d 17 3d 53 3b 86 5f d8 bd d8 6d ae bc
       0.054011762 0.0032232457 -0.10565095 -0.021292612
0000f0 5c 13 15 3d f5 4d 0b be bd 40 e8 bc dc 1d 21 bb
       0.036395416 -0.13603957 -0.028351182 -0.0024584448
000100 ae 78 1d 3d 3f 03 04 bb 11 33 be 3d 1c 22 2b be
       0.038445167 -0.0020143536 0.09287084 -0.1671223
000110 59 62 93 be 41 6a ac 3d fb fb 42 3e ea a5 25 be
       -0.2878597 0.08418704 0.19041435 -0.16176572
000120 d7 4a bd bd ec 5b c1 3d c5 7a d5 3c ff 1a 8c 3e
       -0.0924279 0.09441361 0.026059518 0.27364346
000130 8a 5f c0 bd 60 63 29 be e7 26 bc 3c 34 43 c9 bd
       -0.09393223 -0.16541815 0.022967769 -0.09827271
000140 60 02 82 3d ba 9c 32 bf ed 1c 13 be 8d 72 9e 3d
       0.06348109 -0.69770396 -0.14366503 0.077366926
000150 38 1a aa 3d 55 e3 c7 3b 77 5d 6b bd 32 6d 9b bd
       0.08305782 0.006100098 -0.057462182 -0.07589187
000160 c8 26 56 3d 72 e6 2a bd 61 dd c4 bd 0b 52 10 bd
       0.05228308 -0.041723676 -0.09612537 -0.035234492
000170 ec f3 40 3e d3 63 56 bd 69 a9 79 bd d6 cc fe b9
       0.18843049 -0.052341294 -0.060952578 -0.0004859927
000180 bb 37 f7 bc 96 54 46 3d bb fc 1a 3d fb f5 84 bc
       -0.030177942 0.04842051 0.03783868 -0.016230574
000190 52 f1 8c bd c1 03 21 bd 38 24 6f bd 63 29 d2 3e
       -0.06881966 -0.03931022 -0.05838415 0.410472
0001a0 5e 6f 8f be fc 62 7d 3e a4 07 85 3d 4d 09 6e be
       -0.28014654 0.24744791 0.06495598 -0.23245735
0001b0 81 08 d9 bd 6d 7c a0 be 3a 59 ed 3d 33 eb 0f be
       -0.10597325 -0.3134493 0.11589284 -0.14054565
0001c0 5f b6 e4 bd 60 c3 c0 bd f0 f3 11 bc 4e af 6d be
       -0.11167597 -0.09412265 -0.008908257 -0.23211405
0001d0 03 ed 41 bd de 2c 1e be 0c 85 4b 3b bb 3e c6 bd
       -0.047345173 -0.15446803 0.0031054644 -0.09679934
0001e0 04 fe e3 bc ca d5 88 3d dd 60 97 3b a9 fb 54 3d
       -0.027831085 0.06681402 0.0046197013 0.051997814
0001f0 54 2c 01 3e 06 1a 11 3f 1f 91 3d 3d 19 92 01 be
       0.12614566 0.56680334 0.046280976 -0.12653388
000200 ca 7f bc 3e 50 b7 f9 3d d9 e7 28 bd fb ec 79 be
       0.36816245 0.12193167 -0.041236732 -0.24406807
000210 6a 8b 7f 3e eb 7c b4 bc cb 56 90 bd cc 11 5e bc
       0.24955526 -0.022032222 -0.070478044 -0.013554048
000220 c4 47 47 3d c3 81 e4 3d 8f c8 9e 3d e1 b5 83 3d
       0.048652425 0.111575626 0.07753097 0.06431175
000230 a8 62 61 3a 7f 56 f1 bc 5e 07 ce 3c aa a5 87 bd
       0.000859777 -0.02946019 0.025149997 -0.06623395
000240 fd 89 8b bd 34 bb 9e bc 2f 11 4e 3d 4e 27 9c 3d
       -0.068134286 -0.019376375 0.050309356 0.07624684
000250 68 f2 88 bc 8c 31 8b be ce 8c 45 3e 95 51 33 3e
       -0.01671715 -0.2718624 0.19291994 0.1751159
000260 47 87 59 3d ed 5a da 3c 8a d9 bb 3b 20 38 31 be
       0.053107526 0.026654685 0.00573272 -0.17306566
000270 63 0e dd 3d c9 cf b5 3d c4 a8 1b be d3 c9 14 be
       0.1079376 0.088775225 -0.15201098 -0.14530115
000280 8e cb 6e 3e 9b ba 12 bf 3a be 63 3d be 0f b5 bc
       0.23319837 -0.5731599 0.055601336 -0.022102233
000290 28 31 7c bc b3 b5 86 3b 55 3f 1d bd 59 36 eb bc
       -0.015392579 0.0041110157 -0.038390476 -0.028712438
0002a0 a3 e4 e5 3c e2 90 d5 3d ca fa 2f bc 9c 3b 04 be
       0.028063124 0.10428025 -0.010740945 -0.12913364
0002b0 60 04 47 3c 90 18 46 3d 2e 27 41 3d f8 c1 93 bd
       0.012147039 0.04836327 0.047156505 -0.07214731
0002c0 d0 e3 89 3d a2 b2 04 be f9 ec 08 3d 8d a5 1a 3d
       0.06732905 -0.12958768 0.03342912 0.037755538
0002d0 40 25 13 3d a0 c3 cb bd c3 be cf 3d 63 b9 0b 3e
       0.035924196 -0.09949422 0.10143807 0.13644938
0002e0 cf 6e bc be 88 bc 5b 3e 15 71 03 3e ca 20 1e bd
       -0.3680329 0.21458638 0.12836106 -0.03860549
0002f0 53 2e 9d 3e da 78 42 bc 21 20 a9 3e f0 42 96 be
       0.30699405 -0.011869634 0.33032325 -0.29347944
000300 dd 8c 61 3e fd c5 7b 3d a7 b9 c0 3c 45 57 b0 3b
       0.22026391 0.061468113 0.023526026 0.005381497
000310 76 4d 91 bd 7d d8 34 3d ff 2f 13 bc 81 5f 53 bd
       -0.070948526 0.04415177 -0.008983611 -0.05160475
000320 15 cc 60 bd 70 f8 98 bd 73 c0 a3 bc 02 d8 ea 3d
       -0.054882128 -0.07469261 -0.019989228 0.114669815
000330 6b 63 87 bd 3c 44 a7 3e 4f 43 cd bc 77 b5 74 bd
       -0.06610759 0.32669246 -0.02505651 -0.05974337
000340 2c 75 4d 3e 4b 52 be 3d e9 d7 87 bb 4e e9 79 be
       0.20064229 0.0929304 -0.0041456115 -0.24405405
000350 6a 40 b8 3e 5f ab 05 3d c5 a0 1d be 40 75 27 3d
       0.35986644 0.032634135 -0.1539336 0.040883303
000360 14 f5 d1 bc c9 b7 e0 bd df aa b8 bd f6 e9 cc 3d
       -0.025629558 -0.10972554 -0.09016966 0.10005562
000370 f8 f9 e5 bd 84 6b 73 3c 5c af c2 bd 15 49 47 3d
       -0.112293184 0.014857177 -0.095061034 0.04865368
000380 e5 f6 90 bc e0 b6 38 3d e9 42 55 3d 52 18 46 bd
       -0.017695853 0.04509628 0.052065764 -0.048363037
000390 e4 02 f8 bb d0 92 ef bc 3b 2f 19 3e 34 8d c8 bc
       -0.007568704 -0.02924481 0.14959423 -0.024481393
0003a0 2e c0 52 bd 37 53 44 be 59 8a b0 bc 5e 72 ac 3d
       -0.051452808 -0.19172369 -0.021550344 0.08420251
0003b0 e2 25 09 3d 4d d8 58 be bc 9d bb 3c 71 e2 37 3e
       0.033483393 -0.21176262 0.022902362 0.17957474
0003c0 1e 00 de bd 2c 56 93 3e f1 cb c1 3c 95 7c a5 bd
       -0.10839866 0.2877668 0.023656817 -0.08080403
0003d0 09 c4 0d bd 3f af d1 3c 6c f0 8b bd 73 d1 dd 3d
       -0.03461078 0.02559626 -0.06832966 0.10830965
0003e0 af 8c 92 bd 47 9a 0c 3d e1 4c d6 3d 7f 97 4a 3d
       -0.071557395 0.034326818 0.10463882 0.049460884
0003f0 e6 a8 b5 bd 5a e2 41 3d 15 62 9f bb 8d ab 00 bd
       -0.088701054 0.047335006 -0.004863987 -0.031413604

bias f4 [256]
000000 7a 92 05 be f8 66 53 3d 5a fa 2d 3d 0d d6 e5 3d
       -0.13044158 0.05161187 0.042475082 0.112224676
000010 46 9d e1 3d b8 7a 33 3c cf 6a 4c bc 94 79 0f bd
       0.11016326 0.010954551 -0.012476637 -0.035028055
000020 64 a7 f5 bc b3 60 0b 3d 78 18 5c bd 48 b9 1c be
       -0.029987045 0.034027766 -0.053734273 -0.15305054
000030 2d 11 e6 3d 56 cf 2a bd 38 da 01 be 22 d0 e4 3c
       0.11233745 -0.041701637 -0.126809 0.027931277
000040 c8 15 0a bd 9f 25 df 3d 99 5c 80 3c 43 03 9b bd
       -0.03371218 0.108958475 0.015669154 -0.075689815
000050 6a 8d b8 3c 6c e1 87 bd a6 2c ca 3d b4 b0 05 be
       0.022528369 -0.06634793 0.09871797 -0.13055688
000060 a7 c3 69 bd 78 74 00 3e 1d 10 d8 3d 21 37 07 3d
       -0.057071354 0.1254443 0.10549948 0.03301156
000070 f2 07 0c 3e 26 31 2a bd de f8 75 bd 16 9b 0e be
       0.13674906 -0.041550778 -0.06005179 -0.13926348
000080 89 03 37 3d a3 fd d1 3c 74 26 a6 3c 99 e8 09 be
       0.044681106 0.025633639 0.020282008 -0.13467635
000090 78 ed 20 bd ca fa 86 bd 4e 4c aa bd 2e e4 9b 3d
       -0.039288968 -0.06590803 -0.08315335 0.07611881
0000a0 07 9f 2d bc 40 67 26 be 53 e6 38 3c 85 96 55 3d
       -0.010596997 -0.16250324 0.011285382 0.0521455
0000b0 2a 09 fc 3c d7 e9 b9 bd 83 90 01 3e 43 c2 ab 3d
       0.030766089 -0.090778045 0.12652783 0.08386662
0000c0 d1 28 e8 bc 4b 72 df bd e1 59 dd 3c 0a 38 b1 bd
       -0.028339775 -0.109104715 0.027020397 -0.08653267
0000d0 a4 eb a8 3c ca 19 46 bb dd 6e af 3d d2 35 8d 3c
       0.020620175 -0.0030227774 0.08566067 0.017237578
0000e0 7b 34 24 bd 72 06 6c 3d fa 45 ef bd 87 b4 e1 bc
       -0.04008911 0.057623334 -0.11683269 -0.027551902
0000f0 13 04 98 3d bf c5 93 3d 2d 1f 01 3e d7 5f 86 3d
       0.07422652 0.072154514 0.12609549 0.06561249
000100 20 b6 cc bd 35 1d 8b 3d f9 57 bd 3d 03 fd 08 be
       -0.09995675 0.0679268 0.09245295 -0.13377766
000110 4a 34 5f 3d 91 31 9d 3d 2b 0c 77 bd df 17 7e bc
       0.054493226 0.0767547 -0.06031434 -0.015508621
000120 8b 56 28 bd fe 68 7f 3d 3f b4 b5 3d ee ff 3c bd
       -0.04109816 0.062355988 0.0887227 -0.04614251
000130 15 78 a3 bc b2 a6 e6 3c 6a a5 32 bd 51 f1 67 3d
       -0.01995472 0.028155658 -0.043614782 0.05662662
000140 da c5 b7 bd ba 37 05 3e 71 e0 a2 bd f4 8e b3 3c
       -0.08973284 0.13009539 -0.07952965 0.021918751
000150 c6 bf a2 3d fb 35 1d 3d 78 33 7d bd 87 e5 85 bd
       0.07946734 0.038381558 -0.061816663 -0.065379195
000160 77 b7 72 bb 2c a0 aa bd 39 05 1c 3d 8e bf 03 bd
       -0.0037035623 -0.083313316 0.03809092 -0.032165103
000170 b9 95 09 bd 06 a5 25 3d 1f c2 d0 bd 3e 35 4a bd
       -0.033590052 0.04044058 -0.10193276 -0.049367182
000180 ea b3 b1 bd 2d 6c 6b bd 00 93 5d 3d ad ea 87 3d
       -0.08676894 -0.05747621 0.05409527 0.06636558
000190 7c 10 c9 3d fc 68 08 3e 42 16 e8 bd 85 f6 fa bd
       0.09817597 0.13321298 -0.1133237 -0.12254051
0001a0 d6 48 ae 3d 6e 96 07 be cd d6 4e 3d 10 5f ef bd
       0.08509986 -0.13240978 0.05049782 -0.116880536
0001b0 4b 17 3f bc f0 df 55 bd ad fc 55 bb 5c aa e9 bd
       -0.011663268 -0.052215517 -0.0032651827 -0.114094466
0001c0 f4 40 f3 3d 4e c4 a8 3d f2 61 72 bd 01 c4 63 3d
       0.11877623 0.08240567 -0.05917544 0.055606846
0001d0 fc 75 07 bd a0 28 84 bd 99 45 0a bc d2 62 cb bd
       -0.033071503 -0.06453061 -0.008439445 -0.09930958
0001e0 83 0d bc 3d 3a c5 8c bc 6f db d7 bc 03 84 82 3d
       0.09182265 -0.017183889 -0.026349751 0.063728355
0001f0 ce 62 5a bb 06 a4 8e bd a5 85 d5 bd cb c5 0a 3d
       -0.0033323052 -0.06964879 -0.10425881 0.033880036
000200 50 be d2 3b 98 52 85 bd 30 02 8a bc 4d d5 3e 3d
       0.0064313784 -0.06509894 -0.016846746 0.04659014
000210 50 e9 88 bd 97 c2 d0 bd 9e d2 0d bd 0e a2 cf 3d
       -0.06685126 -0.10193365 -0.03462469 0.10138331
000220 73 58 97 3d ec 1b fb 3d 75 36 94 bc 3f 61 8b bd
       0.07389917 0.12261185 -0.018092373 -0.068056576
000230 b8 2a 93 bc 82 e0 fe 3c 6f 34 ff bc 23 12 88 bc
       -0.017964706 0.031112913 -0.031152932 -0.01661021
000240 66 1b 80 bd a4 b8 d0 bd 63 7b cb bd 9e d9 47 bd
       -0.06255226 -0.101914674 -0.099356435 -0.04879152
000250 2b bb 82 3d 4f 93 80 bc 65 58 90 3d d3 2b de 3d
       0.06383356 -0.015695242 0.0704811 0.108482026
000260 bb 92 06 3d 63 6a cd bd bb 8f 85 bc c7 be e5 3c
       0.032854777 -0.10030057 -0.016303888 0.028045071
000270 5a 6e 6a 3d 8e 66 13 3d 91 12 f4 bd 36 8d 22 3e
       0.057234146 0.035986476 -0.11917604 0.1587418
000280 cf ad 8f bd ec 52 ed bc ba bc a7 3d d7 ff 04 3e
       -0.07015573 -0.028970204 0.081902936 0.1298822
000290 9a d3 ba 3d e3 07 dd bb 32 cd 17 bd f6 da c5 bd
       0.09122391 -0.006745325 -0.037060924 -0.09660904
0002a0 17 bf c6 3d ce 4f da bc 5d 9a 5c 3d 0e 46 08 3c
       0.09704416 -0.026649382 0.05385815 0.008317484
0002b0 5b ff 0c bc a4 26 ce 3d 60 c5 80 3d a4 af 0f 3e
       -0.008605803 0.10065964 0.06287646 0.14031845
0002c0 a0 9e dc bd b3 15 df bc 79 16 c9 3c cb c6 56 bd
       -0.10772443 -0.027232027 0.024546849 -0.052435677
0002d0 d1 35 09 bd 0d 32 a4 bd d1 e5 ba bd 29 ca b3 3c
       -0.03349859 -0.08017359 -0.09125865 0.021946983
0002e0 f3 07 7d bc 0e c2 e2 bc 9c 28 31 be 9c 18 c8 bc
       -0.01544379 -0.027680423 -0.17300647 -0.024425797
0002f0 1d 84 72 3d 44 5b fa bb b4 3e 15 be c9 be ba bd
       0.059208024 -0.0076402742 -0.145747 -0.09118421
000300 6c 2e b0 3d c1 e1 06 bd 36 69 b5 bd 67 88 9d bd
       0.08602604 -0.03293014 -0.08857958 -0.07692032
000310 40 c8 92 bd cc 01 a9 3b 5c 6c ef 3c a0 68 e6 bd
       -0.07167101 0.005157685 0.029226474 -0.112504244
000320 31 66 0c be ee b0 5f 3d 09 1b ca bc 51 32 b1 bc
       -0.13710858 0.054612093 -0.024671094 -0.021630438
000330 d2 74 8c 3d 12 1f 72 bc f6 c9 6b 3c 6d 09 ca bc
       0.06858219 -0.014777916 0.014391413 -0.024662698
000340 35 54 0c 3d 51 be 97 3c d7 b2 21 bd 8c c8 a8 bd
       0.034259994 0.018523367 -0.039477196 -0.08241376
000350 92 17 0c 3d 6f 0c a2 bd 4f 02 3d bd 27 59 81 b9
       0.034202166 -0.07912528 -0.04614478 -0.0002467122
000360 37 9c 64 3d b0 7b 0a bd f9 d7 6a bc c4 61 01 3e
       0.05581304 -0.033809364 -0.014333718 0.12634951
000370 23 81 18 bc 82 01 a3 bd d3 f3 3b 3d 85 6b 24 3d
       -0.009308132 -0.07959272 0.045886826 0.0401416
000380 ad cc eb bc c3 ad 93 bd 12 bd 29 3d 2e e5 b3 bd
       -0.02878412 -0.07210877 0.041440077 -0.08783947
000390 af 37 2e bd f5 83 f5 3d ef ed d5 3c 6b 00 fe 3d
       -0.042533573 0.119880594 0.026114432 0.124024235
0003a0 83 60 42 bd 11 42 d9 bc c6 de 94 bd b5 5a b7 bc
       -0.047455322 -0.02652076 -0.07269053 -0.02238212
0003b0 6b 49 d7 3c 73 97 f1 bd 67 06 1a 3d 3a 00 98 3d
       0.026280126 -0.11796465 0.037603762 0.07421918
0003c0 2b 29 c7 bd 5a f1 43 bd b8 04 4d bc 8d 79 94 3d
       -0.09724649 -0.047837593 -0.012513332 0.072497465
0003d0 db 52 12 3d 17 86 79 bd 41 00 ec bd 65 b2 23 ba
       0.03572355 -0.060918894 -0.11523486 -0.00062445394
0003e0 f1 eb d1 bd 43 b8 f0 bd 20 bd a5 3d 62 b1 02 bd
       -0.102500804 -0.11753895 0.08092713 -0.031907447
0003f0 26 4d 3e bd e9 37 1b bc 70 8e c6 bd 3b 55 6a 3d
       -0.046460293 -0.009473779 -0.096951365 0.05721019

weight f4 [128, 256]
000000 fc 6e b8 3d 36 41 06 3d 9b 3b 54 3d 39 24 b2 3d
       0.090055436 0.032777034 0.051814657 0.08698315
000010 fb e6 88 3d 78 57 d0 3d 19 e7 fc 3c e0 45 2f bd
       0.06684681 0.10172933 0.030871915 -0.042791247
000020 2d 57 bf bd 66 a9 6d 3d 7e fa d7 3c 99 b4 c4 bd
       -0.09342799 0.05802288 0.026364561 -0.09604759
000030 b6 9e 8c 3d b2 77 88 bc 7b 65 6e bc 6d 15 4a 3d
       0.06866209 -0.016658638 -0.014550562 0.04933684
000040 2d 4c 25 bd 8e 97 7c 3c dc af 5c 3d 98 2d d4 3d
       -0.04035585 0.015416993 0.05387865 0.10360259
000050 32 ff 0e 3e 81 51 c0 3c d8 80 49 3d 22 e0 fd 3c
       0.13964537 0.023476364 0.04919514 0.030990664
000060 59 69 d8 bc 5c f3 3e bb a1 07 8f bd 80 69 23 3d
       -0.026417421 -0.0029136753 -0.06983877 0.039895535
000070 da 79 80 3d 9d 31 82 bd 78 84 26 bd bc 16 9f bd
       0.06273241 -0.06357119 -0.040653676 -0.07768008
000080 1f 6b bb 3d 3c bd 81 3d 69 8c ae bd 7d bf 22 bd
       0.09151291 0.06334922 -0.08522875 -0.0397334
000090 19 7c 51 3c 40 ff 7e 3a ed f0 94 3d 2b 0a b2 bc
       0.012785935 0.0009727366 0.072725154 -0.021733364
0000a0 cb 81 57 bd d0 44 15 bd b4 29 41 3c a9 e9 d1 3c
       -0.052614015 -0.036442578 0.011789728 0.025624113
0000b0 4d 69 30 be dd 84 5f bb 2d dc b9 3b 62 67 1b 3d
       -0.17227669 -0.0034106292 0.005671999 0.03794039
0000c0 c7 91 40 3d 4d fb 27 3d 2b 15 55 bc 6c b0 b6 3c
       0.047014024 0.041011143 -0.013005535 0.022300921
0000d0 43 7d 87 bd da 9a ac bd 23 e0 6f 3b 88 ec 55 3d
       -0.06615689 -0.08427973 0.0036602102 0.052227527
0000e0 54 bb 27 3d ed eb b5 3d df e2 ca 3d ba 78 fd bc
       0.040950134 0.0888289 0.099065535 -0.030941356
0000f0 f8 77 82 bc af 54 9b bd 60 fd 4e bd 0d 3f c5 bc
       -0.015926346 -0.075845115 -0.050534606 -0.024077917
000100 4c b4 42 3d 5e 97 e8 3c ee 95 e4 3c df a9 55 bc
       0.047535226 0.02839249 0.027903523 -0.013040989
000110 32 32 5e 3d 02 4c 3c 3c f8 d0 fe 3b c9 94 a7 bc
       0.05424709 0.011492731 0.007776376 -0.020456688
000120 cd b5 3d 3b 3a ae b5 bd ec 9a ef 3d e7 07 5c 3d
       0.0028947473 -0.08871122 0.11699471 0.053718474
000130 09 98 9f 3c ac 26 69 3d 90 5d 60 bd 6b a5 19 3c
       0.019481676 0.056921646 -0.05477673 0.009377818
000140 f0 b6 54 bc a3 80 b8 3b d5 44 e1 3b c5 6a c7 bd
       -0.012983069 0.005630569 0.0068746605 -0.097371615
000150 8f 4e 93 bc 72 8c 2b 3d f7 3f 83 3c 7e 65 0a 3c
       -0.017981796 0.041881986 0.016021712 0.008447049
000160 05 4c 51 bd 6b 80 dd 3d 2e 32 27 3d 31 f7 b9 bc
       -0.05109789 0.108155094 0.04081934 -0.022700878
000170 6b d6 14 be d9 95 2e 3d bb d1 14 3d d0 af 76 3c
       -0.14534919 0.042623375 0.036332827 0.015056565
000180 aa 0b b6 3c 2c 34 ea 3c 52 d3 58 3d 40 54 41 bd
       0.022222359 0.02858933 0.052935906 -0.047199488
000190 ed 51 c2 bd 28 01 81 3d 7a cb b0 3b 9d 02 4a 3c
       -0.09488282 0.06299049 0.00539535 0.012329725
0001a0 d6 ea 93 3c ff 18 0b bd 20 3e 3d 3c 79 8d a3 3c
       0.018056314 -0.033959385 0.011550456 0.01996492
0001b0 6f ba 4c 3e 27 9a 43 bd 2e 55 9a bc 47 68 da bc
       0.19992994 -0.047754433 -0.018839445 -0.026661051
0001c0 98 c3 b5 3d 5d a3 af bc 0d 7d 8b bc 1c 12 1d bd
       0.08875197 -0.021440202 -0.017027402 -0.03834735
0001d0 b8 4e 3d 3d 93 43 b7 3d 26 c9 7c 3d 7a 80 8a bd
       0.04621765 0.08948436 0.061715268 -0.06762786
0001e0 7f 8d ca bc 1f 2d a5 3d f9 fa bd 3d 00 c5 c6 3c
       -0.024725674 0.08065247 0.09276385 0.024263859
0001f0 31 a4 64 bd 1f 49 c2 bb 3e 1a 85 bc f9 9f f7 bd
       -0.055820648 -0.005929127 -0.016247865 -0.12091059
000200 bb aa 0f bd ab 59 cd bb a8 05 b9 bc 4b 39 d3 3c
       -0.03507493 -0.006266793 -0.022585705 0.025784155
000210 4b d9 85 3c 3e 62 3f 3d dc 5b e1 3c 4d bb 22 bc
       0.016338965 0.04672455 0.027509622 -0.009932351
000220 d1 06 f1 3b de 32 32 3d 35 c3 b1 bc ee 3f 57 3d
       0.007355549 0.043505542 -0.021699527 0.052551202
000230 19 3d 8b bd fb 24 db bc f9 5d b9 bc 3e fd 0c 3d
       -0.06798763 -0.026751032 -0.022627817 0.034421198
000240 c9 81 1e bd 66 a2 8c bc c4 48 a6 bc 28 9d 4f bc
       -0.03869799 -0.017167281 -0.02029837 -0.012671746
000250 dc 12 06 3e 03 41 48 bd 05 e2 3b 3d 34 02 9b 3d
       0.13093132 -0.048890125 0.045869846 0.075687796
000260 eb 85 db ba 01 eb c4 3c d3 d9 d4 3c a9 d7 7e bd
       -0.0016748285 0.02403784 0.025982773 -0.06221739
000270 f9 4e 4a 3d a9 c2 ec 3d 0b 54 e1 bc 2a 18 81 3c
       0.04939172 0.11560566 -0.027505895 0.015758593
000280 1e 16 1d 3d 4d 8c 69 3c d4 05 2b bd 46 c9 9d 3b
       0.03835117 0.014254642 -0.041753605 0.0048152534
000290 9f a5 e8 3d 0f 16 ad 3d 13 07 a4 bd 12 ff 7c bd
       0.11359715 0.08451473 -0.08009162 -0.06176669
0002a0 95 94 ac 3c 1d d7 20 3d e0 d8 93 bd 64 70 8d bc
       0.021066943 0.039267648 -0.072191 -0.017265506
0002b0 26 37 17 3c 8c 05 4f bd 70 b2 2c 3c 95 b1 6a 3d
       0.009229457 -0.0505424 0.01054059 0.05729826
0002c0 b1 a6 32 3d ac 38 6e 3d c4 f5 3e bd 06 72 4b bd
       0.043616 0.058159515 -0.0466211 -0.049669288
0002d0 81 24 55 bd 7d 3d 99 3b 5e bb 8d bd 5f 70 32 bc
       -0.052036766 0.0046765194 -0.06920503 -0.010891049
0002e0 b8 c5 8f 3d 3f 6f 8e bd db f7 4d bd ff 78 99 3d
       0.07020134 -0.06954812 -0.0502852 0.07493781
0002f0 7f e3 1a bd 60 3b 00 3c 62 c6 11 3d a7 81 82 3c
       -0.037814613 0.007826656 0.035589583 0.015930964
000300 c2 c2 01 bc 67 d6 cd 3c ae 60 70 3d c3 96 49 bd
       -0.007919969 0.025126649 0.05868595 -0.049216043
000310 65 ef c9 bb b2 f2 3b 3d ba b3 64 3d ec 15 99 3d
       -0.0061625713 0.04588575 0.055835463 0.074748844
000320 5c 27 76 bd 00 fd 57 3c 5a ab 80 3c 55 88 86 3d
       -0.06009613 0.0131828785 0.015706707 0.06568972
000330 7b b9 5b 3c 54 c0 78 3d 97 35 94 3b e0 9b 04 3d
       0.013410921 0.060730293 0.00452299 0.032375216
000340 d8 78 7d 3d bb fe ee bd 7d ca 39 bd e2 53 07 3d
       0.061882824 -0.1166968 -0.045359123 0.03303898
000350 94 9a 2b bb 14 3f fd 3c 86 4d 2a 3e 01 f4 96 3d
       -0.0026184665 0.030913867 0.16631135 0.07370759
000360 98 58 64 3d 3e 07 ed 3c 1a 28 a4 3d 07 06 5d bc
       0.055748552 0.028934117 0.08015461 -0.013490207
000370 96 de 6a 3a fe 5e 13 bd 9f a2 be bd 72 03 16 bd
       0.00089595595 -0.035979263 -0.09308361 -0.03662438
000380 1a 7d c4 3c 78 95 0e bc b9 15 0e 3d 5d d3 91 3d
       0.023985434 -0.008702628 0.034688685 0.071203925
000390 4d e0 2a bd e0 44 77 3d d1 dc a3 bd 4a 29 eb 3c
       -0.041717816 0.06036842 -0.08001102 0.028706212
0003a0 b6 66 ed bb 2e ff 8a bb 28 49 09 bd 0c 55 db 3c
       -0.00724491 -0.0042418456 -0.033517033 0.026773952
0003b0 44 6d 05 3d 0b cc 70 3a 8f fd a8 3d 0e 78 9c bd
       0.032574907 0.0009185678 0.082514875 -0.07640086
0003c0 a8 6c 7d 3b a6 96 c8 bc db 00 fc bc 30 26 19 3d
       0.00386695 -0.024485897 -0.030762127 0.037389934
0003d0 26 9e 40 3d 4a 52 25 bc a6 99 d4 bd 3b c3 10 3d
       0.047025822 -0.01009042 -0.103808686 0.035342436
0003e0 4f 7f 6a 3d 3c a1 8b 3c ec 9d b5 3d 2b 40 57 bd
       0.057250317 0.017044656 0.08868012 -0.05255143
0003f0 20 fa ac 3d de a8 3f bd 35 b9 c6 3c ab df 22 bd
       0.08446145 -0.046791904 0.024258235 -0.039764088

bias f4 [128]
000000 f0 a5 61 bb 8f 0f c8 3d 45 35 ab bd f7 13 3c bd
       -0.0034431182 0.097685926 -0.0835977 -0.045917477
000010 6b 70 aa bc d0 a4 0b bd 27 6f 24 3d 89 68 b8 3c
       -0.020805558 -0.034092724 0.040145066 0.022510784
000020 8b cc 38 3d 33 54 b5 bc b4 8b 7e 3d 8d bf 14 be
       0.045116942 -0.022134876 0.06214495 -0.14526196
000030 b2 95 98 bd aa bd 46 bc 11 a1 13 3d 2e dc 36 bd
       -0.07450427 -0.01213018 0.036042277 -0.044643573
000040 90 bb d1 bc 91 d2 ee 3b b9 9f fa 3c bc 5e a0 bd
       -0.025602132 0.007288285 0.03059374 -0.07830569
000050 65 6c 4a 3d aa d3 43 bc b1 6c 70 bc 4e b4 ed bd
       0.04941978 -0.01195232 -0.014674352 -0.11606656
000060 33 5b 8d bd fb c9 a5 3c e2 31 f4 3c c8 01 61 bd
       -0.069021605 0.020237913 0.029808942 -0.05493334
000070 6b f5 34 bd ca 41 26 bc 87 ea 82 bd 32 30 d5 bd
       -0.04417936 -0.010147521 -0.06392389 -0.10409583
000080 f3 a6 90 3b d3 dc a9 bd 07 0d 2c bd cf b9 96 bd
       0.004414433 -0.08294072 -0.04200461 -0.07359659
000090 93 46 ca bc 75 fb 77 3d 39 e6 91 3d 86 53 72 bc
       -0.024691856 0.060542542 0.071239896 -0.014790421
0000a0 c0 f4 45 bd d4 92 6c 3c 55 86 82 bc 0d 44 e8 bd
       -0.048329115 0.014439303 -0.015933195 -0.11341105
0000b0 c2 3f 02 be 55 4d 4e bd 1b 6a 39 3d 7a 4d 21 3d
       -0.12719634 -0.05036672 0.045267206 0.039380528
0000c0 f2 73 3b be ee 01 00 bc 21 ad 61 bd 40 c0 be bd
       -0.18305948 -0.00781296 -0.05509675 -0.093140125
0000d0 e9 e0 c6 bd 96 b3 95 3c 53 b7 91 3b a5 0c 54 bd
       -0.09710867 0.01827411 0.004446903 -0.05176987
0000e0 81 26 e4 ba 4b a8 91 bd d5 2e 5b 3d 47 e0 3f bd
       -0.0017406495 -0.071121775 0.05351146 -0.046844747
0000f0 47 b1 a2 bd a2 3c 08 be f7 9a a3 bd 5c 3f 35 bd
       -0.07943969 -0.1330438 -0.079885416 -0.044249877
000100 92 31 71 3c c2 af 33 bd b5 69 0a bd 0a 60 96 bb
       0.014721291 -0.043868788 -0.033792216 -0.0045890855
000110 ca 89 9a bc 74 ec b4 bc e9 e3 32 3c 89 b9 06 3d
       -0.018864531 -0.022085406 0.010918596 0.032891784
000120 4a 31 89 bd 4d bc 1b bd 98 3a e6 bd b3 9b 87 bd
       -0.06698854 -0.038021374 -0.112416446 -0.06621494
000130 0a 51 df bd e6 ea 2f bd 4c 4a a9 bc a3 5a 63 bd
       -0.10904129 -0.042948626 -0.02066531 -0.05550636
000140 e7 e2 fa 3c c6 9c d1 bc 7d bf b5 bd 40 39 f0 bd
       0.030625774 -0.02558745 -0.08874414 -0.117296696
000150 cc eb 25 3b f0 dd 14 bd a8 35 d6 bc cf 68 24 3d
       0.0025317548 -0.03634447 -0.026148632 0.040139016
000160 55 57 a4 3b 2c e0 9b 3d 92 0d 4e 3c 31 66 ea bc
       0.0050152936 0.07611117 0.012576478 -0.028613182
000170 8a 73 37 bd 9b 74 1f bd 55 d2 16 be ce 23 2c be
       -0.04478792 -0.038929563 -0.14728673 -0.16810533
000180 02 ea 4b 3d 7b 2d b2 bd 38 4d 89 3c 60 57 af bd
       0.049783714 -0.08700081 0.016760454 -0.08561587
000190 ad e0 68 3c 43 b3 1c bd 4c e6 bd bd 63 2b 27 3d
       0.014213723 -0.038256895 -0.09272441 0.04081286
0001a0 4d 60 61 bd f8 db 11 bd be db 32 3d e8 dc 1e bc
       -0.05502348 -0.03561017 0.043666594 -0.009696223
0001b0 05 07 42 bd 97 ea 68 bd f3 8c 1b 3c 52 a8 85 bd
       -0.047369976 -0.056864347 0.009494054 -0.06526245
0001c0 86 c5 ec bc 97 85 39 bd 3e 7b 1b bd 19 cc 2a 3b
       -0.02890278 -0.045293417 -0.03795933 0.0026061593
0001d0 47 db 87 3c 15 60 95 bd 59 78 5b bd 1a 92 88 bc
       0.016584052 -0.07293717 -0.05358157 -0.01667123
0001e0 e3 83 d3 bc 40 be b6 bd 82 81 79 bd 07 3c 6c 3a
       -0.025819724 -0.08923006 -0.060914524 0.00090116303
0001f0 79 9f fa 3b ba 2e ec bc f9 8f e1 bd 16 c2 bd bc
       0.007648405 -0.028830875 -0.11013789 -0.023163836

weight f4 [128, 128]
000000 55 a9 1e bc 84 13 5d bc d1 02 ce 3d 43 1e db bd
       -0.009683927 -0.013493422 0.10059131 -0.10699131
000010 86 4b 00 bd 80 f8 61 3d 77 3e 50 bd 1f 69 49 3d
       -0.031322025 0.05516863 -0.05084082 0.049172517
000020 10 8a 42 bb 9b a8 69 3d 2e 85 f8 bc 39 37 da 3d
       -0.0029684342 0.05704556 -0.030336943 0.10655064
000030 65 50 51 3c 42 75 19 bc 7e cb 0f 3c 53 d1 7e 3c
       0.012775515 -0.009366335 0.008776544 0.0155528365
000040 53 a2 94 bc 62 c4 1f 3d 2a 25 5c bd b7 89 bf bd
       -0.018143808 0.039005645 -0.05374638 -0.09352439
000050 3a 3d 8a 3d 84 e7 80 3d 92 ef 07 3e 12 f7 16 bc
       0.06749959 0.06294158 0.13274983 -0.00921418
000060 33 b5 cf 3c 1a 1a e3 3d bb 69 8c 3d 5c f3 ac bc
       0.025354957 0.11088963 0.06856104 -0.021112137
000070 db 97 8b bd a7 06 ac 3d 82 d9 86 bb 14 5c 25 3d
       -0.068160735 0.08399706 -0.0041152844 0.040371016
000080 ab ab be bd ba 09 08 3d 61 c1 fb bc 4e 3d bd bc
       -0.09310087 0.0332124 -0.030731859 -0.023100521
000090 e6 ba 66 3d e4 c4 2d be c1 3f f8 bd 92 f5 df 3d
       0.056330584 -0.16969639 -0.12121535 0.10935511
0000a0 d1 07 e5 3c de 86 65 bc 22 e8 91 bc d1 87 80 bd
       0.027957829 -0.014009206 -0.017810885 -0.06275905
0000b0 ca 64 9e bc 6e 46 c6 ba ae dc 1b be cd 10 94 bd
       -0.01933517 -0.0015127191 -0.15220901 -0.07229767
0000c0 71 3f 3d 3d 9b 0e 6f bd 25 ff 97 3c 78 58 e6 3d
       0.04620308 -0.05836354 0.01855428 0.11247343
0000d0 aa b8 30 3c 98 61 2c 3c 95 e6 01 3e 5d d9 b5 bc
       0.010786215 0.010521315 0.12685616 -0.022198373
0000e0 b9 a4 ec bd ce 82 68 3d 97 09 12 3c 4d d5 c0 3d
       -0.11554856 0.05676537 0.008913419 0.09415684
0000f0 51 dc ff bb a1 e3 84 3d fe ad e7 3c f9 9c ec 3d
       -0.007808246 0.06488729 0.028281208 0.11553378
000100 04 a8 5b bc ca 2d 39 3d fb cb 09 3d 06 69 98 3d
       -0.013406757 0.045209683 0.033641797 0.07441907
000110 40 d5 ad bb d3 e4 be 3d 09 6d 2a bd 5a 2e 4c bd
       -0.0053049624 0.093209885 -0.04160789 -0.04984889
000120 cb b5 82 3d 97 da d3 bc 01 e9 be bc 08 41 06 3e
       0.063823305 -0.025861068 -0.023304464 0.13110745
000130 63 8a fd 3d 86 10 3e bd 62 d5 fa bb 72 43 8b 3c
       0.12379911 -0.046402477 -0.0076548317 0.016999934
000140 a0 c2 42 bd 9e 6e 73 bc 5e 37 a5 bd 1a ec 9a 3d
       -0.04754889 -0.014857916 -0.08067201 0.07564564
000150 33 da 87 3d 77 aa 5e bd ad 03 9a bd 5a 43 21 bd
       0.06633415 -0.054361787 -0.07520232 -0.039370872
000160 9a 62 c2 3d 43 09 ce bd c9 05 8d 3c cb 3f aa 3c
       0.09491463 -0.1006036 0.017214673 0.020782372
000170 a7 19 92 3c fd b6 20 3d a4 11 4f 3d 6d b2 5f bd
       0.017834498 0.03923701 0.050553933 -0.05461352
000180 db a7 fa bc fd 3c e5 3c 7e 17 10 bc b1 d5 cc bc
       -0.030597618 0.027983183 -0.0087946635 -0.02500424
000190 6a b3 b8 3c c7 44 8e bd 45 e8 c5 3c 22 21 05 3d
       0.022546489 -0.06946712 0.024158606 0.0325023
0001a0 8c 01 2d 3c 5d 3c 31 bc 80 3e a4 3d 10 14 c8 3b
       0.010559451 -0.010817614 0.080197334 0.0061059073
0001b0 74 6a 74 3d ea 19 b6 bd 8a 49 18 bd ac 30 bb 3c
       0.059671834 -0.088916615 -0.037179507 0.022850357
0001c0 b5 6f b3 bc 15 b2 b2 3d 31 18 ed 3c 09 86 91 bd
       -0.021903852 0.08725373 0.0289422 -0.07105643
0001d0 c9 a4 a5 3d 3c e9 90 bc 8e 41 b5 bd ef 5d bd bc
       0.08088071 -0.01768934 -0.08850394 -0.02311608
0001e0 ae 33 1f 3d 14 6d 0a 3d c0 01 67 3d fd 53 0e bd
       0.038867645 0.03379543 0.056398153 -0.034748066
0001f0 fd 89 46 bd 1d 47 b7 3c 22 01 2d bd 34 ba a2 3d
       -0.04847144 0.022372777 -0.04223741 0.07945672
000200 88 e1 9f bc 0d 89 0f be 13 08 b1 3d 3a ce 85 3d
       -0.019516721 -0.14017124 0.08644118 0.06533475
000210 88 2c eb 3d 6f 4f 77 bd 8e 30 7c bd b3 a8 00 3e
       0.11483103 -0.06037849 -0.061569743 0.12564354
000220 b3 b6 d2 3d 18 44 c1 bd 97 f7 35 bd 2e 24 1f 3e
       0.10288753 -0.09436816 -0.044425573 0.15541145
000230 72 33 1e 3d 1b 5a 11 3e d0 cf 92 3d b7 04 8b bb
       0.03862328 0.14194529 0.07168543 -0.0042425054
000240 35 a7 94 bd 1b 8f 11 3e 8d 0d 30 bd f6 e6 a2 bd
       -0.07258455 0.14214747 -0.042981673 -0.079542086
000250 c2 0e e5 bc f2 99 48 3d b6 df 23 bc 26 af cb 3d
       -0.027961139 0.04897494 -0.010002067 0.09945516
000260 fa f1 99 3d af 6b 0c bc f5 9a af 3d 94 45 8c 3d
       0.075168565 -0.008570596 0.085744776 0.068492085
000270 ba d8 92 bd be 43 66 bd 6a 19 9d 3d a1 5a 13 bd
       -0.071702436 -0.056216948 0.07670863 -0.035975102
000280 24 a1 11 be f4 33 54 3d c5 96 5d 3c 32 74 17 3e
       -0.14221627 0.05180736 0.013524716 0.14790419
000290 db 02 71 bd 08 d0 f6 3c 36 dc d2 bc 61 2a 1b 3d
       -0.058840614 0.030128494 -0.02573977 0.037882213
0002a0 67 38 20 bd ab 27 2f bd 60 27 b1 3d 4e 12 38 3d
       -0.03911629 -0.04276244 0.08650088 0.04493933
0002b0 5e 80 3b 3d 0e ad ab 3d d5 f8 0a bd 2c 80 84 bd
       0.045776717 0.08382617 -0.03392871 -0.06469759
0002c0 63 4b 15 3e 43 0c d3 bc b5 3d ab 3c ea d6 1d be
       0.14579539 -0.025762683 0.020903448 -0.15414014
0002d0 68 41 f7 3c c8 56 8f 3c c7 f0 3a bd ff 46 ca bd
       0.030182555 0.017497435 -0.04563978 -0.09876823
0002e0 1d 58 bf bc 4c e8 ac 3c 7c 75 a9 3d 62 57 59 3d
       -0.023357445 0.021106862 0.082743615 0.05306185
0002f0 fc 70 bb 3d 94 ad 6b 3d 56 f0 a0 3d f3 a3 a2 3d
       0.091524094 0.057538584 0.078583404 0.07941427
000300 ac 0e 5e b8 83 f1 ad bc 88 4e 99 3d 19 fe dd 3c
       -5.294259e-05 -0.021233326 0.07485682 0.027098702
000310 44 3e 73 bd 2a 7a 03 3e a8 60 17 bd e7 06 f8 bc
       -0.059385553 0.1283957 -0.036957413 -0.030276729
000320 24 d3 8e bd 54 28 bb 3d bc d1 ec 3d c4 93 09 bd
       -0.06973866 0.09138551 0.11563441 -0.033588186
000330 2a 24 63 3d df b7 26 3d 19 12 c3 bd 04 44 b1 3c
       0.05545441 0.040702697 -0.09524936 0.021638878
000340 7f 95 56 3d 65 e5 f2 bc 33 31 d2 3d de 8b 42 3d
       0.052388664 -0.0296504 0.1026329 0.04749667
000350 02 68 01 3b 6c d4 59 bd d3 66 02 3d 64 d1 5e 3d
       0.0019745831 -0.053181097 0.031836342 0.05439891
000360 1b 14 9a bd 99 9a 33 3d 09 1e 0e bc 35 20 89 3c
       -0.07523366 0.043848608 -0.008674153 0.01673899
000370 a0 39 48 3d bb 26 b0 bb a7 fa 01 3e b3 83 69 3d
       0.04888308 -0.005375711 0.12693273 0.057010364
000380 c6 53 4d bd 44 3c bb 3c 09 eb a6 3d c1 64 51 bb
       -0.05012872 0.022855885 0.08150298 -0.0031950923
000390 8e 0d bf bd df d9 f7 bd 18 65 09 3d 82 ca 66 bd
       -0.09328757 -0.121021025 0.033543676 -0.05634547
0003a0 be d7 53 bd 87 99 29 3c 59 cd 49 3d 6d 87 0d 3e
       -0.05171942 0.010351545 0.0492681 0.13821192
0003b0 c6 9d 1f 3d 15 80 36 bd c1 9f 1d 3c b6 08 08 3c
       0.038968824 -0.044555742 0.009620608 0.008302858
0003c0 19 d7 21 3d 00 47 96 bd 4c 12 37 3e 69 6a 13 3b
       0.039511774 -0.07337761 0.17878073 0.0022493845
0003d0 32 e6 93 bd 0a dc f5 bc 18 27 e3 3d 0b cf 92 3c
       -0.07221641 -0.03001215 0.11091441 0.017920991
0003e0 f7 f8 e0 bd a0 37 c2 3c 6d ed 41 bd 92 49 b5 bd
       -0.10984986 0.023708165 -0.047345567 -0.08851923
0003f0 94 5b 58 bd 1c 5f 0b bd de 91 2e 3e 18 0c b7 bd
       -0.05282171 -0.03402625 0.17047831 -0.089378536

bias f4 [128]
000000 bc e2 82 3d 00 92 41 bd 39 35 3e 3d 1b 21 a1 bd
       0.063909024 -0.047258377 0.046437476 -0.078676425
000010 51 f2 80 3d 11 2e 40 3d 0d f2 a1 bd a8 f8 fa bd
       0.06296218 0.046918932 -0.07907496 -0.12254459
000020 53 54 26 3d aa 68 4f bb 38 8f f9 bc 61 77 36 bd
       0.04060776 -0.0031648078 -0.0304638 -0.044547442
000030 c6 25 04 bd ce 25 ad 3d b5 a9 14 3c b2 23 b9 bd
       -0.032262586 0.08454476 0.009073664 -0.090400115
000040 4b 86 22 be 7c 4d 34 3b f5 a2 3e 3d ed a8 bb bc
       -0.15871541 0.0027512005 0.046542127 -0.022907699
000050 8b 6f 0e be db da fd bc 84 f4 49 bd 15 e7 82 bd
       -0.13909738 -0.030988147 -0.049305454 -0.06391732
000060 44 f4 2c 3d e8 18 58 bd 7d 2d ac 3b c5 16 c8 bc
       0.042225137 -0.052758127 0.005254446 -0.02442492
000070 79 7b d9 bd c0 56 a0 bd 18 5c 14 bd 51 42 06 be
       -0.10619254 -0.07829046 -0.03622064 -0.13111235
000080 82 7d 38 bd 2e ce b0 bc f8 02 d2 bd 4f 34 72 bd
       -0.04504157 -0.02158269 -0.102544725 -0.059131917
000090 df bb 4f bd c0 b8 93 3d f6 6e fa bd 37 85 0d bd
       -0.050716277 0.07212973 -0.12228195 -0.03455087
0000a0 0f 55 2e 3d 41 b7 36 be 22 75 69 3d 0f fe 74 3d
       0.042561587 -0.17843343 0.056996472 0.0598126
0000b0 7e 8c 14 bd fa 5e b7 bd 30 71 3e bd 4d 8d ad bd
       -0.036266796 -0.08953662 -0.046494663 -0.084742166
0000c0 83 fa c1 bd 71 53 b4 3c 7e 74 b4 bd 74 f7 07 be
       -0.094716094 0.022012444 -0.088112816 -0.1327799
0000d0 6d 44 dd bb e3 ae 3e bd b6 14 f3 bd a6 4b 87 3c
       -0.0067525418 -0.046553504 -0.11869185 0.016515564
0000e0 33 a3 a4 3d 18 f9 a1 3d 62 c1 33 3d d0 7a 40 bd
       0.0803894 0.07908839 0.043885596 -0.046992123
0000f0 ff 37 2c 3d fe f6 65 bd 8a d9 21 be a2 c7 f8 bc
       0.04204559 -0.056143753 -0.15805641 -0.03036863
000100 c9 a9 21 bd 96 b8 d4 3c 1a e8 f9 3c 32 ba 4b bc
       -0.03946856 0.025966924 0.030506182 -0.012434529
000110 ec c0 53 be bd dc 3d 3d ae b4 a0 bc d8 04 8a bd
       -0.20679063 0.04635309 -0.019617405 -0.06739205
000120 8d 29 64 bd 4c 37 34 3d b8 f2 db bd a7 66 a4 bc
       -0.05570369 0.043998048 -0.10739654 -0.02006848
000130 89 b4 f5 3c f9 2f f3 3b 5d 1f 8e 3d 1a bc 08 bd
       0.029993312 0.0074214903 0.06939576 -0.033382513
000140 73 6e 46 bd ec c8 d2 bc b7 3a 0f 3d e2 65 17 bd
       -0.048445176 -0.025730573 0.034968104 -0.036962397
000150 0d 61 26 bc b3 83 2f bd 27 1d c8 bc 9d c6 a9 bb
       -0.010154975 -0.042850208 -0.024427963 -0.0051811473
000160 41 88 a3 3d 86 9b e5 bd 4b df 87 bd 61 59 8f bd
       0.07984973 -0.11211304 -0.06634387 -0.069994695
000170 b3 ff 41 3c 59 e9 0f bd e2 3f 19 3d f2 50 85 bd
       0.011840749 -0.035134647 0.03741444 -0.0650958
000180 74 99 83 bd ea 4b 75 ba 9e cf ae 3c a6 77 85 bd
       -0.06425753 -0.00093573204 0.021339234 -0.06516962
000190 78 f8 11 3d 41 3f 10 be f6 bf d7 bc 98 7e fb 3a
       0.03563735 -0.1408663 -0.026336651 0.0019187508
0001a0 19 18 08 be d9 15 c8 3d c0 20 3d bc eb 09 23 3d
       -0.13290443 0.09769792 -0.011543453 0.03980438
0001b0 92 22 18 be ca ff 14 3d 69 07 1a 3d e0 6f 00 be
       -0.14856938 0.036376752 0.037604723 -0.12542677
0001c0 ca 12 45 bd 01 df 6b 3d f2 b6 92 3d 30 77 19 be
       -0.04811362 0.05758572 0.071638 -0.14986873
0001d0 de 38 40 3d a8 4b f5 bd 24 30 99 3d 21 38 23 be
       0.046929233 -0.11977321 0.07479885 -0.1593938
0001e0 5b 13 ef 3c ed c6 b4 3d ed 47 83 3d 14 d9 6f bd
       0.029184034 0.088270046 0.06410203 -0.05855663
0001f0 91 cb 3f bd dc 8a 4f bd 66 ed 6f 3d c4 1e 9e 3d
       -0.046824995 -0.050669536 0.05857601 0.07720712

weight f4 [23, 128]
000000 6c 34 8e bc b8 86 c3 bc f1 8f d6 bc d5 a4 7d 3d
       -0.017358981 -0.02386795 -0.026191683 0.061924774
000010 37 d8 9d bd d8 0e ef 3c df d7 4b 3c 3d 57 b2 bd
       -0.07707255 0.029181883 0.012441604 -0.08708046
000020 6e 38 f7 bc b4 e3 39 3b e8 b0 44 3d 20 59 a9 bd
       -0.030178275 0.0028364481 0.048020273 -0.08268952
000030 4f cc f5 3c 41 f3 73 ba 4d 64 99 bc c0 f4 b0 bc
       0.030004648 -0.0009305962 -0.018724585 -0.02160108
000040 1a 97 03 bc e2 a7 d3 bb 0b de 44 bd 06 e2 1a bd
       -0.008031631 -0.006459222 -0.04806332 -0.03781321
000050 b5 d9 8e 3d 17 f1 a1 bb ac ad 6e 3d 69 4e 18 3d
       0.06975118 -0.00494207 0.058271095 0.037184153
000060 59 bc 3c 3c 6b fd fb 3c 3d 65 2b 3b 11 5a 7d bd
       0.011519515 0.030760488 0.0026152872 -0.061853472
000070 3b b7 26 bd 8b c3 e6 3d a3 c0 56 3d eb 76 86 3b
       -0.040702086 0.112677656 0.052429806 0.0041035316
000080 fb 28 04 3d 02 eb 8a 3d 22 2a 41 bd 9b e8 05 3c
       0.032265645 0.067831054 -0.04715932 0.008173133
000090 44 2a 21 3d 19 29 f5 bd e4 61 6f 3c 33 76 bf bc
       0.03934695 -0.119707294 0.014610741 -0.023371791
0000a0 70 83 17 bd 6f 43 84 bc 80 1b ef bd 9c f2 17 bd
       -0.036990583 -0.016145436 -0.11675167 -0.037096605
0000b0 4a de 94 bc 1e 26 8d 3d 0b 0e 15 bd 00 44 e7 bc
       -0.018172402 0.06892036 -0.036390346 -0.028230667
0000c0 c4 81 6f bc 0b 3e 82 bd d7 6f e1 3c c0 ec 01 3e
       -0.014618341 -0.0635949 0.02751915 0.12687969
0000d0 22 d7 e1 3d 2d 3b 87 3d d5 53 d5 bb 30 db 02 3d
       0.110273615 0.06603084 -0.0065102377 0.031947315
0000e0 83 96 a7 bc 91 12 80 3c ce 6c 11 be 6f 93 58 3d
       -0.020457512 0.015633853 -0.14201662 0.05287498
0000f0 4e c1 2a 3d 78 e4 c2 bc 38 8c bd 3c 70 bb 84 3d
       0.041688256 -0.023790583 0.02313815 0.06481063
000100 72 c5 99 bc 8e 60 20 bc 5d 81 48 bd 56 9c 1f bd
       -0.018770907 -0.009788645 -0.048951495 -0.038967453
000110 37 52 b9 3c d3 9e 22 3d c5 81 9b 3c f7 d1 87 3d
       0.02262221 0.039702248 0.018982777 0.066318445
000120 2e ee 82 3d 94 a5 1c bd 8e 7f d9 3c 93 1e cb bb
       0.063930854 -0.038243845 0.02655008 -0.006198713
000130 c4 48 11 be f5 44 02 3c 06 99 df 3a 7b 2b 15 3d
       -0.14187914 0.007951011 0.0017059154 0.03641842
000140 1a 46 f9 3c d2 15 f6 3c b0 0c 7f 3d 81 0d 25 3d
       0.030428935 0.030039702 0.06226796 0.04029608
000150 19 62 60 bc 1e 49 09 bd e9 a9 9f 3d 43 f3 10 bd
       -0.013695263 -0.033516996 0.0779608 -0.035388242
000160 09 e9 9e 3d 9e d8 39 3d 99 92 f5 ba 9d a7 66 3c
       0.07759292 0.045372598 -0.0018735706 0.014078048
000170 10 81 5f bc 62 6b 5e bc 5c 45 30 bc a5 5c 2f 3d
       -0.013641611 -0.013575407 -0.010758724 0.042812962
000180 5d 03 4e 3d 97 a8 95 bd b4 52 cb bd c7 89 45 bd
       0.050296176 -0.073075466 -0.09927884 -0.048227098
000190 f6 be a7 3d 1e 0d 6d 3c 4a 2a 67 bc b8 ae f7 bc
       0.0819072 0.014468459 -0.014109204 -0.03023468
0001a0 5c 57 1e bc c7 ab 1e bd f1 50 30 3d 9d f3 4d 3d
       -0.009664383 -0.03873804 0.04304594 0.050281156
0001b0 5f 1c 87 3d b4 f5 46 3c b0 fe ef bc 44 dd b0 3d
       0.06597208 0.012143541 -0.02929625 0.08635953
0001c0 d9 42 6f 3c 15 72 b6 bd 6e 09 eb 3c a3 79 3b bd
       0.01460334 -0.08908478 0.02869102 -0.0457703
0001d0 c9 38 06 bd 98 d1 4b 3c d1 bb 6c 3d 2b 72 32 3d
       -0.032769 0.012440108 0.057796303 0.04356591
0001e0 4f b3 2a be c0 3b 11 3d 75 9c 71 bd 38 67 17 bd
       -0.16669963 0.035457373 -0.0589871 -0.03696367
0001f0 25 e6 cc 3d f8 b9 b1 bb f6 d3 e3 bd 57 61 93 3c
       0.10004834 -0.0054237805 -0.11124413 0.017990751
000200 64 f5 a2 3d 3d 9f c6 b8 2a 0f 55 3d 8f d3 ac bd
       0.07956961 -9.471036e-05 0.052016415 -0.08438789
000210 c9 d7 5d 3d b9 32 2e 3d 88 00 27 3d 6f b0 b1 ba
       0.054160867 0.04252884 0.04077199 -0.001355661
000220 8f fa b9 3c 28 83 82 bc 39 65 25 bd 27 04 31 bd
       0.022702483 -0.01593168 -0.040379737 -0.04321685
000230 e0 08 a9 3c 2f d8 4b 3d 1c db 44 be 34 a2 f4 3c
       0.020634115 0.049766716 -0.19224209 0.0298625
000240 ed 73 0c bd de f4 2a 3d e4 61 9e 3d fa 56 0d bd
       -0.034290243 0.04173743 0.07733515 -0.034506775
000250 3a 6e 97 bd d3 f7 6b 3c 02 ed 37 bd 5c 2d 87 bd
       -0.07394071 0.014402348 -0.044903763 -0.066004485
000260 74 b5 12 3c fe fe 14 3d bc 21 8e 3d 1e 9d 1e 3d
       0.008954395 0.036375992 0.06940028 0.038724057
000270 7e 76 3e bd 6b 24 f7 bd d2 c1 65 3d 1b 98 02 3d
       -0.04649972 -0.12067493 0.056093045 0.03188334
000280 e7 9b 77 bd 1f 2c 32 bc 68 ef 5c 3c 70 1d 90 bc
       -0.060451414 -0.010874777 0.013484813 -0.017592162
000290 ce 95 85 3d 23 10 ac 3c b6 19 c8 bc f5 4e 70 3c
       0.065227136 0.021003788 -0.024426322 0.014667262
0002a0 4e 9e ad 3d 2a e9 d6 bc ac 05 7a 3d 07 9a d6 bc
       0.0847746 -0.026234228 0.061040565 -0.026196493
0002b0 90 02 37 3d 75 8c e4 bc 54 92 0a be 8e 9a d7 bd
       0.04468018 -0.027899006 -0.13532382 -0.10527526
0002c0 dd 6a be 3b 64 d9 6e 3c f7 34 a9 3c 8d 64 7c bd
       0.005811079 0.014578197 0.020655138 -0.06161933
0002d0 05 86 40 3c 21 ea ef 3c 4e 8f 9c bc f1 0f f7 bb
       0.011750703 0.029286446 -0.019111302 -0.007539742
0002e0 b4 08 4b bd e8 00 6e bc e8 a7 4d bd 9e d9 ff bd
       -0.049568847 -0.014526583 -0.050208956 -0.12492679
0002f0 15 83 9d bd f5 e6 b6 3c 9e 24 27 3d 58 61 d9 bd
       -0.076910175 0.022326926 0.040806405 -0.1061427
000300 b8 68 9c ba 3a 94 88 3d 60 74 07 bd 84 cd 22 bb
       -0.0011933064 0.06668897 -0.03306997 -0.0024841735
000310 1a 2c f9 bb ee 5c 87 bd b2 2c 35 3c eb ee 8b bd
       -0.0076041343 -0.06609522 0.0110580195 -0.06832679
000320 30 ab e8 bc 75 de bd 3d fb c9 c8 3b 0a c2 5a 3b
       -0.028401941 0.09270946 0.0061275936 0.0033379816
000330 8e d9 5f 3d b1 35 75 3d 3a fa 93 3d 1d b2 d9 bb
       0.054650836 0.059865657 0.07225461 -0.006643547
000340 7b b8 f4 3d e4 53 20 3e c5 83 71 3d b4 c7 4b 3c
       0.11949249 0.15657002 0.058963556 0.01243775
000350 a9 be 28 3e 34 4f 1f 3d d5 6e ba bd 33 90 1c 3b
       0.16478981 0.038893893 -0.09103171 0.002388966
000360 a9 20 58 3d e6 88 03 be e4 fa 01 bc 3a a5 a2 bc
       0.052765522 -0.12845191 -0.007933352 -0.019854177
000370 79 77 52 3d de fb 7f 3c dd 6f 08 bc 05 9a 6f bd
       0.05138347 0.015624015 -0.008327452 -0.058496494
000380 5f 75 a1 3d 4e 63 2f 3d 7c 21 47 3c 72 21 cd bc
       0.07883715 0.042819314 0.012153979 -0.025040362
000390 d7 1d b6 bd 31 46 24 bd 8f 23 9f bc 85 63 00 3e
       -0.0889241 -0.040106002 -0.019426135 0.12537964
0003a0 e4 46 ca 3c d3 f8 9d bc 83 47 c6 3c 7a e4 71 3c
       0.024692006 -0.019283688 0.024204021 0.014763946
0003b0 1d 8b 2d 3c c2 30 e8 bb 0d f8 4a 3c b4 84 b1 bd
       0.010592249 -0.0070858905 0.0123882415 -0.08667889
0003c0 22 51 6d 3b 85 e7 27 bd f5 e1 94 bc ae 72 38 3c
       0.003621169 -0.04099228 -0.018174151 0.0112578105
0003d0 18 e1 e8 3c d1 95 00 bc 3d 1d 84 ba 98 46 95 3b
       0.028427646 -0.007848219 -0.0010079514 0.0045555346
0003e0 2d 8c de 3d 94 2f 43 3b 5b 76 d1 3d 81 ae 75 bd
       0.1086658 0.0029782997 0.10227653 -0.059980873
0003f0 47 32 90 3c d8 ce ce bc 50 5c 95 3b 9e 85 0a 3e
       0.0176021 -0.025245115 0.0045581236 0.13527533

bias f4 [23]
000000 65 0d 5f be 8e 7a 47 3e cf 88 51 3d e6 1a e4 3d
       -0.21782453 0.19480345 0.05115586 0.11137943
000010 b2 7c 91 bd 39 38 c5 3d 11 4a bc 3c b2 8c c5 3b
       -0.07103862 0.09629864 0.022984536 0.006028735
000020 d3 a4 41 be 76 8f a5 bd 4b 8b 51 3d 38 7a 92 3d
       -0.18910532 -0.080840036 0.05115823 0.071522176
000030 98 7b 76 3d 3e b9 3f 3d ac d4 dc bd 6c 97 56 3b
       0.060176462 0.04680752 -0.107827514 0.0032744063
000040 1d fc 45 bd bd c9 e7 bb de 1a 74 3b 42 85 82 3c
       -0.048336137 -0.0070736096 0.003724746 0.015932683
000050 a9 5c fd bd 9c 72 da bc 48 c2 a9 3b
       -0.12371189 -0.026665978 0.005180631
