deploy/models/booster_gym_exp_1/model_1000.pt (torch, 303934 bytes, 8 tensors)

weight f4 [256, 80]
0	0xbe0452b0	-0.12922168
1	0x3ddac596	0.10682218
2	0xbda74c1c	-0.081688136
3	0x3cc0abd8	0.023519441
4	0xbd19eb83	-0.037578117
5	0xbc90ac76	-0.01766036
6	0x3de0a8a2	0.10969664
7	0x3db0f171	0.08639801
8	0xbd85eb55	-0.06539027
9	0x3ddc125e	0.10745691
10	0x3ce1f7b1	0.027583929
11	0xbbec99e8	-0.0072204955
12	0xbcc33f54	-0.023833908
13	0xbbcb113f	-0.0061971243
14	0xbcdb676d	-0.026782716
15	0x3bd4914a	0.0064870464
16	0xbccfbd4f	-0.025358824
17	0x3bc2c23b	0.005943564
18	0x3dbcf6dc	0.09226772
19	0x3c10401b	0.008804346
20	0x3d03c960	0.032174468
21	0xbe81de5d	-0.25364962
22	0x3e522a56	0.20523962
23	0xbe367f5b	-0.1782202
24	0xbdf9a49f	-0.12189602
25	0x3dbc6c22	0.09200312
26	0xbd20176b	-0.039084833
27	0xbdaab63e	-0.08335541
28	0xbdfdd6f9	-0.123945184
29	0xbdd306d7	-0.10304039
30	0xbc596beb	-0.013270359
31	0xbe45b3cb	-0.19306867
32	0xbd717b1e	-0.058955304
33	0x3e17ee3d	0.14836974
34	0x3dfe611d	0.12420867
35	0x3c27c4ca	0.010239789
36	0xbd07658d	-0.03305583
37	0x3dc84b9f	0.097800486
38	0xbc8ba9fb	-0.017048826
39	0xbcf99c1a	-0.030469943
40	0x3d3d7f7d	0.04626416
41	0xbd28ed02	-0.041241653
42	0x3d765bd3	0.060146164
43	0xbd37f441	-0.044910673
44	0xbd63b76a	-0.05559484
45	0xbde87b9b	-0.11351701
46	0xbdd269a1	-0.10274053
47	0xbafd774d	-0.0019337923
48	0x3db41c22	0.087944284
49	0xbd77c810	-0.06049353
50	0xbd8a3deb	-0.06750091
51	0x3e016a2a	0.12638155
52	0x3e094846	0.13406476
53	0xbda51c46	-0.08062033
54	0x3bd57de3	0.006515251
55	0x3c7f6461	0.015587897
56	0x3d77cdb2	0.0604989
57	0xbd3c8b9f	-0.04603159
58	0x3d7d6ea2	0.061873086
59	0xbd073b39	-0.033015464
60	0x3c8f4aa5	0.017491648
61	0xbe070a69	-0.13187565
62	0xbd0ab45a	-0.033863403
63	0xbba77ce4	-0.0051113237
64	0x3cf1b0e9	0.029503303
65	0xbc79e64b	-0.01525266
66	0x3dbc5124	0.09195164
67	0x3da54d13	0.08071341
68	0xbdd6997a	-0.10478492
69	0xbd55933b	-0.052142363
70	0x3e1a05c1	0.15041257
71	0xbe07307b	-0.13202088
72	0xbdaba18a	-0.083804205
73	0x3d138288	0.036013156
74	0x3c3af510	0.0114109665
75	0x3e027681	0.12740518
76	0xbcf836d8	-0.030299589
77	0xbe085a95	-0.13315804
78	0x3bf61039	0.007509258
79	0xbd8e7b88	-0.069571555
80	0x3a8edfbc	0.0010900418
81	0xbec05ab7	-0.3756921
82	0xbdeb1695	-0.114789166
83	0x3ce66d6f	0.028128354
84	0x3d2f7ed2	0.042845555
85	0xbd9ef594	-0.07761684
86	0xbd6b5d77	-0.057462182
87	0xbd9b6d32	-0.07589187
88	0x3d5626c8	0.05228308
89	0xbd2ae672	-0.041723676
90	0xbdc4dd61	-0.09612537
91	0xbd8f3222	-0.06991984
92	0x3dd04f04	0.10171321
93	0xbd18ae2d	-0.037275482
94	0xbd8b457e	-0.06800364
95	0xbb5fc9a4	-0.0034147287
96	0xbda235ae	-0.07920395
97	0x3d80740e	0.06272136
98	0xbd26de5d	-0.040739406
99	0xbc5d7e47	-0.013518876
100	0xbd918c44	-0.07106832
101	0xbdaae077	-0.083435945
102	0xbdb20b32	-0.086935416
103	0x3e3900af	0.18066667
104	0xbe80273a	-0.25029927
105	0x3e1c0c33	0.15239029
106	0x3cf30d6d	0.029669488
107	0xbcd29566	-0.025706004
108	0x3d58cd10	0.052929938
109	0xbe072367	-0.13197099
110	0x3d387711	0.045035426
111	0xbe02d08c	-0.12774867
112	0xbded1751	-0.11576713
113	0xbb9bf025	-0.004758852
114	0x3d587c3a	0.052852847
115	0xbd135afe	-0.03597545
116	0xb9bb117c	-0.00035680446
117	0xbdf10cea	-0.11770041
118	0xbc976776	-0.018481951
119	0x3d8b0881	0.06788731
120	0xbda5a27b	-0.08087631
121	0x3c3b409a	0.011428976
122	0xbd0e5ec8	-0.03475836
123	0xbccb63e2	-0.024827901
124	0x3d849ab0	0.06474817
125	0x3e394fc5	0.18096836
126	0xbc2f3b18	-0.010695241
127	0xbda534a6	-0.080666825
128	0x3e06791e	0.1313214
129	0x3d649216	0.05580338
130	0x3ca6df8b	0.020370265
131	0x3d7bd460	0.061481833
132	0x3eb36837	0.35040447
133	0xbda31d69	-0.07964594
134	0x3d7451d9	0.05964837
135	0x3d387041	0.04502893
136	0xbcc07f66	-0.023498248
137	0x3e6a65b5	0.2289036
138	0x3db3246a	0.0874718
139	0x3d884361	0.066534765
140	0x3d3bde3b	0.045866232
141	0xbd31ace6	-0.04337778
142	0x3d26058b	0.04053263
143	0xbd7a08d0	-0.06104356
144	0xbdbb27b7	-0.091384344
145	0xbcdb8640	-0.026797414
146	0x3d586967	0.052834895
147	0x3d9c6c0f	0.07637798
148	0x3bd13a9b	0.00638516
149	0xbcb7ca5d	-0.022435362
150	0x3e0c4cf4	0.1370123
151	0x3df3bf28	0.119016945
152	0x3d9af0dd	0.07565472
153	0x3ddeb204	0.108737975
154	0xbb0c47cd	-0.0021405101
155	0x3b2cc290	0.0026361085
156	0x3d7a50d1	0.06111223
157	0x3d4bf78e	0.049796633
158	0xbdd80e0a	-0.10549553
159	0xbdaddeb9	-0.084897466
160	0x3e58f404	0.21186835
161	0xbedc6af6	-0.43050355
162	0x3ce7f875	0.028316716
163	0xbcfda020	-0.030960143
164	0xbc698ec2	-0.0142552275
165	0xbc8d3003	-0.017234808
166	0xbd1d3f55	-0.038390476
167	0xbceb3659	-0.028712438
168	0x3ce5e4a3	0.028063124
169	0x3dd590e2	0.10428025
170	0xbc2ffaca	-0.010740945
171	0xbc73757b	-0.0148595525
172	0x3c823d3a	0.015898336
173	0x3d4f47f1	0.050605718
174	0x3cfdd0b5	0.030983308
175	0xbd40c554	-0.047063187
176	0x3d07975c	0.033103332
177	0xbe01d09a	-0.12677231
178	0x3d2661cf	0.04062062
179	0x3d9153bf	0.070960514
180	0x3d0cf6c4	0.03441502
181	0xbdebdb1d	-0.11516402
182	0x3d57abfb	0.052654248
183	0x3d683d28	0.05669895
184	0xbe1e7de4	-0.15477711
185	0x3dd3f554	0.10349527
186	0x3dad062a	0.08448441
187	0xbc4c68fa	-0.0124762
188	0x3e514469	0.20436253
189	0xbd7d9d28	-0.061917454
190	0x3e16c99c	0.14725345
191	0xbe862483	-0.2619973
192	0x3e348cfd	0.17631908
193	0x3e3942d2	0.18091896
194	0xbda925a3	-0.08259132
195	0xbcc48d4f	-0.023993162
196	0x3cebee18	0.028800055
197	0x3de4734b	0.11154803
198	0xbd1391dd	-0.036027778
199	0xbdf17820	-0.1179049
200	0xbc43f06b	-0.011959176
201	0xbdc78f0f	-0.09744083
202	0xbd1e3a69	-0.038629923
203	0x3dd428df	0.10359358
204	0xbc8abc2b	-0.016935429
205	0x3e12d44c	0.14338797
206	0x3c9a03bb	0.018800607
207	0xba89496c	-0.0010474152
208	0x3ddadf86	0.10687165
209	0x3d806872	0.06269921
210	0xbd821b23	-0.06352832
211	0xbe1a5536	-0.15071568
212	0x3e5381ff	0.20655058
213	0xbc7551cb	-0.014973114
214	0xbd5c776e	-0.053824835
215	0xbd9d57da	-0.07682772
216	0xbc1f72e9	-0.009731987
217	0xbd4454d4	-0.04793246
218	0x3bae2762	0.0053147534
219	0x3dcc7492	0.099831715
220	0xbc5ce0c9	-0.013481327
221	0x3d7e4d9e	0.06208574
222	0xbdb11294	-0.086461216
223	0x3d6423ca	0.055698194
224	0xbd3895f7	-0.045064893
225	0x3db143dc	0.08655521
226	0x3d338181	0.043824676
227	0x3e062c7b	0.13102905
228	0x3d549216	0.05189713
229	0x3d1d7f6f	0.03845161
230	0x3d77bbcb	0.060481828
231	0xbd7b2f48	-0.061324388
232	0xbcc7e8e8	-0.02440305
233	0xbdb919b3	-0.09038105
234	0x3cd35c65	0.025800893
235	0x3d06a98e	0.032876544
236	0x3db4ce9f	0.08828472
237	0xbe22dcfb	-0.1590461
238	0xbb396b16	-0.0028292588
239	0x3e594e4e	0.21221277
240	0xbdbd7025	-0.092499055
241	0x3e12164d	0.1426632
242	0x3d3e6c4c	0.04649
243	0xbd471b72	-0.04861016
244	0xbd8d69b0	-0.06904924
245	0x3cbf5fea	0.023361165
246	0xbd8bf06c	-0.06832966
247	0x3dddd173	0.10830965
248	0xbd928caf	-0.071557395
249	0x3d0c9a47	0.034326818
250	0x3dd64ce1	0.10463882
251	0x3d431ab1	0.047632877
252	0xbd993512	-0.074808255
253	0x3d0b6dd9	0.034040306
254	0x3d720262	0.059084304
255	0xbd0e3f72	-0.034728475

bias f4 [256]
0	0xbd91bfbb	-0.07116648
1	0x3c992183	0.018692737
2	0x3d982689	0.07429225
3	0x3dadae06	0.08480458
4	0x3db7d723	0.08976581
5	0x3c872adc	0.01649993
6	0x3c83a63e	0.016070481
7	0xbd5d2170	-0.053986967
8	0x390d6482	0.0001348425
9	0x3c673629	0.014112034
10	0xbd426fe5	-0.047469992
11	0xbdc8e253	-0.09808793
12	0x3ddd49fb	0.10805126
13	0xbd4e207f	-0.05032396
14	0xbdc66205	-0.096866645
15	0x3bae370d	0.005316621
16	0xbc4a5595	-0.012349506
17	0x3dbb86b3	0.09156551
18	0x3dcf20cb	0.10113677
19	0xbd8b07dc	-0.067886084
20	0x3c777edb	0.015105928
21	0xbd5fa97c	-0.054604992
22	0x3dd15cdc	0.1022279
23	0xbddde3b7	-0.10834449
24	0xbcfeb6ca	-0.03109302
25	0x3da14a03	0.07875445
26	0x3dd83944	0.105577976
27	0x3d05305d	0.032516826
28	0x3dd95dc5	0.10613588
29	0xbd24db29	-0.04024807
30	0xbd71bab1	-0.059015933
31	0xbddd2f55	-0.108000435
32	0x3d7459de	0.059656017
33	0x3d8d62b2	0.0690359
34	0x3c111394	0.008854765
35	0xbdd551f9	-0.10416026
36	0xbd29b685	-0.04143383
37	0xbd7affa0	-0.06127894
38	0xbdd075ce	-0.101787195
39	0x3dc333e0	0.09531379
40	0x3c11ace8	0.008891322
41	0xbdeb14b7	-0.114785604
42	0x3c0699d6	0.008215388
43	0x3d3c0501	0.04590321
44	0x3d4693d3	0.04848082
45	0xbd8421eb	-0.06451782
46	0x3ddcd7db	0.10783359
47	0x3db0990a	0.0862294
48	0x3bc2fab3	0.005950296
49	0xbd9676b7	-0.07346862
50	0x3da7bff9	0.08190913
51	0xbd82454a	-0.06360872
52	0x3d3be17c	0.045869336
53	0xbc97618f	-0.018479137
54	0x3d7b75c1	0.061391596
55	0x3c03c2ea	0.008042077
56	0xbcb03a1a	-0.02151208
57	0x3d967c85	0.07347969
58	0xbd911311	-0.07083715
59	0xbccc7979	-0.024960266
60	0x3d9279a5	0.07152108
61	0xba166984	-0.0005737769
62	0x3dc115ca	0.09427984
63	0x3d83105a	0.06399603
64	0xbd8fbf86	-0.07018952
65	0x3db0ade3	0.08626916
66	0x3dd0ec80	0.10201359
67	0xbdd7e783	-0.10542204
68	0x3d71bd9b	0.059018712
69	0x3dadfdc4	0.084956676
70	0xbce00daf	-0.027350275
71	0x3c301021	0.010746033
72	0xbbe1b78d	-0.006888336
73	0x3d9b544f	0.0758444
74	0x3dd55928	0.10417396
75	0xbd16f554	-0.036855057
76	0xbd249cb6	-0.040188514
77	0x3d144cdf	0.036206122
78	0xbd0f59b7	-0.034997668
79	0x3d093111	0.03349406
80	0xbda43cd1	-0.08019412
81	0x3df3e7b2	0.11909427
82	0xbda883ce	-0.08228265
83	0x3cf3ab72	0.029744837
84	0x3da0f9b3	0.07860126
85	0x3d1e75ec	0.038686678
86	0xbd615199	-0.05500946
87	0xbd906529	-0.07050545
88	0x3d363b35	0.044490058
89	0xbd9b0fc5	-0.07571367
90	0x3c945d0f	0.01811078
91	0xbd816279	-0.0631761
92	0xbcd6abd0	-0.026204973
93	0x3d58da15	0.052942354
94	0xbddffb99	-0.1093666
95	0xbb55fdd2	-0.003265251
96	0xbdb0657e	-0.08613108
97	0xbd4d0c40	-0.05006051
98	0x3d949ab2	0.07256068
99	0x3d73c01b	0.059509378
100	0x3da16a6a	0.07881625
101	0x3dd4af47	0.10384994
102	0xbda0565d	-0.078289725
103	0xbdb0faaa	-0.086415604
104	0x3de29499	0.11063499
105	0xbdaf4c2c	-0.085594505
106	0x3dba4334	0.09094849
107	0xbdcf49b7	-0.10121482
108	0x3ca8ed30	0.020620912
109	0xbd34314a	-0.04399232
110	0xbc18f27e	-0.009335158
111	0xbd7a91d7	-0.06117424
112	0x3dc9843a	0.09839673
113	0x3dbcd927	0.09221106
114	0xbd1da366	-0.038485907
115	0x3d857446	0.06516318
116	0xbcd84cdf	-0.026403842
117	0xbd54fa36	-0.051996432
118	0x3b2f21dc	0.0026723063
119	0xbd9a3398	-0.07529372
120	0x3d90a4fc	0.07062718
121	0xbb2877b1	-0.0025706107
122	0x3b8dab5d	0.0043234066
123	0x3d84ec34	0.06490365
124	0xbb364356	-0.0027811131
125	0xbc7a5282	-0.01527846
126	0xbdd82596	-0.10554044
127	0x3d602871	0.054726068
128	0x3cd0dcb9	0.025495874
129	0xbd65f549	-0.056142125
130	0x3b884b45	0.0041593635
131	0x3d2d5fa5	0.04232754
132	0xbd431b45	-0.047633428
133	0xbd985810	-0.074386716
134	0xbd448e73	-0.047987413
135	0x3db59c41	0.08867694
136	0x3d99b862	0.07505871
137	0x3d9066a7	0.070508294
138	0x3a37af7a	0.0007007044
139	0xbc88c51b	-0.01669555
140	0x3c6ff4c1	0.014645756
141	0x3d1940fd	0.037415493
142	0x3d111adc	0.035426006
143	0xbcef6243	-0.02922166
144	0xbd4f6ea9	-0.050642643
145	0xbd82bbe4	-0.063834935
146	0xbd98bf98	-0.074584186
147	0xbc066722	-0.0082033
148	0x3d9d2751	0.07673515
149	0xbbeac2d6	-0.0071643395
150	0x3d7f39c7	0.06231096
151	0x3deb8b2e	0.11501156
152	0x3d15207e	0.03640794
153	0xbdc5e0a3	-0.09661987
154	0x3c55eb02	0.0130565185
155	0x3d4d732c	0.050158665
156	0x3d88133c	0.06644294
157	0x3cd9d79b	0.026592067
158	0xbe011b02	-0.12607959
159	0x3dd17918	0.10228175
160	0xbda26cc7	-0.07930904
161	0x3c342767	0.010995722
162	0x3d9ef899	0.0776226
163	0x3de3aae0	0.11116576
164	0x3dc76d9f	0.097377054
165	0x3cb19f15	0.021682302
166	0xbd703435	-0.05864354
167	0xbdab36b7	-0.083600454
168	0x3dadb10f	0.08481037
169	0xbcc814c6	-0.024423968
170	0x3d7ec1ea	0.06219665
171	0x3d389e08	0.045072585
172	0xbbfb533f	-0.007669836
173	0x3da10b92	0.07863535
174	0x3d8bfa52	0.06834854
175	0x3dc25a93	0.09489932
176	0xbdc1d5ad	-0.094645835
177	0xbd046c12	-0.032329626
178	0x3d5c26c5	0.05374791
179	0xbd247a2b	-0.04015557
180	0xbd1660d0	-0.03671342
181	0xbd7d8469	-0.061893854
182	0xbd9e3a9e	-0.07726024
183	0x3d115a76	0.03548666
184	0xba3baef7	-0.00071595557
185	0xbc85fe79	-0.016356694
186	0xbdcc5f1a	-0.09979077
187	0xbc3f6a98	-0.011683129
188	0x3cb3d786	0.021953356
189	0x3c7ebdee	0.015548212
190	0xbdd43b2d	-0.103628494
191	0xbd246ae2	-0.040140994
192	0x3de81c0a	0.11333473
193	0xbc868275	-0.016419629
194	0xbd8f665f	-0.070019476
195	0xbd71cef1	-0.059035245
196	0xbcfa4d8f	-0.030554561
197	0x3c3128f7	0.010812989
198	0x3da0925f	0.07840418
199	0xbdc9dc2a	-0.09856446
200	0xbdb1005a	-0.08642645
201	0x3d6f6415	0.058445055
202	0xbd4e6f99	-0.050399397
203	0xbc6b500c	-0.014362346
204	0x3d9572ad	0.07297263
205	0xbc770c0a	-0.015078554
206	0x3ca86d34	0.020559885
207	0xbbf1731d	-0.007368459
208	0x3cc4fcf0	0.024046391
209	0x3c964c21	0.018346848
210	0xbc77af79	-0.01511752
211	0xbdbcdd89	-0.09221942
212	0x3cf2d2d1	0.02964154
213	0xbd932f73	-0.071867846
214	0xbcd5161d	-0.026011521
215	0x3c8cf7aa	0.01720794
216	0x3d6c4a15	0.057687838
217	0xbcb65a77	-0.022259934
218	0x3d1c02cc	0.038088605
219	0x3decbdc6	0.11559634
220	0x3bf853aa	0.007578333
221	0xbd9ac2d5	-0.075566925
222	0x3d2223ca	0.039584912
223	0x3d5ddde1	0.05416668
224	0x3adaa564	0.001668137
225	0xbd987cb7	-0.074456625
226	0x3d39df37	0.04537889
227	0xbdaff165	-0.08590964
228	0xbcf3a31c	-0.029740863
229	0x3dc6562c	0.09684405
230	0x3c874cbf	0.016516088
231	0x3d6dd2ea	0.05806247
232	0xbc8931b3	-0.016747331
233	0xbc1efede	-0.00970432
234	0xbd7df4b6	-0.062000953
235	0xbce51030	-0.02796182
236	0x3d42aaa3	0.047526013
237	0xbd84a47e	-0.06476687
238	0x3d59eecd	0.053206254
239	0x3dac447b	0.08411499
240	0xbd4a43d6	-0.0493811
241	0xbd0b0c24	-0.033947125
242	0x3b953438	0.004553344
243	0x3d172855	0.036903698
244	0x3d4fa4d6	0.05069431
245	0xbd5903c7	-0.052982118
246	0xbd5283d6	-0.05139526
247	0x3ca44d87	0.0200565
248	0xbdc91ff2	-0.09820546
249	0xbdcd88ff	-0.100358956
250	0x3da336e7	0.07969456
251	0xbafcc56f	-0.0019284914
252	0xbd3da109	-0.046296153
253	0xbb4b0671	-0.0030979181
254	0xbd861daf	-0.065486304
255	0x3d59439f	0.053043004

weight f4 [128, 256]
0	0x3cd6fece	0.026244547
1	0x3d893730	0.06699979
2	0x3d9670ef	0.07345759
3	0x3c35524c	0.011066984
4	0xbcf8166f	-0.030284135
5	0x3d436f8e	0.04771381
6	0x3d1958dd	0.037438262
7	0x3ca9ff0e	0.020751502
8	0xbd9a273b	-0.07527014
9	0x3bb124d6	0.0054060025
10	0xbd0c7553	-0.034291577
11	0x3d05702c	0.03257768
12	0x3d8814d4	0.06644598
13	0xbcfab4e4	-0.030603833
14	0x3c977762	0.018489543
15	0xbd1b64e9	-0.037938032
16	0xbd361a49	-0.04445866
17	0xbd04ff31	-0.032469932
18	0x3d6829d1	0.056680504
19	0xbcf91fda	-0.030410696
20	0x3d49b062	0.049240477
21	0x3c8f3bb0	0.017484516
22	0xbc25fa80	-0.010130525
23	0xbbfd8447	-0.007736716
24	0xbca1234c	-0.019670151
25	0x3caae1e1	0.02085966
26	0xbd8d9d81	-0.06914807
27	0x3d75dedf	0.060027
28	0x3daa1a04	0.08305743
29	0xbd901654	-0.07035509
30	0x3ca463fc	0.020067208
31	0x3c83ac45	0.016073355
32	0x3d3a40fb	0.045472126
33	0x3d87f3d6	0.06638305
34	0xbcd80439	-0.026369201
35	0x3d0ad70c	0.03389649
36	0x3ca2bc7f	0.019865273
37	0xbc144cb3	-0.00905149
38	0x3d1c9125	0.038224358
39	0x3d2c174a	0.042014398
40	0xbcc08aab	-0.023503622
41	0x3ca9c1fc	0.020722382
42	0xba8f80b8	-0.0010948395
43	0x3c216f4e	0.009853197
44	0xbd9837cc	-0.074325174
45	0x3d283cc7	0.041073587
46	0xbc2e614c	-0.010643315
47	0x3d3cc209	0.046083484
48	0x3cd1415b	0.02554386
49	0x3d902ad9	0.070394225
50	0xbd4ef276	-0.050524198
51	0xbc305790	-0.010763064
52	0xbd647d00	-0.05578327
53	0xbd4d9adc	-0.050196514
54	0x3ca81299	0.02051668
55	0xbd811e3a	-0.063045934
56	0x3b55ad46	0.00326045
57	0x3d63c817	0.055610742
58	0x3d3f5f5a	0.046721794
59	0x3cf5af74	0.02999089
60	0xbc69e57c	-0.014275905
61	0x3d8c8e30	0.068630576
62	0xbd37ee96	-0.044905268
63	0xbbfa5d25	-0.007640498
64	0xbd69cb1f	-0.057078477
65	0x3c615606	0.01375342
66	0xbcff5811	-0.031169923
67	0x3d6d7169	0.057969484
68	0x3d1f0f46	0.038832925
69	0x3cdcfded	0.02697655
70	0xbc5b6ff0	-0.013393387
71	0xbc215607	-0.009847171
72	0xbcf888f1	-0.030338736
73	0xbbad3d8c	-0.005286878
74	0x3dd133c4	0.10214952
75	0x3cc6e785	0.024280319
76	0x3cdac321	0.026704373
77	0xbd7f52a8	-0.062334687
78	0xbd350046	-0.044189714
79	0x3bfeb02e	0.007772467
80	0x3d50b288	0.05095151
81	0x3b29aa34	0.0025888802
82	0x3d88666a	0.06660159
83	0xbd086c6b	-0.03330652
84	0xbd58797a	-0.052850224
85	0x3d6dea73	0.058084916
86	0x3d50a7a5	0.05094113
87	0x3d4c020e	0.049806647
88	0xbd271296	-0.04078921
89	0x3d410400	0.047122955
90	0x3d8145a8	0.06312114
91	0xbd07b0e2	-0.033127673
92	0x3c16c8f9	0.009203189
93	0x3c3e2780	0.011606097
94	0x3d451518	0.04811582
95	0xbcb4e7d1	-0.022083195
96	0x3cfd4bd6	0.03091995
97	0x3d5b2b19	0.053507898
98	0x3d8f7c4f	0.07006132
99	0xbb35a1b4	-0.002771479
100	0xbd83a432	-0.06427802
101	0x3d3a379b	0.045463186
102	0xbcd3736a	-0.02581187
103	0xbd26e6fe	-0.040747635
104	0xbc1c3b67	-0.009535647
105	0xbd74f6d9	-0.059805725
106	0x3d43b1c4	0.047776952
107	0x3c784ffd	0.015155789
108	0x3d31c737	0.043402877
109	0xbd144b2e	-0.03620451
110	0x3c625070	0.013813123
111	0x3c067c80	0.008208394
112	0x3d98d4ff	0.07462501
113	0xbd29aca1	-0.041424397
114	0xbcc8875e	-0.02447861
115	0xbd8967e3	-0.06709268
116	0x3dbd4d67	0.09243279
117	0x3d83b5f7	0.064311914
118	0x3c55d4bf	0.013051211
119	0xbcab0e22	-0.020880762
120	0x3c65b747	0.0140207475
121	0x3a7e91da	0.00097110646
122	0x3c92d007	0.01792146
123	0xbc9bfb17	-0.019040627
124	0x3d48e764	0.049048796
125	0xbc862538	-0.01637517
126	0xbd15e60f	-0.036596354
127	0xbc3806f0	-0.011232123
128	0xbcc5123c	-0.024056546
129	0xbdac6659	-0.08417959
130	0xbd24bd26	-0.04021945
131	0xbd11634c	-0.035495088
132	0xbc6103b3	-0.013733792
133	0xbd13dede	-0.036101215
134	0x3d80ad5d	0.062830664
135	0x3c89ed8e	0.016836908
136	0x3ce04be2	0.027379934
137	0xbd8088a3	-0.062760614
138	0xbc04528a	-0.0080763195
139	0xbdb10149	-0.08642823
140	0xbd07a270	-0.033113897
141	0x3d349704	0.044089332
142	0xbd212a54	-0.039347008
143	0xbc127780	-0.008939624
144	0x3cbad3a4	0.022805996
145	0xbd34f86b	-0.044182222
146	0x3cfb3094	0.030662812
147	0x3cd1a1f3	0.025589919
148	0x3d0c1c0d	0.03420644
149	0xbb67ba5f	-0.0035358889
150	0x3c920367	0.017823888
151	0x3caafe72	0.020873282
152	0xbd59a5cd	-0.053136636
153	0x3c9f4287	0.019440902
154	0x3d51e294	0.051241472
155	0xbdbac269	-0.09119112
156	0xbc30509f	-0.010761409
157	0x3d8c81a5	0.06860665
158	0xbcd79e7a	-0.026320685
159	0x3c8f026f	0.017457215
160	0xbd85a91c	-0.06526396
161	0x3c8a0208	0.016846672
162	0xbd7944ab	-0.060856503
163	0x3d15e872	0.03659863
164	0x3d1b0947	0.037850644
165	0x3c9a8008	0.018859878
166	0xbc0fee0f	-0.008784785
167	0x3c0dced9	0.008655273
168	0xbad8f749	-0.0016553189
169	0x3cbb0a6a	0.022832114
170	0xbe299efd	-0.16564555
171	0x3be2cb4a	0.0069212066
172	0xbbe666ef	-0.0070313136
173	0x3ce7ab9b	0.02828007
174	0x3c4139ef	0.011793598
175	0x3d7ed80a	0.06221775
176	0x3d3d781a	0.046257116
177	0xbc73982b	-0.014867823
178	0xbd4518f4	-0.0481195
179	0xbae25fbf	-0.0017270966
180	0xbda02b90	-0.07820809
181	0xbd633d00	-0.055478096
182	0xba986f2d	-0.0011629813
183	0x3db91828	0.090378106
184	0x3d5d9e85	0.054106254
185	0x3c94d66d	0.018168652
186	0xbd173473	-0.036915254
187	0x3cf90917	0.030399842
188	0xbd291743	-0.04128195
189	0xbd0cda69	-0.03438798
190	0xbc1f703c	-0.009731349
191	0x3c8f9672	0.017527793
192	0x3cd2f0bb	0.025749555
193	0x3d2fa8ab	0.042885464
194	0x3ab184dc	0.0013543623
195	0xbc7fdd37	-0.015616707
196	0x3c837da9	0.01605113
197	0x3d10ff13	0.035399508
198	0x3d4dabe2	0.05021275
199	0xbd2c92ac	-0.042132065
200	0xbcc97032	-0.024589632
201	0xbce36bbb	-0.02776133
202	0x3d13255e	0.035924308
203	0x3c879742	0.016551618
204	0xbc2377f5	-0.00997733
205	0x3d2a3fdb	0.041564804
206	0xbd8ccc6d	-0.068749286
207	0x3d185797	0.037192907
208	0xbc308d93	-0.010775941
209	0x3d29e0b3	0.041474055
210	0xbcff2f24	-0.031150408
211	0xbcf8f69c	-0.03039103
212	0x3d4a8826	0.049446248
213	0x3c812f41	0.015769603
214	0x3d89f493	0.06736102
215	0x3c4bbcb1	0.012435124
216	0x3c41b6a6	0.011823332
217	0xbd2f91c8	-0.042863637
218	0xbd77546f	-0.060383257
219	0xbceec354	-0.029145874
220	0x3c83053d	0.015993709
221	0xbca7da5d	-0.020489866
222	0xbda46cd1	-0.080285676
223	0xbc2fd604	-0.010732178
224	0x3d3538c9	0.044243608
225	0x3d1d42a1	0.03839362
226	0x3d144ef2	0.0362081
227	0xbca099da	-0.019604612
228	0xbd6c483a	-0.057686068
229	0xbd318b20	-0.04334557
230	0xbd41f0bb	-0.04734872
231	0x3c0a8169	0.008453705
232	0x3ca60cae	0.020269718
233	0xbd47e4ee	-0.04880231
234	0x3cb319b9	0.021862851
235	0x3d0ea93c	0.034829363
236	0xbd1a35c8	-0.037648946
237	0x3cc09d1b	0.023512414
238	0x3deb20f4	0.11480895
239	0xbd9b9e1e	-0.07598518
240	0xbb836d80	-0.004010856
241	0xbcb50b8d	-0.022100234
242	0xbce32f48	-0.027732506
243	0x3d441140	0.047868013
244	0x3ccf0f3e	0.025275823
245	0x3d594468	0.053043753
246	0xbd967add	-0.07347653
247	0x3dad2eb8	0.084561765
248	0x3cc2d3bb	0.023782602
249	0x3daaad76	0.08333866
250	0x3c5008aa	0.012697378
251	0x3a2cf7ea	0.00065982214
252	0x3d9e5ee7	0.07732945
253	0x3c08d191	0.008350746
254	0x3ca3c17e	0.019989725
255	0x3bebe2ba	0.007198659

bias f4 [128]
0	0xbc5b1277	-0.013371102
1	0x3d72bf42	0.05926443
2	0xbd538f16	-0.05165013
3	0xbcf5ced0	-0.030005842
4	0x3cb8ce48	0.0225593
5	0xbd068e44	-0.03285052
6	0x3c53a08b	0.012916694
7	0x3d43129b	0.047625165
8	0x3d41db65	0.04732837
9	0x3bbde0ee	0.005794636
10	0x3d47b8ce	0.048760228
11	0xbd5f0fd4	-0.054458454
12	0xbd3850c4	-0.0449989
13	0xbc159894	-0.009130616
14	0x3cad49b5	0.02115331
15	0xbd0d9a50	-0.034570992
16	0xbc0b5e61	-0.008506388
17	0x3d0a873e	0.033820383
18	0x3d2ed19d	0.04268037
19	0xbd5d4140	-0.054017305
20	0x3ca3f608	0.020014778
21	0xbcd0960c	-0.025462173
22	0x3bd91033	0.0066242456
23	0xbd2a6f79	-0.041610215
24	0xbd79f13a	-0.061021067
25	0x3d4c2bdb	0.04984651
26	0x3c986072	0.018600676
27	0xbc8431ad	-0.016136969
28	0x3c0ddd74	0.008658756
29	0x3c48c586	0.0122541245
30	0xbcba7cf2	-0.022764657
31	0xbd44bc73	-0.04803128
32	0x3ce37eb7	0.027770383
33	0xbd35ea39	-0.044412825
34	0xbc8d7cea	-0.017271478
35	0xbd5f2057	-0.0544742
36	0xbcc908f0	-0.024540395
37	0x3d4d4f52	0.050124474
38	0x3d4c4f5b	0.049880367
39	0xbc3485ae	-0.0110182
40	0x3cb7e34c	0.02244725
41	0x3c2c0808	0.010499962
42	0x3bb7123d	0.005586891
43	0xbce9b5c6	-0.02852906
44	0xbd05c8af	-0.03266209
45	0xbc2b6785	-0.010461693
46	0x3d475fb1	0.048675243
47	0x3d003303	0.03129865
48	0xbcbd5cf6	-0.023115616
49	0xbc497348	-0.012295552
50	0xbcf41a73	-0.029797768
51	0xbd8cfec5	-0.06884531
52	0xbd1fac4d	-0.03898268
53	0x3c98c735	0.018649677
54	0xba45068d	-0.000751593
55	0xbd028a62	-0.031870253
56	0x3acae1a6	0.0015478625
57	0xbcd6ca47	-0.0262195
58	0x3d22d76c	0.039756224
59	0xbd27bdc1	-0.040952448
60	0xbd0b43de	-0.03400027
61	0xbcc4c72a	-0.02402075
62	0xbc86ff2e	-0.016479101
63	0x3cb4a2b4	0.02205024
64	0x3c8572fc	0.01629018
65	0xbc55d5bd	-0.013051447
66	0xbc63c144	-0.013901059
67	0x3c3dfa70	0.0115953535
68	0x3cca9609	0.024729745
69	0x3ccf2192	0.025284562
70	0x3cc2682a	0.02373131
71	0x3d4f84f1	0.050663892
72	0xbd3c5a1a	-0.045984365
73	0x3c910b1b	0.01770549
74	0xbd053bc8	-0.032527715
75	0xbd806e0d	-0.062709905
76	0xbd27faf6	-0.04101082
77	0xbcc1a49c	-0.023638062
78	0x3ce1934e	0.02753606
79	0xbd067752	-0.032828636
80	0x3b4ab61c	0.00309313
81	0xbbed22d3	-0.0072368174
82	0xbd171115	-0.036881525
83	0xbd5af936	-0.053460322
84	0xbd0d8912	-0.03455455
85	0xbd043cf4	-0.032284692
86	0xbce5f848	-0.028072491
87	0x3d4d499d	0.05011903
88	0x3ce747c5	0.028232465
89	0x3d816cad	0.063195564
90	0x3cfe063e	0.031008836
91	0xbcebc193	-0.028778827
92	0xbd1c3895	-0.0381399
93	0x3b7ba670	0.0038398765
94	0xbd94668e	-0.07246123
95	0x3ca29ebd	0.019851083
96	0x3ca156e3	0.019694751
97	0x3957ff36	0.00020599071
98	0x3d143e2c	0.036192104
99	0xbd629e08	-0.05532649
100	0x3c450f55	0.012027581
101	0xbcb036c8	-0.021510497
102	0x3c8f8d78	0.017523512
103	0x3d0e1eca	0.03469733
104	0xbd4e298c	-0.05033259
105	0xbd122dcc	-0.035688207
106	0x3d0fca8f	0.035105284
107	0x3c83cb0a	0.016088028
108	0xbd54a03b	-0.05191062
109	0x3c9389e7	0.018010093
110	0x3c8968bd	0.016773576
111	0xbd1482a8	-0.036257416
112	0x3bd5d7e0	0.0065259784
113	0x3c3b275d	0.011422959
114	0xbd13b5d1	-0.036062066
115	0x3d34af6c	0.044112608
116	0x3c6959cf	0.014242603
117	0xbcdf48bd	-0.027256364
118	0xbcfaefbf	-0.030631898
119	0x3c81aa6f	0.01582834
120	0xbc15e70a	-0.009149322
121	0xbbaccf29	-0.005273719
122	0xbd075f1a	-0.03304968
123	0x3cfe48d1	0.031040581
124	0x3cab739d	0.020929152
125	0xbbde96e8	-0.006792892
126	0xbd86a009	-0.06573493
127	0x3cae81ae	0.02130207

weight f4 [128, 128]
0	0xbce9b577	-0.028528912
1	0xbc4ec3d0	-0.0126199275
2	0x3db39dd3	0.08770337
3	0x3cbb6f42	0.0228802
4	0xbcebe042	-0.028793458
5	0x3d48c28d	0.049013663
6	0xbd4747e0	-0.04865253
7	0x3cef7412	0.029230151
8	0x3cb321d9	0.021866726
9	0x3d25520c	0.04036145
10	0xbc956c99	-0.01824026
11	0x3ddbfd07	0.107416205
12	0x3cd77ae5	0.026303718
13	0xbc5132d1	-0.012768463
14	0xbb81acbc	-0.003957359
15	0x3c660140	0.014038384
16	0xbd50ac2f	-0.050945457
17	0x3cbf742a	0.023370821
18	0xbd08309f	-0.033249494
19	0xbdc274bd	-0.09494922
20	0x3c877485	0.016535053
21	0xbc02233a	-0.007942969
22	0x3ddc1f5b	0.10748168
23	0x3cb7b334	0.022424318
24	0xbbbbd9a5	-0.0057327324
25	0x3dba8605	0.091075934
26	0x3daf2881	0.085526474
27	0xbd44f2c2	-0.048083074
28	0xbdb60aaf	-0.088887565
29	0x3dc98a6f	0.09840857
30	0xbb012046	-0.0019703074
31	0x3cba67e8	0.022754624
32	0xbdf01979	-0.117236085
33	0x3c1d410c	0.009598028
34	0xbd171051	-0.036880795
35	0xbc6191bc	-0.013767656
36	0x3d9ab745	0.07554487
37	0xbd08256a	-0.033238806
38	0xbd17ce60	-0.03706205
39	0x3dd39440	0.10331011
40	0x3d5304b6	0.051518165
41	0xbc815f50	-0.015792519
42	0xbcacdd26	-0.021101546
43	0xbd30caa2	-0.043161996
44	0xbc4fa450	-0.0126734525
45	0xbcba9822	-0.02277762
46	0xbd587605	-0.052846927
47	0xbd439984	-0.047753826
48	0x3c8b179f	0.016979037
49	0xbd71e9a5	-0.05906071
50	0xbcea47c4	-0.028598674
51	0x3dcc5d5b	0.09978744
52	0xbb1e465c	-0.0024150824
53	0x3d54af94	0.051925257
54	0x3dcadcbf	0.09905385
55	0x3cecd641	0.028910758
56	0xbd5fc68d	-0.054632712
57	0x3cf01fdb	0.029312065
58	0xbcb96762	-0.022632305
59	0x3df2a651	0.118481286
60	0xbc313e33	-0.010818052
61	0x3cbffb05	0.023435125
62	0x3d1cfccb	0.03832702
63	0x3dd68f13	0.10476508
64	0x3d43c4be	0.04779505
65	0x3d25e9a4	0.04050602
66	0x3dcf3e5a	0.101193145
67	0x3d415333	0.047198486
68	0xbd20dfe5	-0.039276022
69	0x3dcdea26	0.10054426
70	0xbcc42e1c	-0.023947768
71	0xbd9ec3dc	-0.07752201
72	0x3d6765d8	0.05649361
73	0xbcbbbb5a	-0.022916485
74	0x3c2feced	0.01073764
75	0x3da373a2	0.079810396
76	0x3dd4fb07	0.10399442
77	0xbd24c811	-0.04022986
78	0x3c3fac94	0.011698861
79	0x3aee3db9	0.0018176354
80	0xbd4a34c9	-0.049366746
81	0xbd82eadd	-0.06392453
82	0xbd9120e9	-0.07086355
83	0x3dd96bed	0.10616288
84	0x3c9d6b33	0.019216156
85	0xbd260317	-0.04053029
86	0xbd8c18ae	-0.06840645
87	0xbd7af5cd	-0.06126957
88	0x3d44518a	0.047929324
89	0xbd9f5bd2	-0.07781185
90	0x3ca09715	0.019603292
91	0x384dd822	4.9077098e-05
92	0x3cb1c484	0.021700151
93	0x3cca8a4f	0.024724154
94	0x3d6a0da2	0.057141908
95	0xbcf47154	-0.029839195
96	0xbbd57347	-0.0065139863
97	0x38f40bac	0.00011637001
98	0xbce6036c	-0.028077804
99	0xbcaec1d2	-0.021332655
100	0xbc9265ff	-0.017870901
101	0xbdbab8e2	-0.09117295
102	0x3cd9b653	0.026576197
103	0x3ca6ca68	0.020360187
104	0x3b0e6235	0.0021726016
105	0x3cce89b6	0.02521215
106	0x3dadd661	0.08488155
107	0x3c6ca2d7	0.014443121
108	0x3d7e4e2d	0.062086273
109	0xbd890c9f	-0.066918604
110	0xbce653d1	-0.028116139
111	0x3be7352b	0.0070558987
112	0xbcc61c0a	-0.024183292
113	0x3d948d97	0.072535686
114	0x3c2d88a3	0.010591659
115	0xbd82df59	-0.063902564
116	0x3c8fbbe4	0.017545648
117	0xbd50fc5a	-0.05102191
118	0xbd84abf4	-0.0647811
119	0x3d0d33b3	0.034473132
120	0xbcd28ee3	-0.0257029
121	0x3b83291f	0.0040027048
122	0x3d5d8482	0.054081447
123	0x3b9fec0d	0.0048804344
124	0xbd9e24d8	-0.07721871
125	0x3c95a820	0.018268645
126	0xbd7b191e	-0.06130325
127	0x3d423260	0.047411323
128	0x3d9b7abb	0.07591768
129	0xbd8dd754	-0.06925836
130	0x3d9419a6	0.072314546
131	0x3c8554b9	0.01627575
132	0x3c8222e7	0.015885783
133	0xbd2715e9	-0.04079238
134	0x3d0b085f	0.03394353
135	0x3d7b7fc9	0.061401162
136	0x3d823c79	0.063591905
137	0xbd54c5fd	-0.05194663
138	0x3ca54c99	0.020178126
139	0x3dc8dd28	0.09807807
140	0x3de374ca	0.1110626
141	0x3d829555	0.06376139
142	0x3e06d8e3	0.13168673
143	0xbd4edaad	-0.050501514
144	0xbd78e826	-0.06076827
145	0x3de119fa	0.10991283
146	0xbd4187f5	-0.0472488
147	0xbd835b06	-0.06413846
148	0x3d2b1f85	0.041778106
149	0x3d668cbb	0.056286555
150	0xbd921d27	-0.071344666
151	0x3dd30617	0.10303896
152	0x3d084c0e	0.033275656
153	0x3b688321	0.003547855
154	0x3d385e34	0.045011714
155	0x39c08a89	0.0003672431
156	0xbc8e99f7	-0.0174074
157	0xbcda56e5	-0.026652763
158	0x3d5f3430	0.05449313
159	0xbcaafcdf	-0.020872531
160	0xbdb885ba	-0.09009881
161	0xbcf0401a	-0.029327441
162	0x3cabc296	0.02096681
163	0x3dac9f46	0.084288165
164	0xbd420d9e	-0.047376268
165	0x3cff2978	0.031147704
166	0x3c9ea619	0.01936631
167	0xbce5b463	-0.028040117
168	0xbd2431c0	-0.040086508
169	0x3b3ada13	0.002851133
170	0x3bad45e9	0.005287875
171	0x3cd7c818	0.02634053
172	0xbcd79ec4	-0.026320823
173	0x3c303394	0.010754485
174	0xbc479879	-0.012182348
175	0xbd43f1bf	-0.04783797
176	0x3de0359a	0.10947724
177	0xbbb2a3f5	-0.005451674
178	0x3d620a65	0.055185694
179	0xbdec432a	-0.11536248
180	0x3d39828e	0.045290522
181	0x3cc23bca	0.02371015
182	0xbd489fef	-0.04898065
183	0xbd9daeda	-0.07699366
184	0x3c30b282	0.010784747
185	0xbd46f693	-0.048574995
186	0x3cf96795	0.0304449
187	0x3d27d8b7	0.04097816
188	0x3d441506	0.047871612
189	0x3db44398	0.08801955
190	0x3d8bdf4c	0.068297
191	0x3ce6dd6f	0.02818176
192	0xbd22add4	-0.039716557
193	0x3d406d33	0.04697914
194	0x3db89451	0.09012664
195	0x3d072030	0.03298968
196	0xbc69719d	-0.014248279
197	0x3d942f42	0.07235576
198	0xbaf45a8e	-0.001864271
199	0xbd6bb14f	-0.05754214
200	0xbd5d7391	-0.05406529
201	0x3d9f0105	0.07763866
202	0x3d7fab10	0.062418997
203	0xbd3416b5	-0.043966968
204	0x3ca9805f	0.020691095
205	0x3c2100aa	0.0098268185
206	0xbd39bb89	-0.045344863
207	0x3d3f8330	0.04675597
208	0x3d73cab4	0.059519485
209	0xbdda369e	-0.10654949
210	0x3dffb0f5	0.12484924
211	0xbbb89056	-0.0056324406
212	0xbccda200	-0.025101662
213	0xbd4f09df	-0.050546523
214	0xbd1befc0	-0.03807044
215	0x3d129e1a	0.03579531
216	0xbda8088b	-0.082047544
217	0x3d402c19	0.046917055
218	0x3d224af7	0.039622273
219	0x3d99c01d	0.07507346
220	0x3d808209	0.06274802
221	0x3c459dde	0.012061564
222	0x3dc17b14	0.094473034
223	0x3d110b98	0.035411447
224	0xbd765f5c	-0.060149536
225	0xbc438bcb	-0.011935185
226	0x3d9be7d8	0.0761258
227	0xbc0b24fa	-0.008492703
228	0xbd021a9c	-0.031763658
229	0xbd4e46b9	-0.050360415
230	0x3d0d0f4a	0.03443841
231	0xbc5c9f7d	-0.013465759
232	0xbd7acd48	-0.061230928
233	0x3c8456fa	0.016154755
234	0x3d7c1b14	0.06154926
235	0x3d9442fe	0.0723934
236	0x3da5290a	0.08064468
237	0xbd5c9a2c	-0.053857967
238	0x3c147ee2	0.009063454
239	0x3bf29364	0.0074028242
240	0xbc9b87ca	-0.018985648
241	0xbd44a73b	-0.048011046
242	0x3dd64365	0.10462073
243	0x3ca1a479	0.019731747
244	0xbda65ff3	-0.081237696
245	0xbdbd5df1	-0.092464335
246	0x3de5fc93	0.11229815
247	0x3c014165	0.007889126
248	0xbdc4a248	-0.09601265
249	0xba840f8d	-0.0010075435
250	0xbd10f047	-0.035385396
251	0xbd354a39	-0.044260237
252	0xbd72cd26	-0.059277676
253	0xbd8ac310	-0.067754865
254	0x3d2cdea8	0.04220453
255	0xbd2aa3a9	-0.041659985

bias f4 [128]
0	0x3d761341	0.060076956
1	0xbcbfc3ce	-0.023408797
2	0x3d6a410a	0.057190932
3	0xbdb2b902	-0.08726694
4	0x3d81b19f	0.06332707
5	0x3d02fd59	0.031979892
6	0xbdb53481	-0.08847905
7	0xbda0243e	-0.07819413
8	0x3cdbb800	0.026821136
9	0xbbac2462	-0.0052533606
10	0x3abb114f	0.0014272126
11	0xbbf676ed	-0.0075215013
12	0xbd172c93	-0.036907744
13	0x3db0e9e4	0.08638361
14	0xbbbfc0cf	-0.005851842
15	0xbc9516b7	-0.018199308
16	0xbdcaf9ef	-0.09910952
17	0x3c6309be	0.013857303
18	0x3d4b2e26	0.049604557
19	0xbba20a6e	-0.004945091
20	0xbd8bfba8	-0.06835109
21	0xbbcdf834	-0.0062856916
22	0xbd4d7007	-0.050155666
23	0xbd198916	-0.03748425
24	0x3d4b5d81	0.04964972
25	0xbd44df67	-0.048064616
26	0x3c1e4055	0.009658893
27	0x3d17ed7a	0.03709171
28	0xbda22aea	-0.079183415
29	0xbd7b957b	-0.061421853
30	0xbbe2343d	-0.0069032
31	0xbd887687	-0.06663232
32	0xbcd09049	-0.025459426
33	0xbc6486ed	-0.013948184
34	0xbdc9b5e8	-0.09849149
35	0xbd234732	-0.03986282
36	0xbcfc326f	-0.030785767
37	0x3d8cea0a	0.06880577
38	0xbda097e2	-0.07841469
39	0xbc511146	-0.012760466
40	0x3d92328a	0.07138546
41	0xbdccde25	-0.10003308
42	0x3d993633	0.07481041
43	0x3d911576	0.070841715
44	0xbd0e3799	-0.03472099
45	0xbd5a104b	-0.053238194
46	0xbce2d81c	-0.02769094
47	0xbda39c47	-0.07988792
48	0xbd7750f7	-0.06037995
49	0x3d82884d	0.063736536
50	0xbd8b074c	-0.06788501
51	0xbd9ea0b6	-0.07745497
52	0x3cd3e2c0	0.025864959
53	0xbc5033e4	-0.012707684
54	0xbdd624e2	-0.104562536
55	0xb9819d08	-0.00024721795
56	0x3d9e315e	0.0772426
57	0x3dbb7b8f	0.09154426
58	0x3d52823d	0.051393736
59	0xbd5f18b5	-0.05446692
60	0x3d864851	0.06556762
61	0xbcdb08f6	-0.026737671
62	0xbd9e14eb	-0.077188335
63	0xbcb462f9	-0.02201985
64	0xbc9b31aa	-0.01894458
65	0x3cf35ff8	0.029708847
66	0x3d26894c	0.04065828
67	0x3ccdca55	0.025120893
68	0xbddb08d5	-0.10695044
69	0x3cf4ae7f	0.029868362
70	0xbc378809	-0.011201867
71	0xbd3b6634	-0.045751765
72	0xbcd02410	-0.025407821
73	0x3d4011b7	0.046891894
74	0xbd38f7c4	-0.045158163
75	0xbbf92f3d	-0.007604508
76	0x3c82498c	0.01590421
77	0x3cfd4b57	0.030919714
78	0x3dae16bc	0.0850043
79	0xbcfae41d	-0.030626351
80	0xbd03d9f3	-0.032190274
81	0xbd2d8505	-0.042363185
82	0x3cc33b64	0.02383203
83	0xbc841eeb	-0.016128024
84	0x3c2ebacc	0.010664653
85	0xbd87ddd4	-0.06634107
86	0xbc0dc19b	-0.008652116
87	0xbc0bbdfb	-0.008529182
88	0x3dad754e	0.0846964
89	0xbd9ea27e	-0.07745837
90	0xbd73e05f	-0.05954015
91	0xbd77a91b	-0.060464006
92	0x3c07c3c0	0.0082864165
93	0xbd04783e	-0.032341234
94	0x3d1e3ba4	0.038631096
95	0xbd4aef67	-0.049544718
96	0xbd54608e	-0.051849894
97	0x3d4714b4	0.04860373
98	0x3c87a383	0.01655746
99	0xbd9817f8	-0.07426447
100	0x3d178b25	0.036997933
101	0xbd9ff2f3	-0.07810011
102	0x3cf4cc0d	0.029882455
103	0xbbe12d10	-0.006871827
104	0xbd3f13a4	-0.04664959
105	0x3d8c7160	0.06857562
106	0xbcd30382	-0.025758509
107	0x3d3008c9	0.04297713
108	0xbddec343	-0.10877087
109	0x3d90cac1	0.07069922
110	0x3d709033	0.05873127
111	0xbd90003a	-0.07031293
112	0xbd4b7913	-0.049676012
113	0x3d85740a	0.06516273
114	0x3d933a72	0.07188882
115	0xbdb20c4c	-0.08693752
116	0x3d17e064	0.03707923
117	0xbd93282c	-0.071853966
118	0x3d9f8dbf	0.07790708
119	0xbd98d647	-0.07462745
120	0x3d3af05b	0.045639377
121	0x3d9e495d	0.07728837
122	0x3d442ae1	0.047892455
123	0xbd7d6de4	-0.061872378
124	0xbc8fc22c	-0.017548643
125	0xbd8d6b41	-0.06905223
126	0x3dae5499	0.085122295
127	0x3d8a9dff	0.067684166

weight f4 [23, 128]
0	0xbd6197f0	-0.05507654
1	0x3d8f5dfa	0.070003465
2	0xbd878dd1	-0.06618846
3	0x3dc75b48	0.097342074
4	0x3c82b99b	0.015957644
5	0x3ce19770	0.027538031
6	0x3d2a1adb	0.041529518
7	0xbd211a09	-0.03933147
8	0xbcf0af74	-0.029380538
9	0xbbe25444	-0.006907018
10	0xbb7d20ff	-0.0038624404
11	0xbd52b32e	-0.05144041
12	0xbd95d344	-0.07315686
13	0xbd475590	-0.048665583
14	0x3ddd11f4	0.1079444
15	0x3d354a61	0.044260386
16	0x3bc6fb08	0.0060724057
17	0xbc4da958	-0.012552582
18	0x3d11d988	0.035607845
19	0x3ddbd2f1	0.10733593
20	0x3d02f7c5	0.031974573
21	0x3d9af67e	0.07566546
22	0x3da04631	0.07825888
23	0x3b3fa972	0.0029245284
24	0xbadf766e	-0.0017048845
25	0x3d81d21e	0.06338905
26	0x3d6a642f	0.05722445
27	0xbdd0037e	-0.10156916
28	0xbd869ffe	-0.06573485
29	0x3e0b6d2c	0.13615865
30	0x3da259ba	0.0792727
31	0xb93f8903	-0.0001826622
32	0x3cbaa57f	0.022783993
33	0xbd4d9579	-0.050191376
34	0xbd8399b5	-0.06425802
35	0x3daa52ea	0.08316596
36	0x3d641a6e	0.055689268
37	0xbbb72fc5	-0.0055904114
38	0x3dfc34c6	0.12314753
39	0xbce4b975	-0.027920464
40	0x3b03de68	0.0020121578
41	0xbd0af8e8	-0.03392878
42	0xbc5b94b8	-0.0134021565
43	0xbdb78106	-0.08960156
44	0xbad23881	-0.0016038568
45	0x3e49e4e0	0.19716215
46	0x3d6ff473	0.058582734
47	0x3c3f7b66	0.011687135
48	0x3c1f4b8c	0.009722602
49	0xbd034176	-0.03204485
50	0x3dd35131	0.103182204
51	0x3e144293	0.14478521
52	0x3d916027	0.07098418
53	0xbdb23b76	-0.087027475
54	0xbd141660	-0.03615415
55	0xbc49302f	-0.012279554
56	0xbc780b55	-0.0151394205
57	0xbc804bf2	-0.015661214
58	0xbdaed846	-0.08537345
59	0x3dc3e7a1	0.09565664
60	0x3cf6c091	0.03012112
61	0xbc0dcc91	-0.008654729
62	0x3cb20bcd	0.021734143
63	0x3cc25b15	0.023725072
64	0xbcba939b	-0.022775462
65	0x3ce1d920	0.027569354
66	0xbd44caeb	-0.04804508
67	0xbdf2ed20	-0.11861634
68	0xbc92b951	-0.017910631
69	0x3d8730e1	0.0660112
70	0x3d2b06e5	0.041754622
71	0x3de76b97	0.11299818
72	0x3d8a7c85	0.067620315
73	0xbd8d704a	-0.06906183
74	0x3d39e7c6	0.045387052
75	0x3a7b7fd5	0.00095939386
76	0xbd79664b	-0.06088857
77	0xbcce937f	-0.025216816
78	0xbdb96d1c	-0.09054014
79	0xbd4af938	-0.04955408
80	0x3cc1445f	0.023592172
81	0x3d049a06	0.03237345
82	0xbcb66d5c	-0.022268943
83	0x3d9fc466	0.07801132
84	0x3d510875	0.051033456
85	0xbc81ee20	-0.015860617
86	0x3c23c898	0.009996556
87	0x3b938fb4	0.0045032147
88	0x3df507d9	0.119643874
89	0xbaea5984	-0.0017879461
90	0xbd5f549d	-0.054524053
91	0x3da1a924	0.07893589
92	0x3c8dc4f2	0.017305825
93	0xbd5fef7d	-0.054671753
94	0x3da0a830	0.07844579
95	0xbcf03850	-0.029323727
96	0x3cb57736	0.02215157
97	0xbc85a69f	-0.016314803
98	0xbd990a9a	-0.07472725
99	0xbc5adf9d	-0.013358978
100	0x3cce6021	0.025192322
101	0x3d8ce29d	0.068791606
102	0x3d046cc1	0.03233028
103	0xbc8f0390	-0.017457753
104	0x3daaf366	0.08347206
105	0xbd8e288d	-0.06941328
106	0xbbff6359	-0.0077938256
107	0x3d6b7feb	0.05749504
108	0x3dc4dbef	0.096122615
109	0xbd0a912c	-0.033829853
110	0xbcdf0c70	-0.02722761
111	0x3dccb7e9	0.099960156
112	0xbd388616	-0.04504975
113	0xbdda9b89	-0.10674197
114	0xbd11953a	-0.035542704
115	0xbc5fe844	-0.013666216
116	0xbd53743e	-0.05162453
117	0xbc0ef2d6	-0.008724889
118	0x3cf0ea3e	0.02940857
119	0x3c9c038a	0.019044656
120	0xbd796c7e	-0.06089448
121	0xbddcdb7c	-0.10784051
122	0xbd85b043	-0.0652776
123	0xbdc770cd	-0.09738312
124	0x3e1b1178	0.15143383
125	0xbd26f43d	-0.040760268
126	0xbe3871f8	-0.18012226
127	0xbd007f38	-0.031371325
128	0x3e00be9b	0.1257271
129	0x3e0f0874	0.13968068
130	0x3d3a60f4	0.045502618
131	0xbc711c6d	-0.01471625
132	0xbcb4fd87	-0.022093548
133	0x3e087539	0.13325967
134	0x3c966f2f	0.018363563
135	0xbca5c746	-0.020236623
136	0xbc788fc7	-0.015170998
137	0x3d785e1f	0.060636636
138	0x3d5543c3	0.052066576
139	0xbdfbfc71	-0.12304009
140	0xbd39bdf2	-0.04534716
141	0xbdc54e47	-0.09634071
142	0x3d7b3cb4	0.061337188
143	0x3d9b6cf2	0.07589139
144	0xbc610984	-0.013735179
145	0x3de4d4fd	0.11173437
146	0xbda4ed42	-0.08053066
147	0xb98d9f39	-0.00027012246
148	0xbc9b3216	-0.018944781
149	0xbd007e10	-0.031370223
150	0xbc46c181	-0.012131096
151	0xbc26d0cc	-0.010181617
152	0xbdf8a6c0	-0.1214118
153	0x3da020a3	0.07818725
154	0xbd13ca68	-0.0360817
155	0x3da00512	0.07813467
156	0xbe27c866	-0.1638504
157	0xbe1b690c	-0.15176791
158	0x3d9b8f4b	0.0759569
159	0x3d7ee5a1	0.06223071
160	0x3b31509e	0.0027056108
161	0x3da83d40	0.082148075
162	0xbd5c09ff	-0.05372047
163	0xbe0c6a6b	-0.1371247
164	0x3d628d8e	0.05531078
165	0xbd3a8aca	-0.045542516
166	0x3d3be121	0.045868997
167	0x3daed921	0.08537508
168	0x3e140aab	0.14457195
169	0x3d5674f6	0.052357636
170	0xbdf07670	-0.1174134
171	0x3a4b8d25	0.00077648676
172	0xbdb08898	-0.08619803
173	0xbd2166bf	-0.039404627
174	0xbd976262	-0.07391812
175	0x3e2a35fa	0.16622153
176	0xbcf6e3ef	-0.030137984
177	0xbc800318	-0.015626475
178	0x3da9cdd2	0.0829121
179	0xbde2e50a	-0.11078842
180	0xbc87e5ec	-0.016589127
181	0xbd477986	-0.04869988
182	0x3dafb16c	0.085787624
183	0x3dd41f85	0.103575744
184	0x3ca4cc3c	0.020116918
185	0xbd5294e2	-0.051411517
186	0xbd8ac714	-0.067762524
187	0xbde841b3	-0.11340656
188	0xbe490025	-0.19628961
189	0x3d2b63f3	0.041843366
190	0x3d442279	0.04788444
191	0xbde0a8ec	-0.10969719
192	0xbded35be	-0.11582516
193	0xbc1e418f	-0.009659185
194	0x3dec575f	0.11540102
195	0xbd795852	-0.060875244
196	0xbd8cdc8c	-0.068780035
197	0xbd28bed8	-0.041197628
198	0xbd4d8488	-0.05017522
199	0x3c343743	0.010999504
200	0x3cc52a4c	0.02406802
201	0x3a7f30e0	0.0009734761
202	0x3d85f14f	0.065401666
203	0xbcd95b44	-0.026532777
204	0xbc95281e	-0.018207606
205	0x3e53977d	0.20663257
206	0x3cc7b464	0.02437801
207	0xbd97c1e5	-0.07410029
208	0x3d1cb2a3	0.0382563
209	0x3ddbaf0d	0.10726748
210	0xbbd2a4cd	-0.006428337
211	0xbd4aa307	-0.04947188
212	0x3ca578a2	0.020199124
213	0xbbeb4e5d	-0.0071809725
214	0xbd5c55f3	-0.053792905
215	0xbcbbcfdd	-0.022926265
216	0x3cafe38c	0.021470807
217	0x3de0789f	0.10960507
218	0xbab43d73	-0.0013751223
219	0xbc12d995	-0.008963008
220	0x3d87ed0d	0.06637011
221	0xbd49ce6e	-0.049269132
222	0xbd1b5b05	-0.0379286
223	0xbd27b1d4	-0.040941074
224	0x3e0d3364	0.13789135
225	0xbdc4c623	-0.09608104
226	0x3e2831ed	0.16425295
227	0xbcee6a1b	-0.02910333
228	0xbce17f0a	-0.027526397
229	0xba219834	-0.00061643426
230	0xbc82a040	-0.015945554
231	0x3d3736f3	0.044730138
232	0x3e096483	0.13417248
233	0x3dc83973	0.097765826
234	0x3aae4313	0.0013295136
235	0xbc05375f	-0.008130877
236	0x3d1b85db	0.03796945
237	0x3d110691	0.035406653
238	0x3dc839e4	0.09776667
239	0xbddb5071	-0.10708702
240	0x3d30100a	0.042984046
241	0xbdbfe665	-0.09370116
242	0xbc260678	-0.010133378
243	0x3d6e2088	0.058136493
244	0x3c07e668	0.008294679
245	0xbdcfe23d	-0.101505734
246	0xbc90f64c	-0.017695569
247	0x3c9d346f	0.019190041
248	0x3e0b1098	0.13580549
249	0xbd1c8f1a	-0.03822241
250	0x3cf2621a	0.029587794
251	0xbd1a779c	-0.037711725
252	0x3d0fb059	0.035080288
253	0x3cddb03c	0.027061574
254	0xbc32efe1	-0.010921449
255	0x3c3c3a21	0.011488468

bias f4 [23]
0	0xbdfecf9c	-0.12441942
1	0x3accf26d	0.0015636213
2	0x3d7dc967	0.06195965
3	0x3ca76202	0.020432476
4	0x3c5e6367	0.013573504
5	0x3b2bba2d	0.0026203499
6	0x3d3226af	0.043493923
7	0xbca37139	-0.01995145
8	0xbd74f5c7	-0.059804704
9	0xbd3b034b	-0.045657437
10	0xbdc6056c	-0.09669003
11	0x3d87d70f	0.06632816
12	0x3d735433	0.05940647
13	0x3d57ef0c	0.052718207
14	0xbdb12a51	-0.08650649
15	0xbc930868	-0.017948344
16	0xbdb682b5	-0.08911649
17	0xbd0093dd	-0.031391013
18	0x3d1d95a2	0.03847278
19	0x3cf8c350	0.03036657
20	0xbd8c1609	-0.0684014
21	0xbd368e3b	-0.044569235
22	0x3d3598f3	0.044335317
