deploy/models/booster_gym_exp_1/model_9000.pt (torch, 303934 bytes, 8 tensors)

weight f4 [256, 80]
00000000: b89e 12bf f320 0a3e 05d9 073c 606c d03c
00000010: bb33 be3d 5654 1dbd a2a8 e03d 71f1 b03d
00000020: 55eb 85bd 5e12 dc3d b1f7 e13c 5889 febd
00000030: 6661 1cbd 513e 643c d024 c83d ea3a 4c3c
00000040: 058d 20bd 6377 7f3c 21e0 843c f4bc 2f3c
00000050: e27c 113d 5c9c a0bd 686e f43e d81b 44be
00000060: 38ee a0be a23b da3d 8939 ce3d 9b04 06bd
00000070: 5346 fcbe 9768 9abe 1eb6 d8bd 05dd e3be
00000080: a2d5 2ebe 0095 d43e b1c7 e53d 08b1 cdbc
00000090: f2c0 f33d 45ff ab3e 2ee6 293d 917f 863d
000000a0: a62e 1a3b 7112 6f3e 3f3e 313d c2fd 15bd
000000b0: 2a20 893c b14b d0bd 584b b3bd baef 02be
000000c0: af8d f0bc 2d04 76bd bd26 11bd 0194 213e
000000d0: 2236 a63e 5e50 52bd 5cc6 e0bc 30f9 28be
000000e0: dc5d d43c c3c0 88bd aec2 35be 2bcf e1bc
000000f0: 4a5a 803d eb6f 13be f28f 59bc 5322 04bc
00000100: 0fad a83b e525 00bc a001 983d 2447 37be
00000110: 0d60 b7be 2b33 903d ce7a 913e 486c 1ebe
00000120: a2b5 c1bd 4416 123e 8e72 9b3d f81c 7b3e
00000130: fb3b eebd 566d 44be a99f 9a3c a662 d7bd
00000140: 77f0 b93c f918 38bf a6a2 1fbe 510a d33d
00000150: d3dc 8d3d 6448 423c 775d 6bbd 326d 9bbd
00000160: c826 563d 72e6 2abd 61dd c4bd 15c5 733d
00000170: 7528 3b3e 6483 6abd 4806 adbd 8061 c8bc
00000180: 024b 20bd 3ffa 2f3d 1ac6 9b3d 1d85 c9bc
00000190: 4ae4 48bd 9ac1 3abe 4dce 93bd ba84 f53e
000001a0: 4fab 8bbe b3b8 913e 1be9 4b3d 21ef 82be
000001b0: 685f 27be 815a 96be 3502 533e 12e1 03be
000001c0: 725a 05be 1013 603b c24f e5bc d963 0ebe
000001d0: fdad 6cbd bc43 2ebe 49e3 e8b9 567e edbd
000001e0: bd63 5e3d 61ba 5a3c c050 c1bb f55f a53d
000001f0: df3d fa3d 6b96 273f 5d35 843c a4c3 31be
00000200: 451a de3e bed1 e03d acfe 1bbd f438 80be
00000210: 857c 7d3e d16f 4abd ca3c fdbd 5d72 d0bc
00000220: f794 1fbc e4a6 f73d 6aa2 f93c ace9 8f3d
00000230: 800e c53c 0d67 13bd a233 d33c 2cd7 6dbd
00000240: cd41 bcbc 4d55 b3bc 88d6 773d 0be0 5c3e
00000250: dc58 073d 1f8a 22be 1ce5 4e3e 4f09 3c3e
00000260: 3b37 4d3d 97ce 963a 6dcb 75bd e496 12be
00000270: 3077 f53d 511c da3d 1064 3abe e9d4 15be
00000280: e162 803e 56ac 1abf 6dc0 8c3d 3cdc 89bd
00000290: 40ff 8ebd b291 c5bc 553f 1dbd 5936 ebbc
000002a0: a3e4 e53c e290 d53d cafa 2fbc 014b adbd
000002b0: 8edc 913c 8484 3f3d 3bd3 2f3d 5964 9abd
000002c0: 65ac 773d a144 08be 4a86 9d3d 3fe5 f03c
000002d0: d915 473d e718 36be 2ce9 063e 2981 673e
000002e0: e185 d9be 4bd9 683e 4071 f33d b65b e5bd
000002f0: 5d74 bf3e c58a 6aba 3c2a c83e 628f a0be
00000300: ef9d 723e 907d 8a3d 0ec1 1f3d 01dc 37bd
00000310: 5a19 08be 651b 643e 9cdf 07bc 28ed bebd
00000320: 75c0 88bd e206 92bd 2115 efbc 43f4 e23d
00000330: b2e9 aabd a8aa c23e c2d8 80bd 365b a5bd
00000340: 5beb 5f3e b2f0 f33d a8d4 033d 8ed4 adbe
00000350: 188c da3e a540 653a 2eff 25be 84a0 073d
00000360: fd16 b83d da40 fabd 567b 1abe 83b7 cb3d
00000370: d3be f8bd 240c 143b cf4d c3bd 3d43 333d
00000380: 8a3d 05bc e0c5 323d 8dd5 913d 4d08 8dbc
00000390: 41d6 bf3c 5c2c 193d 6756 193e 8f09 92bc
000003a0: 98b9 72bd 2cd2 5cbe 2894 f0bc 116a 793e
000003b0: 3db1 0a3c 1326 6ebe 343a c93c e7af 303e
000003c0: dbd1 cbbd a820 a73e 386d 563c f383 91bd
000003d0: 339e 66bd 3985 ed3b 6cf0 8bbd 73d1 dd3d
000003e0: af8c 92bd 479a 0c3d e14c d63d c30c c6bc
000003f0: c1cb 05be 89b8 403d 861f b93b 8e9a b0bc
-0.57273436 0.13489132 0.008291488 0.025442302 0.092872106 -0.038410507 0.10969664 0.08639801
-0.06539027 0.10745691 0.027583929 -0.1242854 -0.038178824 0.013930873 0.097726464 0.012465218
-0.039196987 0.015592429 0.016220154 0.010726202 0.03551949 -0.07842323 0.47740483 -0.19151247
-0.31431746 0.10655905 0.10069568 -0.032719236 -0.49272403 -0.3015792 -0.10581611 -0.44504562
-0.17073682 0.41519928 0.11219729 -0.02510883 0.11902036 0.33593193 0.041479282 0.065673
0.002352634 0.23346879 0.043272253 -0.036618955 0.01673897 -0.10170687 -0.08754605 -0.12786761
-0.029364435 -0.060062576 -0.035437334 0.15779115 0.32463175 -0.051346175 -0.027438335 -0.16501307
0.025923662 -0.066773914 -0.17750046 -0.027564606 0.06267221 -0.14398162 -0.013278948 -0.008064824
0.0051475833 -0.007821535 0.07422185 -0.17898232 -0.35815468 0.070410095 0.28414005 -0.15470994
-0.09458472 0.14266306 0.07590209 0.2452277 -0.11632534 -0.19182333 0.01887496 -0.105168626
0.02269767 -0.71913105 -0.15589389 0.10304702 0.069268845 0.01185808 -0.057462182 -0.07589187
0.05228308 -0.041723676 -0.09612537 0.059514124 0.18277152 -0.05725421 -0.08448464 -0.024460554
-0.039134033 0.042963263 0.07606144 -0.024599606 -0.04904584 -0.18237916 -0.07217083 0.47952825
-0.27279136 0.28461227 0.049782854 -0.25573066 -0.16344988 -0.29365924 0.2060631 -0.12878826
-0.13022783 0.003419105 -0.027992133 -0.13905276 -0.057783116 -0.17018026 -0.0004441983 -0.11596362
0.054294337 0.0133501 -0.0058995187 0.08074943 0.12218832 0.65463895 0.016138727 -0.17359787
0.43379417 0.10977505 -0.03808467 -0.25043452 0.24754532 -0.049423043 -0.1236511 -0.025445158
-0.009740106 0.12092379 0.030472953 0.07026991 0.024054766 -0.03598695 0.025781456 -0.058066532
-0.022980595 -0.02189126 0.060507327 0.2156984 0.033043727 -0.15873002 0.20204586 0.18362926
0.0501015 0.001150566 -0.060008455 -0.14315373 0.11985624 0.10649932 -0.18202233 -0.14632
0.2507544 -0.60419214 0.0687264 -0.067314595 -0.06982279 -0.024117325 -0.038390476 -0.028712438
0.028063124 0.10428025 -0.010740945 -0.084615715 0.017805364 0.046757236 0.042926054 -0.07538671
0.060467143 -0.1330743 0.07691629 0.029406188 0.04860482 -0.17782937 0.13174886 0.22607864
-0.42484954 0.2273914 0.11886835 -0.11199133 0.37393466 -0.000894707 0.39094722 -0.31359392
0.2369306 0.067622304 0.03900247 -0.044887546 -0.13290921 0.22276075 -0.008293059 -0.09322578
-0.06677333 -0.07130219 -0.02918488 0.110817455 -0.08345355 0.38020825 -0.06291343 -0.08074038
0.21867125 0.11911143 0.032185227 -0.3395123 0.42685008 0.00087452895 -0.16210625 0.033112064
0.0898876 -0.12219401 -0.15086111 0.099471115 -0.12145772 0.0022590244 -0.09536325 0.043765295
-0.008132348 0.04364574 0.0712081 -0.017215872 0.023417594 0.03739582 0.14974366 -0.017826824
-0.059259027 -0.21564549 -0.029367521 0.24356867 0.008465108 -0.23256712 0.024563886 0.17254601
-0.09952136 0.32642102 0.013087563 -0.071052454 -0.056303214 0.0072485474 -0.06832966 0.10830965
-0.071557395 0.034326818 0.10463882 -0.024176007 -0.13066007 0.047050986 0.00564951 -0.021558072

bias f4 [256]
00000000: a652 26be 8db0 873d a587 e03c 691e fa3d
00000010: f4fb db3d 171e 223a c875 dbbb 635a f8bc
00000020: 6050 2dbd 88bb 1d3d 0508 8abd 243d 3ebe
00000030: 6d8c f03d bebb 31bd 0ba4 11be 28d3 0b3d
00000040: 5a09 56bd f7ea f53d 7dc9 edbc 706c 9dbd
00000050: ffbc a83c d754 a2bd 8b6f c63d 9278 17be
00000060: 6292 89bd 7420 143e a948 cf3d cbfd 253d
00000070: c832 0b3e c32d 24bd 592e 81bd cb3b 15be
00000080: e1a3 173d 1aa2 663c 9588 263d 41a7 1abe
00000090: d2af 16bd 3bb2 8abd c26c babd 50f0 823d
000000a0: a709 b9bc acdd 4abe f006 2d3c 84f5 203d
000000b0: cbb9 c53c 084f dfbd 26f8 0e3e 91d4 ba3d
000000c0: e2c7 31bd 53a9 0fbe 93ce 1b3c 0308 d4bd
000000d0: c57f 603c 372f 6c3b 3b3b cd3d 6486 8a3c
000000e0: b6a8 35bd fd70 623d 2daf 17be 0577 07bd
000000f0: 2ec3 833d f2f0 d13d 7ea8 143e 716d 883d
00000100: ba43 03be c158 923d 6f6c 993d 9ba0 16be
00000110: 9332 693d 19b3 a83d 2168 a7bd 3b8b b2bc
00000120: 3ae9 c6bd 8078 1c3d 8031 823d 2769 5dbd
00000130: 8f87 63bc 558b 683c c712 2ebd 139a 9f3d
00000140: 74a7 cabd 922f fe3d 11bf abbd a4e7 683c
00000150: b96a 943d 7b3a 3d3d 9597 89bd 96f0 83bd
00000160: 0398 d0bc 9ad1 c8bd e7c4 393d c665 c4bc
00000170: 1ec2 15bd ba4d 143d 02dd d4bd bd03 85bd
00000180: 08fb a7bd f750 9dbd 7a3d 093d e26b 6a3d
00000190: 10dd e03d 4c41 1e3e a033 ffbd 00c5 15be
000001a0: ceb1 af3d 048e 20be 2f45 3c3d 0780 f6bd
000001b0: 02f0 b0bc 6351 8bbd 7b2b f7ba d9c3 19be
000001c0: c2fb fa3d c187 df3d 6ad1 8fbd 530c 663d
000001d0: 31ad 22bd 3ad0 a6bd 88fe 97ba 06f8 ddbd
000001e0: 3c61 d83d 2891 f5bc 1ec6 41bd d64d 863d
000001f0: fb13 acba 3d30 babd 2774 dfbd 8b42 a23c
00000200: 0838 9fbb 7501 a7bd 665d e8bc ebff 313d
00000210: 3bab a3bd e61b eebd eb62 03bd 6598 e23d
00000220: 892f 973d 4117 133e 3072 a3bc 8986 c8bd
00000230: 2ce7 01bd 8c46 cd3c 6456 59bd 8c56 88bc
00000240: 5fb9 88bd d2f0 08be 1500 edbd 2f36 aebd
00000250: 5e86 713d 62e3 d4bc 23c8 a23d 61f6 f73d
00000260: 2491 a43c c8b2 c5bd 7a8a b5bc 4faa 903c
00000270: 1dea 5a3d 3844 f53c a0a5 08be fb9a 443e
00000280: 8d1d 96bd 8e8b 3abd a2af 9b3d a596 093e
00000290: 6892 b83d 477c bcbc ff18 f1bc c7b8 e7bd
000002a0: 4601 d73d 9f53 ebbc 76b2 443d c406 1dbc
000002b0: 658c 68bc 120c f53d 5007 833d 57cc 223e
000002c0: d2f3 debd 36fe 07bd 46a6 a43c 61da 7fbd
000002d0: e853 29bd 66a5 cabd f1d2 cdbd 667d 1c3d
000002e0: 5460 a1bc 9b6e 11bd 0292 63be 4ff7 3cbd
000002f0: 9e7e 9b3d caac 26bc 3d4b 32be ed82 ecbd
00000300: 7232 bf3d 4945 47bd 9f26 d7bd 264b a0bd
00000310: a5e4 afbd acb4 d9bb 5df4 bc3c 8f67 02be
00000320: 1a3b 24be eda9 503d 1393 65bc 8bdd eabc
00000330: db63 6c3d a509 93bc 1050 593c b6ec f3bc
00000340: 0b73 273d 0a5e a13c a76b 60bd 47b9 bbbd
00000350: 267e 273d fa8d abbd 6d70 57bd df64 94bb
00000360: 63d6 803d ac88 6ebd ba19 20bd bdfa 0d3e
00000370: 5a2b 77bc 7cde aabd 990e 803d 8512 263d
00000380: e4b0 e4bc e7c5 99bd 58de 233d 716d a3bd
00000390: be99 45bd bb30 0e3e a043 283d e94e 193e
000003a0: ecc7 85bd f7c0 03bd 1c6a b9bd 2f24 f3bc
000003b0: af17 e63c 4e70 1abe 00a2 f43c 6872 963d
000003c0: 205c 01be 98c4 59bd 1edb 46bc 8eb7 c03d
000003d0: 22a5 e03c ffe4 5bbd aaa3 14be a165 8bbb
000003e0: 9411 dabd 55ca 00be f0d0 d63d 6e1f 0cbd
000003f0: d506 6abd cc01 6cbc a898 f7bd 96bf 573d
-0.16242465 0.06625471 0.02740843 0.122128315 0.107414156 0.00061842933 -0.00669739 -0.030316537
-0.04231298 0.03850892 -0.06739811 -0.18578011 0.11745534 -0.043391936 -0.14222734 0.03413692
-0.052255012 0.120077066 -0.029026741 -0.076866984 0.020597933 -0.07926338 0.09689244 -0.14792088
-0.067173734 0.14465505 0.10121281 0.04052524 0.1359359 -0.040082704 -0.06307668 -0.1457359
0.03702152 0.014076734 0.0406576 -0.15102865 -0.03678877 -0.06772276 -0.09102775 0.06393492
-0.02258761 -0.19811124 0.010560736 0.039296642 0.024136445 -0.10903746 0.13961849 0.09122575
-0.043403514 -0.14029436 0.0095097 -0.103530906 0.013702338 0.0036038884 0.10021063 0.016909786
-0.04435035 0.055283535 -0.14812918 -0.03307249 0.06433712 0.10251035 0.145174 0.06661499
-0.12818804 0.07145835 0.07491385 -0.14709704 0.056932997 0.08237285 -0.08174158 -0.021794906
-0.09712453 0.038200855 0.063570976 -0.05405536 -0.0138873 0.014193376 -0.042498376 0.07793059
-0.098952204 0.12411417 -0.083860524 0.014215384 0.07246918 0.04619835 -0.06718365 -0.064423725
-0.02546311 -0.09805603 0.045353796 -0.02397431 -0.036562078 0.03620694 -0.103937164 -0.06494854
-0.08202177 -0.076814584 0.033505894 0.05723179 0.10979664 0.15454596 -0.124610186 -0.14625931
0.085788354 -0.15679175 0.045964416 -0.12036138 -0.02159882 -0.06802633 -0.0018857563 -0.15016116
0.1225505 0.10914565 -0.070223644 0.056164097 -0.03971595 -0.08145185 -0.0011596242 -0.10838322
0.10565421 -0.029976442 -0.04730808 0.06557815 -0.0013128513 -0.09091232 -0.10910826 0.01980712
-0.0048589744 -0.08154575 -0.028364848 0.043456953 -0.07991644 -0.11626415 -0.032076757 0.11064223
0.073821135 0.1436434 -0.01995191 -0.097912855 -0.031714603 0.025058053 -0.053060904 -0.016642831
-0.06675982 -0.13373116 -0.11572281 -0.085064285 0.058966033 -0.02598733 0.07948329 0.1210754
0.02008874 -0.096532404 -0.022160757 0.017659334 0.053445924 0.029939756 -0.13344431 0.19199745
-0.07329855 -0.045543246 0.07601859 0.13436373 0.090123 -0.023008479 -0.029430864 -0.1131454
0.1049829 -0.028726397 0.048021756 -0.009584133 -0.014193629 0.11965193 0.06397879 0.15898262
-0.10886349 -0.03320142 0.020098817 -0.06246412 -0.041339785 -0.098948285 -0.100499995 0.038205527
-0.019699253 -0.035505872 -0.22223666 -0.04613429 0.0759251 -0.010173032 -0.17411514 -0.115484096
0.093357936 -0.04865006 -0.10505413 -0.078268334 -0.08588532 -0.006643852 0.02306574 -0.12734817
-0.1603817 0.050943304 -0.014012116 -0.028670093 0.057712417 -0.017948935 0.013263717 -0.029775959
0.040881198 0.019698162 -0.054790165 -0.09166198 0.04089179 -0.08376689 -0.052597452 -0.0045286263
0.06290891 -0.05823581 -0.039087035 0.1386518 -0.015086019 -0.08343217 0.06252784 0.040545005
-0.02791638 -0.0750845 0.040006965 -0.07979859 -0.048242323 0.13885777 0.041080117 0.14971508
-0.06532273 -0.032166447 -0.09053442 -0.02968034 0.028087465 -0.15081903 0.029862404 0.0734604
-0.12632799 -0.053166002 -0.012137203 0.0941001 0.027422491 -0.053685185 -0.14515558 -0.0042540585
-0.10647884 -0.12577184 0.104890704 -0.03420966 -0.05713542 -0.014404725 -0.12089664 0.052672945

weight f4 [128, 256]
00000000: 065b 783d c7ad c73c cfa1 193d fb45 ad3c
00000010: 4f36 c13c 0308 9b3d fada 313d cad3 a5bd
00000020: b7b5 b6bd 3ffc 39bc 83f9 d4bb 2a9d 4bbd
00000030: 23a8 28bc 8203 39bd 0c75 04bd 1585 dc3c
00000040: 1426 2fbd e7db ecbc eab9 453d ccd3 173d
00000050: 30ac 093e fdf0 e33c 0457 643d d87e 713c
00000060: 5f70 edbd 26ec eb3b 391c f9bd bf14 4f3d
00000070: 492b 46bd 3375 b0bc f500 9abd 1f51 d7bd
00000080: 3382 303e 72fd fc38 bf8e 75bd 909f 6ebd
00000090: 03c8 0b3d bdcc d03a cc70 423d 34e8 55bd
000000a0: e21a a5bd b066 e2ba 08ba 9c3c 0f61 af38
000000b0: 762a 31be 9711 f438 cfd9 47bd e6ce be3b
000000c0: 6a77 103d 589a 913c d850 25bd 9699 183d
000000d0: cb05 603c 6ed8 e3bd 28b1 15be 6e64 2fbc
000000e0: f375 fe3d a66b df3d 5c58 a03d fb9e b9bd
000000f0: bb66 fa3b 2822 a9bd 8519 35bd f5e9 5dbd
00000100: 9eae d1bc 2a05 193d 5a51 83bc eb0e 103d
00000110: d932 763d 9b8b 523d daee 873c 2e1f efbc
00000120: 64c1 3dbb 4f66 8bbd d740 283e b347 a93c
00000130: 2d31 543d 422a 073d cbd3 91bd 049a 10bd
00000140: 4aab 35bd 7c56 ea3d ae23 e23c 9632 04be
00000150: f69c 8a3c 5c35 3f3c a25d e8ba a31a e53c
00000160: 0db6 2b3b 9c71 8a3d 6bda 643d 8510 10bd
00000170: f872 f1bd a046 8f3d 89c4 7fbc 7ebe 013d
00000180: 098d 54bd 252e 543d 3e00 503d 7cf0 2ebb
00000190: 8a9d 09be 87d3 c23b db1e f53c c5a7 343d
000001a0: 367d 613b 114d cfbc 3579 b13d df00 d33b
000001b0: 6615 973e e0bd 1cbd c475 3cbd 0182 38bd
000001c0: dd37 1d3d 4e67 aebc 14ee 24bd c96c 9a3c
000001d0: 4a33 af3d 3e63 2b3d c139 a13d 85ed 11bd
000001e0: cbc7 11bd c2ab 863d 5588 0e3d c967 23bd
000001f0: b591 eebc 1baf ff3b 42a6 36bd df96 edbd
00000200: cbe2 c2bc dffc c63d 5aae 97bc f2b0 5cbd
00000210: 9bf3 553d e832 c23d 2f7e 523c 0f9b debc
00000220: 52c2 043c 5427 9ebb 0630 ff3c d69c 633c
00000230: 237d 7ebd a96b 3abd 67cc 76bc fe0a e13c
00000240: 8e83 19bd b968 fabc 2acd d5bc 025c 58bd
00000250: 7ca3 9b3d 47b6 2ebd ab08 aa3d 6c7f f33d
00000260: 5e9c 4cbd b0a8 26bc 5f7c 013d e41f 9bbd
00000270: 292e 80ba dfab 0b3e ea6d d8bd cc45 813c
00000280: 1f12 24bc e2c1 d43b 31cd 13bd 007f b7bc
00000290: e9e3 013e 8a59 773d 880c cdbc c33f 55bc
000002a0: 7ba1 dcbc 6056 013e 7a8f 8abd ba4f 26bd
000002b0: cc2f 113c cebb 88bb 2cad 8eba e141 c33d
000002c0: 48fb 8f3d bb66 01bc e0ba 93bd e593 e0bd
000002d0: 57c1 85bd be8f c63c 5e3f 63bd a52c 37bb
000002e0: 0e42 d23d 25ea c0bd e7e4 38bd 5341 a13d
000002f0: a480 83bd 4a96 14bd d5ca 6cbc 54a5 943c
00000300: eed4 89bd c000 f73b 7e11 d43c 60f1 19bd
00000310: 74b8 643c c478 893d 257b 633d e3f8 f9bc
00000320: 1abb 21bd 201d 9ebd 1cbb fcbb a173 7e3d
00000330: ac16 a23c 3d0c 0d3d 6f24 3c3c 90bc 023d
00000340: 94df 87bd 7467 b1bd 2eb4 27bc 998a 2f3d
00000350: a590 913c 64d8 06bd 14af 1b3e 3ed9 153d
00000360: 8798 8a3d e054 3c3d f5be f63c 826d 733d
00000370: 97fd b2bc 08d8 953c 3285 92bd 90b8 67bd
00000380: 9dcc 0a3d 1dc9 40bb 21af 583c 0ec7 6b3d
00000390: f729 b5bd d22d 113d 7d9b 82bd c75b 5b3a
000003a0: 8dba 03bd 0c86 c3bb 92f3 0cbc 20ae 83bd
000003b0: a749 103d 9e43 513d 52c2 e93d 355b 9abd
000003c0: e9a1 05bd 423d 383d 5193 a2bb b235 333b
000003d0: 0502 583d 284b 013b 1f40 d7bd a290 a93c
000003e0: bfdc ae3d d3bc 833d 4da1 193c d855 0dbd
000003f0: 6a69 293d 09ac 3ebd a5c5 9d3b 5833 99bd
0.06063368 0.024374856 0.03750783 0.021151533 0.023585467 0.075698875 0.043421723 -0.08097036
-0.08921378 -0.011351644 -0.0064994707 -0.04971043 -0.010293993 -0.04516936 -0.032338187 0.026918927
-0.042760924 -0.028913451 0.048273005 0.03706722 0.1344459 0.027824873 0.055747047 0.014739715
-0.11593699 0.007199782 -0.12163586 0.050556894 -0.048381124 -0.02154026 -0.07519714 -0.105135195
0.17237167 0.00012063504 -0.059950586 -0.05825764 0.034126293 0.0015930157 0.047470853 -0.0522234
-0.08061768 -0.0017273035 0.019131675 8.362729e-05 -0.17301354 0.00011638103 -0.048791703 0.005823004
0.035270132 0.017773792 -0.0403603 0.037255846 0.013673256 -0.11125265 -0.14618361 -0.010705097
0.12424841 0.10909204 0.07829353 -0.09063526 0.007641641 -0.08258468 -0.04421379 -0.054178197
-0.02559596 0.03735844 -0.016030002 0.035170477 0.060107086 0.05140267 0.016593385 -0.029189672
-0.002895438 -0.06806623 0.16430984 0.020664072 0.05180471 0.032999285 -0.071204744 -0.03530313
-0.044352807 0.11442277 0.027604904 -0.12909922 0.016920548 0.011670437 -0.00177281 0.027966803
0.002620104 0.067599505 0.055872362 -0.035172004 -0.11789507 0.069958925 -0.0156108225 0.031675808
-0.051892314 0.05180182 0.05078148 -0.0026693633 -0.13439003 0.005945626 0.02992194 0.04410531
0.0034406907 -0.025305303 0.086656965 0.006439313 0.29508513 -0.038267016 -0.046010748 -0.045045856
0.038383354 -0.021289494 -0.04026611 0.0188507 0.085547045 0.04184269 0.07872344 -0.035626907
-0.035590928 0.06575729 0.034797985 -0.0398939 -0.029122213 0.0078028566 -0.04459215 -0.11601042
-0.023789784 0.097162 -0.018515754 -0.053879686 0.052234273 0.09482366 0.012847467 -0.027173547
0.00810297 -0.0048264656 0.031150829 0.013892373 -0.06213106 -0.04551283 -0.015063382 0.027471062
-0.037478976 -0.030567514 -0.026098806 -0.05282212 0.075995415 -0.042654302 0.083024345 0.11889538
-0.04995381 -0.010172054 0.03161275 -0.07574442 -0.0009779382 0.13639782 -0.105678394 0.015780352
-0.010014086 0.006492839 -0.036084358 -0.022399426 0.12684597 0.060388125 -0.02503039 -0.01301569
-0.026932469 0.12630606 -0.06765647 -0.040603377 0.008861493 -0.0041727787 -0.001088535 0.0953405
0.0703035 -0.007898028 -0.07213378 -0.10965709 -0.06531017 0.024238463 -0.055480354 -0.0027950194
0.10266505 -0.094196595 -0.045140173 0.07873788 -0.064210206 -0.03627614 -0.014452656 0.01814524
-0.06730066 0.007537931 0.025887247 -0.03758371 0.013959993 0.06712487 0.05553736 -0.030514186
-0.039485075 -0.07720399 -0.007712735 0.06212199 0.019786201 0.0344355 0.011483296 0.03191811
-0.06634441 -0.0866231 -0.010235829 0.042856786 0.017769167 -0.03292121 0.15203506 0.03658413
0.067673735 0.04597938 0.030120352 0.059430607 -0.021849437 0.018291488 -0.07154311 -0.056572497
0.03388654 -0.0029416748 0.013225348 0.05756288 -0.08845895 0.03544409 -0.06377313 0.0008367863
-0.03216033 -0.0059669074 -0.008602994 -0.06429696 0.03522649 0.051089875 0.11414017 -0.075369276
-0.032625113 0.044980295 -0.004961409 0.0027345237 0.0527363 0.0019728635 -0.10510277 0.02069885
0.08538198 0.064325 0.009376836 -0.034505695 0.041360296 -0.046550784 0.004814821 -0.07480496

bias f4 [128]
00000000: d728 4a3c 8090 e83d 09f9 cebd ad08 64bd
00000010: 35f3 36bd bb35 04bd 163a 2d3d 4c41 b53a
00000020: 5692 7f3d 5b89 ffbc 574d 963d d89f 38be
00000030: 99e7 d2bd ab8f a2bc 4a84 283d f4ce 18bd
00000040: cbf8 b3bc 1385 2b3b d880 273d fd97 b1bd
00000050: 9d61 4c3d 429f 54bc 1072 a3bb 5950 21be
00000060: 4186 c7bd 3719 c73b 3460 0a3d bd25 b4bd
00000070: b0d0 79bd fbba 31bd b11f 95bd 8df9 18be
00000080: bdb2 e3ba 31d8 f1bd a1ff 50bd 9670 b0bd
00000090: 860a bebc 4f61 8c3d 5521 a23d 3029 5fbc
000000a0: 77ec c4bd 62f3 a23c 17b1 a5bc 0fc2 0bbe
000000b0: c3c1 4dbe 1c02 93bd c0c0 383d 0025 5f3d
000000c0: 0015 8dbe e29a 17bc 6375 95bd 4326 c4bd
000000d0: 144f f3bd cc03 ca3c cdfa 7c3c 0413 83bd
000000e0: 25c1 0b3c e89c 9abd d839 853d 090c 5cbd
000000f0: 1960 b2bd a8ec 4abe 531d 14be 5554 b2bd
00000100: 7051 5e3c 2fc1 64bd 5475 41bd 1ba5 84bc
00000110: 5cc4 c6bc 191c 3dbd d84d 4d3c e5f5 983c
00000120: 35ee 89bd df90 79bd b24d 46be ad48 a3bd
00000130: 8762 13be d354 5abd bc99 c7bc bf5e 79bd
00000140: cde0 333d 5fcf 12bd 4f31 d3bd 2c08 12be
00000150: bea2 aa3c bfa5 f9bc c731 02bd 33f7 0c3d
00000160: b556 843b 9cbc c23d acb9 103c 1ae5 f9bc
00000170: c2d3 45bd 119b 4dbd c1fc 25be 2991 8abe
00000180: 7dc5 5e3d 2054 1dbe d92f 7ebc 7c76 c8bd
00000190: 76f3 e83c ec6e 98bd d4c6 0fbe d8ec 133d
000001a0: 9556 5dbd d71d 0fbd 85ff 7e3d 8b03 a3bc
000001b0: 58dc 64bd b0c4 f4bd f5c6 32bc bb20 9ebd
000001c0: 6616 36bd 39af 8fbd 9f7e 4ebd 829f f3bc
000001d0: 3a9d db3c 130f cfbd e7db 43bd 6152 e3bc
000001e0: ad9c d5bc 8df8 0cbe f92e 8fbd 115f e4bb
000001f0: 7a04 2e3c 8167 0ebd 9b9e 04be 97fc 1bbd
0.012338839 0.11355686 -0.101060934 -0.055672336 -0.044665534 -0.032277804 0.042291723 0.0013828664
0.062395416 -0.031193426 0.0733897 -0.18029726 -0.1029808 -0.019843897 0.041141786 -0.03730674
-0.02196922 0.0026171848 0.04089436 -0.086715676 0.04989778 -0.012977423 -0.0049879625 -0.15753306
-0.09742404 0.006076004 0.033783153 -0.087962605 -0.060990036 -0.04339121 -0.07281435 -0.14938946
-0.0017371994 -0.11808813 -0.051025037 -0.08615224 -0.023198377 0.06854498 0.07916514 -0.01362066
-0.096154146 0.019891445 -0.020226045 -0.13648246 -0.20093445 -0.07178137 0.045105696 0.054478645
-0.27555084 -0.0092532355 -0.0729778 -0.0957761 -0.11880317 0.024660014 0.015440655 -0.06400111
0.008529936 -0.07549459 0.065051734 -0.053722415 -0.087097354 -0.1981684 -0.14464311 -0.08707491
0.013569221 -0.055848297 -0.047231033 -0.01619201 -0.024263553 -0.046169374 0.012530766 0.01867194
-0.067348875 -0.060929175 -0.19365576 -0.07972846 -0.14393054 -0.05330355 -0.024365298 -0.060881373
0.04391556 -0.035842296 -0.10312139 -0.1426093 0.020829555 -0.030474542 -0.031785753 0.034415435
0.0040386566 0.09508631 0.00883333 -0.030504752 -0.04829765 -0.05019671 -0.16209699 -0.27063873
0.05438756 -0.15364122 -0.015514337 -0.09788224 0.028436404 -0.07443032 -0.1404069 0.036114544
-0.05403765 -0.034940567 0.0622554 -0.01989915 -0.0558742 -0.11951578 -0.010911693 -0.077210866
-0.044454955 -0.07015843 -0.050413724 -0.029739145 0.02680837 -0.10110297 -0.047817137 -0.027749242
-0.026075685 -0.1376669 -0.06991381 -0.0069693406 0.0106211845 -0.034766678 -0.12951128 -0.038082685

weight f4 [128, 128]
00000000: 6f8c b93c 315e 0cbc 0b7e 9e3d 2aea c9bd
00000010: 38c6 41bd efa7 d03c 6918 01bd e566 883d
00000020: 032b 7bbb c680 3e3d 8d00 4a3d 27aa bd3d
00000030: e047 e1bb dac7 2dbd d6d0 dc3c b90b 803d
00000040: bff9 5abd b8e6 3d3c 1500 70bd fd15 8fbd
00000050: 4581 ba3d cf3b ad3d 17ee ff3d 5ff2 a2bc
00000060: 94b6 d9bb e4c0 e23d 3ceb b23d cd12 acbb
00000070: 17b4 80bd 9c2a b03d 96b7 6339 fb7c cd3c
00000080: 125b ddbd e4d2 5a3d 53f2 fbbc 69ef 0bbd
00000090: e356 933d b0fd 60be 84e5 d5bd 6905 9d3d
000000a0: b953 c43c bcd3 03bc d88b 6abc cc2a 60bd
000000b0: 62c7 c6bc b0f9 5abd b1f5 52be 5883 25bc
000000c0: 1c63 553d a656 6fbd 63c6 493d 99ba f53d
000000d0: aa90 febb afe5 9e3b be51 fa3d 65db 5cbd
000000e0: 2a69 10be 44ac c23c 065a fa3c 558a 373d
000000f0: 64bc 6fbc 84f9 853d 09b3 0b3d ab80 de3d
00000100: b116 01bc bfb0 383d bb47 853c 70c6 9b3d
00000110: 7567 8039 5dec 913d b4aa 05bd 1b05 86bd
00000120: ba63 ec3d 3dda 07bd ae32 d3bc b3ab da3d
00000130: a3d4 e13d 28eb 68bd fc8e 3ebd 0245 f1bc
00000140: ab88 24bd 13eb 15bd 6a8c a8bd a161 473d
00000150: 5f17 753d 502a bebd 6367 07bd cf0a 24bd
00000160: a3c8 6c3d fa43 8cbd ee24 da3c f41b 08bc
00000170: c7f4 323d dcf9 0c3d d20b 7a3c 3884 34bd
00000180: 1698 92bc 18dc 803c 65c2 a5bc a0c5 69bd
00000190: 335d 813d 90cd 80bd 1dd6 6b3c f6b4 3d3d
000001a0: 941f 61bc 95c6 45bd c689 b23d 5079 0dbc
000001b0: e1bd d4bb a6de c6bd 0486 d9bc ae96 f0bb
000001c0: 65fb a93a f409 8a3d f2d2 253d 09ea 94bd
000001d0: 96e0 c13d f97c 4abd ea36 b1bd 0f49 eebb
000001e0: 1d63 493d f74a 0a3d 3b02 133d 96f9 143c
000001f0: 1bb6 59bd 2f39 083d da82 64bd 680f a73d
00000200: 010b d13d 98f6 3ebe 19c7 0f3e 6dbe c63d
00000210: 30ec de3d 0103 89bd 1e00 47bc 4281 163e
00000220: 198d fb3c d749 6bbd ccf2 dbbb b3b1 093e
00000230: 8dac 173d ac22 e83d a332 bb3c d8fc 59bc
00000240: ed31 08bd b741 c83d ea38 0fbd d121 9fbd
00000250: 8043 983b 9daa ea3c 6c2b 823d 45a8 f33d
00000260: 9499 a93d fa34 003d 41cb 393d ec16 683d
00000270: 7236 9bbd ca00 70bc e8e9 563d 138a a73b
00000280: 9c73 32be 2401 e03d bc85 223d 1677 1f3e
00000290: 2f44 41bc 4364 db3b 855c 93bd 7ace bf3c
000002a0: 9d0d f0bc 8ada 54bd 9e87 603e fcd0 743d
000002b0: 8bb8 0a3e 85ef 013e 2808 81bd ef82 69bd
000002c0: d1ff 123e 4c0b 30bd 6d20 973d 9658 31be
000002d0: ddb5 24bb 2518 fe3c 83e1 6dbd 2731 cfbd
000002e0: 154c 2b39 6b88 573d 240b 043d ce19 f43d
000002f0: 9716 063e b3f3 2c3c 0928 043e 67cc 063e
00000300: 924d d1bc 0e26 b5bc 59ab cf3c a6ff 4a3d
00000310: f202 d93c f7c6 093e be04 b5bc 2a01 ffbc
00000320: 6134 a3bd 92ce e63d 9a26 133e 7d10 f93c
00000330: fa99 993d 2e7b af3d 2fc6 b1bd bec0 5cbd
00000340: 3d08 913d ec8d 06bd e852 de3d fd82 a13d
00000350: ea78 8fbd 09c8 9bbd 90f2 7f3c ea4f 1e3d
00000360: fd50 4bbd 9b9e cabc 85c2 15bd e5e8 0b3d
00000370: f048 1a3d 86d7 bebc 189f ed3d 371c 843d
00000380: 076f 5abd 7d2c 373d db6a ec3d 33f4 40bc
00000390: 94a2 d0bd 92d8 bbbd c4d1 3a3d 1dd0 9f39
000003a0: a859 643b aa1e fb3b 2d06 263d 1223 023e
000003b0: 64b3 803b 1bcf 91bc 9abd b2bc 6ef3 1f3c
000003c0: 9fb0 333e c3e2 5fbd 4f23 ea3d c48a 7a3c
000003d0: 9ea2 28bd 33e3 debc 05af ea3d db69 943d
000003e0: 87b9 c3bd 1311 2a3d a73c 05bd 704b c1bd
000003f0: 66f8 28bd 6a39 913c 977f 8d3e 10ef b2bd
0.022649972 -0.008567379 0.077388845 -0.098591164 -0.047308177 0.025470702 -0.03151742 0.066602506
-0.0038325198 0.046509527 0.04931693 0.092609696 -0.0068750232 -0.04242692 0.02695505 0.06252236
-0.053460833 0.011590652 -0.05859383 -0.06986616 0.091066875 0.08458673 0.12496584 -0.019890962
-0.0066440795 0.11071947 0.08736274 -0.0052512647 -0.062843494 0.08601877 0.00021716798 0.02508401
-0.10808386 0.053423777 -0.030755198 -0.034163866 0.07194307 -0.21971774 -0.10444167 0.076670475
0.023965703 -0.008046087 -0.014315568 -0.054728314 -0.024264995 -0.053460777 -0.20601536 -0.010102116
0.05209647 -0.058432244 0.049261462 0.11998481 -0.00776871 0.0048491578 0.12222622 -0.05392017
-0.14102617 0.023763783 0.030560505 0.044809658 -0.014632318 0.06541732 0.034106288 0.10864385
-0.007878945 0.045090433 0.016269555 0.07606208 0.00024491144 0.07125161 -0.0326335 -0.065439425
0.11542459 -0.033167113 -0.025781002 0.1067728 0.11026885 -0.056864887 -0.04652308 -0.02945185
-0.0401694 -0.036601137 -0.08229907 0.04867709 0.05983674 -0.09285414 -0.03305758 -0.04004937
0.05780853 -0.06848903 0.026628938 -0.008307446 0.04369047 0.034417972 0.015261607 -0.044071406
-0.017894786 0.015729949 -0.020234296 -0.057073236 0.063166045 -0.06289208 0.01439431 0.046315156
-0.013740439 -0.048285086 0.087176844 -0.00863488 -0.006492362 -0.097104356 -0.026553161 -0.007342181
0.0012968598 0.0674018 0.040484376 -0.07271201 0.094666645 -0.04943559 -0.08653052 -0.007271893
0.049166787 0.0337629 0.0358908 0.009092709 -0.053152185 0.03325766 -0.055788852 0.081572354
0.10207177 -0.18648756 0.14040793 0.097042896 0.10884893 -0.06690026 -0.012146024 0.14697745
0.030706929 -0.057443466 -0.0067122933 0.13446693 0.03702979 0.11334738 0.022851294 -0.013304912
-0.033250738 0.09778159 -0.034966387 -0.07770122 0.0046467185 0.028645808 0.06355938 0.11897329
0.08281246 0.031300522 0.045359854 0.056662485 -0.07578744 -0.014648626 0.052469164 0.0051128953
-0.17426914 0.109377176 0.03967832 0.15572771 -0.011796041 0.0066953017 -0.07195381 0.023413885
-0.029303366 -0.051966228 0.21926734 0.059769616 0.1354696 0.12689026 -0.06300384 -0.057009634
0.14355399 -0.042979524 0.073792316 -0.17318949 -0.0025132813 0.031017372 -0.058076393 -0.10116797
0.00016336174 0.052620333 0.032237187 0.11918984 0.13094555 0.010556149 0.12905897 0.13163911
-0.025549684 -0.022112872 0.02535026 0.04956021 0.026490662 0.13454805 -0.022096988 -0.031128485
-0.07968975 0.11269869 0.14370194 0.03040337 0.07500072 0.085684165 -0.08680379 -0.05389475
0.070816495 -0.03285019 0.10855657 0.07886312 -0.070054844 -0.07606513 0.015621796 0.03865043
-0.049637783 -0.024733832 -0.03656246 0.034157652 0.037667215 -0.023296129 0.1160261 0.06450694
-0.05332854 0.04472016 0.115438186 -0.011776972 -0.10187259 -0.09172167 0.045610204 0.000304819
0.0034843478 0.0076635676 0.040533233 0.12708691 0.003927635 -0.01779895 -0.021818925 0.009762628
0.17547844 -0.054659616 0.11432516 0.015291873 -0.04117071 -0.027207946 0.114591636 0.07246753
-0.09556871 0.04152019 -0.032528546 -0.09438217 -0.041252516 0.017727572 0.27636406 -0.08737004

bias f4 [128]
00000000: 649f 8c3d e64a 95bd 0d17 1c3d 2612 aabd
00000010: 3787 323d fbd8 f63c de03 b3bd 5a0f 09be
00000020: 524f 1c3d c48f b1ba e505 24bd efb5 70bd
00000030: 6d6a 00bd 4147 9a3d 3412 6f3c bdd0 e3bd
00000040: 66bf 2dbe 0083 9539 3f9d 4b3d 74c4 02bd
00000050: 372b 1bbe 4511 b6bc 2818 26bd f791 adbd
00000060: f6b2 013d 5dec 6abd fb85 7a3b 7a6d febc
00000070: 0ead eabd ca61 99bd 98d4 0abd bc3f 23be
00000080: ae76 6ebd 95a4 debc 598b ccbd a457 9bbd
00000090: a85d 4ebd 7737 a23d 6ce7 0cbe c352 3ebd
000000a0: 13fc f03c f54e 53be 34cd 463d 6186 543d
000000b0: 8df0 2fbd 5271 b9bd 5c4f 52bd 07f6 b6bd
000000c0: 2437 b0bd a867 973c 613d 92bd 9bd3 16be
000000d0: 94cb 69bc eeb0 65bd e865 ebbd 0b0a cd3c
000000e0: ea1b 9e3d bd87 953d 2783 523d 386a 60bd
000000f0: 519f 2c3d ab58 93bd 4165 34be 3062 efbc
00000100: afff 03bd 0b39 1f3d a52c c13c 4648 8dbc
00000110: d9a3 74be 3f6c 3d3d 8d37 fcbc 10a8 62bd
00000120: 8991 83bd 4fdc 2e3d a8e4 0fbe f040 8dbc
00000130: 4f76 fe3c ed71 f1bb 3c89 873d a22f 26bd
00000140: 644a 4fbd 22e9 c8bc d591 fe3c 99ee dabc
00000150: f954 d4bb 56ee 75bd 3d30 cfbc c6ca 2cba
00000160: e4b4 b43d 94d5 d8bd 6cd7 80bd 76e1 82bd
00000170: 3106 b63b bd54 1fbd d183 213d 25a7 99bd
00000180: ba84 99bd 6b19 47bd 7bd8 a53c f055 69bd
00000190: 84fd 123d 2518 28be b6de 6fbd a93d 233b
000001a0: 2ef2 38be afee d73d 9e64 74bc 399b 113d
000001b0: 2b83 1ebe b089 8dba 2b38 4a3d a2eb 21be
000001c0: 545a 1fbd 8e4a 6b3d c84b 9a3d 0fd7 37be
000001d0: 3c79 243d 0b06 fcbd 2656 883d b900 36be
000001e0: bcae f83c 71d5 a83d 2330 833d 9ea6 6abd
000001f0: ceb7 53bd 4251 1fbd ba8c 5b3d 10e5 a53d
0.06866339 -0.07289676 0.03810792 -0.08304243 0.043585982 0.030132761 -0.08740972 -0.13384762
0.038161583 -0.0013546874 -0.040044684 -0.058767255 -0.031351496 0.07533122 0.014591742 -0.11123798
-0.16967544 0.00028517097 0.04971051 -0.031925634 -0.15153204 -0.022225032 -0.04055038 -0.08475106
0.03166481 -0.05735432 0.0038226831 -0.031058062 -0.11458789 -0.07489355 -0.03389415 -0.15942281
-0.05821865 -0.027178088 -0.09987516 -0.075850755 -0.050382286 0.07920735 -0.13760155 -0.046465646
0.029417073 -0.20635588 0.04853554 0.051885966 -0.042954016 -0.09054817 -0.051345214 -0.08933645
-0.08604267 0.018482044 -0.07140613 -0.14729159 -0.014269728 -0.056076936 -0.114940464 0.025029203
0.07720168 0.07301281 0.051394608 -0.054788798 0.042144123 -0.071946464 -0.1761675 -0.029221624
-0.03222626 0.03887276 0.023580858 -0.017246377 -0.23890628 0.04624581 -0.030788207 -0.05533606
-0.06424243 0.04269057 -0.14052069 -0.017242879 0.031062273 -0.0073683173 0.06617972 -0.04057277
-0.050608054 -0.024525229 0.031075398 -0.0267251 -0.006479856 -0.060041748 -0.025291556 -0.0006591495
0.08823565 -0.10587612 -0.062910885 -0.063906595 0.0055549373 -0.038899172 0.03943235 -0.075025834
-0.07496019 -0.048608225 0.020244827 -0.056966722 0.035886303 -0.1641546 -0.058562003 0.0024908578
-0.18061134 0.10543572 -0.014916567 0.035548422 -0.15479724 -0.001079848 0.049369972 -0.15812543
-0.038904503 0.057444148 0.075339854 -0.17953132 0.04015468 -0.1230584 0.066570565 -0.17773713
0.030356757 0.08243836 0.06405666 -0.057287805 -0.05168896 -0.038895853 0.053601004 0.08100331

weight f4 [23, 128]
00000000: 8d9d f1bc a753 12bd 6252 6dbc b32e 8c3d
00000010: 6930 8fbd aa1c a83c 3155 ac3c 67c4 83bd
00000020: aa3e debc 20aa 933c a441 503d 7845 3bbd
00000030: 7540 2e3d f7db 293c a3bb 1cbc ca05 38bd
00000040: 7be3 6bbb 4840 4cbc d761 50bd 5d0b 21bd
00000050: 0837 743d 3764 61bc e24f 813d 9b97 943c
00000060: e364 a83c d3a8 f53c 8737 19ba 336c 71bd
00000070: 1305 44bd b501 e73d 1c1c 413d 251c 523c
00000080: 5fa0 323d 32e9 203d 8736 3abd e651 7a3c
00000090: 1102 833c fdcb e6bd 2164 5e3c 43aa a8bc
000000a0: f575 20bd 91cf f1bc cde0 dfbd 0b91 f8bc
000000b0: 7121 01bd 9efc 403d fd8c 27bd a37c 8cbc
000000c0: 1426 bdbc 3a93 82bd 4557 473d 9906 cd3d
000000d0: bd66 e93d 1dfe 943d 34bb 433b edaa d43c
000000e0: 1dd0 7dbc 8302 a13c ce9d 0dbe 0aed 2a3d
000000f0: 10de 633d bbd5 53bd 1e41 6d3c 93b9 823d
00000100: 2338 65bc 3aab f8bc c189 41bd 59c9 2ebd
00000110: d152 8e3b e306 393d 8272 193d c36e 573d
00000120: 619d 5f3d 23b7 01bd efe5 17b9 e6c3 71bc
00000130: 849e 00be 8594 b73b 5ed4 a03b 35f3 143d
00000140: 3609 053d bfdd 213d c4c8 613d c914 333d
00000150: ec99 ffba 34d7 4cbc a9c0 843d 245f e8bc
00000160: 38c0 a13d d76a 463d a19d 9dbc a461 cd3c
00000170: 2f8e 81bc 4533 07bd c5bf b3ba c979 333d
00000180: 65a1 5f3d 1422 49bd e49b b0bd f09c 10bd
00000190: 633e a53d 0af0 0e3c ef59 bebc 012e 27bd
000001a0: 02e5 083c 27d5 c4bc 91aa fc3c 8c35 7f3d
000001b0: f2e6 7e3d 8aad 8d3c ce3d cabc 0088 8a3d
000001c0: acc7 913c cafb cfbd 05c8 e33c cfe8 14bd
000001d0: dd20 88bc 805e 593c acee 803d 414c 133d
000001e0: 9b76 28be 792b e73c 5f0f 43bd 5655 12bd
000001f0: 70e3 9b3d ab99 31bc dbae dabd 5fff ba3c
00000200: 8d8c 903d 20ba 153c af2b 4e3d 55dd acbd
00000210: adbd 473d 3ebf 0f3d 0557 473d e428 bdbc
00000220: 4304 363c 0f85 98bc 7d13 29bd df94 dfbc
00000230: 33d7 1b3c 254d 733d 238e 38be 60b4 c03c
00000240: 6dff 09bd a986 1c3c 77cc b13d 4a6e 91bc
00000250: 306d 37bd f28b 973c 598a 06bd 6ff5 64bd
00000260: 35ac 8f3c e86f 0a3d c73d 9b3d 1e2f ae3c
00000270: 31a3 20bd abea 03be 1d8c bb3b 5382 2e3d
00000280: 9cbd 81bd ea18 cebc 2a24 27ba cbe4 0cbd
00000290: 7d2f f83c 290a 383d 3910 803c 0135 c53c
000002a0: ea38 8e3d b1b5 06bd f460 513d adfb 04bd
000002b0: 6511 ac3c 8206 c7bb ff5c 03be 64a1 b9bd
000002c0: ae99 be3c 0941 b73a 844a 0b3d ffc5 11bd
000002d0: 0d24 b63c 431b e83c 3935 ccbc 3d86 fcbb
000002e0: 3898 66bd 2ee0 08bc 581e 6bbd 9908 c7bd
000002f0: ffc2 a2bd 8b97 20ba d0df 1c3d 49c1 cebd
00000300: 4dc3 8abc 7d21 943d 051a a4bc 90f6 9dbb
00000310: 1ac6 2d3b 7b1a 6ebd 8133 143c c3d4 68bd
00000320: c748 9cbc 7cab 8e3d 858c 29bb a4b1 55bb
00000330: 2368 7a3d 5fb9 3d3d ce67 373d b575 8336
00000340: 9159 da3d 1a59 293e 20cb 083d 7125 b33c
00000350: ad55 1f3e 58a3 f53c bac5 a2bd 10d5 a93c
00000360: 0736 2f3d 84f1 efbd 387d 2abd 7423 14bd
00000370: 75fc 673d 978d f4bb bdc4 58bb e63f 36bd
00000380: 744f a43d d592 ed3b aed3 803c f785 a4bc
00000390: 3459 b6bd 8d21 00bd cee5 abbc 1a49 cf3d
000003a0: 8673 833c 70a6 00bd 91f7 993c 1066 4b3c
000003b0: e16e abbc c694 75bb e355 b8ba 1dad 93bd
000003c0: 0073 0c3c a4f6 31bd c70d 98bc 4d9b 95ba
000003d0: efc1 843c 43c3 68bc dc7b 4e3c 4a15 873c
000003e0: 5fa8 fc3d ef6e dcbb 01d9 b93d 7478 6dbd
000003f0: b681 4a3c 6205 e4bc 7ae4 9cbb 6209 f33d
-0.029494071 -0.03572431 -0.014484974 0.06844845 -0.069916554 0.02052148 0.021036716 -0.06433945
-0.02712949 0.018025458 0.05084385 -0.045720547 0.04254194 0.010367385 -0.00956622 -0.044927396
-0.0035993743 -0.012466498 -0.050874557 -0.039317477 0.059622794 -0.013756803 0.063140646 0.018138697
0.020555919 0.029987728 -0.0005844761 -0.058941077 -0.0478564 0.112796225 0.047145948 0.012824093
0.043609973 0.039284892 -0.045462158 0.015278315 0.015992196 -0.112693764 0.013573677 -0.020589
-0.039174993 -0.02951792 -0.10931549 -0.0303426 -0.031526033 0.047115915 -0.04090594 -0.017149275
-0.023089446 -0.063757375 0.04866721 0.10011024 0.11396549 0.07275031 0.002986622 0.02596041
-0.015491513 0.019654518 -0.13829729 0.041729964 0.055631697 -0.0517175 0.014480857 0.06383052
-0.013990435 -0.030355085 -0.047250513 -0.04267249 0.0043433686 0.045172583 0.03746272 0.052595865
0.054593448 -0.031668793 -0.00014486139 -0.0147561785 -0.12560469 0.0056024217 0.0049081286 0.036364753
0.032479487 0.039518114 0.055123106 0.043720994 -0.0019500828 -0.01250248 0.064820595 -0.02836568
0.07897991 0.048441734 -0.019240202 0.025070973 -0.015814869 -0.03300788 -0.0013713768 0.043817315
0.054597277 -0.049104765 -0.08623484 -0.035305917 0.0806854 0.008724222 -0.023236243 -0.040815357
0.008355381 -0.02402742 0.030843051 0.062306926 0.062231965 0.017294664 -0.024687674 0.06764221
0.017795406 -0.10155447 0.027805338 -0.036354836 -0.016617233 0.013267159 0.06295523 0.035961393
-0.16451494 0.028218972 -0.04762208 -0.035725914 0.0761174 -0.01083986 -0.10677882 0.022826849
0.07058058 0.009138614 0.05033463 -0.08440653 0.048764873 0.035094492 0.048666973 -0.023090787
0.0111094145 -0.018618135 -0.04127835 -0.027292667 0.009511757 0.059399743 -0.18022971 0.02352351
-0.03369086 0.00955359 0.08681577 -0.017752785 -0.044781864 0.018499348 -0.032846782 -0.055898126
0.01753817 0.03379813 0.075801425 0.021262702 -0.03921813 -0.12882487 0.00572349 0.042604756
-0.06334993 -0.025158364 -0.00063759333 -0.03439788 0.030296082 0.044931564 0.015632736 0.024073126
0.06944449 -0.03288812 0.051117852 -0.03246658 0.021004388 -0.006073774 -0.12828444 -0.09063986
0.02326664 0.0013981174 0.03400661 -0.035589214 0.022233987 0.028333312 -0.024927722 -0.007706432
-0.05629751 -0.00835423 -0.057401985 -0.09718437 -0.07947349 -0.0006126097 0.03829938 -0.1009546
-0.01693883 0.0723295 -0.020031938 -0.0048206523 0.0026515783 -0.058130722 0.009045483 -0.05684353
-0.019077672 0.06966302 -0.002587111 -0.0032607103 0.06113447 0.04631936 0.04477673 3.917807e-06
0.10661615 0.16537896 0.03339684 0.02186844 0.15560026 0.029985115 -0.079478696 0.020731479
0.042776134 -0.11715987 -0.041623324 -0.036166623 0.056637246 -0.007463168 -0.003307625 -0.044494532
0.08022967 0.0072501698 0.015725937 -0.02008341 -0.08903733 -0.031281997 -0.020983603 0.10121365
0.016046297 -0.031408727 0.018794807 0.01241447 -0.020926895 -0.003747271 -0.0014063682 -0.07210753
0.00857234 -0.043448105 -0.018561257 -0.0011414081 0.016205756 -0.01420671 0.012602773 0.016489644
0.12336802 -0.0067270915 0.09074593 -0.0579762 0.012360027 -0.027834598 -0.0047879787 0.11867024

bias f4 [23]
00000000: 74ba 60be 4dd3 373e e489 493d d2fb b13d
00000010: e6e6 63bd b241 a13d d237 063b 2814 123c
00000020: 0d35 3cbe 31da a2bd 1ab0 2f3d b63d 9b3d
00000030: f7a5 813d 0f33 2f3d 8d6c f6bd 6868 393c
00000040: f079 12bd 9fbd f1ba f357 393b 81e2 1b3c
00000050: e6d5 0dbe cf7b cabc 7f8e aab9
-0.21946126 0.17951699 0.04920377 0.08690609 -0.055640124 0.078738585 0.002048005 0.008915938
-0.18379612 -0.07951773 0.042892553 0.0758013 0.063304834 0.042773303 -0.12032423 0.011316396
-0.03576082 -0.0018443352 0.0028281182 0.009514452 -0.13851127 -0.02471724 -0.00032531095
