deploy/models/booster_gym_exp_1/model_5000.pt (torch, 303934 bytes, 8 tensors)

weight f4 [256, 80]
00000000: c9a2 debe 3e7f 323e b33b ffbc 53d7 fbba
00000010: 7978 403d 6c2b 16bd a2a8 e03d 71f1 b03d
00000020: 55eb 85bd 5e12 dc3d b1f7 e13c 1c24 a5bd
00000030: 29f1 cfbc 7c5c 633c 390b 333c a040 0b3c
00000040: f1a8 b0bc a6c5 b13c 57d3 243d b0df 853b
00000050: 0216 193d 290a 11be 0f3e be3e 4e1f 35be
00000060: 1a67 8bbe 849a aa3d eee7 0d3d 6572 e9bc
00000070: 995f b1be ce6b 8cbe 4f55 79bd 050d b1be
00000080: 94c0 19be 3d33 843e a197 df3d 6136 d33c
00000090: 6717 d13c 4b2f 723e 65a0 32bb 74ee 2cbd
000000a0: ccf9 d53d eba1 633e 97fc 173d aedb c5bb
000000b0: d6b5 e0bd ad55 bc3c 6a08 cfbd de1b 17bd
000000c0: 3c7c 8abd 22f0 e4bc 4077 31bd 76b9 093e
000000d0: a0aa 863e 3f27 853c 2aa9 8ebc ec0a d5bd
000000e0: 07f4 613d 3766 edbc 2b11 9bbd abda 84bc
000000f0: b1a2 843b a90a 07be f719 2bbc 6c7f 603b
00000100: 0087 2d3d 2ba6 aa3b 2232 d53d ebb7 09be
00000110: 8b38 8bbe 5969 9a3d 6d89 403e 085a 1abe
00000120: e14d c1bd b8ea d33d 5a1c 3a3d f6bf 923e
00000130: 3d17 a2bd 41d8 24be c1d6 903c b910 afbd
00000140: 9aea f03d be25 2ebf b5d2 0abe 1ea9 9e3d
00000150: cc24 823d 612f 9a3c 775d 6bbd 326d 9bbd
00000160: c826 563d 72e6 2abd 61dd c4bd 24b6 dabc
00000170: 64a4 3b3e a4fe 57bd ecb6 69bd 48a6 2cbc
00000180: f37a 63bd 0f5d 423d 7c4a 403d f948 35bc
00000190: bde8 88bd 9d57 15be 33a4 59bd 819e be3e
000001a0: 2b8e 88be 3d3d 6e3e 5bf7 583d be04 66be
000001b0: 9eb1 bcbd f98c 89be 9dd7 a93d d221 02be
000001c0: 661c 05be d113 81bd 0bcf 9bbb ba0a 75be
000001d0: 1a20 18bd a292 21be a1b6 453c cb50 a6bd
000001e0: 7bd8 ffba 9dcb 223d a6e7 643b 3bc8 983d
000001f0: 36c7 603d b2a7 033f 6e64 103e b094 ddbd
00000200: e451 c53e 6614 1c3e a362 a9bd eafd 5fbe
00000210: 8068 8a3e 7e04 c3bc f87c c5bd b6b6 903d
00000220: d573 df3c a664 243e 9e79 b13d e64f 823d
00000230: 82c0 393c edff c3bc af60 d03b b731 8abd
00000240: 6a2e 5bbd a9bd 9bbc da9d 643d 88ea 873d
00000250: a98b fabc f948 83be f06f 4e3e aa16 2a3e
00000260: 1e91 033d c109 903c 1741 a6bc 59d6 08be
00000270: 1645 c83d 3478 953d 25db 26be a442 34be
00000280: 158c 643e 9381 12bf 4204 313d 69b8 a43a
00000290: d452 42bd 8f51 cdbb 553f 1dbd 5936 ebbc
000002a0: a3e4 e53c e290 d53d cafa 2fbc f7d6 fdbd
000002b0: 67a0 72bc 4dfa 4a3d 06de 5e3d c79b 96bd
000002c0: c9e9 4e3d f26c 04be f106 013d 700f 503d
000002d0: b150 fb3c a8e1 12be 475b ea3d f877 1b3e
000002e0: 5f2d a7be efeb 453e fa2f 023e 33dd e8bc
000002f0: a55a 913e e4de 38bd 28b9 b33e 8b77 8cbe
00000300: 2200 4a3e 730b 703d 605b 1e3c aea3 183d
00000310: 1530 73bd aa2c 6e3d e27c a7bc 3a75 f9bd
00000320: 0f70 3ebd c47c 24bd d384 03bc 4b04 693d
00000330: 07e9 a6bd 3e3d 7f3e c620 06bd 86c7 00bd
00000340: 2ab3 713e 8e2f bd3d 5077 17ba 9700 56be
00000350: 7e41 913e d5ee d8bb 4cfc 04be 3664 333d
00000360: 508d 653d d44d 8fbd 8817 c2bd d7ab ce3d
00000370: f22b b0bd 8c29 0f3d 1e82 c1bd c953 473d
00000380: 0f14 8abc 3e67 7a3d 9a2e 463d ffcb afbc
00000390: 2156 843c bd9d 87bd 7ee3 003e ffc0 14bd
000003a0: 868f 67bd c8c5 2fbe dfea ca3b 09f0 963d
000003b0: c898 473d ff8b 50be 11e6 94bb 9ac7 333e
000003c0: 6853 dabd 5bba a23e fe8f cc3c 9318 d6bd
000003d0: d76d 87bc c9be e83c 6cf0 8bbd 73d1 dd3d
000003e0: af8c 92bd 479a 0c3d e14c d63d 30ac 9e3d
000003f0: 66ff 92bd d2a4 343d 582e f43c 3c81 f7bc
-0.4348357 0.17431352 -0.031156396 -0.0019213952 0.04698989 -0.036662504 0.10969664 0.08639801
-0.06539027 0.10745691 0.027583929 -0.08063528 -0.025383549 0.01387703 0.010927969 0.0084992945
-0.021564933 0.021700691 0.040240612 0.0040855035 0.037374504 -0.14164032 0.37156722 -0.17687723
-0.27227098 0.08330253 0.034645014 -0.02849693 -0.34643248 -0.27425998 -0.060872372 -0.34580246
-0.15014869 0.25820342 0.10917593 0.025782766 0.025523854 0.23650853 -0.0027256247 -0.042219594
0.104480356 0.22229736 0.037106123 -0.0060381508 -0.109721825 0.022990072 -0.10109027 -0.03689181
-0.06761977 -0.027946535 -0.043326616 0.13449654 0.26302052 0.016254066 -0.017414648 -0.10402474
0.055164363 -0.028979404 -0.07571634 -0.01621755 0.0040477146 -0.1318766 -0.010443202 0.0034255637
0.042365074 0.005207797 0.10409953 -0.13449065 -0.27191576 0.07539625 0.18802424 -0.15073407
-0.09438682 0.103475034 0.045437194 0.2866208 -0.079145886 -0.1609812 0.017680528 -0.085481115
0.11763497 -0.6802634 -0.13556941 0.077471 0.06354675 0.01882142 -0.057462182 -0.07589187
0.05228308 -0.041723676 -0.09612537 -0.02669818 0.18324429 -0.05273308 -0.057059214 -0.010537691
-0.055537175 0.04745203 0.046946034 -0.011064761 -0.06685016 -0.14584203 -0.05313511 0.37230304
-0.26670966 0.23265548 0.05297027 -0.22462747 -0.09213565 -0.26865366 0.08293078 -0.12708214
-0.12999114 -0.06302608 -0.004754906 -0.23929873 -0.03713999 -0.15778592 0.012067468 -0.08120879
-0.0019519472 0.039744962 0.0034928112 0.07460066 0.054877482 0.5142776 0.14100811 -0.108193755
0.3853904 0.15242156 -0.082707666 -0.21874204 0.27032852 -0.023805853 -0.096429765 0.07066099
0.027276913 0.1605402 0.08665775 0.06362896 0.011337401 -0.023925746 0.006359182 -0.067477636
-0.05351106 -0.019011335 0.0558146 0.0663653 -0.030584173 -0.2564161 0.20159888 0.16610208
0.032120816 0.017582776 -0.02029471 -0.13363017 0.09778802 0.072983176 -0.16294535 -0.17603546
0.22319062 -0.57228965 0.04321695 0.0012567166 -0.047442272 -0.006265826 -0.038390476 -0.028712438
0.028063124 0.10428025 -0.010740945 -0.12394517 -0.014808751 0.04955511 0.054410957 -0.07353931
0.050515924 -0.12932184 0.03150076 0.050795972 0.030678125 -0.14343894 0.11443191 0.15182483
-0.32651803 0.19328283 0.12713614 -0.028425789 0.2838947 -0.04513444 0.351022 -0.27434954
0.19726613 0.05860467 0.00966534 0.037265472 -0.059372026 0.058148064 -0.020445291 -0.12180562
-0.046493586 -0.04015805 -0.008027273 0.05688886 -0.08149915 0.24925706 -0.0327461 -0.03144028
0.23603502 0.09237586 -0.0005777972 -0.20898663 0.2837028 -0.006620268 -0.12986869 0.04379674
0.05604297 -0.069972664 -0.094771445 0.100913696 -0.08602132 0.03495173 -0.09448646 0.048663888
-0.016855268 0.061133616 0.048384286 -0.021459578 0.01615435 -0.06621883 0.12586781 -0.036316868
-0.05653336 -0.17165291 0.0061925496 0.07370002 0.048729688 -0.20365904 -0.0045440276 0.1755661
-0.1066044 0.31782803 0.024971005 -0.10453906 -0.016531868 0.028411286 -0.06832966 0.10830965
-0.071557395 0.034326818 0.10463882 0.07747686 -0.0717762 0.044102497 0.029807255 -0.030212991

bias f4 [256]
00000000: 108c f9bd 66dd 2f3d 6613 633d 25f0 e33d
00000010: f13b db3d c16e 4c3c f127 03bc 4094 0abd
00000020: e844 d2bc 14d6 f23c e40b 56bd 2ea8 10be
00000030: b540 e83d d313 27bd d677 f5bd e28e c63c
00000040: 6438 e7bc e03d d93d e8c3 583d 433b 98bd
00000050: 9659 c33c 4466 7ebd 1eba cc3d 2336 ffbd
00000060: 4dbd 61bd 9a18 f63d ef5a de3d d847 123d
00000070: 7882 0a3e c71f 1fbd 7930 70bd 91ac 0dbe
00000080: 0196 383d 261f 123d 643f 9c3c 0ee8 f7bd
00000090: 9027 21bd 0e27 87bd 47f1 a9bd 69c1 a33d
000000a0: 4914 4cbc f71b 1abe 5d67 b33b 3e04 463d
000000b0: 6c2f 083d 3e7d b3bd c0c9 f73d a995 b63d
000000c0: 08d2 b0bc a06d c8bd d946 d13c 66d7 a7bd
000000d0: 432e d13c dbf3 01bc ef96 a13d df6f 5d3c
000000e0: 8fdc 14bd 9dc6 7b3d 1ddc dabd 1825 00bd
000000f0: d6eb 9b3d 8d23 733d 4004 f03d 9831 803d
00000100: c5e3 ccbd 0c11 893d 33c5 b63d b94a 01be
00000110: 95e5 6e3d 45ec 983d 598b 6bbd 323c fdbb
00000120: a289 dbbc bf7c 7f3d b7b0 b83d d7a3 23bd
00000130: 9968 01bd 1681 023d 6e42 3bbd 6074 553d
00000140: 53ae b2bd 6954 023e a3ad 8fbd f202 c83c
00000150: 7c87 a73d 3511 183d a162 73bd 6278 84bd
00000160: e33b 9d3b fd77 9fbd 5faa 0b3d 1b0f 27bd
00000170: 6445 fdbc 23d8 233d 3c69 d5bd b314 39bd
00000180: 7207 b3bd 2666 6dbd 353e 6a3d f02e 823d
00000190: e587 ba3d ec0e 043e 977a ddbd 358d f7bd
000001a0: 8931 b23d abfd f7bd a832 6d3d 20b9 eebd
000001b0: 4d92 65ba 697e 4bbd 6cab a1bb 18b3 d8bd
000001c0: 884c e73d 41c7 b03d 527e 5fbd d991 4c3d
000001d0: 16ef d3bc ef4c 86bd 0eb0 61bb d483 c7bd
000001e0: 9f49 b43d 9d64 5cbc 6742 99bc 3487 7b3d
000001f0: bad6 3bbb 2901 7bbd a9ef d4bd 823b 1b3d
00000200: 20c5 453c b1be 80bd 758d 5abc 9331 4e3d
00000210: 1532 6fbd 5ea5 c3bd 177c 12bd 485d c23d
00000220: f215 983d 231d e23d ee77 91bc a69a 80bd
00000230: 4145 1fbc 0157 033d 7c9e 8cbc 71b1 6ebc
00000240: 9252 73bd 5734 c0bd 0893 c5bd 1165 1ebd
00000250: d5a1 853d f262 a9bc bde9 863d 556b de3d
00000260: dac1 133d 5cac cfbd 2983 8cbc 6873 fd3c
00000270: b754 643d ea06 f43c bf91 f7bd 7465 123e
00000280: 0f65 8ebd a4c9 afbc 004e 923d 3a0a 093e
00000290: 17a0 bc3d 4e36 32bb 1a6e 2bbd d253 b9bd
000002a0: 265d c23d f1ea febc 6de4 5a3d 9cc1 383c
000002b0: 7cef babb af52 cc3d c7d6 6f3d ec77 093e
000002c0: fb84 dbbd f010 09bd 8a60 ec3c f73a 4dbd
000002d0: 7766 ffbc 1571 a1bd 66e5 b2bd fbc3 c73c
000002e0: 5176 4cbc 6637 c1bc ae17 23be 32a0 bdbc
000002f0: 66e1 443d ae5b bcbb 0890 07be 7ee6 a3bd
00000300: 5731 b23d 04d0 01bd 328f b0bd f743 9bbd
00000310: 3075 8abd 4823 4e3c 9a0c 193d c911 debd
00000320: f3e5 febd b131 523d 997f c3bc 7579 91bc
00000330: d374 923d 7a1c 9ebc 1a52 873c 9f2b a1bc
00000340: 9c22 ff3c a298 a33c afdc 10bd f9b7 afbd
00000350: 4d0f 023d fcc6 a1bd ecb2 15bd e985 a13b
00000360: 92a9 673d c968 06bd 78f6 45bb 2446 f73d
00000370: b99a a9bb 06c9 9bbd 85b7 353d e652 343d
00000380: 32be cabc 23dd 94bd 32d7 2d3d 9bd7 b7bd
00000390: dab3 20bd 5567 ee3d 6cda a53c bf33 e73d
000003a0: 3f6c 16bd 7c4b 9fbc 2599 88bd a66e b3bc
000003b0: ea00 0c3d dc77 d7bd 97f0 1b3d 0e6f 9a3d
000003c0: f7dc adbd ff11 3ebd 2d0f 2bbc 780a 813d
000003d0: 71e2 1f3d e775 71bd 4233 e1bd 24dd d43b
000003e0: bc05 cebd 903a e5bd 748c aa3d 144c c5bc
000003f0: 762e 2fbd c53f 94bb 00ee b2bd ad5e 633d
-0.12184918 0.04293575 0.05543842 0.11129788 0.10704792 0.012477578 -0.008005128 -0.03383279
-0.025667623 0.029643096 -0.052257434 -0.14126655 0.11340467 -0.04079039 -0.119857475 0.024238054
-0.028225131 0.10607505 0.052921206 -0.07433178 0.023846429 -0.062109247 0.099964365 -0.12461498
-0.055112172 0.12016411 0.10857188 0.035713047 0.13526332 -0.038848665 -0.058639977 -0.1383536
0.04506493 0.035674237 0.019073196 -0.12104808 -0.03934437 -0.06599246 -0.08297973 0.079958744
-0.012456008 -0.1504973 0.0054749683 0.04834389 0.03324835 -0.087641224 0.12099028 0.08915264
-0.021584526 -0.09786534 0.025546478 -0.08195381 0.025534755 -0.007931675 0.078901164 0.013515442
-0.036343154 0.06146871 -0.106865145 -0.031285375 0.076133415 0.059360076 0.117195606 0.06259459
-0.10004381 0.066927046 0.089243315 -0.1262616 0.058324415 0.0746694 -0.05750594 -0.007728123
-0.026799027 0.062374827 0.09018081 -0.03995117 -0.031593893 0.031861387 -0.04571765 0.052112937
-0.08724656 0.12727512 -0.070155405 0.024415467 0.081801385 0.037125785 -0.05942023 -0.06468274
0.004798399 -0.07786558 0.034098025 -0.04078589 -0.030916877 0.040001046 -0.104204625 -0.045185756
-0.087416545 -0.057958744 0.05718823 0.06356609 0.09107951 0.12896317 -0.10814398 -0.1208748
0.08700854 -0.1210893 0.057909638 -0.116564035 -0.0008757457 -0.0496811 -0.004933765 -0.105810344
0.11293894 0.08631755 -0.054563828 0.04994378 -0.025870841 -0.06557643 -0.0034437212 -0.09741941
0.088031046 -0.013451722 -0.01870842 0.061408237 -0.0028661923 -0.061280403 -0.10397274 0.037898548
0.012070924 -0.062863715 -0.01333939 0.050340246 -0.05839737 -0.09553026 -0.035762873 0.09490448
0.07426061 0.11040714 -0.017757382 -0.06279497 -0.009721101 0.032065395 -0.017165415 -0.0145686725
-0.059404917 -0.09384983 -0.096471846 -0.038670603 0.06525008 -0.020677064 0.06587551 0.10860316
0.036073543 -0.10140297 -0.017152386 0.030938819 0.055744853 0.029788453 -0.12088346 0.14296514
-0.06952869 -0.021458454 0.071437836 0.13382807 0.09210222 -0.0027193013 -0.041853048 -0.090491906
0.09490423 -0.031117888 0.0534405 0.011276629 -0.0057048183 0.09976708 0.058554437 0.13424653
-0.107187234 -0.03346342 0.028854627 -0.05010506 -0.031176789 -0.07882897 -0.087351605 0.024385443
-0.012479381 -0.023585986 -0.15927002 -0.023147676 0.04806652 -0.0057482338 -0.13238537 -0.08002947
0.08700817 -0.03169252 -0.08621062 -0.07581323 -0.06760633 0.012581654 0.037365533 -0.10843236
-0.12446203 0.05131692 -0.023864554 -0.01775811 0.07151189 -0.019300688 0.016518641 -0.01967412
0.031144433 0.019970242 -0.03536671 -0.08580012 0.031752873 -0.078992814 -0.036547586 0.0049292934
0.0565582 -0.032814775 -0.0030206721 0.12073925 -0.005175915 -0.076067016 0.04436447 0.04402437
-0.024748895 -0.07268741 0.042441554 -0.0897667 -0.03923402 0.11640803 0.020245753 0.11289167
-0.036724325 -0.019445173 -0.06669835 -0.021903347 0.03418056 -0.10520908 0.03807124 0.07540713
-0.08489411 -0.04640388 -0.01044063 0.06300825 0.03903431 -0.05895033 -0.10996105 0.0064960886
-0.100596875 -0.111928105 0.083275706 -0.024084128 -0.042768918 -0.0045242035 -0.08736801 0.05551021

weight f4 [128, 256]
00000000: a9fd d83d a446 5b3d 7655 523d f848 ce3d
00000010: cef4 d03d 90fa 843d 2c93 05bb 5a80 8b3c
00000020: ab5f b5bd 7278 5e3d e7b0 a03a c7ca 80bd
00000030: f2c7 713d 7233 1c3c 3977 193c 4c5f cb3c
00000040: a9ca fe3c b451 953d fe14 833d c74c c63d
00000050: 729a 2a3e bf4e ee3c df52 3abc 992d 7d3c
00000060: c730 b6bc 1933 0abc f045 96bd ee16 9a3d
00000070: 5945 7b3d d888 4cbc 2797 96bd e723 e5bc
00000080: 2b1b 943d 1d6c 073d 6606 91bd a8be 30bd
00000090: 20ea 883c 7933 d1bc ba49 1b3d be69 b4bc
000000a0: 56df 74bd a73d 6f3c 0bc1 ee3c 3bb3 693d
000000b0: c0ec d1bd 2c68 b33b babd 573c 0884 903d
000000c0: b1a4 373d 0a93 263d c9f1 b3bb 71e8 383c
000000d0: 6d05 77bd 8ba1 78bd 6a6b 563c 092e 913d
000000e0: 35a8 1c3c bd35 f63d 92c5 e03c 994d 323a
000000f0: d23f 05bc 618c 69bd 9d2b 073c 7b6d d93c
00000100: bb81 64bc 2f55 303d dfa8 be3c 9a50 e23c
00000110: f38a 1f3d 326e 403d 0be9 21bd cba1 23bc
00000120: c5ff d5bc 23ee 92bd 54b1 0c3e 77df 26bd
00000130: 6dd5 043d 06d5 e53b ee94 363c f5b8 c33c
00000140: c7f2 00bd 3146 143c 80a9 153d b26a 83bd
00000150: dc7c c6bb 9ea4 f53d caeb 483d 9d82 e03c
00000160: f55b 16bd 3d54 7f3d 27f4 23bc c204 42bc
00000170: 8650 d2bd f396 f83c abae e83c 2d95 1c3d
00000180: 4cd4 183d f355 ed3a 74ad 653d 95f7 41bd
00000190: 7fc3 8abd e3c6 b13d bd48 e03c ca38 863c
000001a0: 9d40 7b3c ab42 dabc 9470 8c3b 4eec 213d
000001b0: 91fe 423e 21b7 3abd 310e 61bc 04f9 2abc
000001c0: c2b4 dd3d c62b 99ba 2419 153d d060 243c
000001d0: 6614 dd3c 6eec 263c 864a a43c 81b8 74bd
000001e0: 8953 13bd 8b47 dd3c a341 513d 4543 08b9
000001f0: 3ddc b6bc 0bf9 a4ba a77c 24bb f04e 5abd
00000200: 8d7a f3bc f12d 9ebb 8088 84bc aa04 363d
00000210: 6e29 043d 1b5c 9b3d d847 b63d 7921 13bc
00000220: 96da 383c dd22 e83c b540 473c 2d97 303d
00000230: 81c7 8ebd 26db 10bc ebc4 34bc 1a70 0b3d
00000240: 3e8a b3bc d2b1 75bd 6586 a2bc 5a3e b3bb
00000250: 0959 f13d 57b0 cfbc fc98 633d 0d09 103e
00000260: 9b0a b6bc ae32 ff3c bb5d 453d 11b4 99bd
00000270: 140d a13d 03d4 be3d c8ad a3bc b512 b63d
00000280: f6d9 c83c e996 8b3d b6a7 00bc 219f 3bbc
00000290: 31c8 e33d b6a9 f43c d71f 90bc e223 69bd
000002a0: 8714 f83c 535b 803d 1fb1 c9bd eaf1 b4bc
000002b0: 8cf5 453c 19e4 43bd 6dcf 3d3c ae79 b83d
000002c0: 1b83 073d 582a 833d be4b 60bd 8525 4abd
000002d0: ee22 20bd b202 023c 560c 7ebd 3157 883a
000002e0: a13b 843d 7a6a 71bc 0ae1 39bd 38e1 c43d
000002f0: 7d15 c9bc 65d9 633c 333a 9fbc 5d39 9e3c
00000300: 1d27 c53c cae2 573d b24d 003c 39e2 12bc
00000310: 63d7 debb 6454 e53c e541 8c3d 5d7d 91bb
00000320: 641b 39bd 0ce4 b3bb ef40 6a3c 887f f63c
00000330: 795b 113c fe3e 8f3d 3de3 6d3a de8b 343d
00000340: 7bb9 433a 36db 50bd a62a cabb 2b5b 383d
00000350: 3c2c 833d db13 253d 18c6 143e 0848 d33c
00000360: bf13 763d e45f 1c3c 151a 463c 41f6 bf3d
00000370: 8ac3 773c 11ba 59bd 5af9 5ebd fe91 15bd
00000380: 793d 553d 2680 aeba 879c 863d d2a2 b63c
00000390: df6e 4ebd f5e4 313d 3c41 f1bb fada 063d
000003a0: 4329 30bd 39da 233d 1a72 98bd 87ea 81bc
000003b0: 0a5c 143b 97c6 5e3c 9822 eb3d 9a76 85bd
000003c0: a7de 433d 4b65 e2bc 8c1e edbc 27a7 803d
000003d0: 12bf 843d f794 c4b9 00b4 b4bd 9d00 1e3c
000003e0: ae17 d5bb b38b cd3c 04c5 ba3d 6618 78bd
000003f0: 18a0 983d d8c1 a7bd 0807 1a3d 5690 06bc
0.10595257 0.053534165 0.051351033 0.100725114 0.10202943 0.064931035 -0.002038191 0.017028976
-0.08856138 0.054314084 0.0012259752 -0.06288677 0.059028573 0.00953375 0.009366804 0.024825715
0.031102495 0.07290974 0.06400488 0.09682613 0.16660479 0.029090283 -0.011372297 0.015452766
-0.022240056 -0.008435034 -0.07337558 0.07523905 0.061345432 -0.012483798 -0.07353049 -0.027971221
0.072317444 0.03306209 -0.070812985 -0.043150574 0.016713202 -0.02553724 0.037912108 -0.022023078
-0.059783302 0.014602101 0.029144784 0.057055693 -0.102502346 0.0054750647 0.013167793 0.07056433
0.044834796 0.04066757 -0.0054914695 0.011285887 -0.06030791 -0.060700934 0.013087133 0.07088859
0.009561588 0.120219685 0.027437959 0.0006801724 -0.008132892 -0.05701864 0.008250144 0.026541462
-0.013946946 0.043049987 0.023273883 0.027626324 0.03895087 0.04698009 -0.039528888 -0.009987305
-0.026122937 -0.07174327 0.1373952 -0.040740456 0.0324301 0.0070139198 0.011143906 0.023891905
-0.03148153 0.009049938 0.0365386 -0.06416835 -0.006057365 0.11994289 0.04905299 0.027406031
-0.03670879 0.062336195 -0.010006941 -0.011841955 -0.10269265 0.030345416 0.0284036 0.038228203
0.037311837 0.001810728 0.05607362 -0.047355253 -0.06775569 0.08680513 0.027378434 0.016384501
0.015335229 -0.026643118 0.0042858813 0.039532 0.19042422 -0.0455848 -0.013736294 -0.0104353465
0.108254924 -0.0011686019 0.03640093 0.0100328475 0.026987266 0.010188205 0.020055067 -0.05974627
-0.035968337 0.027011653 0.051087987 -0.0001299503 -0.022321815 -0.0012586428 -0.0025098713 -0.053297937
-0.029721523 -0.004827254 -0.01617837 0.04443804 0.032266073 0.07585927 0.08900422 -0.0089801485
0.011282584 0.028336937 0.012161423 0.043112922 -0.06971646 -0.008841312 -0.011033277 0.034042455
-0.021916505 -0.059984036 -0.019839475 -0.0054700794 0.1178456 -0.02535264 0.05556582 0.14065953
-0.022221854 0.031152096 0.04818509 -0.07505048 0.078638226 0.09317782 -0.019980326 0.08890287
0.024517994 0.06815893 -0.007852485 -0.0114515135 0.11122168 0.02986608 -0.017593307 -0.056918986
0.030283226 0.06267419 -0.09848236 -0.02208801 0.012082469 -0.047824953 0.011585099 0.090075836
0.033084016 0.06404561 -0.054759733 -0.049352188 -0.03909581 0.007935213 -0.062023483 0.0010401962
0.06456686 -0.014734859 -0.04538063 0.096132696 -0.02454638 0.013906811 -0.019436931 0.019314462
0.024066502 0.052706517 0.007831024 -0.0089650685 -0.0068005784 0.027994342 0.06848506 -0.0044399933
-0.045192137 -0.005489832 0.014297708 0.030090109 0.008871906 0.06994437 0.00090746937 0.0440787
0.00074662984 -0.050990306 -0.006169635 0.04500882 0.064049214 0.04030214 0.14528692 0.025791183
0.060077425 0.0095443465 0.012091179 0.09373141 0.015122304 -0.053155962 -0.05443702 -0.036516182
0.052060578 -0.0013313338 0.06572824 0.022294436 -0.050398704 0.04343124 -0.007362513 0.032923676
-0.0430081 0.040003035 -0.07443638 -0.015858902 0.0022637867 0.013597152 0.114812076 -0.06516762
0.04781976 -0.02763619 -0.02894523 0.06281882 0.06481756 -0.0003749502 -0.08823395 0.009643701
-0.006503067 0.025091028 0.09119609 -0.060570143 0.074524105 -0.0819127 0.03760436 -0.008213123

bias f4 [128]
00000000: bcec c4bb e357 ba3d 9086 92bd e309 30bd
00000010: a365 e9bb ea4e 1ebd d91a f13c 6cd7 e93c
00000020: f6dc 353d 786d 64bc 4d01 5b3d 3509 09be
00000030: e380 92bd 3eb3 34bb da4d 093d e397 2ebd
00000040: 33ca a4bc c170 523c bd1a 1b3d b85b a3bd
00000050: 11ea 2d3d 4294 b6bc 33a4 99bb 9353 bfbd
00000060: 911b 8cbd 6eab 073d 5aca fa3c 0070 31bd
00000070: 03dc 0abd 1298 8c38 d574 61bd 23a7 c8bd
00000080: 9edd 563c 2802 a4bd 74ca 11bd 0c3b 91bd
00000090: acbe d6bc 61bc 713d 4c37 8b3d c7a3 58bc
000000a0: b59a b5bc 64f0 323c d838 74bc 7ca5 d6bd
000000b0: 0833 d6bd 0502 4abd 6592 363d 854d 0a3d
000000c0: 836b 13be 78ca 7cbc eeb1 57bd bbe5 b5bd
000000d0: 16df a8bd 1294 b13c 1bdd f93b 9565 51bd
000000e0: 2cc0 883a 535c 91bd 35aa 533d 1fbc 45bd
000000f0: 3eff 8fbd 3b15 f3bd 5abd 94bd db4f d8bc
00000100: a20e 913c 9e91 0cbd c141 04bd 51b9 a73a
00000110: 916f 90bc e4eb 84bc f74c 823c 84c1 173d
00000120: 37b8 85bd 9359 c7bc 9285 e7bd cca0 73bd
00000130: 0e0e d4bd 76d1 3ebd a96c 4fbc 558a 55bd
00000140: ef48 ac3c 528d e5bc a91b a2bd f2b1 cfbd
00000150: 9734 92ba b511 18bd 4d68 efbc fc31 143d
00000160: e19e 1b3c 4226 8d3d f282 4c3c 1787 02bd
00000170: 0046 3bbd 2b6e 09bd 3404 0fbe 9e76 11be
00000180: e96e 543d ae6f 88bd 2488 953c 514b a1bd
00000190: 79f5 543c 668a 18bd be7d a8bd aef9 023d
000001a0: 0c72 44bd 3e8a 18bd a622 163d dd55 fabb
000001b0: 862c 3dbd eaad ffbc 0022 303c 9c44 7ebd
000001c0: 7c21 d0bc 0211 17bd 2044 32bd 35fe 983b
000001d0: 7569 8b3c f023 82bd e11a 56bd 242b 35bc
000001e0: e01e 98bc 0fd4 a6bd 84bc 6bbd c041 983b
000001f0: d387 403c 5bdb cdbc ff51 bbbd 1967 abbc
-0.0060096662 0.09098794 -0.07154572 -0.04297818 -0.0071227117 -0.038649477 0.029431747 0.028545104
0.044400178 -0.013942115 0.053468037 -0.13382418 -0.071534894 -0.0027572657 0.03352151 -0.04262532
-0.020115947 0.012844265 0.037867296 -0.07976478 0.04245955 -0.022287492 -0.0046887635 -0.093421124
-0.068411954 0.033122472 0.030614067 -0.043319702 -0.033901226 6.7040455e-05 -0.05504306 -0.09797504
0.013114361 -0.08008224 -0.035593465 -0.070913404 -0.026213966 0.059017543 0.067976564 -0.013222641
-0.022168497 0.010921571 -0.014906131 -0.104807824 -0.10458952 -0.049318332 0.044573206 0.033765335
-0.14396481 -0.015429132 -0.05265992 -0.08881708 -0.08245675 0.02167705 0.007625235 -0.051122267
0.0010433248 -0.070976876 0.051675994 -0.04827511 -0.070311055 -0.11869284 -0.072626784 -0.026405266
0.017707173 -0.03431856 -0.03228927 0.0012796317 -0.017631324 -0.016225763 0.01590584 0.037049785
-0.06529277 -0.024334705 -0.113047734 -0.05947952 -0.10354243 -0.046586476 -0.012660184 -0.052133877
0.021030871 -0.028021488 -0.07915432 -0.10141362 -0.0011154589 -0.03712626 -0.02922454 0.03618048
0.009498329 0.06892063 0.012482392 -0.031867113 -0.045721054 -0.03355233 -0.13966447 -0.14205405
0.051863585 -0.06661926 0.018253393 -0.078756936 0.012997978 -0.037241362 -0.082271084 0.031976394
-0.047960326 -0.037241213 0.036654137 -0.00763963 -0.04618504 -0.031210858 0.010750294 -0.06207715
-0.025406592 -0.036881454 -0.043522 0.0046689757 0.01701806 -0.06354511 -0.052271727 -0.011057649
-0.01856941 -0.08145916 -0.05755283 0.00464651 0.011751133 -0.02512901 -0.09146499 -0.020923184

weight f4 [128, 128]
00000000: 2e9e f2bc abec f0bc c911 bd3d 2afb c5bd
00000010: 477c f4bc 02a3 563d 9f80 69bd 5c26 393d
00000020: b253 50bc 5c13 4d3d 6ee1 ebbc 7cd4 d03d
00000030: 6e70 f63c 76ee 2bbb 0b35 5c3c 95db 4dba
00000040: 52a5 39bd e584 e83c fdb2 34bd 7c39 d4bd
00000050: 0a32 7b3d 2583 3f3d 4d5d e93d 88c7 8fbc
00000060: 315c 993c d542 d33d ad24 893d c964 29bd
00000070: 1764 92bd b50f aa3d 28ee 1ebc 2470 143d
00000080: 2f19 f2bd c0f9 943c 5e23 6ebd 460f 05bd
00000090: 78d6 893d dd77 29be e2fe 05be 3be4 df3d
000000a0: 94b2 b53c a69a c2bc 16a7 4bbc e626 7bbd
000000b0: e081 afbc 6eba 373c 7f5e ecbd ee49 f2bd
000000c0: 1c4d 1b3d 8175 4bbd 58fb 8d3a c0c7 c73d
000000d0: 31c5 973b af61 73bc 1629 ff3d 2086 edbb
000000e0: 616c bcbd 6cde 873d 1e9a 6fbc 5c19 063e
000000f0: 2ded 95bb b6d4 823d 9216 d63c 91e3 d43d
00000100: f3d2 bfba 86f8 743d b8ff fe3c c434 bd3d
00000110: 91a7 14bc 893c b73d 691e 23bd 604d 76bd
00000120: af3b 5c3d bc92 9bbc f532 13bd 20b1 253e
00000130: 3c7e f03d e882 42bd 1164 b63c 7ccb f9bc
00000140: b772 7cbd 6ca7 d2bb 19cd 8abd df38 8e3d
00000150: ac8f bc3d 28ea 3dbd ea5f acbd 4947 47bd
00000160: 60ca ad3d 66c1 ebbd 04f0 a939 971c 7c3c
00000170: 8eb6 cd3c 2f09 163d f03f 8e3d 6556 7bbd
00000180: 435e 4cbc d316 f03c 0241 4bbc 946a 13bd
00000190: 50a2 aa3c 6b46 98bd a171 5f3c 089d 533c
000001a0: 7c10 463d 93e5 5d3b fe4b 863d f7d0 593a
000001b0: ebfd 913d 3f5e bbbd 3d76 59bd 079f 663b
000001c0: cd5b ff3b cfe4 a73d 3cb3 f33c 8f22 7abd
000001d0: bed4 493d 6be3 25bd f93f b4bd c447 1cbc
000001e0: d732 113d 7113 e43c 4020 4c3d 5f2e 09bd
000001f0: 2369 44bd 3bf4 f63c 9d7f 42bd 0d50 943d
00000200: 8fb6 893c 7858 babd 25e1 863d 0695 8c3d
00000210: 911c a73d 32bc bdbd c414 55bd 6915 e93d
00000220: d292 c23d 7ed3 cfbd e1a8 f0bc 9b47 183e
00000230: eb96 223d e112 9a3d baeb d73d 3db8 27bd
00000240: 19ce afbd 49b0 083e 91ac 12bd 883c a6bd
00000250: 3d41 4abd 159f 5e3c 3776 f7bc 0d99 c93d
00000260: 8b2b 543d 6aa5 a2bc 4c73 823d 649e 9d3d
00000270: 667d 22bd 46d0 80bd a0cd c63d 3608 40bd
00000280: 3bc6 0dbe f329 fdba 49c3 4aba 2f6b 283e
00000290: fa52 17bc 3f9d b53c 2d1b edbc 0105 463d
000002a0: 509a 05bd b8b1 29bd 9cf1 b23d 7f87 103d
000002b0: bedb ba3c 1285 b93c f91b 1cbc d574 adbc
000002c0: 3a52 e73d b768 0fbd 88bb e93b 7440 25be
000002d0: b063 c03c a52c 613c 3e16 9dbd b3d4 abbd
000002e0: 6c81 e6bc 8e9d 1dbb c773 063e a5d0 3c3d
000002f0: e464 c63d 4b3e 593d ede3 853d 432e 873d
00000300: c244 713c 5c49 80bb c7e1 a13d c5e9 9b3c
00000310: 815c 80bd f32c e23d d953 16bd 6a6f 9e3b
00000320: b34a a5bd 8a47 9f3d a0c6 d63d cf3e cfbc
00000330: b853 1a3d 42ba 6b3d 8ba2 acbd b487 3a3d
00000340: c94b aa3d afe5 84bd 6809 1a3e 3a24 bf3c
00000350: 2c66 95bb 5197 10bd 4fde 123c 6b12 803d
00000360: 4c04 d6bd befa bb3c 1cb2 c33b e00d 803c
00000370: 3a50 843d c58c aabc 247b df3d 773f 823d
00000380: 3c81 febc 7e7e 9c3b 17e2 863d 7e87 70bc
00000390: 3847 c4bd ed1b 03be 8a8c 8b3c 97ad 72bd
000003a0: 6174 81bd a5f0 ebbc eb58 4f3d facb f63d
000003b0: df78 f83c e274 31bd aff9 c73c dd51 a03b
000003c0: 51a7 0e3d d997 46bd fcce 303e 18e4 163d
000003d0: 9be6 79bd 25ca 34bd 47b7 dc3d e938 133c
000003e0: c8df cebd 90a8 d63c dfd9 54bd 1c0e 87bd
000003f0: ed66 7bbd d606 67bd 648b 123e c8f8 ddbd
-0.029616442 -0.029409727 0.09231908 -0.09667046 -0.029844416 0.05240155 -0.05700743 0.045202598
-0.012715267 0.05006729 -0.028794017 0.10196778 0.030082908 -0.0026234663 0.013440381 -0.00078528497
-0.045323677 0.028383682 -0.04411601 -0.10362527 0.061327018 0.04675593 0.11394749 -0.017551199
0.018720718 0.103154816 0.066964485 -0.04135588 -0.07147997 0.08303777 -0.009700336 0.036239758
-0.1182121 0.018185496 -0.058139198 -0.03248527 0.0673036 -0.1654963 -0.13085511 0.109322034
0.02217988 -0.023755383 -0.012429973 -0.061316393 -0.021424234 0.011213882 -0.11541461 -0.11830507
0.037915334 -0.049672607 0.0010832353 0.09754896 0.0046316613 -0.014854833 0.124590084 -0.007248655
-0.09200359 0.066342205 -0.014624147 0.13095611 -0.0045753927 0.06388228 0.02613381 0.10394967
-0.0014635011 0.059807323 0.031127796 0.0923858 -0.009073154 0.08947093 -0.039823923 -0.060132384
0.053767856 -0.018990867 -0.03593727 0.16180849 0.11742827 -0.047488123 0.022264512 -0.030492537
-0.061632838 -0.0064286496 -0.067774005 0.06944441 0.09207091 -0.046365887 -0.08416732 -0.048651967
0.084858656 -0.11511497 0.00032413017 0.015387676 0.025111463 0.036629852 0.06945789 -0.06136169
-0.012473646 0.029307758 -0.012405636 -0.035990313 0.02082935 -0.07435306 0.013637931 0.012915857
0.048355564 0.003385876 0.06557463 0.0008309031 0.07128509 -0.091488354 -0.053091276 0.0035190003
0.007792926 0.08197939 0.029748552 -0.061068114 0.049275152 -0.040500086 -0.08801264 -0.009538595
0.035448875 0.027841302 0.049835443 -0.03349149 -0.04795183 0.030145755 -0.047484983 0.07241831
0.016810684 -0.09098905 0.06585912 0.068643615 0.081597455 -0.09264411 -0.052021757 0.11381037
0.0950066 -0.10147761 -0.029377403 0.14871065 0.039694708 0.07523132 0.10543008 -0.040947188
-0.08584232 0.13348497 -0.035809103 -0.08117014 -0.049378622 0.013587733 -0.030207736 0.09843645
0.05179934 -0.019854266 0.063696474 0.07696226 -0.03967037 -0.06289725 0.097071886 -0.04688283
-0.1384515 -0.001931487 -0.0007734788 0.16447137 -0.009236092 0.022169707 -0.028943622 0.048344616
-0.032617867 -0.04142925 0.087374896 0.03528547 0.02280986 0.02264646 -0.009528154 -0.021173874
0.1129498 -0.035011973 0.007132951 -0.16137868 0.023485035 0.013743554 -0.07670258 -0.083901785
-0.028137885 -0.0024050209 0.13130103 0.046097416 0.09687212 0.053037923 0.06537614 0.066006206
0.014725866 -0.003914995 0.07904392 0.019032368 -0.06267644 0.1104373 -0.036701057 0.004835059
-0.08070888 0.07777317 0.104871035 -0.025298504 0.037677497 0.057550676 -0.0842944 0.045539573
0.08315236 -0.06489121 0.1504265 0.023332704 -0.004559299 -0.035300557 0.008964135 0.06253513
-0.10450038 0.022946712 0.00597216 0.015631616 0.064606145 -0.020819077 0.10912159 0.06359761
-0.031067483 0.004775821 0.06586092 -0.014680741 -0.095838964 -0.12803622 0.017034788 -0.05924758
-0.06321026 -0.028801272 0.05062191 0.12050624 0.030331073 -0.04332436 0.02441105 0.0048925714
0.034827534 -0.048484657 0.17266458 0.03683862 -0.06101094 -0.044138093 0.10777145 0.008985736
-0.10101277 0.026203424 -0.05196559 -0.06594488 -0.061377455 -0.056403004 0.14310986 -0.10838467

bias f4 [128]
00000000: eb96 853d 301f 15bd 422d 483d 2de2 9dbd
00000010: 035c 773d e0e9 543d 741d a2bd 61a7 d7bd
00000020: b0c4 1f3d 8cc9 8b3a 7ab1 fcbc 0fac 0cbd
00000030: 17d4 0abd ebb8 b83d 2848 1f3c 6d94 a8bd
00000040: 1a13 1abe 2443 55ba e319 323d 250c babc
00000050: 6f0e 09be 9e24 02bd eec8 45bd 4b59 78bd
00000060: 8792 3e3d ba87 5cbd 050a cb3b 0cc7 ccbc
00000070: ea1f c8bd 71f6 a1bd 6e7d debc 2494 f9bd
00000080: 4b7c 2ebd ac7e c1bc 1ea2 d3bd 43f9 5fbd
00000090: 0165 39bd 831a 8d3d ccf8 fcbd 3e59 05bd
000000a0: 0930 563d d81c 37be 3628 623d 9477 743d
000000b0: ac93 01bd d45e b2bd 5116 28bd 8674 a6bd
000000c0: 2dc3 c3bd 39bd c63c a5ab b5bd 3beb 04be
000000d0: f9e1 f7bb 42dd 47bd 5d07 f0bd af8b 553c
000000e0: 02ac a53d 11dd a73d 8ef5 3d3d 4c66 2dbd
000000f0: b793 3a3d bae8 51bd 3fb8 15be 27d0 d9bc
00000100: e4bb 2ebd 9c8d d33c d128 fc3c e036 07bc
00000110: 1687 37be ccd6 303d 8915 aabc 2ed1 80bd
00000120: 9140 48bd fcc4 123d e87f d9bd e85b a7bc
00000130: f035 fd3c a86e 963c 4b31 8f3d 5255 0abd
00000140: a432 53bd 06c6 ddbc e431 163d 0e7b 02bd
00000150: ee05 30bc 13f9 22bd 1031 abbc a902 dbbb
00000160: 36fd a33d bee0 e4bd 1ee6 80bd ba5b 99bd
00000170: a688 8b3c 2c4e 00bd b10c 223d ff63 82bd
00000180: 095c 81bd 4301 683c 0185 893c 1cde 9bbd
00000190: 1a69 103d 7da4 fcbd 67b6 02bc 80b5 15bb
000001a0: dad6 05be 2141 cb3d 79a4 7ebc ba94 2e3d
000001b0: 4f66 0abe 4fb8 e63c 9dfb 053d 61c7 f9bd
000001c0: d368 41bd ed51 7d3d 3bd3 963d 6a9e 0ebe
000001d0: f54f 393d 8f90 e5bd e458 9f3d 678b 27be
000001e0: 2ca8 f63c 853f b43d ce88 7e3d 9604 5fbd
000001f0: 9759 4bbd 65e2 41bd 8de1 803d ba32 a33d
0.06522926 -0.036406696 0.048871286 -0.07709155 0.060390484 0.051980853 -0.07915774 -0.10529972
0.039005935 0.0010664924 -0.030846346 -0.034343775 -0.03389367 0.09019645 0.009721793 -0.08231435
-0.15046349 -0.000813531 0.04348172 -0.02271087 -0.13384412 -0.031773202 -0.048287325 -0.06063203
0.046526458 -0.053840376 0.006196263 -0.024997257 -0.09771712 -0.07908333 -0.027159419 -0.12186459
-0.042599004 -0.023619972 -0.10333656 -0.054681074 -0.04526234 0.06889822 -0.12352142 -0.03255581
0.052291904 -0.17882097 0.05521413 0.05968435 -0.03163497 -0.08709493 -0.041036908 -0.08127694
-0.09558711 0.02426015 -0.08870629 -0.12980358 -0.00756478 -0.048794992 -0.117201544 0.013033791
0.080894485 0.08196462 0.046376757 -0.042333886 0.045551028 -0.051247336 -0.14621066 -0.026588513
-0.042659655 0.02582436 0.030781182 -0.008252829 -0.17922625 0.043173596 -0.020762222 -0.06289898
-0.0488897 0.03583239 -0.10620099 -0.020429567 0.030909508 0.018363312 0.06991824 -0.033772774
-0.051561967 -0.027071964 0.036668673 -0.031855635 -0.010743601 -0.039788317 -0.020897418 -0.0066836667
0.080072805 -0.11175679 -0.06293891 -0.074881986 0.017032932 -0.03132455 0.039562885 -0.06366729
-0.063163824 0.014160457 0.016787054 -0.076107234 0.035256483 -0.12336061 -0.007978058 -0.0022843778
-0.1307024 0.09924532 -0.015542143 0.042622305 -0.1351559 0.028164057 0.03271066 -0.12196232
-0.04721911 0.06184571 0.07364508 -0.13927618 0.04524227 -0.11209213 0.077806264 -0.16361772
0.030109487 0.08801178 0.062142186 -0.054447733 -0.049645986 -0.047335047 0.062930204 0.0796866

weight f4 [23, 128]
00000000: 46f1 acbc 6232 8abc 759a 24bd 76fb 3f3d
00000010: 485a 9abd 99af 0e3d d51c ab3c 166c a9bd
00000020: 4daf 19bd 2604 e4bb 3daa 5b3d 8092 76bd
00000030: 84fc b43c f6c0 83bc 044b 2fbc dc4d afbb
00000040: 786b a839 8e68 df3a 3e09 6bbd 203a c9bc
00000050: 2767 a63d 9ce0 8cbc a8a2 8d3d f393 043d
00000060: df51 913c 77bf 143d 69cd 3a3c b536 35bd
00000070: 4b2e 88bd 27ec df3d 51e2 3e3d 4fb9 2cbb
00000080: 0867 583d 2e60 983d 220c 2fbd 138e 413c
00000090: 2a10 6c3d 2f61 f3bd d6e4 2d3d 8101 eabc
000000a0: a1e9 17bd 8010 a9bc 48d9 f4bd d002 5dbd
000000b0: 3e15 33bc 7a32 a53d 8334 bbbc b836 06bc
000000c0: 5432 01bb 3356 a5bd 21a9 063d 41cb 073e
000000d0: 7dc1 d63d 14dd 9e3d b8e9 083b 95d1 9e3c
000000e0: ade2 87bc 7308 333c 5a6e 0fbe 6cfb 803d
000000f0: ec66 2e3d e29c abbc 1279 9b3c 5a5d a93d
00000100: b863 eebc b7ee 94bc 994d 4ebd 04a8 43bd
00000110: e85c a93c 6ee7 0a3d 8c4b d13b 6134 9b3d
00000120: 0fab 563d f497 14bd c056 dc3c e0af c5bb
00000130: 1709 1ebe 8111 933c dff0 a9bb 905b 443d
00000140: 6ebf f23c e31b 213d c6aa 943d 0459 493d
00000150: 0106 4ebc 4f71 21bd 8f6d 943d e878 49bd
00000160: c65a 903d bcdc 463d 509f ae3b 9130 a93b
00000170: 07fd 1cbc 2d4d 13bc 302c e7bb 6af1 223d
00000180: 42db 373d 5d1d abbd 4e9a d2bd 090f 3fbd
00000190: 780f af3d db26 0b3d bb1c 2abc 8e47 09bd
000001a0: 5035 233b 066c d9bc 7263 fd3c 6340 513d
000001b0: e010 813d 9d36 c03c bd1f f8bc b526 b93d
000001c0: 11cc aa3c f771 bebd ed02 763c 0a7f 3fbd
000001d0: c03c 59bd c8fd 06bc 0ec5 703d 345a 223d
000001e0: 2554 33be 958f ec3c 0c5d 7fbd 128b efbc
000001f0: d128 e43d fb81 b5bc 85d6 f5bd 41c2 553c
00000200: 50df 953d dad6 e03b ad6d 6b3d b6e5 a8bd
00000210: fb34 473d 914d 0d3d b6a7 363d abc7 0bbc
00000220: dbed d23c a2d6 39bc 24d3 48bd a972 1abd
00000230: 44b6 b03c e60a 533d 0c1d 42be 6921 9b3c
00000240: 5989 2bbd 2952 2e3d 3f54 a23d 6365 34bd
00000250: 0242 a7bd ddb9 893c 3b63 30bd b5bd 9fbd
00000260: e143 3f3c 85a4 1a3d 5d8f 803d 6f2e 063d
00000270: 6082 30bd 5315 f2bd 23d1 583d 6370 113d
00000280: ab57 88bd 03df 22bc 38e2 783c d22a a9bc
00000290: 5239 6c3d 38ce c33c 2af9 a9bc 04c5 9e3c
000002a0: f537 a43d d48d eabc 5475 643d ccef ebbc
000002b0: 33b7 1a3d 43ac e9bc c320 08be b4b3 dfbd
000002c0: a873 da3b 65ff ab3a 71df c73c 0e2b 81bd
000002d0: fe8e 643c 9a85 023d 6797 9fbc ce39 87bb
000002e0: 940c 51bd 359c 2cbc ea12 65bd de7a 03be
000002f0: 0611 9fbd f024 8d3c ae49 313d 29d8 dfbd
00000300: d3d2 86bc a367 933d 1e5b 12bd ae51 98ba
00000310: c40a a0bc e93c 89bd 2f4d 7c3c b71e 83bd
00000320: f222 13bd 2cd5 b53d 12f0 aabb b576 b73a
00000330: f129 683d b73e 7f3d 8da3 913d 5124 07bc
00000340: ea05 ec3d 7992 213e a961 853d 1d69 6b3c
00000350: 1d16 263e bc83 393d a79c c3bd 5d50 0a3c
00000360: 90f6 5d3d 5d1e 02be 7988 18bc 6867 92bc
00000370: 58f1 443d 1465 423c 3de9 fcbb 6c03 74bd
00000380: f9dc 9d3d f8b7 283d af46 4a3c db3d a8bc
00000390: 840a b6bd 53e3 4fbd 002a ebbc 6510 023e
000003a0: 5fc1 053d 0388 8dbc 7e68 653c 1301 7c3c
000003b0: f866 923b f1a2 86bc 6590 e73b 3f8e cebd
000003c0: 6358 083b e454 37bd bf7f adbc c0c6 103c
000003d0: 5d5c 0b3d 9201 c3bb 3cfa 9ebb 2bb2 f63b
000003e0: 205e da3d 8fdd 4a3b 9624 d73d 3b6d 6bbd
000003f0: 19c2 293c d4a7 aabc 2cba 9b3b ab88 063e
-0.021111142 -0.016869728 -0.040186364 0.04687067 -0.07536751 0.03483543 0.020887772 -0.08272569
-0.037520695 -0.0069585023 0.05362915 -0.060198307 0.022093065 -0.016083222 -0.010699037 -0.0053498577
0.00032123527 0.001704471 -0.05738186 -0.024563849 0.081251435 -0.017196946 0.0691579 0.032367658
0.017739234 0.036315408 0.011401513 -0.044241626 -0.06649455 0.10933714 0.04660255 -0.002635557
0.052832633 0.0744022 -0.04273618 0.011813658 0.057632603 -0.11883771 0.042454563 -0.02856517
-0.03708804 -0.02063775 -0.119555056 -0.05395776 -0.0109303575 0.08066268 -0.022852188 -0.008191757
-0.0019713836 -0.08073082 0.032876138 0.13261129 0.10486124 0.07757011 0.002089126 0.019387046
-0.01658758 0.010927307 -0.1400694 0.06297955 0.042578623 -0.020948831 0.01897863 0.082697585
-0.029100284 -0.018180234 -0.05036697 -0.047767654 0.020674184 0.033912115 0.0063871797 0.0757835
0.052409228 -0.036277726 0.026896834 -0.006032929 -0.15433155 0.017952682 -0.005186185 0.047938883
0.029632296 0.039333235 0.07259135 0.049157158 -0.012574674 -0.0394147 0.07247459 -0.04918757
0.07048564 0.048550352 0.00532905 0.0051632603 -0.009581811 -0.008990568 -0.007054828 0.03978101
0.044886835 -0.0835521 -0.102833375 -0.046645198 0.08547872 0.033972602 -0.010382826 -0.033515505
0.0024903603 -0.026540767 0.030931208 0.051086795 0.06302047 0.023463542 -0.030288571 0.09040586
0.02084926 -0.09299081 0.015015346 -0.046752013 -0.05303645 -0.008239217 0.058781676 0.039636806
-0.17512567 0.028877059 -0.062344596 -0.029241119 0.111405976 -0.022156706 -0.12003807 0.013046802
0.07317984 0.00686155 0.05747764 -0.08246939 0.04863451 0.0344978 0.044593535 -0.008531491
0.025748184 -0.011342676 -0.049029484 -0.037707005 0.021571286 0.051524065 -0.18956393 0.01893683
-0.04187903 0.042558823 0.07926225 -0.044042002 -0.08166887 0.01681226 -0.043063384 -0.077998556
0.011673898 0.037754554 0.062773444 0.032759126 -0.043093085 -0.118204735 0.052933823 0.03550757
-0.06657346 -0.009940865 0.0151906535 -0.020650301 0.057671852 0.023902044 -0.020748693 0.019381054
0.080184855 -0.028632082 0.055775955 -0.028800867 0.03777237 -0.028524524 -0.13293748 -0.109229475
0.0066666193 0.0013122378 0.024398537 -0.0630704 0.013950108 0.031865694 -0.019481374 -0.004126764
-0.051037386 -0.0105352895 -0.05592624 -0.12839839 -0.07766919 0.017229527 0.043283157 -0.10929901
-0.01645795 0.071975015 -0.035731427 -0.0011621022 -0.019536383 -0.06701071 0.015399261 -0.06402343
-0.035922 0.0887855 -0.005216607 0.001399717 0.056680623 0.06231567 0.07111273 -0.008248405
0.115245655 0.15778531 0.06512768 0.014368323 0.16219373 0.045291647 -0.095513634 0.008442012
0.05419022 -0.12706895 -0.009309881 -0.017871574 0.048081726 0.011864919 -0.007718234 -0.059573576
0.07708163 0.04119107 0.012345954 -0.020537307 -0.088887244 -0.050753903 -0.02870655 0.12701567
0.032655116 -0.01727677 0.014001964 0.0153811155 0.0044678412 -0.016435118 0.0070667737 -0.10085725
0.0020804636 -0.044758692 -0.021179078 0.008836448 0.03402363 -0.005951115 -0.0048516076 0.0075285635
0.10662484 0.0030954813 0.10505025 -0.057477217 0.010361218 -0.02083198 0.004752418 0.13138072

bias f4 [23]
00000000: f4a7 6dbe a8e3 443e 500d 573d f241 f73d
00000010: 52e0 a0bd aed5 c63d d61f fb3c 6760 e63b
00000020: 77c4 45be 8c1b a0bd 0b64 3e3d 18db 933d
00000030: 06f7 663d b7f7 3b3d 2cc3 d6bd 765d 423b
00000040: 7b3e 3dbd afdc d3bb 1ad2 813c 5281 af3c
00000050: 7fed 00be d24c 07bd 8014 023c
-0.232086 0.19227469 0.05250293 0.12073125 -0.07855286 0.09708725 0.030654829 0.007030535
-0.19313227 -0.07817754 0.046482127 0.07219523 0.056387924 0.045890536 -0.10486445 0.0029657758
-0.046202164 -0.0064655165 0.015847255 0.02142397 -0.12590598 -0.033032246 0.007939458
