deploy/models/booster_gym_exp_1/model_8000.pt (torch, 303934 bytes, 8 tensors)

weight f4 [256, 80]
0	0xbf173f67	-0.5908112
1	0x3e1909a5	0.14945085
2	0x3b9e84ad	0.0048375935
3	0x3d6b8e98	0.057509035
4	0x3ccbed83	0.024893528
5	0xbcd38283	-0.025819069
6	0x3de0a8a2	0.10969664
7	0x3db0f171	0.08639801
8	0xbd85eb55	-0.06539027
9	0x3ddc125e	0.10745691
10	0x3ce1f7b1	0.027583929
11	0xbdd2b626	-0.10288648
12	0xbd17bb72	-0.037043996
13	0x3c0215cb	0.007939766
14	0x3d3c5c36	0.045986377
15	0x3c24ec66	0.010066127
16	0xbd2a0e3b	-0.041517477
17	0x3c5ca28e	0.01346649
18	0x3d4bc6bb	0.04975007
19	0x3c582b3c	0.013193902
20	0x3d353e14	0.044248655
21	0xbe138298	-0.14405286
22	0x3eed6bc3	0.46371278
23	0xbe2f8afb	-0.1714286
24	0xbe930a28	-0.28718686
25	0x3e0067b3	0.12539558
26	0x3dc14202	0.09436418
27	0xbc0eb5c0	-0.008710325
28	0xbef78d3f	-0.4834995
29	0xbe8d5cd6	-0.2760989
30	0xbde7c68c	-0.11317167
31	0xbed40796	-0.41412038
32	0xbe334e7b	-0.17510407
33	0x3ecf2cca	0.4046386
34	0x3e0ce9f3	0.1376112
35	0xbbeffb50	-0.00732366
36	0x3de25c6c	0.11052784
37	0x3e88fbf4	0.26754725
38	0x3c54b948	0.012983628
39	0x3cf72552	0.030169163
40	0xbb566562	-0.0032714237
41	0x3e1ef0dc	0.15521568
42	0x3d0aa0d9	0.033844803
43	0xbd4ae421	-0.049533967
44	0xbd58a67d	-0.05289315
45	0xbda4ff4a	-0.08056505
46	0xbdee6041	-0.11639453
47	0xbe03ba49	-0.12864031
48	0xbcbae1c0	-0.022812724
49	0xbd03c436	-0.032169543
50	0xbdb93e44	-0.09045079
51	0x3e59ebd5	0.21281369
52	0x3eaf5202	0.34242254
53	0x3bf384ce	0.007431603
54	0xbc315f7f	-0.010825991
55	0xbdcbd803	-0.0995331
56	0x3ce725e0	0.028216302
57	0xbc5c721b	-0.013454939
58	0xbe143648	-0.14473832
59	0xbd00b24e	-0.031420045
60	0x3c3e7b44	0.0116260685
61	0xbe15f0e5	-0.14642675
62	0xbc3e74e3	-0.011624548
63	0xbc605e46	-0.013694352
64	0xbae29459	-0.0017286643
65	0xbc1a915c	-0.00943407
66	0x3dc384e0	0.09546828
67	0xbe2f811f	-0.171391
68	0xbebfcca5	-0.3746082
69	0x3dd81de4	0.10552576
70	0x3e89c64b	0.26909098
71	0xbe1669fa	-0.14688864
72	0xbdd2ceb9	-0.102933355
73	0x3de1e62f	0.11030232
74	0x3db6e6b5	0.089307226
75	0x3e806562	0.2507735
76	0xbdb4cd60	-0.08828235
77	0xbe2f3821	-0.17111255
78	0x3c77d6bd	0.015126881
79	0xbde5d833	-0.11222877
80	0x3cd1deaf	0.02561888
81	0xbf366f46	-0.7126354
82	0xbe16d0eb	-0.14728133
83	0x3dd16861	0.10224987
84	0x3d3e649e	0.046482675
85	0x3c52cec7	0.012866682
86	0xbd6b5d77	-0.057462182
87	0xbd9b6d32	-0.07589187
88	0x3d5626c8	0.05228308
89	0xbd2ae672	-0.041723676
90	0xbdc4dd61	-0.09612537
91	0x3cecd273	0.028908944
92	0x3e0b53e4	0.1360622
93	0xbd5f7b1f	-0.054560777
94	0xbdb7545e	-0.08951639
95	0xbc4478eb	-0.01199172
96	0xbd6cc851	-0.057808224
97	0x3d38b804	0.045097366
98	0x3d5be550	0.053685486
99	0xbcb512d8	-0.022103712
100	0xbd35746a	-0.044300474
101	0xbe03c8e2	-0.128696
102	0xbd4c14fe	-0.049824707
103	0x3ef41971	0.4767566
104	0xbe975e02	-0.2956391
105	0x3e8e444e	0.27786487
106	0x3d590549	0.052983556
107	0xbe79037c	-0.24317735
108	0xbdec6c5b	-0.11544105
109	0xbe9c2088	-0.3049357
110	0x3e2372a2	0.15961698
111	0xbe0342cb	-0.12818448
112	0xbe0887e6	-0.13333091
113	0xbc146ebf	-0.009059607
114	0xbc92acda	-0.017904688
115	0xbe11b932	-0.14230803
116	0xbd1cf65c	-0.038320884
117	0xbe13765b	-0.14400618
118	0xbc6c1c18	-0.014410995
119	0xbd39ce71	-0.045362893
120	0xbac99d99	-0.0015382051
121	0x3d9180e9	0.07104666
122	0xbbe10150	-0.0068666115
123	0x3b7b06fd	0.0038303726
124	0x3dfa2b48	0.122152865
125	0x3f345441	0.7044106
126	0x3c52ea20	0.012873203
127	0xbde5e743	-0.1122575
128	0x3ea867fb	0.3289183
129	0x3e125af4	0.14292508
130	0xbdc55858	-0.09635991
131	0xbe7f489c	-0.24930042
132	0x3e5bffb8	0.21484268
133	0xbd0c0991	-0.03418881
134	0xbda5845e	-0.08081888
135	0xbd91918f	-0.07107841
136	0x3c800ee1	0.015632095
137	0x3e357254	0.17719394
138	0x3c82dff5	0.015975932
139	0x3d84c066	0.064820096
140	0x3c4b9874	0.012426484
141	0xbd1ccfda	-0.03828416
142	0x3ca04201	0.019562723
143	0xbd808161	-0.06274677
144	0xbd37a174	-0.044831708
145	0xbcbe6a73	-0.023244118
146	0x3d79688a	0.06089071
147	0x3e651388	0.22370732
148	0x3cfeb034	0.03108988
149	0xbe643998	-0.22287595
150	0x3e4826df	0.19546078
151	0x3e321a3a	0.17392817
152	0x3d3f574b	0.04671411
153	0xba8e468d	-0.0010854766
154	0xbc21beb3	-0.009872126
155	0xbe520b75	-0.20512183
156	0x3e00b550	0.12569165
157	0x3ddd33ea	0.108009174
158	0xbe577ca3	-0.21043639
159	0xbe08cc70	-0.13359237
160	0x3e5f13a0	0.2178483
161	0xbf151949	-0.5824171
162	0x3d7f6363	0.062350642
163	0xbd00d7c9	-0.03145579
164	0xbd7abb8b	-0.06121401
165	0xbc6e9ded	-0.01456402
166	0xbd1d3f55	-0.038390476
167	0xbceb3659	-0.028712438
168	0x3ce5e4a3	0.028063124
169	0x3dd590e2	0.10428025
170	0xbc2ffaca	-0.010740945
171	0xbe058c18	-0.13041723
172	0x3c87a898	0.016559884
173	0x3d472d54	0.048627213
174	0x3d0e53cd	0.034747887
175	0xbd9eb5fc	-0.077495545
176	0x3d8a712c	0.06759867
177	0xbe05955e	-0.1304526
178	0x3d9ac62a	0.07557328
179	0x3cc8f141	0.024529101
180	0x3d2970ce	0.041367345
181	0xbe681f9a	-0.22668305
182	0x3e158f57	0.14605461
183	0x3e5efc1c	0.2177586
184	0xbec6db87	-0.3883936
185	0x3e5b9a69	0.21445622
186	0x3e1b8004	0.15185553
187	0xbde8e620	-0.11372018
188	0x3eb1ddb0	0.34739447
189	0xbc873ae5	-0.016507575
190	0x3ec8a78f	0.39190337
191	0xbe9b9d64	-0.30393517
192	0x3e6aca2a	0.22928682
193	0x3d8494f5	0.06473724
194	0x3bfed62a	0.007776995
195	0x3c851d5c	0.016249351
196	0xbdd522a1	-0.104069956
197	0x3e175254	0.147775
198	0xbc8fbb62	-0.017545406
199	0xbdc3ef47	-0.09567123
200	0xbd3a3d59	-0.045468662
201	0xbcb1b6f5	-0.021693686
202	0xbcadd2de	-0.021218713
203	0x3da92eef	0.08260905
204	0xbdb71274	-0.089390665
205	0x3eb8300d	0.3597416
206	0xbd67e046	-0.05661037
207	0xbdbff56d	-0.09372983
208	0x3e486ca1	0.19572689
209	0x3dadf2eb	0.084935986
210	0x3d226743	0.03964926
211	0xbe9f84ca	-0.31155998
212	0x3ec38d66	0.38193816
213	0xbc83412e	-0.016022291
214	0xbe1d61af	-0.15369295
215	0x3d55e152	0.052216835
216	0x3cd1ed6e	0.02562591
217	0xbdf0a5b9	-0.11750359
218	0xbdaff7f2	-0.08592214
219	0x3dca3671	0.09873665
220	0xbdf6a41e	-0.120430216
221	0xbb73214e	-0.0037098709
222	0xbdb0ba97	-0.08629339
223	0x3d33f1f8	0.04393193
224	0xbc3ece1c	-0.01164582
225	0x3d27db2f	0.040980514
226	0x3d9761b2	0.07391681
227	0xbb93e2ea	-0.0045131342
228	0x3bc5c23f	0.006035119
229	0xbb99a68b	-0.004689043
230	0x3e3a55d4	0.18196803
231	0xbd1b497a	-0.03791187
232	0xbd139057	-0.036026325
233	0xbe4bcc1d	-0.19902082
234	0xbc8329d1	-0.01601115
235	0x3e2c6504	0.1683541
236	0x3cb73973	0.022366261
237	0xbe64818b	-0.22315042
238	0x3c9f99be	0.01948249
239	0x3e0e7865	0.13913114
240	0xbdf794ed	-0.12088952
241	0x3ea844d6	0.32865018
242	0x3c83dcdf	0.01609653
243	0xbd357005	-0.044296283
244	0xbce3ed12	-0.027823005
245	0x3d1dae7e	0.038496487
246	0xbd8bf06c	-0.06832966
247	0x3dddd173	0.10830965
248	0xbd928caf	-0.071557395
249	0x3d0c9a47	0.034326818
250	0x3dd64ce1	0.10463882
251	0x3ced175f	0.028941808
252	0xbe10078a	-0.14065376
253	0x3d38f488	0.04515508
254	0x39f14bfb	0.00046023712
255	0xbc962075	-0.018326024

bias f4 [256]
0	0xbe1fb139	-0.15594949
1	0x3d680f3b	0.05665515
2	0x3d0b2620	0.033971906
3	0x3df88dcb	0.1213642
4	0x3de7cbf7	0.113182
5	0x3b2b5f66	0.0026149391
6	0xbc26de09	-0.010184773
7	0xbcdb8b82	-0.026799921
8	0xbd10675e	-0.03525483
9	0x3d1b24ad	0.037876774
10	0xbd834bfa	-0.06410976
11	0xbe33c7f8	-0.17556751
12	0x3df4ea1a	0.11958714
13	0xbd29c493	-0.041447233
14	0xbe0898e4	-0.13339573
15	0x3d1e2922	0.038613446
16	0xbd36d80a	-0.044639625
17	0x3df1199f	0.11772465
18	0xbc8f90ef	-0.017525164
19	0xbd9d4227	-0.07678633
20	0x3ca61886	0.020275366
21	0xbd960838	-0.07325786
22	0x3dc7bea7	0.09753161
23	0xbe0ca10b	-0.13733308
24	0xbd875803	-0.06608584
25	0x3e123c83	0.14280896
26	0x3dde4248	0.10852486
27	0x3d1655fc	0.036703095
28	0x3e0e2410	0.13880944
29	0xbd1af8a7	-0.03783479
30	0xbd7ba806	-0.061439537
31	0xbe13282a	-0.1437079
32	0x3d1ac576	0.03778597
33	0x3c94c797	0.018161578
34	0x3d24a450	0.040195763
35	0xbe15a661	-0.1461425
36	0xbd25f867	-0.040520098
37	0xbd8af75f	-0.067854635
38	0xbdb69196	-0.08914487
39	0x3d8d5383	0.06900694
40	0xbcbf7b75	-0.023374299
41	0xbe448e62	-0.1919494
42	0x3c5a83e7	0.013337112
43	0x3d3534bc	0.044239745
44	0x3d0083f3	0.031375837
45	0xbdd5e7d1	-0.10444606
46	0x3e09f748	0.13473237
47	0x3da6f616	0.08152406
48	0xbd1b14af	-0.037861522
49	0xbe01af19	-0.1266445
50	0x3c8ae4ab	0.01695474
51	0xbdca0b36	-0.098654196
52	0x3c5b91c9	0.013401457
53	0x3b432ce1	0.0029781389
54	0x3dba85c7	0.09107547
55	0x3ca160d8	0.019699499
56	0xbd113c3c	-0.035457835
57	0x3d5c3e5e	0.053770415
58	0xbe0b0d32	-0.13579252
59	0xbcf2f94c	-0.02965989
60	0x3d8e9846	0.069626376
61	0x3dbce2ca	0.09222944
62	0x3e10bfe6	0.14135703
63	0x3d974fa6	0.073882386
64	0xbdf29b11	-0.11845983
65	0x3d816384	0.06317809
66	0x3da9b8cb	0.082871996
67	0xbe18020a	-0.14844528
68	0x3d6b654d	0.057469655
69	0x3da48d54	0.08034769
70	0xbd9a7f2b	-0.075437866
71	0xbcaa9f44	-0.020827897
72	0xbda32767	-0.079665
73	0x3d3f02d1	0.046633545
74	0x3d8f9df2	0.070125476
75	0xbd43d20e	-0.047807746
76	0xbc21a53e	-0.009866057
77	0x3cb66b07	0.022267831
78	0xbd3c2fb4	-0.04594393
79	0x3d958ac4	0.07301858
80	0xbdc3906c	-0.09549031
81	0x3e02c00e	0.12768576
82	0xbd9eed36	-0.07760088
83	0x3c831a34	0.016003706
84	0x3d97a574	0.074046046
85	0x3d41c7cc	0.04730968
86	0xbd848dbc	-0.06472346
87	0xbd8243da	-0.06360598
88	0xbc893e4c	-0.016753338
89	0xbdc1336b	-0.09433635
90	0x3d1e62a2	0.038668282
91	0xbcc0706e	-0.02349111
92	0xbd09ccf3	-0.03364272
93	0x3d1ba027	0.03799453
94	0xbddf2981	-0.10896588
95	0xbd88f165	-0.06686667
96	0xbda8a5b4	-0.0823473
97	0xbd8ae7a3	-0.067824624
98	0x3d30cfb2	0.043166824
99	0x3d827665	0.06370238
100	0x3dceec12	0.101036206
101	0x3e1ac966	0.1511589
102	0xbdf7865f	-0.12086176
103	0xbe116a5a	-0.14200726
104	0x3dad4723	0.08460834
105	0xbe15f26c	-0.14643258
106	0x3d41724f	0.047228154
107	0xbe007abd	-0.12546821
108	0xbc66d635	-0.014089157
109	0xbd7df462	-0.06200064
110	0xba3c11f3	-0.00071743055
111	0xbe12db33	-0.1434143
112	0x3df66322	0.12030627
113	0x3dc7cfed	0.097564556
114	0xbd7c77ca	-0.061637677
115	0x3d7ea0e4	0.062165156
116	0xbd354df2	-0.044263788
117	0xbd9cb336	-0.07651369
118	0xbb240761	-0.0025028812
119	0xbdcf0d87	-0.10110002
120	0x3dd88068	0.105713665
121	0xbcb8612a	-0.022507269
122	0xbd2be7b8	-0.04196903
123	0x3d84a0f1	0.0647601
124	0xbaaadee4	-0.0013036397
125	0xbda58cf3	-0.080835246
126	0xbddf9585	-0.109171905
127	0x3cda0f56	0.02661864
128	0xbb05fe77	-0.0020445862
129	0xbd966435	-0.07343332
130	0xbd026319	-0.03183279
131	0x3d41c7ca	0.047309674
132	0xbda33617	-0.07969301
133	0xbde68742	-0.11256267
134	0xbcf9bc57	-0.030485315
135	0x3debb913	0.115099095
136	0x3d9ed990	0.077563405
137	0x3e0d0408	0.13771069
138	0xbca0a438	-0.019609556
139	0xbdb69b9d	-0.089164
140	0xbcd85c12	-0.02641109
141	0x3cce7062	0.025200073
142	0xbd3e9e57	-0.046537723
143	0xbcb3fb6e	-0.021970477
144	0xbd81aa60	-0.063313246
145	0xbdefc0a2	-0.11706664
146	0xbde518ca	-0.11186369
147	0xbd8d7b6e	-0.06908308
148	0x3d7544e8	0.059880167
149	0xbc98fa67	-0.018674089
150	0x3d958bf8	0.073020875
151	0x3df518af	0.11967599
152	0x3ce5f548	0.02807106
153	0xbdceeb11	-0.10103429
154	0xbc92bb07	-0.017911447
155	0x3cc3e6ff	0.023913858
156	0x3d650bb4	0.055919364
157	0x3cf30f0d	0.029670263
158	0xbe076eb5	-0.13225825
159	0x3e3ee55a	0.18642178
160	0xbd8d0cdd	-0.06887219
161	0xbd2c3a65	-0.042047877
162	0x3d9a06af	0.07520806
163	0x3e0c3035	0.13690265
164	0x3dbabe77	0.091183595
165	0xbc9428f7	-0.01808594
166	0xbd11f45c	-0.03563343
167	0xbde19eb0	-0.11016595
168	0x3dcff6c4	0.10154489
169	0xbcc434b5	-0.023950914
170	0x3d5a5c80	0.05331087
171	0x3b84535e	0.0040382585
172	0xbc2c80f2	-0.01052879
173	0x3dee4726	0.11634664
174	0x3d70988b	0.058739226
175	0x3e1d1ced	0.15343066
176	0xbde30c48	-0.11086327
177	0xbce7ab4e	-0.028279927
178	0x3cb902a6	0.02258427
179	0xbd712724	-0.058875218
180	0xbd0bcfa6	-0.034133576
181	0xbdc198b2	-0.094529524
182	0xbdc2a620	-0.09504342
183	0x3d188b1b	0.037242036
184	0xbcaf11ff	-0.021370886
185	0xbd0d8db2	-0.03455896
186	0xbe5a6e9c	-0.21331257
187	0xbd07d7b5	-0.0331647
188	0x3d8d7bb6	0.069083616
189	0xbbc4ef16	-0.0060099466
190	0xbe25b4a8	-0.16182196
191	0xbddea223	-0.10870769
192	0x3dbdfab7	0.09276336
193	0xbd3711ee	-0.044694833
194	0xbdd406d0	-0.10352862
195	0xbda04f24	-0.07827595
196	0xbda0d633	-0.07853355
197	0xb9d79258	-0.0004111703
198	0x3cb1e287	0.021714462
199	0xbdf8960c	-0.12137994
200	0xbe1434ab	-0.14473216
201	0x3d5c31c7	0.05375841
202	0xbc89121a	-0.016732264
203	0xbcd3fa43	-0.02587617
204	0x3d73494a	0.059396066
205	0xbca491b8	-0.020089015
206	0x3c9c249e	0.01906043
207	0xbce858dc	-0.028362684
208	0x3d183513	0.03715999
209	0x3cdfa6fb	0.027301302
210	0xbd4ee1ad	-0.05050819
211	0xbdb7a056	-0.089661285
212	0x3d2ee1dd	0.04269587
213	0xbda9bdf2	-0.08288182
214	0xbd59859b	-0.05310593
215	0xbc2e6fbc	-0.010646757
216	0x3d7b0768	0.06128636
217	0xbd4927c6	-0.049110197
218	0xbcf4bd1e	-0.029875334
219	0x3e0cf3c3	0.13764863
220	0xbc8538d4	-0.01626245
221	0xbda1ff87	-0.07910066
222	0x3d74f70f	0.059805926
223	0x3d2acf6a	0.04170171
224	0xbceea6a9	-0.029132204
225	0xbd92c97e	-0.07167338
226	0x3d2ac979	0.041696046
227	0xbdac86dc	-0.0842416
228	0xbd47b461	-0.048756007
229	0x3e090171	0.13379456
230	0x3d1bc71c	0.038031682
231	0x3e188bd6	0.14897093
232	0xbd7d74dc	-0.061879024
233	0xbcf38179	-0.029724823
234	0xbdae73d6	-0.08518188
235	0xbcede4fc	-0.029039852
236	0x3d00e440	0.031467676
237	0xbe0e69bc	-0.13907522
238	0x3cfa75ad	0.03057369
239	0x3d9b2b83	0.075766586
240	0xbde64530	-0.11243665
241	0xbd614b82	-0.05500365
242	0xbc7120c2	-0.014717283
243	0x3db02556	0.08600871
244	0x3ce1eaa7	0.027577711
245	0xbd52c673	-0.051458787
246	0xbe1269fd	-0.14298244
247	0xbb4f0460	-0.00315883
248	0xbdd5e2bb	-0.10443636
249	0xbe02bdaf	-0.12767671
250	0x3dd09416	0.10184495
251	0xbd0ca0e9	-0.034333143
252	0xbd5f02ba	-0.05444596
253	0xbc6dbfb0	-0.014511034
254	0xbdf09d9b	-0.11748811
255	0x3d705659	0.058676098

weight f4 [128, 256]
0	0x3d5fd38b	0.054645102
1	0x3d11b9a8	0.035577446
2	0x3cf8a9a7	0.030354334
3	0x3cab9876	0.020946722
4	0x3d90847a	0.07056518
5	0x3d0077c5	0.03136422
6	0x3c9cc2b9	0.01913582
7	0xbcaf93eb	-0.021432837
8	0xbdc05971	-0.093920596
9	0xbd2b24b8	-0.041783065
10	0xbba2a52f	-0.004963539
11	0xbd8ee724	-0.0697768
12	0x3d0e3429	0.034717713
13	0x3d1a282c	0.037635967
14	0xbd41eba6	-0.047343872
15	0xbc7adc5f	-0.01531133
16	0xbd1ce0f9	-0.03830049
17	0x3ba1aa6a	0.004933645
18	0x3d67e4be	0.05661463
19	0x3d637c01	0.05553818
20	0x3e03f043	0.12884621
21	0xbca55c40	-0.02018559
22	0x3c1bbe4c	0.0095058195
23	0x3cab77f6	0.020931225
24	0xbd9ab721	-0.0755446
25	0x3c1472fc	0.009060618
26	0xbdc68a04	-0.09694293
27	0x3cff3e11	0.031157525
28	0x3c4cea4d	0.012507034
29	0xbc9d5005	-0.019203195
30	0xbd25f7d8	-0.040519565
31	0xbc22cf24	-0.0099370815
32	0x3e0d056a	0.13771597
33	0x3d980a50	0.07423842
34	0xbd897eff	-0.06713676
35	0x3afafb27	0.0019148336
36	0x3c83a1da	0.016068388
37	0xb934360c	-0.00017186272
38	0x3dca511b	0.09878751
39	0xbc9bdd46	-0.01902641
40	0xbd82d1cd	-0.063876726
41	0x3c882476	0.016618948
42	0xbd1bd927	-0.03804889
43	0x3d0a8d26	0.033826016
44	0xbdf2a702	-0.118482605
45	0x3d55a579	0.05215976
46	0xbc26623f	-0.01015526
47	0x3d41bba8	0.047298104
48	0x3d50736a	0.050891317
49	0x3cea05f4	0.028567292
50	0x3c122dfd	0.008922097
51	0xbb0de635	-0.0021652107
52	0xbc429374	-0.011875976
53	0xbd7cf53d	-0.061757315
54	0xbdc5a4c5	-0.09650568
55	0xbc4c71db	-0.012478317
56	0x3da3c433	0.079964064
57	0x3e02af45	0.12762173
58	0x3d3f5971	0.046716157
59	0xbddbc7ea	-0.1073149
60	0xbcaee82d	-0.021350944
61	0xbc6a7cd6	-0.01431199
62	0xbd8d9bbd	-0.0691447
63	0xbd87b1e7	-0.06625729
64	0xbd841d05	-0.064508475
65	0x3d3f98ce	0.046776585
66	0xbc002e2c	-0.007823508
67	0x3d67a559	0.056554172
68	0x3d8cb08a	0.0686961
69	0x3d05e90c	0.032692954
70	0xbcbe621a	-0.023240138
71	0xbc039316	-0.0080306735
72	0xbb3e59cb	-0.002904522
73	0xbcf77dbe	-0.030211326
74	0x3e1173d4	0.14204341
75	0x3c7ecb7a	0.015551442
76	0x3d051ca3	0.032498013
77	0xbbeec188	-0.0072862543
78	0xbd50d8a4	-0.050987855
79	0x3be42150	0.006961979
80	0xbce32088	-0.027725473
81	0x3e01aa0f	0.12662528
82	0x3c79f015	0.015254994
83	0xbe0bbb80	-0.13645744
84	0x3bd44dcc	0.0064790007
85	0xbc095523	-0.008382115
86	0xbbf0dfb7	-0.0073508876
87	0x3b932282	0.0044901976
88	0x3beb79f5	0.0071861693
89	0x3dd90931	0.10597456
90	0x3dc7929e	0.09744762
91	0xbc7b6056	-0.0153427925
92	0xbdf9c958	-0.121966064
93	0x3d5ac386	0.053409122
94	0x3da24350	0.07922995
95	0x3d067c83	0.032833587
96	0x3c90b8cc	0.017666243
97	0x3c9b33a5	0.018945524
98	0x3d4cbbdc	0.049983844
99	0xbc5f1873	-0.013616669
100	0xbdf59d70	-0.119929194
101	0x3d51076d	0.051032472
102	0x3d79b9aa	0.06096808
103	0x3d08e0c3	0.033417474
104	0xbc840916	-0.016117614
105	0xbd5655e8	-0.05232802
106	0x3d1684e6	0.036747836
107	0x3d137376	0.035998784
108	0x3e31a1c5	0.17346866
109	0xbd284698	-0.04108295
110	0xbd641ed7	-0.055693474
111	0xbca64214	-0.02029518
112	0x3d5a6556	0.053319298
113	0xbd14f0a5	-0.03636231
114	0xbd1a7eb4	-0.03771849
115	0x3ccb4f27	0.024818016
116	0x3ba41fbd	0.0050086663
117	0x3d04e92e	0.03244894
118	0x3e10cac3	0.14139847
119	0xbda310a0	-0.07962155
120	0xbcd0277c	-0.025409453
121	0x3d045b98	0.032313913
122	0x3d831777	0.0640096
123	0xbd361409	-0.0444527
124	0xbcc7e8dc	-0.024403028
125	0x3bd5e7fe	0.0065278998
126	0xbd48ef88	-0.04905656
127	0xbdc5ef5b	-0.09664794
128	0xbc99b18e	-0.018761422
129	0x3db9deb1	0.09075678
130	0xbc957edd	-0.01824897
131	0xbcbae730	-0.022815317
132	0xbc078e46	-0.008273667
133	0x3db4d430	0.08829534
134	0xbc0c7faa	-0.008575359
135	0xbca19abe	-0.019727107
136	0xbb9d1cca	-0.0047946917
137	0xb98948f4	-0.0002618503
138	0x3d31d7b3	0.043418597
139	0x3d116de4	0.03550519
140	0xbd7ff6df	-0.062491294
141	0xbd9410ab	-0.07229742
142	0xbc9c6900	-0.019093037
143	0x3b614e95	0.0034379114
144	0xbd281a01	-0.041040424
145	0xbd8a88b5	-0.06764356
146	0x3c77e0c3	0.015129271
147	0xbcb516d7	-0.022105617
148	0x3d3a8069	0.045532618
149	0xbdbc83e5	-0.092048444
150	0x3d5a71e1	0.05333126
151	0x3ddf24e7	0.108957104
152	0xbcaafb91	-0.02087191
153	0x3c4e3ffc	0.012588497
154	0x3c3caf2a	0.011516372
155	0xbda689dc	-0.08131763
156	0xba60043d	-0.00085455534
157	0x3e0695d0	0.13143086
158	0xbd40340d	-0.04692464
159	0x3cda8c98	0.026678368
160	0x3c90de3d	0.017684096
161	0x3c83c27f	0.016083954
162	0xbd6cd1f9	-0.057817433
163	0xbc1179d9	-0.008879148
164	0x3e183eb9	0.14867677
165	0x3da16ac3	0.07881691
166	0x3cb633b7	0.022241456
167	0xbcbae5c7	-0.022814645
168	0xbc54b668	-0.012982942
169	0x3dea7b91	0.1144935
170	0xbdd82656	-0.10554187
171	0xbd905a6b	-0.07048496
172	0x3b0e078d	0.002167198
173	0x3c80fbc4	0.015745051
174	0x3a983335	0.001161194
175	0x3cebacd6	0.028768938
176	0x3d920ed0	0.071317315
177	0x3ce55e50	0.027999073
178	0xbdad5baa	-0.08464749
179	0xbde45ae1	-0.11150146
180	0xbcfe688a	-0.031055707
181	0x3c1bb0ae	0.009502573
182	0xbd41a796	-0.047278963
183	0x3d0a36c9	0.033743653
184	0x3dcb9d52	0.09942116
185	0xbdf3103b	-0.1186833
186	0xbd585a4a	-0.05282048
187	0x3d3a88e1	0.045540694
188	0xbd5dc813	-0.054145884
189	0x3b074a75	0.0020643745
190	0x3c58411d	0.013199118
191	0x3ca69c39	0.020338165
192	0xbd28ff80	-0.04125929
193	0x3cfcec6a	0.03087445
194	0x3cbc47e9	0.022983508
195	0x3c6d17ce	0.0144710075
196	0x3c18f009	0.009334573
197	0x3dc2f8c3	0.09520104
198	0x3d27deca	0.040983953
199	0x3c88b9ad	0.0166901
200	0xbd73a823	-0.05948652
201	0xbc1ebe9f	-0.009689002
202	0xbc1a8648	-0.009431429
203	0x3d2d3b3b	0.042292815
204	0x3b838038	0.0040130876
205	0x3d6dd58b	0.05806498
206	0xbafeb59f	-0.0019432789
207	0x3d176c33	0.03696842
208	0xbdb3d0a9	-0.08780033
209	0xbde59556	-0.11210124
210	0xbc3b3420	-0.011426002
211	0x3d0b4bdd	0.034007896
212	0x3d8d3009	0.068939276
213	0x3cb6c920	0.0223127
214	0x3e0383b8	0.12843215
215	0x3c7c5416	0.015400907
216	0x3d2fa886	0.042885326
217	0x3c95b16d	0.01827308
218	0x3d698fa6	0.05702176
219	0x3d588821	0.052864198
220	0xbc55c9b7	-0.013048581
221	0xbb12c0a4	-0.0022392655
222	0xbd98db73	-0.074637316
223	0xbccc9282	-0.024972204
224	0x3d0b4eca	0.034010686
225	0x3bd16b65	0.0063909763
226	0x3d18a6ce	0.037268452
227	0x3d488353	0.048953366
228	0xbd935aff	-0.071950905
229	0x3d5dc8d1	0.05414659
230	0xbdb0bc2a	-0.086296394
231	0xbba5ebbf	-0.0050635035
232	0xbd2c2c33	-0.04203434
233	0xbbf12de8	-0.007360209
234	0x3c1b83bb	0.009491856
235	0xbd3f0492	-0.046635218
236	0x3df7276f	0.12068068
237	0x3d182e53	0.037153553
238	0x3db9011e	0.09033416
239	0xbdb53be2	-0.08849312
240	0xbc8e4fca	-0.01737203
241	0x3ca45886	0.020061743
242	0xbc266987	-0.010156996
243	0x3c8f88a2	0.017521206
244	0x3d9da74a	0.076979235
245	0xbc37a7c2	-0.01120943
246	0xbdf0b29c	-0.11752817
247	0x3d321f3c	0.04348682
248	0x3c6a6b00	0.014307737
249	0x3d66fae0	0.056391597
250	0x3b04f56f	0.0020287891
251	0xbca0c54c	-0.019625328
252	0x3d32f668	0.043692023
253	0x3ccf5de9	0.025313335
254	0x3c58bcb4	0.013228584
255	0xbbfb8ccd	-0.007676697

bias f4 [128]
0	0x393b1759	0.00017842407
1	0x3dea9790	0.114546895
2	0xbdada32a	-0.08478387
3	0xbd51f551	-0.051259343
4	0xbd030577	-0.031987634
5	0xbcff1a31	-0.031140419
6	0x3d2a0b53	0.041514706
7	0x3c6eaf05	0.014568095
8	0x3d3474a7	0.04405656
9	0xbcc1e6a2	-0.023669545
10	0x3d7bc33e	0.061465494
11	0xbe2f6386	-0.17127809
12	0xbdce47b1	-0.10072268
13	0xbc6945e6	-0.0142378565
14	0x3d204cf6	0.039135896
15	0xbd3a6cfe	-0.0455141
16	0xbd0bc784	-0.03412582
17	0x3b3eb9ed	0.002910252
18	0x3d28a877	0.041176286
19	0xbdb755dc	-0.08951923
20	0x3d3e0abe	0.046396963
21	0xbc48c084	-0.012252931
22	0xbbafdfa9	-0.0053672385
23	0xbe211392	-0.15730122
24	0xbdc30114	-0.0952169
25	0x3bb64696	0.0055626137
26	0x3d1afbb2	0.03783769
27	0xbda12856	-0.078690216
28	0xbd745a68	-0.05965653
29	0xbce64e68	-0.028113559
30	0xbd9f2c77	-0.07772153
31	0xbe0b4c16	-0.13603243
32	0x3b0eb71c	0.0021776622
33	0xbdd81cc3	-0.10552361
34	0xbd304516	-0.043034635
35	0xbdb1eb9c	-0.08687517
36	0xbcadd5d7	-0.02122013
37	0x3d83629f	0.06415295
38	0x3d968d83	0.0735121
39	0xbc9e3a9f	-0.019315062
40	0xbda8fc70	-0.08251274
41	0x3c912288	0.017716661
42	0xbc917c52	-0.017759476
43	0xbe07df35	-0.1326874
44	0xbe2f98ba	-0.17148104
45	0xbd884e2b	-0.06655534
46	0x3d23671e	0.039893262
47	0x3d460431	0.04834384
48	0xbe78a2f2	-0.24280909
49	0xbc1bd292	-0.009510653
50	0xbd984e97	-0.07436865
51	0xbdc4bb84	-0.09606078
52	0xbe023de7	-0.12718926
53	0x3cad5198	0.021157071
54	0x3c219765	0.009862755
55	0xbd70b31d	-0.058764566
56	0x3aaefb87	0.0013350107
57	0xbd9ef948	-0.077623904
58	0x3d706a2d	0.058695007
59	0xbd5e98ca	-0.05434493
60	0xbdb4828d	-0.08813963
61	0xbe23e7e4	-0.16006428
62	0xbdf5a701	-0.11994744
63	0xbd962904	-0.07332042
64	0x3c5e1994	0.013555903
65	0xbd3a0db5	-0.04542323
66	0xbd35a3e1	-0.04434574
67	0xbc6f1df5	-0.014594545
68	0xbcc56954	-0.024098076
69	0xbd3fc417	-0.046817865
70	0x3c90235a	0.017594982
71	0x3cfca5e7	0.030840827
72	0xbd8d8b47	-0.06911331
73	0xbd69e4a6	-0.05710282
74	0xbe1c0fb2	-0.15240362
75	0xbd88d80a	-0.06681831
76	0xbe14afea	-0.14520231
77	0xbd65aad7	-0.05607113
78	0xbce53e52	-0.027983818
79	0xbd68ff9c	-0.056884393
80	0x3d19ab5f	0.037516948
81	0xbd17c254	-0.03705056
82	0xbdc89c36	-0.0979542
83	0xbe0cc94d	-0.13748665
84	0x3c70b85c	0.014692392
85	0xbcebf04f	-0.028801112
86	0xbcdaad9a	-0.026694108
87	0x3d1192a1	0.035540227
88	0xbb434196	-0.002979373
89	0x3db5d919	0.08879299
90	0x3c13ae1f	0.009013682
91	0xbd18b131	-0.037278358
92	0xbd4fe7d5	-0.0507582
93	0xbd2efee3	-0.042723548
94	0xbe20f181	-0.15717126
95	0xbe7180db	-0.2358431
96	0x3d5297fd	0.05141448
97	0xbdfaac44	-0.12239888
98	0xbc9652de	-0.018350061
99	0xbdc03eaf	-0.09386956
100	0x3cd6c339	0.026216136
101	0xbd7884db	-0.060673576
102	0xbe0248f0	-0.12723136
103	0x3d1b1c5d	0.037868846
104	0xbd6d4c0c	-0.057933852
105	0xbd046334	-0.03232117
106	0x3d6497c3	0.055808794
107	0xbc8cbd04	-0.017179973
108	0xbd4749f8	-0.048654526
109	0xbdaf8b47	-0.08571487
110	0xbb187e04	-0.002326847
111	0xbda8301c	-0.08212301
112	0xbd377b31	-0.04479522
113	0xbd6a3ad6	-0.057185017
114	0xbd168deb	-0.036756437
115	0xbcbc4fa2	-0.02298719
116	0x3cec1975	0.028820733
117	0xbdc27433	-0.094948195
118	0xbd5e305a	-0.05424533
119	0xbc89c0e6	-0.016815614
120	0xbcf7aedb	-0.030234745
121	0xbe036348	-0.12830842
122	0xbd745e87	-0.05966046
123	0xbb67bff6	-0.003536222
124	0x3bd740c7	0.0065690014
125	0xbd106e36	-0.035261355
126	0xbdfc9d65	-0.12334708
127	0xbcf748d1	-0.030186089

weight f4 [128, 128]
0	0x3c8250d7	0.015907688
1	0xbc902fc4	-0.017600901
2	0x3db90b75	0.090353884
3	0xbdbb12cf	-0.09134447
4	0xbd41ae89	-0.04728559
5	0xbad8f550	-0.0016552601
6	0xbd2192e2	-0.03944672
7	0x3d647927	0.055779602
8	0x3b85b2fb	0.004080174
9	0x3d18f8b3	0.037346553
10	0x3bc01f85	0.0058631324
11	0x3da4d504	0.08048442
12	0xbba9e4b2	-0.0051847333
13	0xbcfaf7ac	-0.030635677
14	0x3cc69bbe	0.024244186
15	0x3ce96b4c	0.028493546
16	0xbd57420a	-0.052553214
17	0x3cc22ab9	0.023702012
18	0xbd265921	-0.040612344
19	0xbda2bbc6	-0.07945971
20	0x3d9e8213	0.077396534
21	0x3d83897f	0.0642271
22	0x3df305d9	0.1186635
23	0xbcb3f476	-0.021967154
24	0xbadca843	-0.0016834814
25	0x3dd6914b	0.10476931
26	0x3d8be71c	0.0683119
27	0xbbf82247	-0.0075724456
28	0xbd56dc48	-0.05245617
29	0x3da22b63	0.079184316
30	0xbb494229	-0.00307096
31	0x3c9fe561	0.019518556
32	0xbdec4a76	-0.1153764
33	0x3d2e2b75	0.042521913
34	0xbd06041d	-0.032718766
35	0xbcaad00d	-0.02085116
36	0x3daaf200	0.08346939
37	0xbe412def	-0.18865179
38	0xbdd69fa8	-0.10479671
39	0x3d8f46be	0.06995915
40	0x3cc5a14b	0.024124762
41	0x3c968a4f	0.018376498
42	0xbc83ee1d	-0.016104752
43	0xbd8dd43f	-0.06925248
44	0xbcd23ce8	-0.025663808
45	0xbd19e278	-0.037569493
46	0xbe31e501	-0.17372514
47	0xbd102c1f	-0.035198327
48	0x3d4fdff8	0.050750703
49	0xbcfc4f5c	-0.03079956
50	0x3d34d635	0.044149596
51	0x3de11a9b	0.10991403
52	0xbc411e04	-0.011786941
53	0x3c91f3dc	0.017816477
54	0x3e0d7185	0.13812836
55	0xbd202d9f	-0.039106008
56	0xbe14c049	-0.14526476
57	0x3c999301	0.018746855
58	0x3d254c89	0.040356193
59	0x3d32b2c4	0.043627515
60	0xbc423a7a	-0.011854762
61	0x3d5dc723	0.05414499
62	0x3d1c5111	0.03816325
63	0x3dd28e0f	0.10281002
64	0xbd5eb2f5	-0.054369885
65	0x3d08a5dc	0.0333613
66	0x3c9ea111	0.019363912
67	0x3daa1f7a	0.08306785
68	0xbbbea247	-0.005817685
69	0x3d9d09ae	0.07667862
70	0xbd62db92	-0.05538518
71	0xbd58df60	-0.052947402
72	0x3dc12330	0.094305396
73	0xbd09e261	-0.033663157
74	0xbd06727d	-0.03282403
75	0x3e0726d3	0.13198404
76	0x3df4abc8	0.11946827
77	0xbd47673f	-0.048682448
78	0xbd439b51	-0.047755543
79	0xbc3d5894	-0.011556763
80	0xbcb41076	-0.021980505
81	0xbd0809c8	-0.033212453
82	0xbda24e2b	-0.079250656
83	0x3d4e988d	0.050438453
84	0x3d839a61	0.0642593
85	0xbd6f7683	-0.05846263
86	0xbd6886ea	-0.05676929
87	0xbd575b81	-0.0525775
88	0x3d8c1a15	0.06840912
89	0xbdb55b67	-0.08855324
90	0x3d01c121	0.031678323
91	0xbc018cb5	-0.007907082
92	0x3d8a28f3	0.06746092
93	0x3d1c63f3	0.038181257
94	0x3cf008a3	0.029300993
95	0xbd7b2307	-0.0613127
96	0xbd2cc51c	-0.042180166
97	0x3c5cd87b	0.013479347
98	0xbc96687e	-0.018360373
99	0xbd3d4a8e	-0.04621368
100	0x3d29c717	0.041449632
101	0xbd8012e6	-0.062536046
102	0x3c0b2fcb	0.008495281
103	0x3d418a65	0.047251124
104	0x3c68ebef	0.014216407
105	0xbd18e6e5	-0.037329573
106	0x3dbe99ed	0.09306703
107	0xbc35043b	-0.011048372
108	0x3c4f45b1	0.012650893
109	0xbdd5e604	-0.104442626
110	0xbd1856f3	-0.037192296
111	0xbca9a2cd	-0.020707512
112	0x3c554cd1	0.013018803
113	0x3d915d6e	0.070978984
114	0x3cf67e0a	0.030089397
115	0xbdb697dd	-0.08915684
116	0x3dd4d815	0.10392777
117	0xbd3e7ed6	-0.04650768
118	0xbdccadb0	-0.09994066
119	0xbcf91914	-0.030407466
120	0x3d2bd5f0	0.041952074
121	0x3caf00eb	0.021362742
122	0x3d0531c5	0.032518167
123	0xbb84c17b	-0.004051385
124	0xbdb71c30	-0.08940923
125	0x3d20b2b2	0.039232917
126	0xbd4ef4bf	-0.050526377
127	0x3d89497d	0.0670347
128	0x3d08d801	0.033409122
129	0xbe15ce4e	-0.1462948
130	0x3dec902a	0.115509346
131	0x3e07d320	0.13264132
132	0x3dbdce62	0.0926788
133	0xbdd3db12	-0.10344519
134	0xbceadc31	-0.028669449
135	0x3e09dcf4	0.13463193
136	0x3dd63564	0.10459402
137	0xbd80448a	-0.06263073
138	0xba0478ea	-0.0005053418
139	0x3e1ec3f2	0.15504435
140	0x3d831400	0.06400299
141	0x3e078737	0.13235174
142	0x3d3ced52	0.046124764
143	0x3c70ce28	0.014697589
144	0xbd4d7fc3	-0.05017067
145	0x3df90c46	0.12160544
146	0xbd14341e	-0.036182515
147	0xbd904a69	-0.070454426
148	0x3c592bd2	0.0132550765
149	0x3d4e9fd0	0.050445378
150	0x3beb9162	0.007188962
151	0x3dee5cdf	0.116388075
152	0x3d8782f6	0.06616776
153	0x3c22653b	0.009911831
154	0x3d33778d	0.043815184
155	0x3d1a8774	0.037726834
156	0xbd5d9d09	-0.05410484
157	0x3be21c2c	0.006900331
158	0x3db1fc54	0.08690706
159	0xbc0b7c8d	-0.008513582
160	0xbe146e99	-0.14495315
161	0x3d8ab05a	0.06771918
162	0x3d15f9d2	0.0366152
163	0x3e1aca7a	0.15116301
164	0xbd167ff9	-0.036743138
165	0x3d6eb9f3	0.058282804
166	0x3b0e7dcb	0.002174246
167	0xbc35954d	-0.011082959
168	0xbce0ee47	-0.02745737
169	0x3baa3219	0.0051939604
170	0x3e15d8c1	0.14633466
171	0x3d89fc5d	0.067375876
172	0x3db16a3e	0.08662842
173	0x3dd0de5b	0.10198661
174	0xbd1b2fb4	-0.03788729
175	0xbcc14e02	-0.023596767
176	0x3e187170	0.14887023
177	0x3c9902eb	0.01867815
178	0x3d357277	0.044298615
179	0xbe313395	-0.17304833
180	0x3cc96b7d	0.024587387
181	0x3d1702e2	0.036867984
182	0xbd23b64c	-0.039968774
183	0xbd8c0e7b	-0.068386994
184	0xbd7f2ebc	-0.06230043
185	0x3d2385fe	0.039922707
186	0x3d9e18cb	0.07719573
187	0x3d9350e8	0.07193166
188	0x3e024511	0.12721659
189	0x3d19c845	0.037544508
190	0x3dc69391	0.09696115
191	0x3deedb23	0.11662891
192	0xbd06b394	-0.032886103
193	0xbc0d9231	-0.008640812
194	0x3d208e1b	0.039198022
195	0x3d292717	0.041297045
196	0xbd0704a8	-0.032963425
197	0x3e16c733	0.14724426
198	0x3a20db7b	0.0006136221
199	0xbb538053	-0.0032272532
200	0xbd81471c	-0.06312391
201	0x3de40f9c	0.1113579
202	0x3e06bdf3	0.13158397
203	0xbb42b6b5	-0.0029710953
204	0x3db08a4f	0.0862013
205	0x3da8a887	0.08235269
206	0xbdbd8cb5	-0.09255353
207	0x3a88a4cd	0.0010425091
208	0x3e021c74	0.12706167
209	0xbd13453d	-0.035954703
210	0x3e090385	0.13380249
211	0x3d8edd71	0.0697583
212	0x3a914230	0.0011082347
213	0xbd49aa1e	-0.049234502
214	0x3b68970c	0.0035490422
215	0x3d91d827	0.07121306
216	0xbdc1761d	-0.094463564
217	0x3c69d4af	0.014271899
218	0x3ccf3204	0.025292404
219	0xba9df735	-0.0012051823
220	0x3dba512a	0.09097512
221	0xbb60a445	-0.00342776
222	0x3e0324bd	0.12806983
223	0x3da772d0	0.081761956
224	0xbd4163f8	-0.04721448
225	0x3cd2247f	0.025652168
226	0x3dc2c70a	0.0951062
227	0xbc15bb8f	-0.009138956
228	0xbdd87171	-0.10568512
229	0xbdd3ef4c	-0.10348377
230	0x3d23641e	0.0398904
231	0xbaf0b17e	-0.0018363444
232	0x3ce0e282	0.027451757
233	0x3cb401ca	0.02197351
234	0x3d465d58	0.048428863
235	0x3e179364	0.14802319
236	0x3d0af528	0.033925205
237	0xbd10a660	-0.035314918
238	0x3c491c54	0.01227482
239	0x3c7bd40d	0.015370381
240	0x3dedd1eb	0.11612304
241	0xbd6cab45	-0.057780523
242	0x3e01603e	0.1263437
243	0xbbe6c34d	-0.0070423246
244	0xbcfedc2b	-0.031110844
245	0xbcbc1e82	-0.022963766
246	0x3df649d0	0.12025797
247	0x3c9316c3	0.01795519
248	0xbdbf64a9	-0.09345371
249	0x3d58d75e	0.052939765
250	0xbccc733d	-0.024957294
251	0xbd4773b6	-0.048694335
252	0xbd9dad58	-0.07699078
253	0x3c91a25a	0.01777761
254	0x3e560920	0.20901918
255	0xbdde75e4	-0.108623296

bias f4 [128]
0	0x3d97d1b4	0.074130446
1	0xbd867df9	-0.06566996
2	0x3d2f8c39	0.042858336
3	0xbdacfc18	-0.084465206
4	0x3d5479a5	0.05187382
5	0x3d148c6c	0.03626673
6	0xbdad60fc	-0.08465764
7	0xbe06a5f7	-0.13149248
8	0x3d08fd3a	0.03344462
9	0x3ac60808	0.0015108595
10	0xbd131219	-0.03590593
11	0xbd4f29c2	-0.050576933
12	0xbce779b9	-0.028256284
13	0x3da00bb0	0.07814729
14	0x3c3d0a43	0.011538091
15	0xbdcf2b13	-0.10115638
16	0xbe251d8a	-0.1612455
17	0xbb98ce13	-0.004663238
18	0x3d4f1a31	0.050562087
19	0xbcef7974	-0.029232718
20	0xbe1bc524	-0.15211922
21	0xbcc3702c	-0.023857199
22	0xbd2dc646	-0.042425416
23	0xbd9d87d6	-0.07691924
24	0x3d06ea78	0.03293845
25	0xbd713da6	-0.058896683
26	0x3aca9f4d	0.0015458852
27	0xbd1d7ebc	-0.03845094
28	0xbdec11a4	-0.11526802
29	0xbd933704	-0.07188228
30	0xbd05215a	-0.03250251
31	0xbe1dcf51	-0.15411116
32	0xbd5f55b5	-0.054525096
33	0xbcc9bdb2	-0.024626587
34	0xbdd5fbe0	-0.10448432
35	0xbd8a9785	-0.06767181
36	0xbd59c2c1	-0.053164247
37	0x3da5703e	0.08078049
38	0xbe0497ad	-0.12948485
39	0xbd22cb9b	-0.039744955
40	0x3d0af966	0.03392925
41	0xbe500569	-0.20314564
42	0x3d5242c3	0.0513332
43	0x3d6b6664	0.057470694
44	0xbd27a2b5	-0.040926654
45	0xbdbdaa48	-0.09260994
46	0xbd609e78	-0.054838628
47	0xbdc1914f	-0.094515435
48	0xbdb21347	-0.08695083
49	0x3c440b97	0.011965654
50	0xbd9e6880	-0.077347755
51	0xbe0e7dc7	-0.13915168
52	0xbc552b92	-0.013010876
53	0xbd5ad0d4	-0.05342181
54	0xbdef60ec	-0.11688408
55	0x3c9eec54	0.0193998
56	0x3da1ac67	0.07894211
57	0x3d97795e	0.07396196
58	0x3d4f72b4	0.0506465
59	0xbd56c383	-0.05243255
60	0x3d2fa7bb	0.04288457
61	0xbd8694b4	-0.065713316
62	0xbe33d67b	-0.17562287
63	0xbd12c241	-0.035829786
64	0xbcf7ff11	-0.030272992
65	0x3d1b0a58	0.03785166
66	0x3cceec42	0.02525914
67	0xbc58e722	-0.0132387
68	0xbe76840a	-0.24073806
69	0x3d3a22a7	0.045443203
70	0xbcca3f43	-0.024688369
71	0xbd7e5850	-0.06209594
72	0xbd738d0d	-0.05946069
73	0x3d29529c	0.041338548
74	0xbe04f772	-0.12985018
75	0xbc80fc7f	-0.0157454
76	0x3cfe44e9	0.031038718
77	0xbaf86ac2	-0.0018952715
78	0x3d8621ef	0.06549441
79	0xbd14a497	-0.036289778
80	0xbd58d8f1	-0.052941266
81	0xbcb8bde8	-0.022551492
82	0x3d09d564	0.03365077
83	0xbd0bd3c3	-0.0341375
84	0xbbd85d02	-0.0066028843
85	0xbd62df7d	-0.055388916
86	0xbc80de67	-0.01573105
87	0xbb6ce9a4	-0.0036150003
88	0x3dbd664c	0.09248027
89	0xbddcd741	-0.10783244
90	0xbd86f712	-0.06590094
91	0xbd889258	-0.06668538
92	0x3bd71cf6	0.0065647317
93	0xbd1c1623	-0.03810705
94	0x3d2ddd64	0.042447463
95	0xbd915cc4	-0.07097772
96	0xbd8a2cf5	-0.06746856
97	0xbcd4eecd	-0.025992775
98	0x3cc60721	0.024173321
99	0xbd649393	-0.0558048
100	0x3d15180b	0.036399882
101	0xbe2fbede	-0.17162654
102	0xbd888d94	-0.06667629
103	0x3a3ce384	0.00072055333
104	0xbe19e0ec	-0.15027207
105	0x3dd8b3aa	0.10581143
106	0xbc4ea6b1	-0.0126129845
107	0x3d20fbd5	0.039302666
108	0xbe1db04d	-0.15399285
109	0x3ba5b64e	0.005057133
110	0x3d2aec41	0.041729216
111	0xbe127800	-0.14303589
112	0xbd319bfd	-0.043361653
113	0x3d762da3	0.060102116
114	0x3d985acf	0.07439195
115	0xbe30e0dc	-0.17273277
116	0x3d2fdc2f	0.042934593
117	0xbe04949b	-0.12947313
118	0x3d9495d9	0.07255144
119	0xbe384295	-0.17994149
120	0x3d010602	0.03149987
121	0x3da9d999	0.082934566
122	0x3d865ece	0.06561051
123	0xbd69754b	-0.056996625
124	0xbd4edd7a	-0.050504185
125	0xbd163be1	-0.0366782
126	0x3d6b0dc8	0.05738619
127	0x3d9e85d6	0.07740371

weight f4 [23, 128]
0	0xbcbe3a88	-0.02322127
1	0xbd0dd3b5	-0.034625728
2	0xbccfb259	-0.025353597
3	0x3d831bdc	0.06401798
4	0xbdab374e	-0.08360158
5	0x3c92173f	0.01783335
6	0x3c36951a	0.011143947
7	0xbdae8f51	-0.08523429
8	0xbcf0b8ef	-0.029385058
9	0x3bb792ed	0.0056022317
10	0x3d55da77	0.052210297
11	0xbd8f2048	-0.06988579
12	0x3d0175a8	0.031606346
13	0x3b4085cd	0.0029376626
14	0xbc1278ca	-0.008939931
15	0xbce0f2b6	-0.027459484
16	0xbc0fa6c7	-0.00876779
17	0xbbcad441	-0.0061898534
18	0xbd4ec040	-0.050476313
19	0xbd230038	-0.03979513
20	0x3d64e505	0.055882473
21	0xbbb2561c	-0.005442394
22	0x3d6d384d	0.05791502
23	0x3d33ead3	0.043925118
24	0x3ca212fc	0.019784443
25	0x3cedee7d	0.029044384
26	0xbb646987	-0.0034852938
27	0xbd8053db	-0.06265994
28	0xbd417147	-0.04722717
29	0x3dde5d53	0.10857644
30	0x3d893d45	0.06701139
31	0xbb836391	-0.004009672
32	0x3d2838c5	0.041069765
33	0x3d83e304	0.06439784
34	0xbd2f95ac	-0.042867348
35	0x3aff556d	0.0019480415
36	0x3d1ed96b	0.038781565
37	0xbe02ca75	-0.12772544
38	0x3c39d084	0.011341218
39	0xbd1260fb	-0.03573702
40	0xbd0345ea	-0.032049097
41	0xbc94f031	-0.018180938
42	0xbdf2c6f1	-0.11854351
43	0xbd142f25	-0.036177773
44	0xbca5ceee	-0.020240273
45	0x3d4ccbce	0.04999905
46	0xbd12ba7a	-0.03582237
47	0xbcc2f1b4	-0.023796894
48	0xbc8d8d99	-0.017279433
49	0xbd843a37	-0.06456416
50	0x3d0bf425	0.03416838
51	0x3de410e1	0.11136032
52	0x3dd8172d	0.105512954
53	0x3d80f4f0	0.06296718
54	0xbc0ca871	-0.008585081
55	0x3c9f43fe	0.0194416
56	0xbc59dda1	-0.013297469
57	0x3cbe1062	0.023201171
58	0xbe15d711	-0.14632823
59	0x3d4fddbf	0.050748583
60	0x3d370f34	0.044692233
61	0xbcbe8912	-0.02325872
62	0x3bc02387	0.00586361
63	0x3d72ccd6	0.059277378
64	0xbc25faf4	-0.010130633
65	0xbcae392a	-0.021267492
66	0xbd3b6be8	-0.045757204
67	0xbd1dcb90	-0.03852421
68	0x3c352c17	0.011057875
69	0x3d37a71b	0.0448371
70	0x3c8d01fa	0.017212857
71	0x3d742168	0.05960217
72	0x3d7f6f37	0.062361922
73	0xbd21bc34	-0.039486125
74	0x3cb13f85	0.021636734
75	0xbbcabda8	-0.0061871596
76	0xbe10dacc	-0.14145964
77	0x3c2b5470	0.010457143
78	0x3c0c1957	0.008550963
79	0x3d2292e7	0.03969088
80	0x3ce4e01e	0.027938899
81	0x3cf7ebdb	0.030263832
82	0x3d9046d2	0.07044758
83	0x3d1daa9d	0.038492788
84	0xbc6e6e96	-0.014552733
85	0xbcf590a2	-0.029976193
86	0x3d9316bb	0.0718207
87	0xbd4d689a	-0.050148584
88	0x3d96b358	0.07358426
89	0x3d4f6c9d	0.05064069
90	0xbbb028fa	-0.0053759785
91	0x3c756f38	0.01498013
92	0xbcc7b4a0	-0.02437812
93	0xbc8f4207	-0.017487539
94	0xbb211634	-0.0024579884
95	0x3d2f4b58	0.042796463
96	0x3d45da2c	0.048303768
97	0xbd5452ab	-0.05183665
98	0xbdcddfe8	-0.10052472
99	0xbd41eebc	-0.047346815
100	0x3da2ba40	0.079456806
101	0x3ca36706	0.019946586
102	0xbc65697f	-0.014002203
103	0xbcf45c99	-0.02982931
104	0x3c109678	0.008824937
105	0xbd0336c8	-0.032034665
106	0x3d118194	0.035523966
107	0x3d539dc1	0.051664118
108	0x3d9a9570	0.07548034
109	0x3c74e230	0.014946505
110	0xbce097e4	-0.027416177
111	0x3d9f3051	0.077728875
112	0x3c8bc5b1	0.01706204
113	0xbdbb40fa	-0.09143253
114	0x3cb93982	0.02261043
115	0xbd329885	-0.043602485
116	0xbcd2a1cb	-0.025711915
117	0x3c08609f	0.0083238175
118	0x3d8303e9	0.0639723
119	0x3d2f53c1	0.042804483
120	0xbe286bbf	-0.16447352
121	0x3cf0360a	0.029322643
122	0xbd6a0cf7	-0.05714127
123	0xbd086565	-0.033299822
124	0x3db6e9a9	0.08931286
125	0xbca5342d	-0.02016648
126	0xbddbf211	-0.1073953
127	0x3cac862e	0.021060076
128	0x3d97d93f	0.07414483
129	0x3c4aef46	0.012386149
130	0x3d43f161	0.04783762
131	0xbda68d0f	-0.081323735
132	0x3d4830eb	0.048874777
133	0x3ce7c960	0.028294265
134	0x3d40282d	0.046913315
135	0xbca5cf2a	-0.020240385
136	0x3c491cc3	0.012274924
137	0xbcb40d6e	-0.02197906
138	0xbd3df034	-0.046371654
139	0xbcfee13b	-0.031113258
140	0x3c3323a9	0.010933795
141	0x3d4c4b21	0.049876336
142	0xbe420be6	-0.18949851
143	0x3cb07c7b	0.021543732
144	0xbd1d9bcd	-0.03847866
145	0x3c896940	0.01677382
146	0x3da9fc03	0.083000205
147	0xbcb98e97	-0.022651
148	0xbd52515d	-0.051347125
149	0x3b6e19eb	0.0036331366
150	0xbd1c631d	-0.03818046
151	0xbd8c799e	-0.06859134
152	0x3cc90eb2	0.02454314
153	0x3d11eee3	0.03562821
154	0x3d9e088e	0.077164754
155	0x3d0269d4	0.031839207
156	0xbd0e1330	-0.034686267
157	0xbdf6e11d	-0.12054656
158	0x3cbfd852	0.02341858
159	0x3d24cd34	0.04023476
160	0xbd5065d0	-0.050878346
161	0xbce17564	-0.027521797
162	0x398e18aa	0.00027102727
163	0xbce45089	-0.027870433
164	0x3d385c86	0.045010112
165	0x3cd80562	0.026369754
166	0x3bfcf258	0.0077193193
167	0x3cd53cd5	0.026029984
168	0x3da86dae	0.08224045
169	0xbd019a35	-0.031641204
170	0x3d7596ea	0.059958376
171	0xbcd29d39	-0.025709735
172	0x3cd52272	0.026017401
173	0xbc3e93ae	-0.011631889
174	0xbe03593f	-0.12827013
175	0xbdbca9af	-0.09212052
176	0x3c6565e0	0.01400134
177	0x3c216173	0.009849894
178	0x3cd6bb19	0.026212262
179	0xbd55c9f9	-0.05219457
180	0x3c53961b	0.012914206
181	0x3ce65951	0.028118761
182	0xbc757753	-0.014982062
183	0xbc4f0e95	-0.012637754
184	0xbd5d1f30	-0.05398482
185	0xbc97cb13	-0.01852945
186	0xbd60229f	-0.054720517
187	0xbddad56a	-0.10685237
188	0xbd9f22ab	-0.07770284
189	0x3c8d5ac5	0.017255196
190	0x3d0a5d7e	0.033780567
191	0xbdc6d140	-0.0970788
192	0xbcafa01d	-0.021438653
193	0x3d8e013c	0.06933829
194	0xbce7d250	-0.028298527
195	0xbba99568	-0.0051752813
196	0xbc236601	-0.00997305
197	0xbd753d01	-0.05987263
198	0x3c650f26	0.013980662
199	0xbd823f0b	-0.06359681
200	0xbccbeb7a	-0.024892557
201	0x3da547dd	0.080703475
202	0xb995ac68	-0.00028547947
203	0xbb38dc63	-0.0028207533
204	0x3d5aa336	0.053378306
205	0x3d880ad7	0.066426925
206	0x3d6b4357	0.057437267
207	0x3b2a3c9c	0.0025976067
208	0x3de765ef	0.11298739
209	0x3e1e9325	0.15485819
210	0x3cef2bf8	0.02919577
211	0x3c84eea0	0.016227067
212	0x3e1e0d35	0.15434726
213	0x3d125739	0.035727713
214	0xbd9ff720	-0.07810807
215	0x3c820d4a	0.015875477
216	0x3d58f1dc	0.05296503
217	0xbde9dd37	-0.114191465
218	0xbd14a64b	-0.0362914
219	0xbcaa916e	-0.0208213
220	0x3d4234e4	0.04741372
221	0x3bb330bd	0.0054684565
222	0xbc430245	-0.011902397
223	0xbd6b99e7	-0.05751982
224	0x3dba816d	0.09106717
225	0x3c83c4b7	0.016085012
226	0x3c664dff	0.014056682
227	0xbc9d5539	-0.019205676
228	0xbdab1c45	-0.08355001
229	0xbd049ea9	-0.032377873
230	0xbc999085	-0.01874567
231	0x3de6494f	0.11244451
232	0x3cb15ca9	0.02165063
233	0xbc3426e7	-0.010995603
234	0x3bf18a55	0.007371227
235	0x3c15e878	0.009149663
236	0xba9ca65f	-0.0011951438
237	0x3b9aa359	0.0047191796
238	0x3bf553a1	0.007486776
239	0xbd96f86a	-0.073716
240	0x3c2f84f8	0.010712855
241	0xbd3c39c9	-0.045953546
242	0xbcb06634	-0.02153311
243	0x3c15fc8e	0.009154452
244	0x3c82d96e	0.01597282
245	0xbc1dd8d7	-0.009634218
246	0x3c26f05d	0.010189143
247	0x3c369529	0.011143961
248	0x3decfdb9	0.11571831
249	0xb9a234d6	-0.00030938414
250	0x3dbd056c	0.0922955
251	0xbd720211	-0.059084002
252	0x3ca1deec	0.019759618
253	0xbcdb5c33	-0.026777362
254	0x3b887959	0.0041648564
255	0x3e03a23b	0.12854855

bias f4 [23]
0	0xbe5e5f4a	-0.21716037
1	0x3e3be5e7	0.1834942
2	0x3d4d4013	0.050109934
3	0x3dc0a6dc	0.09406826
4	0xbd58bcdd	-0.05291449
5	0x3d9e07eb	0.07716354
6	0x3caeaef6	0.021323662
7	0x3c2daf22	0.010600837
8	0xbe3d7229	-0.1850058
9	0xbda45f4a	-0.080259874
10	0x3d28f782	0.041251667
11	0x3d8f9c37	0.070122175
12	0x3d8b05f9	0.067882486
13	0x3d37016c	0.04467909
14	0xbdf732c3	-0.12070229
15	0x3c31ad9a	0.0108446125
16	0xbd1b08cd	-0.03785019
17	0xbb9ef3d3	-0.0048508435
18	0x3bbc15fd	0.005739926
19	0x3c714aad	0.014727277
20	0xbe08c5fd	-0.13356777
21	0xbcd5e1c9	-0.02610864
22	0xba948e21	-0.0011333862
