deploy/models/booster_gym_exp_1/model_7000.pt (torch, 303934 bytes, 8 tensors)

weight f4 [256, 80]
-0.5233042 0.16170684 -0.007475121 0.016590757 0.06553867 -0.014084454 0.10969664 0.08639801
-0.06539027 0.10745691 0.027583929 -0.09781444 -0.009080323 0.011408152 0.07670702 0.04264999
-0.0348212 0.017826369 0.08311394 0.02040419 0.065272935 -0.081651665 0.4281552 -0.17937963
-0.2978707 0.11014553 0.08522 -0.05794597 -0.41931146 -0.3161455 -0.064302 -0.41587263
-0.20621766 0.38598394 0.103491284 -0.02822674 0.10429077 0.2131435 -0.0045403433 -0.03129889
0.08016683 0.104514666 0.028595671 -0.038296036 -0.09572073 -0.06754667 -0.13823436 -0.07123822
-0.055108823 -0.052973732 -0.09330238 0.15321758 0.26929584 -0.006468737 0.0315279 -0.10508531
0.0019518684 0.020364797 -0.10034256 -0.023532512 0.06361002 -0.13531537 -0.015435266 -0.004865031
0.014407095 0.00290351 0.115882926 -0.09732035 -0.30798754 0.095244385 0.21798444 -0.14472851
-0.0919239 0.10608215 0.020525906 0.29763705 -0.06705921 -0.17214026 0.0132388305 -0.105644815
0.043638963 -0.70111245 -0.1474834 0.03209413 0.05103858 0.008729715 -0.057462182 -0.07589187
0.05228308 -0.041723676 -0.09612537 -0.015893629 0.16390716 -0.0553583 -0.06895924 -0.018088553
-0.036041368 0.04297987 0.025982875 -0.007956575 -0.055951517 -0.083032146 -0.081437014 0.4612947
-0.277977 0.2758415 0.055235945 -0.20824985 -0.10409919 -0.34773082 0.11712293 -0.13072602
-0.13757487 -0.08306466 0.007793068 -0.30323404 -0.03798512 -0.14424498 0.0075935754 -0.09870283
-0.05358663 0.08577061 -0.015014785 0.043652724 0.1439097 0.6457613 0.09700985 -0.1463388
0.35877904 0.15561618 -0.13690929 -0.22425722 0.28403518 -0.05828355 -0.11908018 -0.00587724
0.025138188 0.16778977 0.0596165 0.062494326 0.0323239 -0.043371867 0.026558764 -0.068002194
-0.068909995 -0.028597629 0.055544592 0.11254168 -0.011752581 -0.23897816 0.20347151 0.15550332
0.048822246 0.015231469 -0.003314913 -0.25671303 0.09260235 0.10312928 -0.16247885 -0.100180164
0.21671192 -0.59388655 0.061990336 -0.04783964 -0.020479985 -0.013541411 -0.038390476 -0.028712438
0.028063124 0.10428025 -0.010740945 -0.14605539 0.027754547 0.046918124 0.03248278 -0.08627112
0.06281593 -0.13270362 0.08739665 0.03802836 0.04676377 -0.12708195 0.11634051 0.20744845
-0.38794228 0.21390386 0.15181462 -0.043380804 0.33412096 -0.026954085 0.36369365 -0.28371355
0.25469065 0.050012127 0.029081259 0.00081807957 -0.12693039 0.07985539 -0.0064934394 -0.1106873
-0.055227734 -0.03669455 -0.032097876 0.10963494 -0.06262564 0.31128135 -0.051712684 -0.058765423
0.19903749 0.08265971 -0.0055057504 -0.25740284 0.33355302 -0.029017404 -0.19638711 0.03300858
0.0201887 -0.15316652 -0.0821188 0.09593883 -0.114127494 0.0007339653 -0.09671476 0.04143597
0.011680546 0.046406694 0.066728756 0.018010382 0.010648917 -0.034629285 0.17527099 -0.033602703
-0.04543063 -0.20727654 -0.03335161 0.07750408 0.024025213 -0.21576492 0.012228459 0.16150208
-0.09000664 0.29792938 0.013393781 -0.070042975 -0.015765918 0.016060274 -0.06832966 0.10830965
-0.071557395 0.034326818 0.10463882 0.041608434 -0.118801415 0.049523894 0.014804363 -0.0251896
00000000: 44f7 05bf 7a96 253e dcf1 f4bb 57e9 873c
00000010: 2339 863d 7bc2 66bc a2a8 e03d 71f1 b03d
00000020: 55eb 85bd 5e12 dc3d b1f7 e13c f052 c8bd
00000030: a3c5 14bc 42e9 3a3c 9218 9d3d c2b1 2e3d
00000040: ada0 0ebd 9b08 923c a437 aa3d b026 a73c
00000050: d1ad 853d fd38 a7bd 2937 db3e 4baf 37be
00000060: 8282 98be fb93 e13d d387 ae3d c158 6dbd
00000070: feaf d6be d3dd a1be c4b0 83bd 42ed d4be
00000080: b92a 53be b09f c53e 3df3 d33d c43b e7bc
00000090: 6696 d53d 4a42 5a3e 29c7 94bb 4433 00bd
000000a0: 822e a43d c90b d63d 7841 ea3c 4edc 1cbd
000000b0: 3b09 c4bd e955 8abd 4f8d 0dbe 58e5 91bd
000000c0: cab9 61bd fcfa 58bd 5115 bfbd 12e5 1c3e
000000d0: 25e1 893e b3f7 d3bb 6623 013d f836 d7bd
000000e0: d6d5 ff3a 13d4 a63c 6680 cdbd 41c7 c0bc
000000f0: f845 823d 1d90 0abe 33e4 7cbc d76a 9fbb
00000100: bc0b 6c3c d048 3e3b 0754 ed3d e44f c7bd
00000110: 8bb0 9dbe 7d0f c33d 5037 5f3e b633 14be
00000120: 9942 bcbd 9941 d93d f225 a83c e263 983e
00000130: 5756 89bd 8945 30be aee7 583c 4f5c d8bd
00000140: c5be 323d 1b7c 33bf e305 17be 2275 033d
00000150: d40d 513d 1407 0f3c 775d 6bbd 326d 9bbd
00000160: c826 563d 72e6 2abd 61dd c4bd 5b33 82bc
00000170: 47d7 273e 63bf 62bd 813a 8dbd 722e 94bc
00000180: 1da0 13bd a90b 303d 0ada d43c 4b5c 02bc
00000190: 6b2d 65bd c20c aabd 73c8 a6bd d22e ec3e
000001a0: 0053 8ebe 193b 8d3e 163f 623d 733f 55be
000001b0: f531 d5bd c609 b2be 26de ef3d 0bdd 05be
000001c0: 6de0 0cbe ce1d aabd fe5c ff3b 7e41 9bbe
000001d0: 4996 1bbd f5b4 13be 87d3 f83b b624 cabd
000001e0: a77d 5bbd 80a8 af3d 9300 76bc 33cd 323d
000001f0: 105d 133e 9d50 253f 1aad c63d d7d9 15be
00000200: e3b1 b73e d959 1f3e f331 0cbe afa3 65be
00000210: 0f6d 913e bbba 6ebd 4fe0 f3bd dd95 c0bb
00000220: 9aee cd3c 15d1 2b3e 6e30 743d 0dfa 7f3d
00000230: 1166 043d b3a6 31bd c491 d93c bc44 8bbd
00000240: af20 8dbd 9345 eabc ba82 633d 417c e63d
00000250: e68d 40bc b1b6 74be d65a 503e 433c 1f3e
00000260: d6f9 473d 698d 793c 033f 59bb e46f 83be
00000270: 4da6 bd3d 7235 d33d db60 26be 422b cdbd
00000280: bbe9 5d3e f308 18bf 94e9 7d3d 80f3 43bd
00000290: a4c5 a7bc cbdc 5dbc 553f 1dbd 5936 ebbc
000002a0: a3e4 e53c e290 d53d cafa 2fbc 8b8f 15be
000002b0: 815d e33c 382d 403d aa0c 053d eaae b0bd
000002c0: a3a5 803d 75e3 07be 04fd b23d a0c3 1b3d
000002d0: 5e8b 3f3d c521 02be ef43 ee3d 5e6d 543e
000002e0: 5fa0 c6be 9d09 5b3e 4b75 1b3e 12b0 31bd
000002f0: e711 ab3e d0ce dcbc 0e36 ba3e e742 91be
00000300: d066 823e 84d9 4c3d d23b ee3c 6474 563a
00000310: 0afa 01be 398b a33d ebc6 d4bb 06b0 e2bd
00000320: 7a36 62bd 064d 16bd 1079 03bd 4988 e03d
00000330: df41 80bd 4560 9f3e aed0 53bd 03b4 70bd
00000340: 7cd0 4b3e 7e49 a93d 9569 b4bb 4eca 83be
00000350: 76c7 aa3e e8b5 edbc b419 49be 0134 073d
00000360: c662 a53c afd7 1cbe e72d a8bd 947b c43d
00000370: adbb e9bd 9467 403a 6312 c6bd c4b8 293d
00000380: c35f 3f3c f214 3e3d 16a9 883d 828a 933c
00000390: cc78 2e3c 70d7 0dbd 3d7a 333e fda2 09bd
000003a0: 7815 3abd 4d40 54be b39b 08bd 76ba 9e3d
000003b0: 86d0 c43c 7bf1 5cbe e059 483c cd60 253e
000003c0: 6755 b8bd 338a 983e 9771 5b3c b172 8fbd
000003d0: 8727 81bc d690 833c 6cf0 8bbd 73d1 dd3d
000003e0: af8c 92bd 479a 0c3d e14c d63d 9b6d 2a3d
000003f0: 284e f3bd 91d9 4a3d 008e 723c 6c5a cebc

bias f4 [256]
-0.14233468 0.055202216 0.035282657 0.12324558 0.11111958 0.004773842 -0.01428092 -0.024562664
-0.037964694 0.03425831 -0.054477245 -0.16755755 0.120632835 -0.038003497 -0.130407 0.03139262
-0.04287815 0.11110969 -0.003976323 -0.07835847 0.027618531 -0.06927478 0.09981856 -0.13373896
-0.0649903 0.13572796 0.10723179 0.03503373 0.14606787 -0.04059555 -0.061917182 -0.14483105
0.03923278 0.021982295 0.030559763 -0.13843408 -0.037146464 -0.06137032 -0.08249731 0.071929514
-0.013327599 -0.17619745 0.008972628 0.036526307 0.03538744 -0.098382875 0.13046531 0.09188163
-0.030925948 -0.11457253 0.015284958 -0.089747675 0.018788923 -0.0090914685 0.09545695 0.020760318
-0.035609726 0.061080437 -0.13159259 -0.023577603 0.07447881 0.085398465 0.13745876 0.0676906
-0.116309986 0.07062164 0.08445439 -0.13965936 0.060064837 0.076462016 -0.07008324 -0.016967451
-0.052541256 0.06042264 0.081099115 -0.048275627 -0.01954639 0.02167424 -0.04405626 0.060851693
-0.090390965 0.13856855 -0.07883921 0.018789746 0.079753995 0.04043579 -0.06381466 -0.060874846
-0.011796337 -0.095045246 0.03981979 -0.034421597 -0.03159574 0.03717527 -0.10251292 -0.059502512
-0.08690017 -0.06268093 0.04828278 0.07065976 0.09645227 0.14192891 -0.1205502 -0.1296941
0.0855346 -0.13518214 0.04933788 -0.11945635 -0.005016935 -0.05095945 0.0038519094 -0.12933217
0.1184158 0.09369026 -0.064164326 0.05509849 -0.036022615 -0.07535422 -0.010484359 -0.10096085
0.09753372 -0.015857175 -0.034762774 0.06338592 0.00060921424 -0.079932824 -0.10834895 0.029434623
0.011700875 -0.07607129 -0.023202455 0.04805727 -0.06753812 -0.1077696 -0.036146417 0.108075924
0.07564848 0.13238832 -0.018892998 -0.076983154 -0.020229576 0.029674783 -0.037681647 -0.021777451
-0.05734965 -0.10649634 -0.10789125 -0.058312383 0.06229265 -0.010839173 0.07632364 0.11328066
0.031344093 -0.10002221 -0.019231852 0.024922391 0.054635856 0.032744132 -0.12428666 0.1704996
-0.0705735 -0.03410626 0.08132318 0.14001594 0.08865033 -0.0061913184 -0.032095913 -0.10412882
0.09971917 -0.028354596 0.0529024 0.0045937207 -0.010249051 0.10896115 0.060290493 0.15284877
-0.107731566 -0.028185118 0.021189827 -0.054426193 -0.03712934 -0.0804337 -0.09282045 0.023938445
-0.012906895 -0.031245377 -0.18907903 -0.031318195 0.06280944 -0.00881134 -0.15412839 -0.097009435
0.09450062 -0.034829415 -0.09427656 -0.078694955 -0.07196213 -0.0028183113 0.029238857 -0.114279784
-0.14696878 0.05359517 -0.015604051 -0.02149117 0.06545011 -0.017606664 0.014410363 -0.026320409
0.03061097 0.027981423 -0.04916951 -0.089591935 0.039602466 -0.0845105 -0.045160946 -0.0035488014
0.0597572 -0.038275905 -0.024200082 0.12988168 -0.006541708 -0.079947494 0.048764277 0.04663275
-0.029976888 -0.0734196 0.041532133 -0.08850797 -0.04569292 0.1256474 0.033351865 0.1377175
-0.05489933 -0.028157793 -0.07966245 -0.022625659 0.024352282 -0.12962237 0.035924084 0.073910676
-0.106543325 -0.05263377 -0.011805329 0.08207558 0.03122259 -0.055302426 -0.13707381 -0.0007191874
-0.09921941 -0.11858672 0.101549216 -0.03554423 -0.056042474 -0.009990695 -0.11076343 0.05461349
00000000: 2fc0 11be b81b 623d 8c84 103d 2e68 fc3d
00000010: aa92 e33d e46d 9c3b 85fa 69bc a437 c9bc
00000020: de80 1bbd 7152 0c3d 8823 5fbd 3594 2bbe
00000030: 590e f73d 8ea9 1bbd 6a89 05be 8c95 003d
00000040: 00a1 2fbd 7a8d e33d d14b 82bb 687a a0bd
00000050: 4240 e23c f0df 8dbd ac6d cc3d def2 08be
00000060: a219 85bd 45fc 0a3e 579c db3d 877f 0f3d
00000070: d192 153e 8547 26bd df9c 7dbd 974e 14be
00000080: 8db2 203d 3714 b43c 7858 fa3c aac1 0dbe
00000090: e426 18bd 725f 7bbd 5af4 a8bd c84f 933d
000000a0: 005c 5abc 1b6d 34be ee01 133c 9c9c 153d
000000b0: 6cf2 103d f67c c9bd b398 053e 702c bc3d
000000c0: 6a58 fdbc 01a5 eabd c36d 7a3c a1cd b7bd
000000d0: 3aeb 993c 62f4 14bc ef7e c33d 8b11 aa3c
000000e0: 81db 11bd 7b2f 7a3d 35c0 06be d125 c1bc
000000f0: 5988 983d 64e5 ae3d fdc1 0c3e 5fa1 8a3d
00000100: ee33 eebd 14a2 903d 6cf6 ac3d dd02 0fbe
00000110: 8c06 763d 1e98 9c3d cd87 8fbd 53ff 8abc
00000120: 8035 57bd bb7d 773d 4b17 a63d aabc 45bd
00000130: c01f a0bc 2d8e b13c 5674 34bd a03f 793d
00000140: e61e b9bd eae4 0d3e 7476 a1bd f4ec 993c
00000150: 1056 a33d 00a0 253d 43b1 82bd e757 79bd
00000160: 6c45 41bc 15a7 c2bd 131a 233d a9fd 0cbd
00000170: 896a 01bd 1945 183d 4bf2 d1bd e8b8 73bd
00000180: b7f8 b1bd dc5e 80bd 2ac4 453d 10b6 903d
00000190: c588 c53d d055 113e 06e3 f6bd 88ce 04be
000001a0: c42c af3d 306d 0abe 8416 4a3d 88a5 f4bd
000001b0: 1a65 a4bb dbba 50bd 5170 7c3b a76f 04be
000001c0: fc83 f23d aee0 bf3d 9668 83bd f4ae 613d
000001d0: 738c 13bd 5053 9abd 97c6 2bbc 90c4 cebd
000001e0: c2bf c73d e8e6 81bc 6963 0ebd 7ad0 813d
000001f0: adb3 1f3a d2b3 a3bd 0ee6 ddbd e120 f13c
00000200: 07b5 3f3c 44cb 9bbd 1313 bebc b3d7 443d
00000210: 6d51 8abd 4fb6 dcbd 440e 14bd e956 dd3d
00000220: 97ed 9a3d ce90 073e 7dc5 9abc 58a9 9dbd
00000230: 7fb8 a5bc 8818 f33c 1258 1abd a066 b2bc
00000240: 77e7 6abd c11a dabd 16f6 dcbd f7d8 6ebd
00000250: 9426 7f3d c996 31bc 924f 9c3d b1ff e73d
00000260: aa62 003d 72d8 ccbd 1e8c 9dbc 0b2a cc3c
00000270: d9c9 5f3d b61e 063d 018a febd 7297 2e3e
00000280: d788 90bd 01b3 0bbd c48c a63d 5760 0f3e
00000290: 4e8e b53d 8be0 cabb 0177 03bd 7e41 d5bd
000002a0: 9039 cc3d e647 e8bc 30b0 583d ec86 963b
000002b0: a3eb 27bc 0627 df3d 2af3 763d 6384 1c3e
000002c0: 5ea2 dcbd 7ae4 e6bc 4a96 ad3c 00ee 5ebd
000002d0: ef14 18bd 6cba a4bd a618 bebd 8f1a c43c
000002e0: 7177 53bc 4ef6 ffbc ef9d 41be 8247 00bd
000002f0: 3ca2 803d 705d 10bc d5d3 1dbe e2ac c6bd
00000300: 8b89 c13d 4aa9 0ebd 1214 c1bd d22a a1bd
00000310: e260 93bd 6bb3 38bb 5486 ef3c 850b eabd
00000320: fc7e 16be 9c86 5b3d 22a8 7fbc 400e b0bc
00000330: b50a 863d da3b 90bc 7119 6c3c e69d d7bc
00000340: dbc3 fa3c 4c39 e53c f865 49bd fa7b b7bd
00000350: 3236 223d d713 adbd affa 38bd 0293 68bb
00000360: f7c3 743d 32c7 1cbd 403f c6bc b4ff 043e
00000370: d35b d6bb 83bb a3bd 0dbd 473d fc01 3f3d
00000380: 1792 f5bc 045d 96bd 991d 2a3d ab43 b5bd
00000390: 8028 3bbd b6a9 003e f79b 083d d105 0d3e
000003a0: 1fde 60bd 2cab e6bc 1126 a3bd 7259 b9bc
000003b0: 707e c73c babb 04be 2225 133d 7b5e 973d
000003c0: 6333 dabd 8296 57bd 236b 41bc 3e17 a83d
000003d0: 84c6 ff3c cc84 62bd 145d 0cbe d987 3cba
000003e0: 8c33 cbbd 98dd f2bd 09f9 cf3d d496 11bd
000003f0: cb8c 65bd 03b0 23bc f0d7 e2bd 65b2 5f3d

weight f4 [128, 256]
0.08056017 0.017758993 0.039870627 0.07507093 0.11374904 0.06916019 0.02693403 -0.065036185
-0.08884612 0.029334541 0.013108853 -0.06906947 0.045671895 0.0034939167 -0.03541267 0.014551942
-0.08696501 0.019482043 0.063892655 0.08653472 0.13558285 0.030315824 0.016024716 0.05599273
-0.029657757 0.005187152 -0.099890724 0.019857725 0.0063241203 -0.054070786 -0.02510874 -0.052978165
0.117515646 0.053677063 -0.062009856 -0.018599877 0.01710381 0.030183202 0.06733502 -0.038460754
-0.031017242 0.02876582 0.012837454 0.024954833 -0.10828065 0.020460676 0.009935921 0.024590582
0.05048623 0.013832888 0.018054146 0.0015201786 -0.007448835 -0.074416116 -0.067193195 0.039456904
0.028672663 0.10109918 0.07307284 -0.06791858 -0.023411829 -0.054290503 -0.029547643 -0.040653005
0.011606759 0.035217803 0.034494177 0.023189101 0.03578518 0.031399656 -0.013922589 -0.01328882
0.013089598 -0.0616605 0.16807109 0.0137324575 0.033724107 0.06046083 -0.053686656 0.020943886
-0.0011638738 0.067275986 -0.0021340372 -0.15218441 -0.0105897095 0.025075529 0.03906944 0.011877633
-0.010726255 0.10357563 0.08049385 -0.012976026 -0.11978874 0.044248573 0.040287066 0.019244267
-0.014062571 0.07223969 0.08196981 -0.022182727 -0.1160559 0.02652572 0.019967746 0.03607764
0.027562845 -0.037825268 0.048818175 0.02027019 0.18071076 -0.048981536 -0.051313877 -0.04165397
0.06779132 -0.047029935 0.0030567043 -0.006053338 -0.012421144 0.08932551 0.09170282 -0.05861446
-0.016032532 0.08668001 0.06753995 0.008594309 -0.020621043 0.011638966 -0.052483212 -0.09532285
-0.026641024 0.060972203 -0.010239327 -0.00708971 0.026694763 0.06498136 0.014947833 -0.022995494
-0.00815454 0.030168079 0.012295751 0.05871251 -0.0664058 -0.07146493 -0.012314958 0.03279554
-0.02155157 -0.020829668 0.0023111799 -0.036504153 0.09639969 -0.09203663 0.037705716 0.07452011
0.016630376 0.016493188 -0.0046682013 -0.05405928 0.04993774 0.12352771 -0.058205314 0.022667727
0.03316028 0.002768736 -0.046400562 0.0022370676 0.12672774 0.090340525 -0.047909606 -0.06822629
0.021786125 0.15829131 -0.079447664 -0.03709503 -0.0012452721 -0.024630928 0.012707968 0.034603335
0.07550565 0.026524816 -0.08868743 -0.07620646 -0.042034112 0.032562025 -0.033758715 -0.0060464223
0.09724296 -0.086114556 -0.047030814 0.09666233 -0.040755607 0.020516654 0.005452338 0.024743471
-0.013972047 0.021924661 0.057541717 -0.017332204 7.667623e-05 0.05033167 0.06619272 0.029599681
-0.042303484 0.046703 0.012347083 0.059215963 0.011958207 0.06546881 -0.013767493 0.037759125
-0.025787016 -0.071026646 -0.01949659 -0.0026973004 -0.022912288 0.05569613 0.13264886 0.0482125
0.04216966 0.010504876 0.01805382 0.008863685 0.0024987133 -0.027224958 -0.10144494 -0.064075634
0.02992849 -0.0150573775 0.016155375 0.063705534 -0.04003684 0.08209069 -0.1254849 -0.0058217496
-0.055002913 0.001859489 -0.015184515 -0.022967944 0.033603586 0.015561136 0.08545384 -0.07632306
-0.017530942 0.00955955 -0.0291386 0.0591738 0.06947954 -0.0030313507 -0.11067614 0.021715093
0.0056499066 0.01643642 0.04521583 -0.035302244 0.059812404 -0.06631326 0.023599444 -0.05772684
00000000: bbfc a43d 4f7b 913c 624f 233d cabe 993d
00000010: 42f5 e83d dca3 8d3d c1a4 dc3c b131 85bd
00000020: f4f4 b5bd fe4e f03c 84c6 563c 4b74 8dbd
00000030: 7412 3b3d 32fa 643b e00c 11bd 456b 6e3c
00000040: b61a b2bd ce98 9f3c 27da 823d 1e39 b13d
00000050: 3bd6 0a3e e458 f83c 4446 833c a258 653d
00000060: d3f4 f2bc fcf8 a93b 8293 ccbd abac a23c
00000070: 913a cf3b 5479 5dbd d8b0 cdbc a2ff 58bd
00000080: 0bac f03d 7bdc 5b3d 0cfe 7dbd c55e 98bc
00000090: 4a1d 8c3c c342 f73c f1e6 893d 0689 1dbd
000000a0: df17 febc 4ca6 eb3c 2f54 523c 146e cc3c
000000b0: 3fc2 ddbd 269d a73c 46ca 223c 3072 c93c
000000c0: a6ca 4e3d 56a3 623c 4ae6 933c bb40 c73a
000000d0: 5b15 f4bb 7a67 98bd 969c 89bd 909d 213d
000000e0: efe2 ea3c 160d cf3d 37a7 953d e518 8bbd
000000f0: 2aca bfbc b85f 5ebd e60d f2bc c483 26bd
00000100: 472a 3e3c 8b40 103d c449 0d3d 12f7 bd3c
00000110: 7b93 123d ed9c 003d 921b 64bc 5ab9 59bc
00000120: c175 563c b88f 7cbd d41a 2c3e 1afe 603c
00000130: 4a22 0a3d c6a5 773d 8ae6 5bbd 8392 ab3c
00000140: 208d 98ba fec7 893d 34db 0bbb 3bd6 1bbe
00000150: 7680 2dbc 326b cd3c 4707 203d 679a 423c
00000160: 2dbd 2fbc 761f d43d f6d9 a43d 6699 54bc
00000170: cd53 f5bd fe3d 353d 0d04 253d 27a6 9d3c
00000180: b366 66bc 67f2 933d cadf a73d 8db8 b5bc
00000190: b7ae edbd 774c d93c 6693 a33c 26c6 133d
000001a0: 7acb e13c abee 1abd 91f5 473d ab0d a63c
000001b0: 3e0c 393e dda0 48bd 802e 52bd 5a9d 2abd
000001c0: 2dd6 8a3d 76a2 40bd fd52 483b 145b c6bb
000001d0: 0e82 4bbc 4bf0 b63d b0ce bb3d b715 70bd
000001e0: a856 83bc 4a85 b13d 6352 8a3d 25cf 0c3c
000001f0: 76ed a8bc 5db1 3e3c a3f8 56bd a038 c3bd
00000200: 473e dabc fdbd 793d dac2 27bc cc50 e8bb
00000210: faae da3c f314 853d c1e7 743c 0c61 bcbc
00000220: 9f9a 05bc 0c23 f73c 1e74 493c 877c 703d
00000230: c4ff 87bd 355c 92bd adc4 49bc 9e54 063d
00000240: eb8c b0bc fba2 aabc 2a77 173b 6185 15bd
00000250: 336d c53d b37d bcbd 4f71 1a3d 009e 983d
00000260: 6d3c 883c b91c 873c b6f7 98bb 436d 5dbd
00000270: 848b 4c3d 19fc fc3d b268 6ebd abb1 b93c
00000280: 13d3 073d af73 353b 840e 3ebd c49b 123b
00000290: ebc4 013e 7404 b93d dd3c 44bd 3aba 8bbd
000002a0: d178 b23c 1e17 223e 75b5 a2bd f5f0 17bd
000002b0: 6638 a3ba cdc6 c9bc 1535 503c 3abc 0d3d
000002c0: b5a2 9a3d 924a d93c c1a1 b5bd 2212 9cbd
000002d0: f62b 2cbd c25f 053d 9446 0abd 1121 c6bb
000002e0: 5127 c73d d45c b0bd 62a3 40bd e6f6 c53d
000002f0: 5aef 26bd 8b12 a83c 87a9 b23b d2b2 ca3c
00000300: 03eb 64bc 599b b33c ddb0 6b3d 44fc 8dbc
00000310: 3dcd a038 9528 4e3d 0c90 873d 087b f23c
00000320: 6b46 2dbd a54b 3f3d 6b4b 4a3c 708c 723d
00000330: 5bec 433c 8314 863d 0d91 61bc 50a9 1a3d
00000340: 4b3f d3bc 6b76 91bd 50b7 9fbc 31c5 30bb
00000350: 8db2 bbbc a021 643d 1ad5 073e 787a 453d
00000360: 18ba 2c3d a51c 2c3c 9be5 933c fd38 113c
00000370: 74c1 233b e006 dfbc 5dc2 cfbd 163a 83bd
00000380: 982c f53c 38b3 76bc 4758 843c 0c78 823d
00000390: abfd 23bd 2a1f a83d 1d7f 00be 60c4 bebb
000003a0: bc4a 61bd 19ba f33a 79c8 78bc 4527 bcbc
000003b0: eaa3 093d 23f4 7e3c 6c02 af3d 444f 9cbd
000003c0: 0d9d 8fbc a99f 1c3c 13b4 eebc 3a60 723d
000003d0: 4a4b 8e3d a0a9 46bb 2caa e2bd dae3 b13c
000003e0: da22 b93b aca5 863c 3c34 393d 1699 10bd
000003f0: dafd 743d 3fcf 87bd 9f53 c13c fb72 6cbd

bias f4 [128]
-0.007247664 0.11261194 -0.08542479 -0.049157064 -0.028472217 -0.03796392 0.042733345 0.025527019
0.04961415 -0.021286914 0.061005164 -0.14615202 -0.08808771 -0.012324244 0.036124393 -0.041596152
-0.03075792 0.0092032 0.03302253 -0.08928191 0.05240474 -0.010367911 -0.0074008247 -0.14157528
-0.081827685 0.011742227 0.023583628 -0.06759492 -0.048988853 -0.02229599 -0.0767349 -0.11373363
0.0023917167 -0.09389935 -0.042654965 -0.07814453 -0.02684689 0.06381321 0.07795724 -0.008233004
-0.06962183 0.020024503 -0.018926984 -0.12376099 -0.15372054 -0.06080618 0.045635205 0.049927246
-0.2307798 -0.009052846 -0.059014443 -0.09615682 -0.11313881 0.026414499 0.004822694 -0.055711277
7.63545e-05 -0.0757785 0.059457477 -0.04809843 -0.07824289 -0.14661193 -0.094319604 -0.06755145
0.0147925075 -0.045231085 -0.03815652 -0.0038566224 -0.023390409 -0.03779514 0.011259607 0.03253042
-0.068655506 -0.04194214 -0.12650679 -0.05863724 -0.12508656 -0.048729345 -0.023286605 -0.056892697
0.03408546 -0.027891327 -0.0941245 -0.12746048 0.010579628 -0.031061463 -0.0353157 0.03843214
0.0001520629 0.08235649 0.014105146 -0.038153794 -0.047068097 -0.043762714 -0.1610864 -0.19333503
0.051603455 -0.09534093 0.0011672011 -0.09045038 0.017016966 -0.04160118 -0.10929802 0.02626901
-0.052531354 -0.038340755 0.04944992 -0.015366198 -0.046284374 -0.07692732 0.013416919 -0.06536528
-0.035812505 -0.053114742 -0.04271662 -0.02086996 0.01883563 -0.080997355 -0.053370953 -0.022646397
-0.026069805 -0.11021871 -0.058805376 -0.0008565249 0.00877253 -0.03291651 -0.11681325 -0.026672006
00000000: d07d edbb 17a1 e63d 31f3 aebd eb58 49bd
00000010: 913e e9bc 0e80 1bbd 2909 2f3d 0a1e d13c
00000020: 3538 4b3d e561 aebc 8de0 793d e0a8 15be
00000030: 5467 b4bd a0eb 49bc 2cf7 133d ba60 2abd
00000040: 09f8 fbbc 05c9 163c a242 073d 6fd9 b6bd
00000050: 5aa6 563d 2cde 29bc 9e82 f2bb 1cf9 10be
00000060: 4695 a7bd 7862 403c 7432 c13c 356f 8abd
00000070: 89a8 48bd 14a6 b6bc 3027 9dbd 2ded e8bd
00000080: 59be 1c3b 4d4e c0bd f9b6 2ebd 3d0a a0bd
00000090: 02ee dbbc 80b0 823d 0ca8 9f3d b9e3 06bc
000000a0: e495 8ebd 6d0a a43c c30c 9bbc 6776 fdbd
000000b0: eb68 1dbe e70f 79bd fbeb 3a3d 8380 4c3d
000000c0: 8a51 6cbe 6352 14bc 21b9 71bd deed c4bd
000000d0: 52b5 e7bd 3863 d83c b107 9e3b 8231 64bd
000000e0: 8320 a038 c231 9bbd af89 733d dc02 45bd
000000f0: cf3d a0bd 7021 16be a32a c1bd 6a58 8abd
00000100: 465c 723c 3b44 39bd 034a 1cbd 63bf 7cbb
00000110: 3e9d bfbc 14cf 1abd 377a 383c 9e3e 053d
00000120: 429b 8cbd 85cb 2bbd ff8a 01be 9a2d 70bd
00000130: b116 00be 6c98 47bd 8dc3 bebc 5108 69bd
00000140: 329d 0b3d 5a7c e4bc 59c4 c0bd 0085 02be
00000150: 2d56 2d3c 9c74 febc 32a7 10bd 056b 1d3d
00000160: 1373 1f39 85aa a83d 4519 673c 2747 1cbd
00000170: 7aca 40bd 8840 33bd d5f3 24be 9ef9 45be
00000180: 255e 533d 1b42 c3bd c5fc 983a 0d3e b9bd
00000190: 2a67 8b3c 0066 2abd a4d7 dfbd 1b32 d73c
000001a0: 1e2b 57bd 320b 1dbd 008c 4a3d 81c2 7bbc
000001b0: af94 3dbd 128c 9dbd a3d2 5b3c 3bde 85bd
000001c0: 22b0 12bd d88e 59bd 9ff7 2ebd 7af7 aabc
000001d0: 2e4d 9a3c f1e1 a5bd 809b 5abd f084 b9bc
000001e0: 5890 d5bc 59ba e1bd e8dd 70bd 6a88 60ba
000001f0: a8ba 0f3c 76d3 06bd c93b efbd 407f dabc

weight f4 [128, 128]
-0.005778778 -0.019139038 0.08554775 -0.08912376 -0.035768583 0.02371187 -0.049956158 0.053395677
0.025956567 0.04091796 -0.011279483 0.08963147 -0.005190812 -0.018570585 0.021767989 0.039960966
-0.056626916 0.033405114 -0.050960366 -0.089481 0.088992216 0.07243981 0.12809339 -0.018187791
0.010659586 0.11137889 0.05442191 -0.002312824 -0.055605177 0.09063755 -0.019366749 0.026913654
-0.10865024 0.043010667 -0.034036756 -0.01712219 0.06767227 -0.19487152 -0.10314927 0.104150206
0.02760485 0.0017098611 -0.007702858 -0.0654428 -0.03225927 -0.04495773 -0.16887 -0.04452226
0.04554718 -0.048724264 0.030951817 0.1028821 0.000110202265 0.011337338 0.13840602 -0.035141885
-0.1325185 0.024607085 0.030354321 0.06807674 -0.0037528197 0.05629988 0.030287208 0.101272695
-0.023991967 0.028318342 0.007851328 0.08957394 -0.009296802 0.08226574 -0.057749376 -0.03995558
0.09111925 -0.036381844 -0.026699487 0.12070757 0.12037781 -0.034578852 -0.024328912 -0.024939496
-0.032365594 -0.019069826 -0.07436014 0.06314216 0.062670246 -0.053660985 -0.06695449 -0.051696617
0.07715191 -0.09201735 0.016755944 -0.010442479 0.039389715 0.039092604 0.035068225 -0.05876232
-0.018398477 0.017250668 -0.016083602 -0.039607227 0.0111831 -0.06944079 0.007828193 0.05066577
0.009991577 -0.033044197 0.07338022 -0.011775372 0.031825226 -0.10210525 -0.048161726 0.01739949
-0.010954463 0.07673328 0.040130418 -0.08564668 0.10241221 -0.040000916 -0.08304074 -0.033754632
0.038567856 0.020168448 0.02470941 -0.01155867 -0.073018566 0.03281264 -0.060974054 0.06291424
-0.027224287 -0.12611428 0.10814045 0.1124751 0.11049519 -0.102148764 -0.058139388 0.118462875
0.1169571 -0.082617104 -0.015591584 0.16497442 0.06899657 0.14701006 0.048417002 -0.0017855502
-0.052413963 0.14048907 -0.027252112 -0.08110882 -0.020519983 0.086749144 -0.0023970474 0.115582466
0.043444175 0.006904147 0.064355835 0.049469773 -0.06943263 -0.011287266 0.0615764 -0.020301137
-0.15959844 0.07890428 0.030027306 0.18265323 -0.041910604 0.062379442 -0.039829064 -0.0026088788
-0.036361743 -0.007668859 0.113608286 0.046734728 0.06391844 0.10574666 -0.022463873 -0.034279563
0.13836706 -0.006256047 0.062183153 -0.1755922 0.04306023 0.036392096 -0.053386897 -0.07840282
-0.06787884 0.035370365 0.10238947 0.07877156 0.13860211 0.04566224 0.089931935 0.10547208
-0.013735536 0.0074667176 0.033049073 0.026646849 -0.06966381 0.16320907 -0.009440688 -0.019131914
-0.069228254 0.097896725 0.14006287 0.00024977306 0.056665085 0.07433673 -0.06140472 0.033421673
0.08329148 -0.06252486 0.11422789 0.07322132 0.006074459 -0.043177113 0.025144031 0.06164819
-0.086196326 -0.0073230453 0.051948737 -0.004875106 0.059035018 -0.0119917635 0.12424204 0.08078166
-0.10633734 0.023350483 0.10821015 -0.023206586 -0.08534988 -0.10471814 0.02359209 -0.02901303
-0.012208648 0.0250958 0.044188026 0.12584887 0.008419603 -0.034273423 0.012907375 0.005323018
0.057442192 -0.06923534 0.14771393 -0.008984388 -0.08687078 -0.023363492 0.1642647 0.016522719
-0.105893485 0.027645843 -0.05272509 -0.077640444 -0.07389135 0.00418456 0.19503284 -0.09806767
00000000: e75b bdbb 79c9 9cbc a933 af3d 8586 b6bd
00000010: 1482 12bd 653f c23c d49e 4cbd 6db5 5a3d
00000020: dea2 d43c 9799 273d 95cd 38bc b490 b73d
00000030: b017 aabb 5721 98bc c852 b23c 1cae 233d
00000040: a0f1 67bd cdd3 083d d1bb 50bd d141 b7bd
00000050: 8d41 b63d 535b 943d ea2a 033e 90fe 94bc
00000060: 8ba5 2e3c 9e1a e43d 82e9 5e3d bf92 17bb
00000070: 41c2 63bd 2ea0 b93d 04a7 9ebc 067a dc3c
00000080: 0484 debd f42b 303d 206a 0bbd d643 8cbc
00000090: c297 8a3d 668c 47be ed3f d3bd b44c d53d
000000a0: 9123 e23c 6b1d e03a 4268 fcbb e006 86bd
000000b0: 4c22 04bd 9925 38bd 42ec 2cbe f95c 36bd
000000c0: ae8f 3a3d 1893 47bd aa8e fd3c dab3 d23d
000000d0: 641c e738 3ec0 393c 4fba 0d3e f0f0 0fbd
000000e0: eeb2 07be cc94 c93c a0a9 f83c d16b 8b3d
000000f0: def1 75bb b49a 663d e11c f83c 0f68 cf3d
00000100: cd8a c4bc defb e73c dba2 003c 8b72 b73d
00000110: 9d51 18bc f17a a83d 9c8a 6cbd 76a8 23bd
00000120: bb9c ba3d 2105 15bd e2b8 dabc 8835 f73d
00000130: a488 f63d 8ea2 0dbd 6d4d c7bc ea4d ccbc
00000140: c991 04bd 5338 9cbc 214a 98bd ad50 813d
00000150: 4259 803d 9fcb 5bbd 701f 89bd d5bf 53bd
00000160: d201 9e3d 9873 bcbd c343 893c ee16 2bbc
00000170: 1c57 213d 911f 203d b3a3 0f3d c2b0 70bd
00000180: 67b8 96bc 4651 8d3c c2c1 83bc 303b 22bd
00000190: 5239 373c f936 8ebd d241 003c e986 4f3d
000001a0: b6b3 233c 5a59 07bd 5e48 963d 7ded 40bc
000001b0: 2b5b 023d 8f1c d1bd 3b45 45bd 6089 8e3c
000001c0: 597a 33bc 5726 9d3d cb5f 243d 8767 afbd
000001d0: 7ebd d13d 00d8 23bd 4311 aabd 4c42 0abd
000001e0: 54f9 1d3d 4d38 a53c 636b ca3c 9360 3dbc
000001f0: c28a 95bd 8c66 063d eebf 79bd 2ed9 803d
00000200: 7805 dfbc 1a24 01be be78 dd3d 5859 e63d
00000210: 4d4b e23d 5f33 d1bd 9123 6ebd aa9c f23d
00000220: 3487 ef3d 2833 a9bd d873 7fbc 0eef 283e
00000230: 134e 8d3d ce89 163e e850 463d 1f09 eaba
00000240: 06b0 56bd 5edc 0f3e d23f dfbc 621c a6bd
00000250: 8619 a8bc 89a9 b13d c817 1dbb 80b6 ec3d
00000260: 85f2 313d 2f3c e23b fecc 833d d1a0 4a3d
00000270: b232 8ebd 3aee 38bc 8937 7c3d 924e a6bc
00000280: c66d 23be 9198 a13d d3fb f53c 7309 3b3e
00000290: 74aa 2bbd 9681 7f3d cd23 23bd b9f9 2abb
000002a0: 0df0 14bd 0d4b fbbb 76ab e83d ea6c 3f3d
000002b0: ace7 823d b491 d83d 2806 b8bc ba68 0cbd
000002c0: 18b0 0d3e 87ff ccbb c3b3 7e3d 71ce 33be
000002d0: ec5f 303d e10f 153d 38ac 5abd a891 a0bd
000002e0: 1004 8bbd 84e0 103d 92b1 d13d fc52 a13d
000002f0: b6ed 0d3e 5408 3b3d 3c2e b83d bf01 d83d
00000300: 030b 61bc 5eab f43b 775e 073d 7e4a da3c
00000310: e6ab 8ebd 4720 273e 1ead 1abc 88ba 9cbc
00000320: 8bc7 8dbd 147e c83d a46c 0f3e f9f3 8239
00000330: a619 683d db3d 983d 8483 7bbd 2ae5 083d
00000340: b994 aa3d 090d 80bd 50f0 e93d 0ff5 953d
00000350: 410c c73b 7cda 30bd dbfa cd3c d082 7c3d
00000360: b387 b0bd 28f6 efbb 33c8 543d 5abf 9fbb
00000370: b4ce 713d 1a79 44bc 9c72 fe3d db70 a53d
00000380: 64c7 d9bd 8349 bf3c 489d dd3d bd1b bebc
00000390: ebcb aebd 7776 d6bd 3344 c13c bcac edbc
000003a0: c806 48bc b595 cd3c 81fe 343d 87de 003e
000003b0: 60f2 093c 4a62 0cbd 7479 533c b66c ae3b
000003c0: 8148 6b3d 42cb 8dbd 5242 173e 4133 13bc
000003d0: 4fe9 b1bd cb64 bfbc 0135 283e a75a 873c
000003e0: afde d8bd 8979 e23c 44f6 57bd f401 9fbd
000003f0: 5954 97bd a21e 893b b0b6 473e b4d7 c8bd

bias f4 [128]
0.0735251 -0.054981217 0.044152863 -0.082248144 0.05546868 0.04248317 -0.08754365 -0.12518962
0.038349934 -0.00012557466 -0.027646288 -0.047568608 -0.030554049 0.0815182 0.0111987945 -0.09116219
-0.15882505 0.005186222 0.04549996 -0.023776693 -0.15607683 -0.026790077 -0.046330106 -0.06441284
0.041764114 -0.054807004 0.0070476825 -0.035921294 -0.113836594 -0.07907868 -0.038553774 -0.1451659
-0.049915675 -0.023891902 -0.101606645 -0.07051556 -0.05443472 0.07733446 -0.13309939 -0.03458923
0.037417132 -0.18812604 0.054979295 0.057214107 -0.041810747 -0.09649374 -0.05394525 -0.092783116
-0.090756156 0.009368214 -0.0805277 -0.13617897 -0.009399021 -0.052713055 -0.11977551 0.017685372
0.078883596 0.078497544 0.046469796 -0.0476516 0.04042049 -0.067224555 -0.17214942 -0.03493589
-0.033290435 0.033106316 0.023601757 -0.01026911 -0.22590232 0.045113258 -0.020918932 -0.06642062
-0.059841175 0.035459466 -0.11956971 -0.015142296 0.02951759 0.003951368 0.06395202 -0.03387174
-0.052670244 -0.025311196 0.038282923 -0.030125761 -0.008205316 -0.04675578 -0.018082486 -0.0015725746
0.081881545 -0.11255988 -0.064690426 -0.06635154 0.005383507 -0.04215364 0.041653365 -0.06814375
-0.06503945 -0.019035302 0.021292627 -0.06013747 0.031402063 -0.1490207 -0.052528385 -0.0006174456
-0.13926293 0.094700046 -0.0104648415 0.041911718 -0.15362942 0.022375004 0.038657192 -0.15497686
-0.04555504 0.058838196 0.07567898 -0.16358836 0.049068306 -0.12152852 0.073448546 -0.16914631
0.02982793 0.080740355 0.06319129 -0.055272274 -0.047492865 -0.045792483 0.05530998 0.07513545
00000000: 5494 963d fc33 61bd a2d9 343d b771 a8bd
00000010: 2033 633d d502 2e3d 164a b3bd b531 00be
00000020: d214 1d3d b1ac 03b9 787a e2bc 4dd7 42bd
00000030: 7c4c fabc 04f3 a63d 267b 373c 3eb3 babd
00000040: 09a3 22be 2ff1 a93b 2b5e 3a3d 57c7 c2bc
00000050: 9bd2 1fbe dd76 dbbc a3c4 3dbd e1ea 83bd
00000060: d910 2b3d 4f7d 60bd 3ff0 e63b 3522 13bd
00000070: 2923 e9bd 01f4 a1bd 90ea 1dbd 5fa6 14be
00000080: 6174 4cbd f3b8 c3bc 2517 d0bd 766a 90bd
00000090: f1f6 5ebd 8861 9e3d 354b 08be 70ad 0dbd
000000a0: b542 193d 1da4 40be f831 613d 5759 6a3d
000000b0: bf41 2bbd 839e c5bd b2f5 5cbd 1305 bebd
000000c0: 5dde b9bd 237d 193c b5eb a4bd 8072 0bbe
000000d0: 5afe 19bc a5e9 57bd dd4c f5bd eae0 903c
000000e0: b98d a13d 52c3 a03d 1d57 3e3d 532e 43bd
000000f0: f58f 253d 07ad 89bd f047 30be f018 0fbd
00000100: 8d5b 08bd 7d9a 073d 7958 c13c c53f 28bc
00000110: f052 67be aec8 383d 2e5e abbc 8907 88bd
00000120: 051c 75bd f23d 113d f7e0 f4bd 6517 78bc
00000130: dfce f13c 7a7a 813b 47f9 823d 18bd 0abd
00000140: c1bc 57bd 6d59 cfbc 8ece 1c3d 4dca f6bc
00000150: 976f 06bc fd82 3fbd b921 94bc d91e ceba
00000160: 83b1 a73d cb85 e6bd 6a7c 84bd 51e3 87bd
00000170: 2168 b03b 4ca9 2cbd b89c 2a3d f38e 8bbd
00000180: 6733 85bd ecef 9bbc e06d ae3c b552 76bd
00000190: 739f 003d e298 18be 0128 57bd 13dc 21ba
000001a0: f19a 0ebe 19f2 c13d ba74 2bbc 9fab 2b3d
000001b0: 0851 1dbe c94b b73c 0157 1e3d 41b2 1ebe
000001c0: ec97 3abd 5200 713d 95fd 9a3d b583 27be
000001d0: d9fb 483d f2e3 f8bd 316c 963d b134 2dbe
000001e0: b459 f43c 335b a53d 6f6a 813d 2e65 62bd
000001f0: e187 42bd e690 3bbd b88c 623d 9de0 993d

weight f4 [23, 128]
-0.016835483 -0.02520743 -0.026345355 0.06379109 -0.08493828 0.021514805 0.009850749 -0.089026384
-0.03103538 0.0044681598 0.054400958 -0.07415415 0.030771054 0.0020877148 -0.01026242 -0.026706114
-0.00871282 -0.009072755 -0.049236726 -0.039164398 0.06240978 -0.0065853824 0.05750286 0.046229135
0.01846624 0.030357435 -0.004196871 -0.06619821 -0.043586876 0.10963682 0.062828615 -1.5153631e-05
0.03925256 0.06806284 -0.044569835 0.0014887076 0.039292585 -0.12403885 0.010269934 -0.035377212
-0.02689311 -0.018727442 -0.11893882 -0.036627784 -0.023716498 0.05502942 -0.034981538 -0.024520656
-0.017147293 -0.06669165 0.033202846 0.110543184 0.10552624 0.062183447 -0.008475755 0.016416097
-0.0144876335 0.02005996 -0.14721777 0.052499514 0.0433017 -0.017562624 0.0050326097 0.06048046
-0.014815165 -0.020773051 -0.04539978 -0.040320918 0.018729262 0.043787252 0.017427456 0.058589663
0.058612254 -0.038590487 0.02028961 -0.005990705 -0.1420195 0.01357392 0.006717977 0.0397445
0.028075306 0.030813197 0.065644026 0.03854659 -0.015813855 -0.033833526 0.07252454 -0.048546456
0.07449682 0.050146632 -0.006277068 0.013717232 -0.02283016 -0.013278002 -0.003863215 0.04069097
0.050770607 -0.06561389 -0.09938059 -0.046615798 0.08102068 0.021585092 -0.009243457 -0.03140953
0.0023749499 -0.032163337 0.03916632 0.050419245 0.07616132 0.02007444 -0.026949005 0.08263262
0.017314417 -0.09137629 0.024823606 -0.04619511 -0.025870435 0.006604521 0.060515705 0.04377402
-0.16499248 0.03104407 -0.05740549 -0.035234317 0.096960105 -0.021546084 -0.10850185 0.019823546
0.071640894 0.012097031 0.05565915 -0.081367865 0.04856007 0.022522997 0.054130606 -0.007867712
0.016924748 -0.020820983 -0.05005991 -0.025369005 0.016182026 0.05213237 -0.18705429 0.021106154
-0.042235207 0.027909791 0.077852435 -0.031347726 -0.05867827 0.0068406602 -0.041571982 -0.075835615
0.017946176 0.03558966 0.07481279 0.039275166 -0.038085107 -0.120559275 0.038681854 0.043842647
-0.059839893 -0.016073212 0.004685014 -0.021893213 0.0576758 0.020176306 0.0071313484 0.03222534
0.08016701 -0.020333039 0.0606463 -0.026822586 0.031081451 -0.016414987 -0.13018762 -0.095093936
0.009334828 0.011307213 0.023184849 -0.059681233 0.016943675 0.03172837 -0.010615411 -0.0024326756
-0.05078632 -0.005920121 -0.051254436 -0.11071274 -0.075876996 0.023429453 0.04404202 -0.0998246
-0.0080634635 0.06910161 -0.034364965 0.005035592 -0.022481468 -0.06498294 0.015907513 -0.056611978
-0.027814195 0.08228426 -0.00066042005 0.0008804148 0.05086831 0.06617472 0.062134374 -0.0034147631
0.112275034 0.1533808 0.049339693 0.017574754 0.15622917 0.044741407 -0.08385292 0.019973718
0.049151573 -0.12078759 -0.030909028 -0.018529858 0.05210583 0.012951434 -0.011227929 -0.055936385
0.07951405 0.04028662 0.016601488 -0.020886544 -0.085679084 -0.03960821 -0.034114692 0.120481394
0.030569196 -0.017281521 0.005898346 0.011068306 -0.0024992127 -0.01407567 0.0072861537 -0.07743163
0.009743706 -0.047195174 -0.02521429 0.011386666 0.02582716 -0.001140698 0.012764381 0.0105131995
0.11156837 0.00061933533 0.091417395 -0.054459915 0.023426136 -0.016984422 0.006533047 0.1339372
00000000: 91ea 89bc d07f cebc 37d2 d7bc e7a4 823d
00000010: 1ff4 adbd d13f b03c 0965 213c 7753 b6bd
00000020: e93d febc a469 923b 8ad3 5e3d 22de 97bd
00000030: 9413 fc3c 0bd2 083b b623 28bc c8c6 dabc
00000040: 37c0 0ebc e5a5 14bc 73ac 49bd d96a 20bd
00000050: 66a1 7f3d 31ca d7bb 1e88 6b3d c35a 3d3d
00000060: 8346 973c 28b0 f83c e885 89bb ed92 87bd
00000070: 2788 32bd 4589 e03d 4aac 803d 593c 7eb7
00000080: 4bc7 203d 8864 8b3d dc8e 36bd bd20 c33a
00000090: 43f1 203d 1508 febd 3a43 283c b2e7 10bd
000000a0: f04e dcbc 4b6a 99bc 3296 f3bd 0407 16bd
000000b0: 1a49 c2bc 8766 613d cd48 0fbd 8bdf c8bc
000000c0: 7b78 8cbc a295 88bd b5ff 073d 7764 e23d
000000d0: 241e d83d 12b4 7e3d e5dd 0abc 0d7b 863c
000000e0: 8a5d 6dbc c954 a43c 41c0 16be bb09 573d
000000f0: 205d 313d 7edf 8fbc 97e8 a43b 5cba 773d
00000100: 4ebb 72bc 3f2c aabc 1ff5 39bd 8c27 25bd
00000110: 1c6e 993c 435a 333d 06c4 8e3c b7fb 6f3d
00000120: 6713 703d 0f11 1ebd 6536 a63c ad4d c4bb
00000130: 8f6d 11be 2665 5e3c 7a22 dc3b 21cb 223d
00000140: 2ffe e53c f56b fc3c 6070 863d 07e3 1d3d
00000150: 0f8c 81bc 0695 0abd bf87 943d a6d8 46bd
00000160: ca91 983d 8e66 4d3d ddaf cdbb 3ebe 603c
00000170: 5106 bbbc fa8b 59bc fe2d 7dbb 93ab 263d
00000180: d7f4 4f3d 9360 86bd 0d88 cbbd 35f0 3ebd
00000190: 2cee a53d 38d3 b03c de71 17bc 48a7 00bd
000001a0: 0ca5 1b3b b4bd 03bd dd6c 203d 6984 4e3d
000001b0: 77fa 9b3d 2773 a43c 29c4 dcbc 4b3b a93d
000001c0: f7d6 8d3c 7e23 bbbd e05a cb3c 1537 3dbd
000001d0: 3cee d3bc bd6a d83b 51df 773d 634c 333d
000001e0: caf3 28be 2250 fe3c 0522 6bbd dc51 10bd
000001f0: 0593 c63d 6a81 b0bc 3836 debd fd64 a23c
00000200: 76b8 923d a032 463c d9fa 633d 32a4 a6bd
00000210: ede6 463d 2682 b83c 0eb8 5d3d 93e7 00bc
00000220: c5a5 8a3c c490 aabc 9f0b 4dbd a9d2 cfbc
00000230: 2b90 843c c188 553d 298b 3fbe d0e6 ac3c
00000240: d3fe 2cbd 13a3 e43c 1971 9f3d 7966 00bd
00000250: a058 70bd 9e27 e03b 6247 2abd b44f 9bbd
00000260: dc03 933c 77c6 113d 7337 993d ffde 203d
00000270: 21ff 1bbd c8e7 f6bd dd70 1e3d 5994 333d
00000280: ad1a 75bd f8ab 83bc bf84 993b 6559 b3bc
00000290: 763d 6c3d c848 a53c 16ae e93b b8fe 033d
000002a0: 9a2e a43d 7991 a6bc 4168 783d 0abb dbbc
000002b0: 879e fe3c b978 86bc e74f 05be 9cc0 c2bd
000002c0: 1bf1 183c e441 393c 27ee bd3c 4f74 74bd
000002d0: 76cd 8a3c 9bf5 013d 43ec 2dbc 866d 1fbb
000002e0: 5105 50bd 93fd c1bb 2cf0 51bd 5cbd e2bd
000002f0: 6665 9bbd 20ef bf3c 6865 343d d770 ccbd
00000300: 9e1c 04bc 2585 8d3d 47c2 0cbd 9b01 a53b
00000310: 0e2b b8bc c715 85bd 7950 823c f6e1 67bd
00000320: 98da e3bc a684 a83d 0a20 2dba a3cb 663a
00000330: 4a5b 503d 9d86 873d 9d80 7e3d 38ca 5fbb
00000340: 74f0 e53d db0f 1d3e 6b18 4a3d eef8 8f3c
00000350: 8afa 1f3e c442 373d 14bb abbd ec9f a33c
00000360: 2953 493d 7c5f f7bd ee34 fdbc eecb 97bc
00000370: ec6c 553d 4032 543c 59f5 37bc 8d1d 65bd
00000380: 43d8 a23d 9503 253d d8ff 873c 421a abbc
00000390: 8478 afbd 383c 22bd d9bb 0bbd f3be f63d
000003a0: 406c fa3c fa91 8dbc ea46 c13b d757 353c
000003b0: d5c9 23bb a49d 66bc b0c0 ee3b 7994 9ebd
000003c0: 11a4 1f3c ba4f 41bd 338e cebc 248f 3a3c
000003d0: 7b93 d33c 7983 95ba b221 513c 8e3f 2c3c
000003e0: f57d e43d e45a 223a 0b39 bb3d 5c11 5fbd
000003f0: 2be8 bf3c ea22 8bbc 2c13 d63b d526 093e

bias f4 [23]
-0.21768753 0.18684636 0.05016142 0.09743011 -0.054784454 0.083929434 0.020716801 0.008641304
-0.1890248 -0.079201445 0.043765783 0.07075348 0.06411733 0.043455143 -0.11414115 0.008553339
-0.04706404 -0.007095041 0.0075920266 0.018278785 -0.13040186 -0.023091882 -0.002517653
00000000: 7be9 5ebe a754 3f3e 1076 4d3d 7089 c73d
00000010: aa65 60bd 32e3 ab3d 48b6 a93c 4294 0d3c
00000020: b88f 41be 5e34 a2bd c043 333d 33e7 903d
00000030: f24f 833d 05fe 313d d6c2 e9bd 4e23 0c3c
00000040: 39c6 40bd 857d e8bb 89c6 f83b 64bd 953c
00000050: 1188 05be 302b bdbc 35ff 24bb
