deploy/models/booster_gym_exp_1/model_4000.pt (torch, 303934 bytes, 8 tensors)

weight f4 [256, 80]
0	0xbeba17ca	-0.36346275
1	0x3e3d2cc0	0.18474102
2	0xbd558c26	-0.05213561
3	0x3b24f336	0.002516938
4	0x3d816bca	0.06319387
5	0xbc06a0e1	-0.008217067
6	0x3de0a8a2	0.10969664
7	0x3db0f171	0.08639801
8	0xbd85eb55	-0.06539027
9	0x3ddc125e	0.10745691
10	0x3ce1f7b1	0.027583929
11	0xbdf20b0a	-0.11818512
12	0xbb9d8ab3	-0.004807794
13	0x3bd71886	0.0065642027
14	0x3cf1980e	0.02949145
15	0xbaa70bb3	-0.0012744576
16	0xbc75d1a2	-0.015003594
17	0x3c66c8cf	0.014085962
18	0x3c367ab9	0.011137658
19	0x3c18b7d7	0.009321175
20	0x3cabfb06	0.02099372
21	0xbe6789a8	-0.22611105
22	0x3eb3a399	0.35085753
23	0xbe5e603a	-0.21716395
24	0xbe5a5884	-0.21322829
25	0x3da8865e	0.082287535
26	0x3c3b20cc	0.011421394
27	0xbd384912	-0.04499156
28	0xbea585e7	-0.32328722
29	0xbe950097	-0.29102013
30	0xbd89eadb	-0.06734248
31	0xbea8b525	-0.32950702
32	0xbdc66ae3	-0.09688356
33	0x3e6e4677	0.23269068
34	0x3dc6290c	0.09675798
35	0x3d63ef90	0.055648386
36	0x3d96a2ea	0.07355292
37	0x3e1f1eb3	0.15539055
38	0xbb7d29cf	-0.0038629656
39	0xbcac6d93	-0.021048343
40	0x3e3179c9	0.17331614
41	0x3e58a5d4	0.21157008
42	0x3c8a275e	0.016864475
43	0xbd534d9d	-0.05158769
44	0xbddbbb07	-0.10729032
45	0xbcd4eb5d	-0.025991136
46	0xbddb6fee	-0.10714708
47	0xbdd85fa4	-0.10565117
48	0x3c8084f9	0.015688406
49	0xbc84bd79	-0.016203629
50	0xbd9e87d7	-0.07740753
51	0x3de2a70d	0.11067019
52	0x3e80edec	0.2518152
53	0xbc4e84aa	-0.012604872
54	0x3bf350f5	0.0074254223
55	0xbd4a9f8a	-0.049468555
56	0x3b38f40f	0.0028221642
57	0xbe30d52b	-0.17268817
58	0xbd31ead5	-0.043436844
59	0xbcc8b98d	-0.02450254
60	0x3d294463	0.041324984
61	0xbe080766	-0.13284072
62	0xbbcf31af	-0.0063230614
63	0x3a1e18e5	0.0006030931
64	0x3d91f351	0.07126487
65	0xba7a76ce	-0.00095544464
66	0x3db56a29	0.08858139
67	0xbb103840	-0.0022006184
68	0xbe7d726b	-0.24750678
69	0x3d085ce2	0.033291705
70	0x3e693cad	0.22777052
71	0xbe11eed5	-0.14251263
72	0xbd89129d	-0.06693003
73	0x3dfb4d62	0.12270619
74	0xbab6c34f	-0.0013943705
75	0x3e80266c	0.25029314
76	0xbd962d54	-0.073328644
77	0xbe3bdfd6	-0.18347105
78	0x3cab8711	0.020938428
79	0xbd66c7fe	-0.05634307
80	0x3dd99e71	0.106259234
81	0xbf288392	-0.6582576
82	0xbe07ea93	-0.13273077
83	0x3cffbb3a	0.031217206
84	0x3d4ddb64	0.050258055
85	0xbb49a7d1	-0.0030770192
86	0xbd6b5d77	-0.057462182
87	0xbd9b6d32	-0.07589187
88	0x3d5626c8	0.05228308
89	0xbd2ae672	-0.041723676
90	0xbdc4dd61	-0.09612537
91	0xbd210179	-0.039308045
92	0x3e349c01	0.17637636
93	0xbd5c1fe4	-0.05374135
94	0xbd5594c0	-0.052143812
95	0xbc43cafe	-0.011950253
96	0xbd885929	-0.06657631
97	0x3d427bbc	0.047481284
98	0x3d303974	0.04302354
99	0xbc4a91a9	-0.01236383
100	0xbd74d538	-0.059773654
101	0xbe051f0d	-0.13000126
102	0xbd708cb3	-0.05872793
103	0x3eb245c0	0.3481884
104	0xbe89ac52	-0.26889282
105	0x3e66fdf4	0.22557813
106	0x3d39fbe7	0.04540625
107	0xbe694e59	-0.22783794
108	0xbd865ebc	-0.06561038
109	0xbe73e358	-0.23817194
110	0x3dae9392	0.085242406
111	0xbe0cdb8b	-0.13755624
112	0xbe062f25	-0.13103922
113	0xbdcafb8e	-0.099112615
114	0xba1a0bcf	-0.00058763934
115	0xbe5f17e9	-0.21786465
116	0x3ccf6c3f	0.02532017
117	0xbe4327a3	-0.19058089
118	0x3c0236da	0.007947648
119	0xbdabee7a	-0.08395095
120	0xbd5b7e51	-0.05358726
121	0x3c358da2	0.011081131
122	0x3ba878a5	0.005141335
123	0x3c93db06	0.018048774
124	0x3d5ec16d	0.054383684
125	0x3ee51bf4	0.4474789
126	0x3e08c842	0.13357642
127	0xbe089fae	-0.13342163
128	0x3ea9fe37	0.33201763
129	0x3dc077f7	0.093978815
130	0xbce9e0e1	-0.028549613
131	0xbe72b3d6	-0.23701414
132	0x3e8b8709	0.2725146
133	0xbd5ac8ed	-0.053414274
134	0xbd88fd3d	-0.06688926
135	0x3cd91184	0.02649761
136	0x3ce4f859	0.027950453
137	0x3e66c0ce	0.22534487
138	0x3dda51c1	0.106601246
139	0x3d839450	0.06424773
140	0x3d3728b7	0.044716563
141	0xbcdd0be2	-0.026983205
142	0x3ca7c73a	0.02048074
143	0xbd881b0c	-0.06645784
144	0xbd5ad025	-0.05342116
145	0xbc87a212	-0.016556773
146	0x3d6346bc	0.05548738
147	0x3d876aa1	0.06612135
148	0xbcee63f2	-0.029100392
149	0xbe4e009b	-0.20117418
150	0x3e69e45e	0.22841021
151	0x3e2a2481	0.16615488
152	0x3d16d3b3	0.036822986
153	0x3cd41e49	0.025893347
154	0xbd7aecf3	-0.06126113
155	0xbdbf9526	-0.0935462
156	0x3d8ef7a7	0.0698083
157	0x3d7476aa	0.05968348
158	0xbe16b8bc	-0.14718908
159	0xbe17e02b	-0.14831607
160	0x3e78e6b7	0.2430676
161	0xbf1298a6	-0.57264173
162	0x3d16313e	0.036668055
163	0xbd647b33	-0.055781554
164	0xbd157eaa	-0.03649775
165	0xbd10b527	-0.03532901
166	0xbd1d3f55	-0.038390476
167	0xbceb3659	-0.028712438
168	0x3ce5e4a3	0.028063124
169	0x3dd590e2	0.10428025
170	0xbc2ffaca	-0.010740945
171	0xbdc94756	-0.098280594
172	0x3c5a1fd7	0.013313255
173	0x3d514673	0.051092576
174	0x3d9fcbd8	0.07802552
175	0xbd7bac29	-0.06144348
176	0x3d7aed02	0.061261185
177	0xbe02f51f	-0.12788819
178	0x3cedc353	0.029023802
179	0x3d50bcda	0.050961353
180	0x3d2934a5	0.04130997
181	0xbde7cb5f	-0.11318087
182	0x3db802de	0.08984922
183	0x3d91e5e4	0.07123926
184	0xbea725bd	-0.3264598
185	0x3e33f547	0.17574035
186	0x3dd70510	0.104990125
187	0xbdb5ab22	-0.088705316
188	0x3e8d668d	0.27617303
189	0xbc142e71	-0.009044276
190	0x3ea058bd	0.31317702
191	0xbe89d7dc	-0.269225
192	0x3e4852d0	0.1956284
193	0x3dd2920b	0.10281762
194	0xbc963bd6	-0.018339079
195	0x3b44f293	0.0030051812
196	0xbcd351ef	-0.025795905
197	0x3d56302d	0.052292038
198	0xbce9c1b9	-0.028534757
199	0xbdfef894	-0.12449756
200	0xbd9f89db	-0.07789966
201	0xbda3f031	-0.08004797
202	0xbc0dfdfa	-0.00866651
203	0x3cba12f8	0.022714123
204	0xbd76e23c	-0.060274348
205	0x3e7ae95d	0.24503084
206	0xbc8485ff	-0.016177176
207	0xbd0660ac	-0.032807037
208	0x3e5bd53e	0.21468064
209	0x3dbb4839	0.09144635
210	0x3ca05152	0.019570027
211	0xbe402651	-0.18764617
212	0x3ea8785d	0.3290433
213	0x3bb55fe0	0.005535111
214	0xbdf2180d	-0.118209936
215	0x3c33677d	0.0109499665
216	0xbd01c0b3	-0.031677913
217	0xbd0b343e	-0.03398537
218	0xbda0b633	-0.07847252
219	0x3dd38452	0.103279725
220	0xbd2f2400	-0.04275894
221	0x3d1945d8	0.037420124
222	0xbd9f71f2	-0.07785405
223	0x3d516bba	0.051128127
224	0xbce987b4	-0.028507091
225	0x3d91c721	0.07118059
226	0x3d2e9f68	0.04263249
227	0xbcc45695	-0.023967067
228	0x3ca82684	0.020526178
229	0x3cf4bceb	0.02987524
230	0x3d824475	0.063607134
231	0xbd4e417b	-0.050355416
232	0xbd636938	-0.055520266
233	0xbe04d0f6	-0.12970337
234	0xba92524c	-0.0011163442
235	0x3db61d5c	0.088923186
236	0x3d4f26d4	0.05057414
237	0xbe4baab2	-0.19889334
238	0x3a81d8e8	0.0009906562
239	0x3e2ab047	0.16668807
240	0xbe0d708b	-0.13812463
241	0x3e949b3b	0.2902468
242	0x3cd1089a	0.025516797
243	0xbd4479c7	-0.0479677
244	0xb79b31fe	-1.850072e-05
245	0x3cd29951	0.025707873
246	0xbd8bf06c	-0.06832966
247	0x3dddd173	0.10830965
248	0xbd928caf	-0.071557395
249	0x3d0c9a47	0.034326818
250	0x3dd64ce1	0.10463882
251	0x3d19da7b	0.037561875
252	0xbd8572b1	-0.06516016
253	0x3d2c7067	0.042099383
254	0x3b77456f	0.0037730595
255	0xbd028b5d	-0.03187119

bias f4 [256]
0	0xbdd02085	-0.101624526
1	0x3d244555	0.040105183
2	0x3d837c33	0.064201735
3	0x3de0b30b	0.1097165
4	0x3dccd297	0.10001104
5	0x3c649e95	0.0139538245
6	0xbbb5a39d	-0.005543186
7	0xbd164d43	-0.036694776
8	0xbc9b7165	-0.01897497
9	0x3cd7a4eb	0.026323756
10	0xbd3a1370	-0.045428693
11	0xbe04408d	-0.12915249
12	0x3de6a6ed	0.11262307
13	0xbd2e106b	-0.042496126
14	0xbde608c9	-0.112321444
15	0x3ca2ef65	0.019889543
16	0xbcd9573c	-0.026530854
17	0x3dcef76d	0.101057865
18	0x3d802597	0.0625717
19	0xbd9651b5	-0.07339803
20	0x3cd9e7ca	0.026599783
21	0xbd67f876	-0.056633435
22	0x3dcc9945	0.09990171
23	0xbde3158f	-0.11088096
24	0xbd4cc86f	-0.049995836
25	0x3de161d2	0.11004986
26	0x3de44524	0.11146
27	0x3d18e307	0.037325885
28	0x3e08fd89	0.13377966
29	0xbd1d796d	-0.03844588
30	0xbd6fd92b	-0.058556717
31	0xbe09495d	-0.13406892
32	0x3d51085c	0.051033363
33	0x3d4223a1	0.04739726
34	0x3c836a96	0.016042035
35	0xbdf13e7e	-0.117794976
36	0xbd0ca72e	-0.034339122
37	0xbd896808	-0.067092955
38	0xbdb00af3	-0.085958384
39	0x3db1bb6c	0.08678326
40	0xbc1c6a5b	-0.0095468415
41	0xbe0d627a	-0.13807097
42	0x3b3a56b0	0.0028433017
43	0x3d55fee8	0.05224505
44	0x3d21e2b1	0.03952283
45	0xbda3d8e8	-0.08000356
46	0x3decc479	0.11560912
47	0x3db7cdcb	0.08974799
48	0xbc389c2d	-0.011267704
49	0xbdc07bc8	-0.093986094
50	0x3d16c63e	0.036810152
51	0xbd986082	-0.074402824
52	0x3cf46405	0.02983285
53	0xbc5a45dc	-0.01332232
54	0x3d9475e8	0.07249051
55	0x3b9ffbc1	0.0048823063
56	0xbcfd67de	-0.030933317
57	0x3d726b33	0.059184264
58	0xbdc6c1a8	-0.09704906
59	0xbcf424e7	-0.029802753
60	0x3d9145bf	0.07093381
61	0x3d217e6d	0.03942721
62	0x3de614bc	0.112344235
63	0x3d6e43d4	0.058170155
64	0xbdb08d2d	-0.08620677
65	0x3d8cda82	0.068776146
66	0x3daa62a5	0.08319596
67	0xbdf86549	-0.121286936
68	0x3d65a344	0.056063905
69	0x3da6443e	0.08118485
70	0xbd449fac	-0.048003837
71	0xbb0f31ba	-0.0021849708
72	0xbcb54fa4	-0.022132702
73	0x3d91848f	0.07105362
74	0x3dc8a7e8	0.097976506
75	0xbd1bfc43	-0.038082372
76	0xbd19f246	-0.037584566
77	0x3d2daece	0.042403035
78	0xbd36b156	-0.044602714
79	0x3d3814a6	0.044941567
80	0xbda55b20	-0.08074021
81	0x3e01d7de	0.12680003
82	0xbd91da73	-0.07121744
83	0x3cf1f826	0.029537272
84	0x3d9d831d	0.076910235
85	0x3d0ee155	0.034882862
86	0xbd6cd728	-0.057822376
87	0xbd8bdb61	-0.068289526
88	0x3c8b909f	0.017036734
89	0xbd931c59	-0.07183141
90	0x3cfa2701	0.030536177
91	0xbd3b9bcf	-0.045802888
92	0xbcd77c7b	-0.026304474
93	0x3d23a7a9	0.039954815
94	0xbdce9a15	-0.100879826
95	0xbd0dd469	-0.0346264
96	0xbdb33044	-0.0874944
97	0xbd743af3	-0.05962653
98	0x3d7d4db7	0.061841693
99	0x3d82c007	0.063842826
100	0x3db57903	0.08860972
101	0x3def259e	0.11677097
102	0xbdcbb50f	-0.099466436
103	0xbde7a2de	-0.11310361
104	0x3db81a8c	0.089894384
105	0xbde67831	-0.112533934
106	0x3d6432bc	0.055712447
107	0xbdeb4184	-0.114871055
108	0x3b816b6a	0.0039495723
109	0xbd3b5a4b	-0.045740407
110	0xbc06d179	-0.008228653
111	0xbdc3ff87	-0.09570222
112	0x3ddcc935	0.10780565
113	0x3db2e9e7	0.087360196
114	0xbd49ecd1	-0.04929811
115	0x3d533662	0.051565535
116	0xbcb71f2f	-0.022353737
117	0xbd70f7c2	-0.05883003
118	0xb9d23e8b	-0.0004010092
119	0xbdc4c6ed	-0.096082546
120	0x3da39087	0.07986551
121	0xbbd3f8c5	-0.0064688646
122	0xbc4fc6d1	-0.012681679
123	0x3d7d0061	0.06176794
124	0xbbec4a7f	-0.007211029
125	0xbd3895c4	-0.045064703
126	0xbdd86fd5	-0.10568205
127	0x3d37bf27	0.04486003
128	0x3c521d5c	0.012824383
129	0xbd7a5b94	-0.061122492
130	0xbc69384c	-0.014234614
131	0x3d3d61fe	0.04623603
132	0xbd619dab	-0.055082005
133	0xbdb5f465	-0.08884505
134	0xbd2b47d9	-0.041816566
135	0x3dbd29a6	0.092364594
136	0x3d975711	0.073896535
137	0x3dc3f11a	0.09567471
138	0xbc2fb3d2	-0.010724025
139	0xbd5dc850	-0.05414611
140	0xbb9418b4	-0.0045195464
141	0x3cf800e0	0.030273855
142	0xbb4fb95e	-0.003169618
143	0xbc803cf3	-0.015654063
144	0xbd7b2839	-0.061317656
145	0xbda6b878	-0.08140653
146	0xbdb72793	-0.08943095
147	0xbcf84681	-0.030307056
148	0x3d8a980e	0.067672834
149	0xbc845b01	-0.016156675
150	0x3d82d454	0.063881546
151	0x3dd9880f	0.10621654
152	0x3d0e7457	0.03477892
153	0xbdc27215	-0.09494416
154	0xbc515831	-0.012777374
155	0x3d0a69bf	0.033792254
156	0x3d6668f5	0.05625244
157	0x3cd87506	0.026422989
158	0xbdefcc9b	-0.11708947
159	0x3e088add	0.13334222
160	0xbd8c98af	-0.068650596
161	0xbc2a27b2	-0.010385441
162	0x3d8d7682	0.06907369
163	0x3e02f424	0.12788445
164	0x3dc35433	0.09537544
165	0x3b0c433a	0.0021402375
166	0xbd43710f	-0.047715243
167	0xbdb292cf	-0.08719408
168	0x3dbd795e	0.092516646
169	0xbce817e3	-0.028331703
170	0x3d5084af	0.050907787
171	0x3c533404	0.012890819
172	0xbc07c719	-0.008287215
173	0x3dccecf7	0.10006135
174	0x3d877dea	0.06615813
175	0x3e0432c2	0.12909988
176	0xbdcacf1c	-0.09902784
177	0xbd0eb4cc	-0.03484039
178	0x3d185476	0.037189923
179	0xbd45ed53	-0.048322033
180	0xbcecab0e	-0.028890159
181	0xbd929588	-0.07157427
182	0xbdb10888	-0.08644205
183	0x3cdf2a06	0.027241718
184	0xbc479228	-0.012180842
185	0xbca467c7	-0.020069016
186	0xbe12b890	-0.14328218
187	0xbc90aaf5	-0.017659644
188	0x3d1eceaa	0.03877131
189	0xb9c1f351	-0.00036993113
190	0xbdfc7ec6	-0.123288676
191	0xbd7f42c7	-0.062319543
192	0x3dc3e175	0.09564487
193	0xbd1067cd	-0.035255242
194	0xbda42f40	-0.08016825
195	0xbd956111	-0.072939046
196	0xbd72732c	-0.059191868
197	0x3b507f09	0.0031814
198	0x3d4ac8b9	0.04950783
199	0xbdd7c596	-0.105357334
200	0xbde96802	-0.11396791
201	0x3d70d684	0.058798328
202	0xbcdcd8a1	-0.026958765
203	0xbc98dc1b	-0.018659642
204	0x3d9a5e02	0.07537462
205	0xbc9283f7	-0.017885191
206	0x3c9aaa87	0.018880142
207	0xbc904d48	-0.017614976
208	0x3cc74a6d	0.024327481
209	0x3c9f2b1c	0.019429736
210	0xbce7918a	-0.02826764
211	0xbdb65e5d	-0.08904717
212	0x3d09ee7b	0.0336747
213	0xbd9f192a	-0.077684715
214	0xbd0184dc	-0.031620845
215	0x3bfb4bdc	0.0076689553
216	0x3d5dfd99	0.054196928
217	0xbceb124e	-0.028695252
218	0x3bd8a33e	0.006611257
219	0x3dea6937	0.114458494
220	0xbae1325d	-0.0017181147
221	0xbd9821e9	-0.07428343
222	0x3d0e146f	0.034687456
223	0x3d28fe87	0.04125836
224	0xbc86527e	-0.016396757
225	0xbd898c7e	-0.0671625
226	0x3d42398c	0.047418162
227	0xbdad6da5	-0.08468179
228	0xbd1fc1c2	-0.03900314
229	0x3ddf6400	0.10907745
230	0x3c6ecfb1	0.014575885
231	0x3dcb3b13	0.09923377
232	0xbcc71b31	-0.024304958
233	0xbc6f2eb3	-0.014598536
234	0xbd886760	-0.06660342
235	0xbc93d0d4	-0.018043913
236	0x3d16c429	0.036808167
237	0xbdc7503a	-0.09732099
238	0x3d2cdd62	0.042203315
239	0x3d9e3890	0.07725632
240	0xbd9d55f6	-0.076824114
241	0xbd2ee89c	-0.042702302
242	0xbc0bcf27	-0.008533276
243	0x3d4fb404	0.050708786
244	0x3d33c650	0.043890297
245	0xbd868b03	-0.06569483
246	0xbdb6bef3	-0.089231394
247	0x3c420e92	0.011844294
248	0xbdd1709d	-0.102265574
249	0xbdde83ba	-0.108649686
250	0x3da61775	0.08109943
251	0xbc776082	-0.015098693
252	0xbd24ddde	-0.04025065
253	0xbc21ea6e	-0.009882553
254	0xbda79017	-0.0818178
255	0x3d5467a3	0.05185665

weight f4 [128, 256]
0	0x3da08422	0.07837702
1	0x3da4a7e4	0.08039835
2	0x3d270b50	0.040782273
3	0x3dedce77	0.11611646
4	0x3dadb662	0.084820524
5	0x3dabd7c5	0.08390764
6	0x3c9dcad6	0.019261759
7	0xbca64a82	-0.0202992
8	0xbdbd3e27	-0.0924037
9	0x3d2d1e67	0.042265322
10	0xbbd00898	-0.0063486807
11	0xbdb5cadd	-0.08876584
12	0x3d32859e	0.04358446
13	0x3c1f9419	0.009739899
14	0xba5c854e	-0.0008412198
15	0x3c99f37a	0.018792856
16	0xbcd8cf98	-0.026466176
17	0x3d8e2a62	0.06941678
18	0x3d81adb6	0.06331961
19	0x3cb216af	0.021739332
20	0x3df212d5	0.11819998
21	0x3c919dc5	0.017775426
22	0x3c1e797f	0.009672522
23	0x3d0f121c	0.03492938
24	0xbbd6f7b8	-0.006560292
25	0x3c5a375e	0.013318865
26	0xbdaa3b05	-0.08312038
27	0x3ddd21fa	0.10797496
28	0x3d827790	0.06370461
29	0xbd902313	-0.0703794
30	0xbd2012b2	-0.03908033
31	0xbb723da4	-0.003696301
32	0x3d0c669e	0.03427755
33	0x3d19829a	0.037478067
34	0xbdd959fd	-0.10612867
35	0xbd7786d5	-0.06043132
36	0x3c432580	0.011910796
37	0xbd1f75ab	-0.038930576
38	0x3da63992	0.081164494
39	0x3cc0ae57	0.023520632
40	0xbd42b528	-0.047536045
41	0xbb632f6f	-0.0034665724
42	0x3b50498b	0.0031782116
43	0x3cc05c31	0.02348146
44	0xbe07f255	-0.13276036
45	0x3d03723c	0.032091364
46	0x3cc36f59	0.023856806
47	0x3d59ca3f	0.053171393
48	0x3c79172c	0.0152032785
49	0x3d700919	0.058602426
50	0xbb2aeb38	-0.0026080143
51	0xbc8f85e0	-0.017519891
52	0xbd4d6ada	-0.05015073
53	0xbd5f32af	-0.054491695
54	0x3cc9a688	0.024615541
55	0x3d6e0939	0.058114264
56	0xbcc6f754	-0.024287857
57	0x3dd32b2f	0.10310971
58	0x3d57d866	0.052696608
59	0xbd25a99e	-0.040444963
60	0x3be41bf5	0.0069613406
61	0xbc896a96	-0.016774457
62	0x3caa3912	0.020779166
63	0x3c3bd87c	0.011465188
64	0x3b08aec0	0.0020856112
65	0x3cf25982	0.029583696
66	0x3cf3a9c8	0.029744044
67	0xbc7f5820	-0.0155849755
68	0x3d63e6f9	0.055640195
69	0x3ce00da9	0.027350264
70	0xbd909f92	-0.070616856
71	0xbc960b33	-0.018315887
72	0xbd1997c4	-0.03749825
73	0xbd8da466	-0.06916122
74	0x3db826d6	0.08991782
75	0xbd1d8db6	-0.038465224
76	0x3d06abcb	0.03287868
77	0xbbf1d01c	-0.007379545
78	0xbc8c4139	-0.017120944
79	0x3c942fea	0.018089253
80	0xbca21fd7	-0.019790573
81	0x3cedec41	0.029043319
82	0x3cbc8fcb	0.023017785
83	0xbda14c2e	-0.07875858
84	0xbc87f45a	-0.016596008
85	0x3dab497a	0.08363624
86	0x3ce3c255	0.027802626
87	0x3c743c9f	0.014907031
88	0xbd78e774	-0.060767606
89	0x3d49d2ab	0.049273174
90	0x3cdddec3	0.02708376
91	0x3cb0b330	0.021569818
92	0xbdf4d68b	-0.11954983
93	0x3d5cc057	0.053894367
94	0x3d0b698b	0.0340362
95	0x3b99d86a	0.004694988
96	0x3cd5329b	0.026025107
97	0xbcf47588	-0.0298412
98	0x3d994ecf	0.07485735
99	0xbcba9c2b	-0.022779545
100	0xbd986e90	-0.07442963
101	0x3d48011a	0.048829176
102	0x3d6eda48	0.058313638
103	0x3b76ac2c	0.0037639244
104	0x3d3e9a65	0.04653396
105	0xbd2cbd3d	-0.04217266
106	0xbc0c36ef	-0.008558019
107	0x3d0c95cb	0.03432254
108	0x3e027026	0.12738094
109	0xbc951a1a	-0.018200923
110	0xbc8e2795	-0.017352859
111	0xbc548781	-0.01297176
112	0x3e233455	0.15937932
113	0xbc8bda42	-0.017071847
114	0xbd2d1cc0	-0.042263746
115	0xbc27fd85	-0.010253315
116	0xbb33eed3	-0.0027455583
117	0x3d25a8ad	0.040444065
118	0x3c6a0696	0.014283797
119	0xbdb81df5	-0.08990089
120	0xbc2f6877	-0.010706059
121	0x3d41aa35	0.047281463
122	0x3cc38594	0.023867406
123	0x3c573621	0.013135464
124	0xbd5597b9	-0.052146647
125	0xbc65e9ea	-0.01403282
126	0x3c050ab3	0.008120227
127	0xbd927a93	-0.071522854
128	0xbdac4f14	-0.084135205
129	0xbd9a06c1	-0.075208195
130	0xbcfc2ddd	-0.030783588
131	0xbaa0a10e	-0.0012255029
132	0xbd4a2eef	-0.049361166
133	0x3d0d2221	0.034456376
134	0x3d0548e6	0.032540224
135	0xbc840138	-0.016113862
136	0xbca9027d	-0.02063107
137	0x3d819d3c	0.06328818
138	0xbb29ec79	-0.0025928302
139	0x3c69450c	0.014237653
140	0xbd98c20f	-0.07458889
141	0xbd477468	-0.048694998
142	0xbccabbfc	-0.024747841
143	0x3ceff191	0.029289993
144	0xbc3b5a95	-0.011435171
145	0xbd0e6a6c	-0.03476946
146	0x3cd02207	0.02540685
147	0xbc9f3c49	-0.019437926
148	0x3dc09410	0.09403241
149	0xbcec82f2	-0.028871033
150	0x3d6e9e1e	0.05825626
151	0x3dbc3489	0.09189708
152	0xbc8911b9	-0.016732084
153	0x3caae68c	0.020861886
154	0x3dad8155	0.08471934
155	0xbdb42998	-0.08796996
156	0x3d62d705	0.05538084
157	0x3e04467e	0.12917516
158	0xbc091f0f	-0.008369221
159	0x3d4eb889	0.050468955
160	0xbcb3753e	-0.021906491
161	0xbb31bf86	-0.0027122214
162	0xbc311736	-0.010808757
163	0x3d1ab685	0.03777172
164	0x3d99d41e	0.07511161
165	0x3d445882	0.04793597
166	0xbd58b121	-0.0529033
167	0xbd5bad40	-0.05363202
168	0x3d62c558	0.055363983
169	0xbc042a53	-0.0080667315
170	0xbdfbbe81	-0.12292195
171	0xbd837a76	-0.06419842
172	0x3bb67aaa	0.005568822
173	0xbd83a018	-0.0642702
174	0x3c702c98	0.0146590695
175	0x3dcede4c	0.101009935
176	0x3d2ae7f2	0.041725107
177	0x3d51f32b	0.051257294
178	0xbd66fc72	-0.056393094
179	0xbd10755e	-0.03526818
180	0xbd84b633	-0.06480064
181	0xbc9d7f79	-0.019225823
182	0xbd9e1e24	-0.077205926
183	0x3cdca05d	0.026931936
184	0x3d954082	0.072876945
185	0xbdd9b9fd	-0.106311776
186	0xbd8edfbe	-0.06976269
187	0x3cbe3559	0.023218798
188	0xbca411f2	-0.020028088
189	0xbc4256ba	-0.011861498
190	0xbd026938	-0.031838626
191	0x3c9682e3	0.018372959
192	0x3d36bf68	0.044616133
193	0x3d841797	0.06449812
194	0xbc8c4d5c	-0.017126732
195	0x3ae0928c	0.0017133518
196	0xba03e07c	-0.0005030704
197	0x3cdbaf08	0.02681686
198	0x3da1e362	0.07904698
199	0xbc9e5076	-0.019325476
200	0xbd434511	-0.04767329
201	0x3ca1fd86	0.01977421
202	0x3a1725bc	0.0005765816
203	0xbcb5d92c	-0.022198282
204	0x3bec67fb	0.007214544
205	0x3d949c6f	0.072564
206	0xbcd80aff	-0.02637243
207	0x3d37a653	0.044836354
208	0xbbe76d26	-0.007062572
209	0xbd299d4d	-0.04140978
210	0xbd4b0611	-0.049566332
211	0x3d829a21	0.06377054
212	0xbc2529bc	-0.010080751
213	0x3d461ae5	0.048365492
214	0x3e003908	0.12521756
215	0x3da74662	0.08167721
216	0x3d1524bf	0.036411997
217	0x3cc3ef61	0.023917856
218	0xbc20fdd8	-0.009826146
219	0x3b2edca8	0.0026681814
220	0x3cade3cc	0.021226786
221	0xbd8ee2c7	-0.06976848
222	0xbdc5f4ba	-0.096658185
223	0xbd06f1f6	-0.032945596
224	0x3d35b75d	0.044364322
225	0x3b073f9b	0.0020637277
226	0x3d273b45	0.04082801
227	0x3d40724f	0.046984013
228	0xbd275b7d	-0.040858734
229	0x3c980e16	0.018561404
230	0xbd1fde07	-0.0390301
231	0x3d1fc584	0.039006725
232	0xbcc9f4bf	-0.024652837
233	0x3d1b5442	0.03792215
234	0xbd216c75	-0.039410073
235	0x3c480751	0.012208776
236	0x3b8d7316	0.004316698
237	0x3ce52503	0.02797175
238	0x3dc5b103	0.09652903
239	0xbddd4a43	-0.1080518
240	0xbcd25d86	-0.025679361
241	0xbd8b7f47	-0.068113856
242	0xbc7bd941	-0.015371622
243	0x3d6fc24d	0.05853491
244	0x3d0cc8c2	0.034371145
245	0x3c7258a0	0.014791638
246	0xbdc153d2	-0.094398156
247	0x3d1bb81c	0.038017377
248	0x3cde2338	0.027116403
249	0x3d63e5ec	0.055639192
250	0x3d94fec2	0.07275154
251	0xbd1b5f1c	-0.0379325
252	0x3d414874	0.047188237
253	0xbc9fc4aa	-0.019502956
254	0x3d1015a0	0.035176873
255	0xbd651fb2	-0.05593843

bias f4 [128]
0	0xbc135a59	-0.0089937085
1	0x3db27bfd	0.08715055
2	0xbd886070	-0.06659019
3	0xbd2dd3e7	-0.042438414
4	0x3ad95097	0.0016579804
5	0xbd2eeb4d	-0.04270487
6	0x3ce16b42	0.027516965
7	0x3d2bcbe2	0.041942485
8	0x3d1ed473	0.038776826
9	0xbb87a253	-0.0041392236
10	0x3d537bc3	0.0516317
11	0xbdeb61fc	-0.114932984
12	0xbd8ae9e8	-0.06782895
13	0xbbf62888	-0.007512156
14	0x3d05203e	0.03250145
15	0xbd2f4103	-0.04278661
16	0xbca9b0c2	-0.020714168
17	0x3bbb5043	0.005716355
18	0x3d11e14f	0.03561526
19	0xbd8baf15	-0.068205036
20	0x3d15a1be	0.036531202
21	0xbcb3cdf8	-0.0219488
22	0xbc4cad2b	-0.012492458
23	0xbd9d99f1	-0.076953776
24	0xbd8774de	-0.066140875
25	0x3d115085	0.03547718
26	0x3d039d41	0.03213239
27	0xbd3c33a0	-0.04594767
28	0xbcc5b159	-0.024132418
29	0x3c635f98	0.013877772
30	0xbd4d71b6	-0.05015727
31	0xbdb9d48f	-0.090737455
32	0x3c97dd57	0.01853816
33	0xbd8541c6	-0.06506686
34	0xbcb34eec	-0.021888219
35	0xbd846d42	-0.06466152
36	0xbce42aec	-0.027852498
37	0x3d5b57d2	0.05355055
38	0x3d6b8813	0.057502817
39	0xbba6fd7d	-0.005096136
40	0xbc3e8772	-0.011628972
41	0x3c470c0e	0.01214887
42	0xbc2608bd	-0.010133919
43	0xbdb90b4c	-0.09035358
44	0xbdc61c27	-0.096733384
45	0xbd2c736b	-0.04210226
46	0x3d34b54e	0.044118218
47	0x3cde707d	0.027153248
48	0xbdf6c6a7	-0.12049609
49	0xbcca7382	-0.024713282
50	0xbd42c8ae	-0.047554664
51	0xbdaf189a	-0.08549614
52	0xbd97078c	-0.07374486
53	0x3ca88edc	0.020575933
54	0x3b2358c7	0.0024924742
55	0xbd480657	-0.04883417
56	0x3a3f74f2	0.0007303498
57	0xbd65e080	-0.056122303
58	0x3d67cec4	0.05659367
59	0xbd3cd5ea	-0.04610244
60	0xbd77ac6d	-0.060467172
61	0xbdbc10bf	-0.091828816
62	0xbd68d6f6	-0.056845628
63	0xbccb492b	-0.024815163
64	0x3cb41093	0.02198056
65	0xbd198ec5	-0.03748967
66	0xbccf317d	-0.025292153
67	0x3aa6eb3f	0.0012734904
68	0xbc2271f6	-0.009914866
69	0xbc0f42bb	-0.008743937
70	0x3c8705a1	0.016482176
71	0x3d2c1619	0.04201326
72	0xbd802517	-0.06257074
73	0xbca68dab	-0.020331224
74	0xbdb6a448	-0.08918053
75	0xbd7fe1ae	-0.062471084
76	0xbda43486	-0.080178306
77	0xbd40036a	-0.046878256
78	0xbb387449	-0.0028145483
79	0xbd48f7ca	-0.049064435
80	0x3cbcb5b1	0.023035856
81	0xbccd62ef	-0.02507159
82	0xbd9e588b	-0.07731732
83	0xbdaa7e83	-0.083249114
84	0xbc3a079a	-0.011354351
85	0xbd0706e4	-0.032965556
86	0xbcd3c4ea	-0.025850732
87	0x3d1b8633	0.03796978
88	0x3c60c5d6	0.013719043
89	0x3d8748ac	0.06605658
90	0x3c81cd62	0.015845004
91	0xbd0c170b	-0.034201663
92	0xbd3bab8a	-0.04581789
93	0xbca26149	-0.01982178
94	0xbe06149e	-0.13093802
95	0xbdac71a0	-0.0842011
96	0x3d257228	0.04039207
97	0xbd5b103b	-0.053482275
98	0x3cf0be0a	0.029387493
99	0xbd95c779	-0.07313437
100	0x3c069e42	0.008216443
101	0xbce9ebd7	-0.02855484
102	0xbd5fe410	-0.054660857
103	0x3d38f111	0.045151774
104	0xbd4bd7a6	-0.049766205
105	0xbd347bf3	-0.04406352
106	0x3d1b7655	0.037954647
107	0xbb818bd9	-0.0039534387
108	0xbd443b25	-0.047907967
109	0xbcd1ae96	-0.025595944
110	0x3c2ec5dd	0.0106672915
111	0xbd56d7a3	-0.05245174
112	0xbc49e9a3	-0.01232377
113	0xbcd2e5f9	-0.025744425
114	0xbd195ee4	-0.03744401
115	0x3bac96cb	0.0052669994
116	0x3c7ef5f3	0.015561569
117	0xbd375ac0	-0.04476428
118	0xbd4b4189	-0.049623046
119	0xba401412	-0.00073272095
120	0xbcc067f3	-0.023487067
121	0xbd75421c	-0.0598775
122	0xbd869726	-0.06571798
123	0x3bd05939	0.0063582924
124	0x3c4e64bc	0.012597259
125	0xbc8f5c74	-0.01750014
126	0xbdaf2e8d	-0.08553801
127	0xbc8e9104	-0.017403133

weight f4 [128, 128]
0	0xbcb54dd7	-0.022131843
1	0xbc52afc6	-0.0128592905
2	0x3dc32279	0.095280595
3	0xbdba7dd5	-0.09106032
4	0xbd300af4	-0.042979196
5	0x3da9b7c1	0.082870014
6	0xbd888713	-0.06666388
7	0x3d3776e5	0.04479112
8	0xbca917ea	-0.020641286
9	0x3c7e3d01	0.015517474
10	0xbd455d7e	-0.048184864
11	0x3dd1d62c	0.10245928
12	0x3b249557	0.0025113428
13	0xbc8eda11	-0.017437967
14	0x3bdb7ec5	0.0066984617
15	0xb852e315	-5.027939e-05
16	0xbd5dd873	-0.0541615
17	0x3c8e0fea	0.017341573
18	0xbd2f8419	-0.042850588
19	0xbddd1c23	-0.10796382
20	0x3ce1a631	0.027545067
21	0x3c9f8570	0.019472808
22	0x3e0698d7	0.13144241
23	0xbc294793	-0.010332006
24	0x3d0a583c	0.033775553
25	0x3de80a96	0.11330144
26	0x3d60dab6	0.05489608
27	0xbcd832e4	-0.026391454
28	0xbd8d302b	-0.06893953
29	0x3d9042b6	0.07043974
30	0x3ceef234	0.029168226
31	0x3d4fb18b	0.050706428
32	0xbdc68516	-0.09693353
33	0x3c901227	0.01758678
34	0xbd7a47a6	-0.061103486
35	0x3bd8cd50	0.006616272
36	0x3db8b96b	0.09019741
37	0xbe1d01a3	-0.15332656
38	0xbdff6729	-0.12470848
39	0x3de769ed	0.112995006
40	0x3d0091d5	0.031389076
41	0xbcd3f32f	-0.025872795
42	0xbced7788	-0.028987661
43	0xbd590891	-0.052986685
44	0xbcbba396	-0.022905152
45	0xbb8a55ee	-0.0042216694
46	0xbdf86160	-0.12127948
47	0xbded1ce6	-0.115777776
48	0x3d4735e6	0.048635386
49	0xbd5ea723	-0.054358613
50	0xbc891eda	-0.016738344
51	0x3ddeed6e	0.1088513
52	0x3c3926ce	0.011300756
53	0x3c1bbde3	0.009505722
54	0x3e075d8c	0.13219279
55	0xbcb0810c	-0.02154591
56	0xbda97839	-0.08274884
57	0x3d960ad4	0.07326284
58	0xbbe3e141	-0.0069543426
59	0x3deeb417	0.11655443
60	0x3c7e686c	0.015527826
61	0x3d4c061d	0.049810518
62	0x3d1f6120	0.038910985
63	0x3dde485b	0.108536445
64	0x3b57e520	0.0032942966
65	0x3d1bb352	0.03801281
66	0x3d33abad	0.043864895
67	0x3dae3c4d	0.08507595
68	0xb9283467	-0.0001604125
69	0x3dc89c78	0.09795469
70	0xbc99140c	-0.018686317
71	0xbdc273b0	-0.09494722
72	0x3d35df8a	0.044402637
73	0xbc834676	-0.01602481
74	0xbcddb948	-0.027065888
75	0x3e31a272	0.17347124
76	0x3dfaa65a	0.1223876
77	0xbd46d051	-0.04853851
78	0x3c5d89f5	0.013521661
79	0xbc8fa24a	-0.01753344
80	0xbd3ec1df	-0.04657161
81	0xbc557860	-0.013029188
82	0xbd94b916	-0.07261865
83	0x3dab77cd	0.083724596
84	0x3d9dde75	0.07708446
85	0xbd8017d2	-0.06254543
86	0xbdaeae68	-0.08529359
87	0xbca62758	-0.020282432
88	0x3d8d0eb9	0.06887574
89	0xbdf4ae18	-0.11947268
90	0xba05b8f2	-0.00051011064
91	0xbd0d1077	-0.03443953
92	0x3c04033e	0.008057414
93	0x3d1494ad	0.0362746
94	0x3d90f40e	0.070778
95	0xbd907ec1	-0.070554264
96	0xbc505a9a	-0.012716914
97	0x3cae7918	0.021297976
98	0xbc1ca0b8	-0.009559803
99	0xbcf3d8b0	-0.02976641
100	0x3c242f8b	0.010021101
101	0xbd9662ff	-0.07343101
102	0x3cb765c1	0.022387387
103	0x3c1ea094	0.0096818395
104	0x3d7656a8	0.060141236
105	0x3c08cf57	0.008350215
106	0x3d6eb8ba	0.058281638
107	0x3c58d5a2	0.013234528
108	0x3d8e9a1f	0.0696299
109	0xbda9c283	-0.08289053
110	0xbd5d7372	-0.054065175
111	0x3a11a5ea	0.0005556034
112	0xbbb6b207	-0.0055754217
113	0x3dbad67e	0.091229424
114	0x3ca350d7	0.019936008
115	0xbd0bb03b	-0.034103613
116	0x3dad0247	0.084477
117	0xbd01172e	-0.031516246
118	0xbdba6824	-0.091018945
119	0x3c3e6e0c	0.011622917
120	0x3c4df786	0.012571221
121	0x3ca42e73	0.02004168
122	0x3d8f5f1f	0.07000565
123	0xbccf631a	-0.02531581
124	0xbd395451	-0.045246426
125	0x3cbc67cf	0.022998719
126	0xbd611f42	-0.05496145
127	0x3dd64eef	0.10464274
128	0x3d87869e	0.06617473
129	0xbdb8f4ad	-0.09031043
130	0x3da45e35	0.08025781
131	0x3d8542df	0.06506895
132	0x3d83d518	0.06437129
133	0xbd901020	-0.070343256
134	0xbbbd2188	-0.0057718195
135	0x3db72ac6	0.08943705
136	0x3da72ca7	0.08162814
137	0xbdbe5689	-0.09293849
138	0xbd232609	-0.039831195
139	0x3e0bf2e8	0.1366688
140	0x3cd2f8d9	0.025753425
141	0x3d7e379a	0.062064745
142	0x3dcbebe0	0.09957099
143	0xbca61c80	-0.020277262
144	0xbd67dd6b	-0.056607645
145	0x3e0af0f6	0.13568482
146	0xbcc9d2c7	-0.02463664
147	0xbd7d5081	-0.061844353
148	0xbd0a733e	-0.03380131
149	0x3cd7e1e9	0.02635284
150	0xbd08b516	-0.033375822
151	0x3dc494cf	0.095986955
152	0x3d46f7e2	0.048576243
153	0xbcbacbd3	-0.02280227
154	0x3d8c96da	0.0686471
155	0x3d9c7257	0.07638996
156	0xbc71dc8f	-0.014762058
157	0xbd9a76dc	-0.07542202
158	0x3dc512ec	0.0962275
159	0xbd065965	-0.032800097
160	0xbdfe4c70	-0.12416923
161	0x3c582c61	0.0131941745
162	0xb80492e9	-3.1608073e-05
163	0x3e0bb350	0.13642621
164	0xbd2d0e6c	-0.042250082
165	0x3d23121b	0.03981219
166	0xbcaa4c76	-0.020788413
167	0x3ca6ebb6	0.020376068
168	0xbcbce219	-0.02305703
169	0xbc6ca3f0	-0.014443383
170	0x3d89744f	0.06711637
171	0x3d137243	0.03599764
172	0x3cac188c	0.021007799
173	0x3d13b17b	0.03605793
174	0xbb399a38	-0.0028320681
175	0xbc361c7d	-0.011115191
176	0x3dcd202d	0.10015903
177	0xbc09681a	-0.008386636
178	0x3cee84d7	0.029116077
179	0xbe25636d	-0.16151209
180	0x3d34d2ad	0.04414623
181	0xba761eb7	-0.0009388732
182	0xbdcd4f8a	-0.100249365
183	0xbdc27f89	-0.09496982
184	0xbc1a5ac9	-0.009421059
185	0x3b57acf3	0.0032909482
186	0x3db74bb9	0.0894999
187	0x3d35f2b0	0.044420898
188	0x3db473e1	0.08811165
189	0x3d5ac573	0.05341096
190	0x3d9421d7	0.07233017
191	0x3d65eff5	0.056137044
192	0xbbb412e2	-0.005495415
193	0xbbee98f1	-0.0072814156
194	0x3dbfef0d	0.09371767
195	0x3d007ca1	0.031368855
196	0xbd250575	-0.040288407
197	0x3dcf32ba	0.10117097
198	0xbd065c18	-0.03280267
199	0xbbd605f3	-0.006531471
200	0xbd7473d9	-0.059680793
201	0x3dc2cbe5	0.09511546
202	0x3dcef8b1	0.10106028
203	0xbd79539f	-0.060870763
204	0x3cf0d6be	0.029399272
205	0x3d2d9631	0.04237956
206	0xbd8376fa	-0.06419177
207	0x3d1c35c5	0.038137216
208	0x3d2d3b35	0.042292792
209	0xbd75f0af	-0.060043987
210	0x3e0b6b1c	0.13615078
211	0x3ca7892a	0.020451147
212	0xbce5f3e6	-0.028070401
213	0xbcd43378	-0.025903448
214	0x3c9ffdb6	0.019530158
215	0x3d705ae7	0.05868044
216	0xbdd389f5	-0.103290476
217	0x3c9b0089	0.018921154
218	0x3d0ea175	0.034821946
219	0x3d8b4b4a	0.068014696
220	0x3d59b136	0.053147517
221	0xbc2a5d91	-0.0103982845
222	0x3deb6679	0.114941545
223	0x3d5be271	0.05368275
224	0xbd50d199	-0.050981138
225	0x3b76f946	0.00376852
226	0x3d8eebcb	0.06978568
227	0xbc5c9161	-0.013462395
228	0xbd638236	-0.0555441
229	0xbde011c1	-0.10940886
230	0x3cc922a4	0.02455265
231	0xbd5135a7	-0.051076557
232	0xbd1c7e84	-0.038206592
233	0xbccf169f	-0.025279341
234	0x3d8757e9	0.066085644
235	0x3dee41fc	0.11633679
236	0x3d2956d9	0.04134259
237	0xbd1fc21b	-0.039003473
238	0x3c9dc635	0.019259552
239	0xbc9638e3	-0.018337673
240	0x3d146409	0.036228213
241	0xbd5a752f	-0.05333441
242	0x3e085aa1	0.13315822
243	0x3d0ed61b	0.034872156
244	0xbda83d67	-0.082148366
245	0xbd6025b2	-0.05472345
246	0x3debe05b	0.11517402
247	0x3bf1fbe2	0.007384763
248	0xbde9d1e8	-0.114169896
249	0x3b7dc24c	0.0038720546
250	0xbd19c09c	-0.037537202
251	0xbd82d518	-0.06388301
252	0xbd92c7ee	-0.0716704
253	0xbd83f0ad	-0.0644239
254	0x3df7db65	0.12102393
255	0xbdcc1f16	-0.09966867

bias f4 [128]
0	0x3d6ea699	0.05826435
1	0xbd16997d	-0.03676747
2	0x3d549545	0.051900167
3	0xbda23d39	-0.079218335
4	0x3d85a7d5	0.06526152
5	0x3d6c8549	0.057744298
6	0xbdac7324	-0.08420399
7	0xbde9aa93	-0.114094876
8	0x3cfc1ad0	0.030774504
9	0xbb7ebf42	-0.0038871323
10	0xbcca095d	-0.024662668
11	0xbcf8a682	-0.030352835
12	0xbcdda5b2	-0.027056549
13	0x3dad5557	0.08463543
14	0x3c5037fd	0.012708661
15	0xbd9cab30	-0.07649839
16	0xbe17da0a	-0.14829269
17	0x3b15d33b	0.00228615
18	0x3d346979	0.0440459
19	0xbca25dfc	-0.019820206
20	0xbdf94a47	-0.121723704
21	0xbd164775	-0.03668924
22	0xbd3c408d	-0.045959998
23	0xbd4c8410	-0.049930632
24	0x3d48f8b2	0.0490653
25	0xbd2db08d	-0.0424047
26	0x3b6bba9f	0.003596939
27	0xbcadb0c5	-0.021202454
28	0xbdb66dbc	-0.08907649
29	0xbd9dfd97	-0.07714384
30	0xbcc7b381	-0.024377586
31	0xbde0df23	-0.1098006
32	0xbcf9230a	-0.030412216
33	0xbcd1ca75	-0.025609234
34	0xbddbf2e6	-0.107396886
35	0xbd37365f	-0.044729587
36	0xbd479088	-0.04872182
37	0x3d878308	0.06616789
38	0xbdf4ba0e	-0.119495496
39	0xbce6f5c8	-0.02819337
40	0x3d4c1752	0.049826927
41	0xbe27d84b	-0.16391103
42	0x3d4f093b	0.050545912
43	0x3d805563	0.06266286
44	0xbd07ecd3	-0.033184838
45	0xbdb394b2	-0.08768596
46	0xbd1613a7	-0.036639836
47	0xbd978250	-0.07397902
48	0xbdbfde80	-0.093686104
49	0x3d024236	0.031801425
50	0xbdae0259	-0.084965415
51	0xbe021749	-0.12704195
52	0xbbf504ad	-0.007477364
53	0xbd356510	-0.044285834
54	0xbdf441ec	-0.11926636
55	0x3c0adac3	0.008475008
56	0x3db327bd	0.08747814
57	0x3da7e1e9	0.08197386
58	0x3d326e61	0.043562297
59	0xbd40d685	-0.04707958
60	0x3d37722b	0.044786613
61	0xbd51115b	-0.051041942
62	0xbe04ce66	-0.1296936
63	0xbccd2985	-0.025044212
64	0xbd1a73b8	-0.037708014
65	0x3cd18412	0.025575671
66	0x3ce74d60	0.028235137
67	0x3b28230b	0.0025655653
68	0xbe2dd024	-0.1697393
69	0x3d2edf13	0.04269321
70	0xbc813836	-0.015773874
71	0xbd7e380a	-0.06206516
72	0xbd4bf6d1	-0.04979593
73	0x3d14ced3	0.036330055
74	0xbdb839e9	-0.089954205
75	0xbcc4af46	-0.024009358
76	0x3ceadd79	0.02867006
77	0x3c95605a	0.01823442
78	0x3d97504b	0.073883615
79	0xbd0b3aff	-0.03399181
80	0xbd66828a	-0.056276836
81	0xbcfff340	-0.03124392
82	0x3d088695	0.033331472
83	0xbcf4b7e8	-0.02987285
84	0xbc2d2618	-0.010568164
85	0xbd280188	-0.041017085
86	0xbcbe4370	-0.023225516
87	0xbb526a92	-0.0032106978
88	0x3d9bd2eb	0.07608589
89	0xbdd748f7	-0.10511964
90	0xbd85c982	-0.06532575
91	0xbd9ca2a0	-0.07648206
92	0x3c805bca	0.015668768
93	0xbd039c2d	-0.032131363
94	0x3d20da96	0.03927096
95	0xbd7ecdaa	-0.062207855
96	0xbd8b3b95	-0.06798474
97	0x3c511a9d	0.012762693
98	0x3c5898ce	0.013220025
99	0xbd8d07e4	-0.06886271
100	0x3d2b6aaa	0.04184977
101	0xbdcc14f8	-0.09964937
102	0x3b998b89	0.0046858233
103	0xbbabbca3	-0.005240993
104	0xbdc18131	-0.094484694
105	0x3dc73c79	0.09728331
106	0xbc35f1ac	-0.011104982
107	0x3d30a564	0.04312648
108	0xbe0ab774	-0.13546544
109	0x3d1ff51e	0.03905212
110	0x3d299022	0.04139722
111	0xbde35510	-0.11100209
112	0xbd3c2af5	-0.045939405
113	0x3d812285	0.06305412
114	0x3d8bb092	0.068207875
115	0xbe03041a	-0.12794533
116	0x3d4059b7	0.04696056
117	0xbdd1872a	-0.102308586
118	0x3d9357bc	0.071944684
119	0xbe0b3e17	-0.13597904
120	0x3d0cf86b	0.034416597
121	0x3dbc446c	0.09192738
122	0x3d640111	0.05566508
123	0xbd53d4ab	-0.051716488
124	0xbd474221	-0.04864705
125	0xbd511e15	-0.05105408
126	0x3d7a9f87	0.061187293
127	0x3d9620bf	0.073304646

weight f4 [23, 128]
0	0xbc857325	-0.016290257
1	0xbcafebce	-0.021474745
2	0xbd3f4f16	-0.04670628
3	0x3d4ce28f	0.05002075
4	0xbd9f1873	-0.07768335
5	0x3c9059b1	0.017620893
6	0x3d00aabe	0.031412832
7	0xbdb69c24	-0.089165
8	0xbd09ed0e	-0.03367334
9	0xbc31748f	-0.010831012
10	0x3d5bfce4	0.053707972
11	0xbd6395fb	-0.055562954
12	0x3cd0f1a3	0.025505846
13	0xbcafa3cc	-0.02144041
14	0xbba966a5	-0.005169707
15	0xbc0c2ee0	-0.008556098
16	0xbb3cc2ff	-0.002880275
17	0xbbf54b7a	-0.007485804
18	0xbd805703	-0.06266596
19	0xbcdc985d	-0.026928121
20	0x3db2b096	0.08725087
21	0xbc2fb01c	-0.01072314
22	0x3d8b0ab0	0.06789148
23	0x3d2a6287	0.04159787
24	0x3c1b0f80	0.009464145
25	0x3d0e958c	0.034810588
26	0x3c919639	0.017771827
27	0xbd3c0f5f	-0.045913097
28	0xbd8d044a	-0.06885584
29	0x3dee21a9	0.11627514
30	0x3d4c4652	0.04987175
31	0x3aa32059	0.0012445553
32	0x3d344f93	0.0440212
33	0x3dadb01a	0.08480854
34	0xbd22ccaa	-0.039745964
35	0x3c46a9e0	0.012125462
36	0x3d8edb55	0.06975428
37	0xbdeee06a	-0.11663897
38	0x3d5f4ff1	0.054519597
39	0xbca169ca	-0.019703764
40	0xbd2025d3	-0.039098572
41	0xbc650a87	-0.013979561
42	0xbdf3e539	-0.11908955
43	0xbd52b2e0	-0.05144012
44	0xbc4c212d	-0.012459082
45	0x3dbcf1c0	0.09225798
46	0xbc94b67c	-0.018153422
47	0xbc13e245	-0.009026115
48	0x3c123a46	0.008925026
49	0xbda67040	-0.08126879
50	0x3cf93479	0.030420529
51	0x3e09c663	0.13454585
52	0x3dd223cb	0.10260733
53	0x3da7eba4	0.08199242
54	0x3b14d0d7	0.0022707486
55	0x3c8e1389	0.0173433
56	0xbc9237cc	-0.017848872
57	0x3bbd5758	0.0057782345
58	0xbe054c9c	-0.13017505
59	0x3d84e93f	0.06489801
60	0x3d27fcd1	0.04101259
61	0xbc87e825	-0.016590187
62	0x3ca5a1ce	0.020218756
63	0x3d9fb04f	0.077973
64	0xbcf801bd	-0.030274266
65	0xbc6719bc	-0.014105257
66	0xbd4d4ac8	-0.050120145
67	0xbd456086	-0.048187755
68	0x3bc52321	0.0060161506
69	0x3cf253e6	0.029581022
70	0x3c004486	0.007828837
71	0x3db27ae7	0.08714848
72	0x3d2f91a9	0.04286352
73	0xbd1365af	-0.035985645
74	0x3cb183ae	0.021669235
75	0xbb165e0a	-0.0022944235
76	0xbe24c46a	-0.16090551
77	0x3ce26347	0.02763523
78	0xbbd28f01	-0.006425739
79	0x3d403ee9	0.046934996
80	0x3ce2cb14	0.027684726
81	0x3d1cbbe3	0.03826512
82	0x3db00aba	0.08595796
83	0x3d4b4d29	0.049634133
84	0xbc1b73d2	-0.009488063
85	0xbd06d94e	-0.03292208
86	0x3d8b4040	0.06799364
87	0xbd2f196d	-0.042748857
88	0x3d94c0b4	0.07263318
89	0x3d65253e	0.05594372
90	0x3c292dc6	0.010325855
91	0x3c406536	0.011742881
92	0xbca51b7e	-0.02015471
93	0xbac94432	-0.0015355407
94	0x3b1ccd6e	0.0023926157
95	0x3d27edc9	0.040998254
96	0x3d27a199	0.040925596
97	0xbdac5629	-0.08414871
98	0xbdd32598	-0.10309905
99	0xbd3ce976	-0.046121083
100	0x3dab2eb1	0.08358515
101	0x3d1b1966	0.03786602
102	0xbcdba4fa	-0.026812065
103	0xbd01349c	-0.031544313
104	0x3bd8c233	0.006614947
105	0xbcfb2ae6	-0.030660104
106	0x3cd39bd0	0.025831133
107	0x3d3eed50	0.046613038
108	0x3d890325	0.06690053
109	0x3c4d05a5	0.012513553
110	0xbd0099f4	-0.03139682
111	0x3dcf9869	0.10136492
112	0x3cab528c	0.020913385
113	0xbdbdf6fd	-0.09275625
114	0x3c95436f	0.018220631
115	0xbd041a46	-0.03225162
116	0xbd760b58	-0.060069412
117	0xbc84c96d	-0.016209329
118	0x3d5c99d9	0.053857658
119	0x3d3b4615	0.045721132
120	0xbe35e733	-0.17763977
121	0x3cc7411b	0.024323037
122	0xbd7d29b3	-0.061807346
123	0xbcdd52a1	-0.02701694
124	0x3e032f10	0.12810922
125	0xbc87b26a	-0.016564567
126	0xbe004b6e	-0.12528774
127	0x3c87e5e3	0.01658911
128	0x3da2915d	0.07937882
129	0x3b5815db	0.0032972011
130	0x3d6b6510	0.057469428
131	0xbdab964f	-0.083782785
132	0x3d65ca85	0.05610134
133	0x3d28c5af	0.04120415
134	0x3d55334d	0.052050877
135	0xbcc4958a	-0.023997087
136	0x3ce3f309	0.02782585
137	0xbc6f632b	-0.014611046
138	0xbd760fd3	-0.060073685
139	0xbd1dee30	-0.03855723
140	0x3c8acd5e	0.01694363
141	0x3d4c1373	0.049823236
142	0xbe414e4b	-0.18877523
143	0x3c8a0e80	0.016852617
144	0xbd3aeea3	-0.045637738
145	0x3d4aae0c	0.04948239
146	0x3da96da9	0.08272869
147	0xbd71d9f9	-0.059045766
148	0xbda11299	-0.07864875
149	0x3c82e1ac	0.01597675
150	0xbd428187	-0.04748681
151	0xbdc00d63	-0.09377553
152	0x3c9f3109	0.019432561
153	0x3d14dcfd	0.036343563
154	0x3d44c1b3	0.04803629
155	0x3d176e40	0.036970377
156	0xbd38d494	-0.045124605
157	0xbded4b20	-0.115865946
158	0x3d4a5e23	0.049406182
159	0x3d191ec0	0.03738284
160	0xbd7a78bb	-0.061150294
161	0xbc87cd93	-0.016577518
162	0x3caa4b12	0.02078775
163	0xbccba6aa	-0.024859745
164	0x3d63af27	0.05558696
165	0x3cc98ccd	0.024603272
166	0xbcabd395	-0.020974914
167	0x3cd105f6	0.025515538
168	0x3d9521eb	0.0728186
169	0xbd016384	-0.031589046
170	0x3d79ac6d	0.060955454
171	0xbcd52485	-0.02601839
172	0x3d34c9fd	0.044137944
173	0xbd0b668c	-0.034033343
174	0xbe0223f0	-0.12709022
175	0xbdcbd36f	-0.09952437
176	0x3c22f802	0.009946825
177	0xbc6d73e0	-0.014492959
178	0x3cd63eab	0.02615293
179	0xbd7565e8	-0.05991164
180	0x3c89676c	0.016772948
181	0x3d1f7d11	0.038937632
182	0xbc74888d	-0.014925134
183	0xbc358ba0	-0.0110806525
184	0xbd442efe	-0.047896378
185	0xbc90d7d7	-0.017681045
186	0xbd79fcef	-0.061032232
187	0xbdff1a49	-0.12456185
188	0xbd96858e	-0.07349692
189	0x3c579aa3	0.013159427
190	0x3d3ca9fd	0.04606055
191	0xbdd5d354	-0.10440698
192	0xbcbcad98	-0.023031995
193	0x3d7b1e9b	0.061308485
194	0xbd1aacc3	-0.037762415
195	0xbb40fa1a	-0.0029445947
196	0xbc3ee3b8	-0.011650972
197	0xbd8570ca	-0.065156534
198	0x3c58f17c	0.013241168
199	0xbd85f1b6	-0.06540243
200	0xbd383025	-0.04496779
201	0x3dbd0671	0.09229744
202	0xbc517de3	-0.012786361
203	0x3a97e38c	0.00115882
204	0x3d532e36	0.051557742
205	0x3d8c6bea	0.068565205
206	0x3d88d8b5	0.066819586
207	0xbc53d520	-0.012929231
208	0x3df9de75	0.122006334
209	0x3e289730	0.16463923
210	0x3d86d430	0.0658344
211	0x3c4ffb4f	0.012694194
212	0x3e21bc4b	0.15794484
213	0x3d419e6f	0.047270235
214	0xbdd71487	-0.10501962
215	0x3c0e86d4	0.008699138
216	0x3d4ca7cd	0.049964715
217	0xbe083794	-0.13302451
218	0x3ab112f7	0.001350968
219	0xbcaa8b6a	-0.02081843
220	0x3d72edf5	0.059308965
221	0xbaa1cce3	-0.0012344386
222	0xbc4dec36	-0.012568524
223	0xbd83a0d7	-0.06427162
224	0x3daf15ca	0.08549078
225	0x3d2e9c4d	0.04262953
226	0x3c1c2c5b	0.00953206
227	0xbcf2f98c	-0.029660009
228	0xbdaf5e88	-0.08562952
229	0xbd83d0b9	-0.06436295
230	0xbd0d9c57	-0.034572925
231	0x3e004515	0.12526353
232	0x3cfb3b7f	0.030668018
233	0xbb9ab1c7	-0.0047208997
234	0x3bd4a83e	0.0064897826
235	0x3c361414	0.011113185
236	0x3b60ffe5	0.0034332213
237	0xbc7b4331	-0.015335844
238	0x3c20c21a	0.009811902
239	0xbdef7ebf	-0.11694097
240	0xbb8ec4d5	-0.0043569603
241	0xbd3e2df0	-0.04643053
242	0xbcaec842	-0.021335725
243	0x3c3ca43e	0.011513768
244	0x3cec9ce3	0.028883403
245	0xbc0ee257	-0.008720956
246	0xbb05b602	-0.0020402675
247	0x3bd8bb4d	0.006614125
248	0x3dd114fd	0.10209081
249	0x3c18699c	0.009302523
250	0x3dde4a61	0.108540304
251	0xbd77c23d	-0.060487974
252	0xbb41f24c	-0.0029593883
253	0xbc34b06f	-0.011028393
254	0x3be40b50	0.0069593564
255	0x3e09172d	0.13387747

bias f4 [23]
0	0xbe766fe8	-0.24066126
1	0x3e467f4b	0.19384496
2	0x3d5e57f1	0.054283086
3	0x3df44987	0.11928087
4	0xbda3e42e	-0.08002506
5	0x3dd4b9ff	0.103870384
6	0x3cd8054e	0.026369717
7	0x3bc1b5d9	0.0059115705
8	0xbe4e0d72	-0.20122316
9	0xbda36956	-0.079790756
10	0x3d4ba3b7	0.049716678
11	0x3d83eaae	0.06441246
12	0x3d71de3f	0.05904984
13	0x3d564d31	0.05231971
14	0xbdcbd16e	-0.09952055
15	0xbab50d5d	-0.0013813187
16	0xbd3f9c56	-0.046779953
17	0xbbeb4800	-0.007180214
18	0x3c765ec6	0.015037244
19	0x3ccba33c	0.02485811
20	0xbdef50ec	-0.116853565
21	0xbd1ac459	-0.037784908
22	0x3c468979	0.012117737
