deploy/models/booster_gym_exp_1/model_2000.pt (torch, 303934 bytes, 8 tensors)

weight f4 [256, 80]
0	0xbe54ec95	-0.20793374
1	0x3e26ab11	0.16276194
2	0xbd9adf80	-0.075621605
3	0x3d00c058	0.031433433
4	0x3c498e09	0.01230193
5	0xbad28747	-0.0016062044
6	0x3de0a8a2	0.10969664
7	0x3db0f171	0.08639801
8	0xbd85eb55	-0.06539027
9	0x3ddc125e	0.10745691
10	0x3ce1f7b1	0.027583929
11	0x3c0e8b6f	0.008700236
12	0xbccd81c1	-0.025086286
13	0x3afc41ad	0.0019245647
14	0x3c84a9c5	0.016194234
15	0x3b140228	0.0022584293
16	0xbd0efb52	-0.034907646
17	0x3c438de5	0.011935686
18	0x3d45ae67	0.048262026
19	0x3b0629db	0.0020471725
20	0x3cfb80b8	0.030701026
21	0xbe88584b	-0.26629862
22	0x3e6c0f96	0.2305282
23	0xbe5096df	-0.20370053
24	0xbe3e7b69	-0.18601765
25	0x3da025c6	0.07819705
26	0xbd21e0f5	-0.039521176
27	0xbd9a3c3a	-0.075310186
28	0xbe37f80d	-0.17965718
29	0xbe0b4a32	-0.13602522
30	0xbd81bf21	-0.06335283
31	0xbe7b48bf	-0.24539469
32	0xbd61f493	-0.055164885
33	0x3e377482	0.17915538
34	0x3dc6f534	0.097147375
35	0x3df17a61	0.1179092
36	0x3d2acead	0.041701008
37	0x3dfb3309	0.122655936
38	0x3cb3a5aa	0.02192958
39	0xbd01a13e	-0.031647913
40	0x3db0d75a	0.08634825
41	0x3e0114b6	0.12605557
42	0x3c7f3c5a	0.015578354
43	0xbd657ea7	-0.05602899
44	0xbde43ab3	-0.111440085
45	0xbdc7ede2	-0.097621694
46	0xbd843890	-0.06456101
47	0xbbfa5ce0	-0.007640466
48	0x3ca3d916	0.020000976
49	0xbc5af28e	-0.013363494
50	0xbd9422d8	-0.072332084
51	0x3dba380e	0.09092723
52	0x3e8b993a	0.2726534
53	0xbce8f34e	-0.02843633
54	0x3cd76d05	0.026297102
55	0xbd35536d	-0.044269014
56	0x3d3bc5d5	0.045842964
57	0xbd83126d	-0.06399999
58	0x3d172371	0.036899034
59	0xbcd13b32	-0.025540922
60	0x3cd89a0c	0.026440643
61	0xbdffa1b1	-0.12482012
62	0xbcbfc024	-0.02340705
63	0x39c05e59	0.00036691388
64	0x3cdefcc0	0.02722013
65	0xbc5fc911	-0.013658778
66	0x3d9d2bc4	0.07674363
67	0x3d1f225b	0.038851123
68	0xbe095417	-0.13410984
69	0xbd1359e9	-0.035974417
70	0x3e024939	0.12723245
71	0xbe0182c7	-0.12647544
72	0xbd5cc669	-0.053900156
73	0x3d5fe473	0.054661226
74	0x3c5e452f	0.013566299
75	0x3e72822e	0.23682472
76	0xbd919563	-0.071085714
77	0xbe34db5a	-0.17661801
78	0x3cea505f	0.028602777
79	0xbd32469f	-0.04352438
80	0x3c932d99	0.017966079
81	0xbf1c905d	-0.6115778
82	0xbde1cd80	-0.11025524
83	0x3da600de	0.08105634
84	0x3d4a1aff	0.04934215
85	0xbd5cea3b	-0.053934317
86	0xbd6b5d77	-0.057462182
87	0xbd9b6d32	-0.07589187
88	0x3d5626c8	0.05228308
89	0xbd2ae672	-0.041723676
90	0xbdc4dd61	-0.09612537
91	0xbdecf4da	-0.11570139
92	0x3e2bfc3d	0.1679544
93	0xbd45b5d1	-0.048269097
94	0xbddabe59	-0.10680837
95	0xbc0b68e1	-0.008508892
96	0xbd5a9802	-0.053367622
97	0x3d592b72	0.05301995
98	0xbc85c8ed	-0.01633116
99	0xbc5debd1	-0.013544993
100	0xbd7d2727	-0.061804917
101	0xbe0c32e4	-0.13691288
102	0xbd7397af	-0.05947083
103	0x3e9255c9	0.28581074
104	0xbe94fc34	-0.29098666
105	0x3e30387c	0.17209047
106	0x3d8d0ff4	0.068878084
107	0xbded65a6	-0.115916535
108	0x3ca1994f	0.019726424
109	0xbe7eef16	-0.24895892
110	0x3d92a20e	0.07159816
111	0xbe0b90fa	-0.13629523
112	0xbdec2ecf	-0.115323655
113	0x3c2ffcfe	0.01074147
114	0x3db60d69	0.088892765
115	0xbdb0864c	-0.08619365
116	0x3d99a4bc	0.07502124
117	0xbd8e003f	-0.06933641
118	0xbc6d4aac	-0.014483135
119	0xbc77e0b2	-0.015129255
120	0xbcfe751a	-0.031061698
121	0x3d958a8d	0.07301817
122	0xbc821649	-0.015879767
123	0x3d5bb2a2	0.053637154
124	0x3d59e34e	0.05319529
125	0x3e7b657d	0.24550433
126	0x3d629cf1	0.055325452
127	0xbd98d70f	-0.07462894
128	0x3e600ff1	0.21881081
129	0x3d710439	0.058841918
130	0x3cc857e9	0.024455981
131	0xbd73da72	-0.059534498
132	0x3e92ebce	0.2869553
133	0x3c9e1d9e	0.019301232
134	0x3cda8855	0.026676336
135	0xbc173b6e	-0.009230478
136	0xbcc796b3	-0.024363851
137	0x3e2a0af3	0.1660574
138	0x3da6cffc	0.081451386
139	0x3d80ff7f	0.06298732
140	0x3d111982	0.035424717
141	0xbd15f106	-0.03660681
142	0x3d0618c5	0.032738466
143	0xbd88f0a9	-0.06686527
144	0xbd7b1c20	-0.06130612
145	0xbcc5d5c6	-0.024149787
146	0x3d828254	0.06372514
147	0x3cb9571e	0.022624549
148	0x3c25d270	0.010120973
149	0xbe82fda4	-0.25584137
150	0x3e427b1d	0.18992276
151	0x3e097084	0.13421828
152	0x3d8fab67	0.07015114
153	0x3d436fd5	0.047714073
154	0xbcb17488	-0.021662012
155	0xbdf111fc	-0.11771008
156	0x3d2fd042	0.04292322
157	0x3d8cd913	0.06877341
158	0xbdd8ea0d	-0.10591517
159	0xbe1df248	-0.15424454
160	0x3e6feb9f	0.23429726
161	0xbf04ca22	-0.5187093
162	0x3d0a6d65	0.033795733
163	0xbd458af5	-0.048228223
164	0xbc8c378e	-0.017116334
165	0xbc3fe71c	-0.011712816
166	0xbd1d3f55	-0.038390476
167	0xbceb3659	-0.028712438
168	0x3ce5e4a3	0.028063124
169	0x3dd590e2	0.10428025
170	0xbc2ffaca	-0.010740945
171	0xbd937337	-0.0719971
172	0xba85362b	-0.0010163238
173	0x3d4fa261	0.050691966
174	0x3d753027	0.059860375
175	0xbd29e2e1	-0.041476134
176	0x3d2bb52c	0.041920826
177	0xbe02e764	-0.12783581
178	0x3d05d475	0.032673318
179	0x3d773968	0.06035748
180	0x3d191a52	0.037378617
181	0xbe0e7a11	-0.13913752
182	0x3d476178	0.048676938
183	0x3da75b05	0.081716575
184	0xbe6c18fa	-0.23056403
185	0x3df1a9ae	0.11799942
186	0x3dd21139	0.10257191
187	0xbd55eb22	-0.052226193
188	0x3e68b472	0.22725084
189	0xbd3c0674	-0.04590459
190	0x3e8d2cbc	0.27573192
191	0xbe83c864	-0.25738823
192	0x3e4b8f75	0.19878943
193	0x3e2784aa	0.16359201
194	0xbd51b2b3	-0.05119581
195	0x3c570e49	0.013125964
196	0x3d02ad44	0.03190352
197	0x3dabcf0e	0.08389102
198	0xbd0d7139	-0.034531806
199	0xbdda539f	-0.10660481
200	0xbd68bc18	-0.056820005
201	0xbd91e8b4	-0.07124463
202	0xbd1fabb2	-0.0389821
203	0x3d70db65	0.05880298
204	0xbd5f695e	-0.054543845
205	0x3e207ae9	0.15671887
206	0x39cc5158	0.00038970518
207	0xbd4cf7b8	-0.05004093
208	0x3def2665	0.11677245
209	0x3dcb2a28	0.0992015
210	0xbce0c20a	-0.027436275
211	0xbe1254c6	-0.14290151
212	0x3e914a45	0.28376976
213	0xbc751868	-0.014959432
214	0xbdabb8bb	-0.08384844
215	0xbd9056a0	-0.070477724
216	0xbc799581	-0.015233398
217	0xbd81c3da	-0.06336184
218	0xbcc35d6e	-0.023848262
219	0x3dd38cb4	0.10329571
220	0xbd13faf7	-0.03612801
221	0x3d63f507	0.0556536
222	0xbdb24d20	-0.08706117
223	0x3d5eba1d	0.05437671
224	0xbd33355b	-0.043752056
225	0x3dabc62d	0.083874084
226	0x3d3c7a96	0.046015345
227	0x3d285656	0.04109796
228	0x3d0df351	0.034655873
229	0x3d35a9bb	0.04435132
230	0x3dd769e3	0.10518243
231	0xbd7ed9a8	-0.062219292
232	0xbd2ace49	-0.041700635
233	0xbde3eeb2	-0.11129512
234	0x3c809eda	0.015700746
235	0x3d4b9c53	0.04970963
236	0x3d7194f3	0.05897994
237	0xbe3e049f	-0.1855645
238	0xbc933bf5	-0.017972926
239	0x3e54d8f6	0.20785889
240	0xbd75a096	-0.0599676
241	0x3e80c7f3	0.2515255
242	0x3d32559c	0.043538675
243	0xbd1a8036	-0.037719928
244	0xbb5ac620	-0.0033382252
245	0x3cd57e08	0.026061073
246	0xbd8bf06c	-0.06832966
247	0x3dddd173	0.10830965
248	0xbd928caf	-0.071557395
249	0x3d0c9a47	0.034326818
250	0x3dd64ce1	0.10463882
251	0x3e032c5b	0.12809889
252	0xbdb2bd3a	-0.08727498
253	0x3d309c13	0.043117594
254	0x3d82ed50	0.0639292
255	0xbcf83d77	-0.030302746

bias f4 [256]
0	0xbda2db91	-0.07952035
1	0x3c8a0b04	0.016850956
2	0x3d8b6d16	0.06807916
3	0x3db42fbe	0.087981686
4	0x3dba6a87	0.0910235
5	0x3c59331d	0.013256815
6	0x3bd305c5	0.0064398968
7	0xbd50ee1d	-0.051008333
8	0xbb97fcb6	-0.00463828
9	0x3cea85f6	0.02862833
10	0xbd43a040	-0.04776025
11	0xbde00ef2	-0.109403506
12	0x3de4861d	0.111583926
13	0xbd4d7f9c	-0.050170526
14	0xbdcc8063	-0.09985425
15	0x3b08c9f8	0.0020872336
16	0xbc584268	-0.013199426
17	0x3dc32a68	0.09529573
18	0x3dba5177	0.090975694
19	0xbd8fe87d	-0.070267655
20	0x3c99661b	0.018725445
21	0xbd4ef204	-0.050523773
22	0x3dd847de	0.105605826
23	0xbdd0698a	-0.1017638
24	0xbd0cef05	-0.034407634
25	0x3da6f1d2	0.08151592
26	0x3ddcc403	0.10779574
27	0x3d04b0a7	0.03239503
28	0x3ddccbe7	0.10781079
29	0xbd2b05b6	-0.041753493
30	0xbd6cbc43	-0.057796728
31	0xbde27ed8	-0.1105935
32	0x3d6250a4	0.055252686
33	0x3d78442c	0.06061189
34	0x3c048972	0.00808941
35	0xbdd6f0ed	-0.10495172
36	0xbd294bbb	-0.041331988
37	0xbd845e41	-0.0646329
38	0xbdca26eb	-0.09870704
39	0x3db5371f	0.08848404
40	0x3b926349	0.004467402
41	0xbdf41338	-0.11917728
42	0x3c085e24	0.008323226
43	0x3d47c9cf	0.048776444
44	0x3d3939cd	0.04522114
45	0xbd9136b7	-0.07090514
46	0x3ddedb73	0.108817
47	0x3dae6973	0.085162066
48	0x3b9dc126	0.004814285
49	0xbda02677	-0.078198366
50	0x3d971bd9	0.073783584
51	0xbd90c201	-0.07068253
52	0x3d1ac53c	0.037785754
53	0xbc8a3e2d	-0.01687535
54	0x3d717307	0.05894759
55	0x3beabd1b	0.0071636564
56	0xbcca0a77	-0.024663193
57	0x3d8ab7a0	0.06773305
58	0xbda7737e	-0.08176325
59	0xbcce2ca4	-0.02516777
60	0x3d97c973	0.0741147
61	0xba1da23b	-0.0006013249
62	0x3dc92d5a	0.09823103
63	0x3d80d1dd	0.06290028
64	0xbd88c17a	-0.06677528
65	0x3daf94de	0.08573316
66	0x3dd57a4f	0.10423719
67	0xbdde34b9	-0.108499
68	0x3d638610	0.055547774
69	0x3da65e8c	0.08123502
70	0xbd08282b	-0.033241432
71	0x3bc42487	0.0059857997
72	0xbc1a2ff9	-0.009410852
73	0x3d9a0fa2	0.07522513
74	0x3dd0814e	0.10180913
75	0xbd2db484	-0.04240848
76	0xbd1e7119	-0.038682077
77	0x3d0d4951	0.034493748
78	0xbd1f82ef	-0.038943227
79	0x3d1ed691	0.038778845
80	0xbda0a31c	-0.07843611
81	0x3dfb26a1	0.12263227
82	0xbda243bb	-0.07923075
83	0x3cee58f7	0.029095156
84	0x3d9f5f6b	0.077818714
85	0x3d11406e	0.035461836
86	0xbd668460	-0.056278586
87	0xbd910845	-0.070816554
88	0x3d0d4d8d	0.034497786
89	0xbd8c7f0a	-0.06860168
90	0x3ca00a15	0.019536057
91	0xbd8f62e9	-0.070012875
92	0xbcf6de55	-0.030135313
93	0x3d45bbe5	0.048274893
94	0xbdd4c6a9	-0.10389454
95	0xbc23b669	-0.00999222
96	0xbdb40492	-0.08789934
97	0xbd54d890	-0.051964343
98	0x3d94462c	0.07239947
99	0x3d6b5d36	0.05746194
100	0x3db29f77	0.08721822
101	0x3dd8a780	0.10578823
102	0xbdaf8960	-0.08571124
103	0xbdbaf64b	-0.09129008
104	0x3dd3ea72	0.10347451
105	0xbdbfc6ff	-0.09364127
106	0x3dac4ad3	0.08412709
107	0xbde0dba8	-0.10979396
108	0x3c84d3b0	0.016214222
109	0xbd2876b2	-0.04112882
110	0xbc41d15f	-0.011829703
111	0xbd719399	-0.05897865
112	0x3dd6f35a	0.104956344
113	0x3dba616a	0.091006115
114	0xbd35c744	-0.044379488
115	0x3d7d22ca	0.061800756
116	0xbce2e8ab	-0.027698835
117	0xbd52a6b1	-0.0514285
118	0xbb7fb426	-0.003901729
119	0xbda01d31	-0.07818068
120	0x3d93f8b0	0.07225168
121	0xbb9e102b	-0.0048237047
122	0x39c66fa1	0.00037848673
123	0x3d7e32ca	0.062060155
124	0xbbb89550	-0.005633034
125	0xbc9a47a4	-0.018832989
126	0xbddab10e	-0.10678302
127	0x3d575fc8	0.05258158
128	0x3ca77418	0.0204411
129	0xbd4ff428	-0.050769955
130	0x3ba7c6ef	0.0051201503
131	0x3d28b595	0.041188795
132	0xbd355fe9	-0.04428092
133	0xbda4f245	-0.08054022
134	0xbd37c2ad	-0.04486339
135	0x3db6463c	0.08900115
136	0x3d98488f	0.074357145
137	0x3d9c79ba	0.07640405
138	0xbb03870d	-0.002006951
139	0xbcd83438	-0.026392087
140	0x3c161f8b	0.009162794
141	0x3d0a570b	0.033774417
142	0x3cdc0dfc	0.026862137
143	0xbc9d1e5f	-0.019179521
144	0xbd48432f	-0.048892196
145	0xbd807309	-0.06271941
146	0xbda0738a	-0.07834537
147	0xbc7be92a	-0.015375415
148	0x3d97ba61	0.07408596
149	0xbb9440e7	-0.0045243385
150	0x3d8286ec	0.063733906
151	0x3de87ec0	0.11352301
152	0x3d164c3c	0.036693797
153	0xbdc456e1	-0.09586883
154	0x3c18203d	0.00928503
155	0x3d4183f5	0.047244985
156	0x3d84ad5c	0.06478378
157	0x3cc35cb7	0.02384792
158	0xbe00d31b	-0.1258053
159	0x3ddc905b	0.10769721
160	0xbda1c15c	-0.078982085
161	0x39e53be8	0.00043722917
162	0x3dab64de	0.08368848
163	0x3deb1006	0.114776656
164	0x3dc40ad7	0.0957238
165	0x3c604c0f	0.013690009
166	0xbd74a8a5	-0.059731144
167	0xbda50a72	-0.08058633
168	0x3db40cd7	0.087915115
169	0xbc9b9a26	-0.018994402
170	0x3d79c226	0.06097617
171	0x3d0fed35	0.035138328
172	0xbc11ee87	-0.008906967
173	0x3da8e3cf	0.08246576
174	0x3d92fb4c	0.07176837
175	0x3dc7e354	0.09760156
176	0xbdc7c6ad	-0.09754691
177	0xbcf16998	-0.029469296
178	0x3d3862bf	0.045016047
179	0xbd24da87	-0.040247466
180	0xbd1343d8	-0.035953373
181	0xbd88dca8	-0.06682712
182	0xbda1280e	-0.07868968
183	0x3cfc169b	0.030772498
184	0xbb97c721	-0.0046318923
185	0xbc8d9e9b	-0.017287543
186	0xbdd158b3	-0.10221996
187	0xbb89a8d3	-0.0042010336
188	0x3ceb598b	0.02872922
189	0x3c8bfc4c	0.017088078
190	0xbde06910	-0.10957539
191	0xbd2a7a95	-0.04162081
192	0x3dd17bde	0.10228704
193	0xbc9c4fbb	-0.019080987
194	0xbd93f3f8	-0.07224268
195	0xbd89a2fa	-0.067205384
196	0xbd0a975c	-0.033835754
197	0x3c8b03f5	0.01696966
198	0x3d8c4900	0.06849861
199	0xbdc7c267	-0.09753876
200	0xbdc62f2f	-0.09676968
201	0x3d766284	0.060152546
202	0xbd4582af	-0.048220333
203	0xbc6a8fa4	-0.014316473
204	0x3d908a4e	0.070576295
205	0xbc476b95	-0.012171646
206	0x3cca24aa	0.024675686
207	0xbbc1460d	-0.0058982433
208	0x3cc9665c	0.024584942
209	0x3c796a9a	0.01522317
210	0xbc9d07f1	-0.019168826
211	0xbdaa3601	-0.08311082
212	0x3cefa8a6	0.029255223
213	0xbd9b063e	-0.0756955
214	0xbcc04d11	-0.023474248
215	0x3c67c600	0.014146328
216	0x3d5d5643	0.054037344
217	0xbcb41102	-0.021980766
218	0x3ce574cf	0.0280098
219	0x3de1dbbe	0.110282406
220	0x3c21aff0	0.009868607
221	0xbd9ad1f6	-0.07559578
222	0x3d2f59d1	0.042810265
223	0x3d27f0b5	0.04100104
224	0xbaa2d75e	-0.0012423804
225	0xbd973069	-0.073822804
226	0x3d32ff63	0.043700587
227	0xbdada113	-0.08477988
228	0xbd0925e6	-0.03348341
229	0x3dcee0f5	0.10101501
230	0x3c5cfb08	0.013487585
231	0x3d70f1ee	0.058824472
232	0xbc97982a	-0.018505175
233	0xbc3504b0	-0.011048481
234	0xbd86b11e	-0.06576751
235	0xbcda0315	-0.026612798
236	0x3d2405ec	0.04004471
237	0xbd943d50	-0.07238257
238	0x3d3da16c	0.046296522
239	0x3da484b8	0.080331266
240	0xbd4f0d5e	-0.050549857
241	0xbd0d1760	-0.03444612
242	0x3b433661	0.002978705
243	0x3d23fbbf	0.040035006
244	0x3d3d3267	0.046190646
245	0xbd674147	-0.056458738
246	0xbd7b41ce	-0.061342053
247	0x3c979001	0.018501284
248	0xbdcb8225	-0.099369325
249	0xbdd8a8ae	-0.10579048
250	0x3d91f4f7	0.071268015
251	0xbc3783aa	-0.011200825
252	0xbd43a6c8	-0.047766477
253	0xbb351a42	-0.002763406
254	0xbd8c4eec	-0.06850991
255	0x3d5f569e	0.054525964

weight f4 [128, 256]
0	0x3d46ae34	0.048505977
1	0x3dca32ae	0.09872948
2	0x3d87b4f3	0.0662631
3	0x3d0a2bc8	0.03373316
4	0x3c51d55b	0.012807216
5	0x3da6ace4	0.08138445
6	0x3ba6071b	0.005066765
7	0xbc8009ab	-0.01562961
8	0xbda2aa52	-0.07942642
9	0x3ce51313	0.027963197
10	0xbd632a72	-0.0554604
11	0xbb972170	-0.0046121404
12	0x3d693105	0.056931514
13	0xbdcb7907	-0.099351935
14	0x3c3c7112	0.011501567
15	0xbd08b94a	-0.03337983
16	0xbd11a6f3	-0.035559606
17	0x3cd0ec8e	0.025503423
18	0x3d710df4	0.058851197
19	0x3d299e9b	0.041411024
20	0x3d985efc	0.07439992
21	0x3cf1ec4c	0.02953162
22	0xbb6559bb	-0.003499611
23	0xbb336da8	-0.0027378593
24	0x3d674bcc	0.05646877
25	0x3c7986af	0.015229865
26	0xbd7ab34a	-0.06120614
27	0x3ddeb7e1	0.10874916
28	0x3da7231d	0.08160994
29	0xbd5a26b4	-0.053259566
30	0x3b86dc0a	0.004115586
31	0x3bd5c9e8	0.0065243132
32	0x3db4769f	0.08811688
33	0x3ccd61f8	0.02507113
34	0xbcc1f45e	-0.023676094
35	0x3d77a26f	0.060457643
36	0x3c4f9081	0.01266873
37	0xbd2c5ad3	-0.042078804
38	0x3d00e78c	0.03147082
39	0x3d3e54ba	0.04646752
40	0xbd4b03d0	-0.049564183
41	0x3d67202a	0.05642716
42	0xbccc96cf	-0.024974255
43	0xbd2ac9e0	-0.04169643
44	0xbe0d4564	-0.13796002
45	0x3d5eb3a1	0.054370526
46	0xbbb82dd6	-0.0056206984
47	0x3d8085c3	0.06275513
48	0x3d536467	0.051609423
49	0x3d9a5ef3	0.075376414
50	0xbd198647	-0.037481572
51	0xbcd454bb	-0.025919309
52	0xbdb5d666	-0.08878784
53	0xbdd2f41d	-0.10300467
54	0x3d451b2c	0.048121616
55	0xbdae3075	-0.08505336
56	0xbcb16569	-0.021654801
57	0x3d7f11a6	0.06227269
58	0x3d9f98af	0.07792794
59	0xbd023db7	-0.031797137
60	0x3a3d106e	0.0007212226
61	0x3da8bf9a	0.0823967
62	0xbd6ab6c4	-0.057303205
63	0xbce668f3	-0.028126216
64	0xbc8fb98f	-0.017544536
65	0x3b966945	0.004590186
66	0xbc5d8c9a	-0.013522292
67	0x3dba5bd9	0.0909955
68	0x3d20b82b	0.039238136
69	0x3d247d52	0.040158577
70	0x3cd6c380	0.026216269
71	0xbc516ad6	-0.012781819
72	0xbc00740d	-0.007840169
73	0xbd43d240	-0.047807932
74	0x3e08511d	0.13312192
75	0xbce01f60	-0.02735871
76	0x3d280d56	0.041028343
77	0xbcb1f53f	-0.021723388
78	0xbb6c6a41	-0.0036074074
79	0x3cc843fa	0.024446476
80	0xbb09b4b7	-0.0021012255
81	0x3b61a250	0.0034429021
82	0x3d80a6a3	0.062817834
83	0xbc815632	-0.015788171
84	0xbda6c50d	-0.08143053
85	0x3d725dbe	0.05917143
86	0x3cc01834	0.023449041
87	0x3d76c73e	0.060248606
88	0xbd3d669e	-0.04624044
89	0x3d5a204b	0.053253453
90	0x3d68d1a3	0.05684055
91	0xbcef268b	-0.029193183
92	0xbd4b0273	-0.049562883
93	0x3c657727	0.014005459
94	0x3bd36892	0.0064516747
95	0x3cad1846	0.021129739
96	0x3acd4890	0.0015661884
97	0x3d098d28	0.033581883
98	0x3dbcaffc	0.09213254
99	0xbd100652	-0.035162278
100	0xbd8a6daa	-0.06759198
101	0x3d9653ad	0.07340179
102	0x3ce37259	0.027764486
103	0xbbf39b5c	-0.0074342918
104	0xbade42d8	-0.0016957177
105	0xbcd1915a	-0.025582004
106	0x3d9066c6	0.070508525
107	0x3c80a746	0.015704762
108	0x3d4f8dc0	0.050672293
109	0xbb16a17c	-0.0022984436
110	0x3cfa09fc	0.030522339
111	0x3cf36410	0.0297108
112	0x3e09a001	0.13439943
113	0xbddc95ca	-0.107707575
114	0xbbc095f8	-0.0058772527
115	0x3c8093e1	0.015695514
116	0x3df4875d	0.11939881
117	0x3d899f5c	0.067198485
118	0xbc098eb3	-0.008395839
119	0xbdd41b49	-0.10356767
120	0xbc63f9c8	-0.013914533
121	0x3ca23d77	0.0198047
122	0xbbb57268	-0.00553732
123	0xbd16f933	-0.03685875
124	0x3d04e57e	0.032445423
125	0xbbb557f3	-0.005534166
126	0x3cbab800	0.022792816
127	0xbd9511ac	-0.07278761
128	0xbbfd879f	-0.0077371146
129	0xbd97451e	-0.0738623
130	0xbcb620fb	-0.022232523
131	0xbd34b4f5	-0.044117887
132	0xbb2162de	-0.002462558
133	0xbc7c3474	-0.015393365
134	0x3dc33308	0.09531218
135	0xba5d2926	-0.00084366126
136	0x3ca93173	0.020653462
137	0xbd5e1066	-0.054214858
138	0x3b9ed272	0.0048468644
139	0xbd01418b	-0.031556647
140	0xbce285e7	-0.02765174
141	0xbd0b36c3	-0.03398777
142	0xbd1575e4	-0.036489382
143	0x3b89c0a1	0.0042038714
144	0xbd566127	-0.052338745
145	0xbc392c7f	-0.011302113
146	0x3d20ceb8	0.039259642
147	0x3d350ab8	0.044199675
148	0x3d90a9b1	0.07063616
149	0xbc310b58	-0.010805927
150	0x3d1880d7	0.037232246
151	0x3d2540a6	0.040344857
152	0xbd0153ef	-0.031574186
153	0xbcabf893	-0.020992553
154	0x3cf63f0f	0.030059366
155	0xbdbace40	-0.0912137
156	0x3ada2bf5	0.001664518
157	0x3d8f78c2	0.070054546
158	0x3be0c11d	0.0068589584
159	0x3c0b3f2f	0.008498951
160	0xbdc309e6	-0.09523372
161	0x3c9b80bc	0.018982284
162	0xbd1386d0	-0.03601724
163	0x3d13df54	0.036101654
164	0x3daee89c	0.085404605
165	0x3c44838b	0.011994253
166	0xbd033ca8	-0.03204027
167	0x3d897262	0.0671127
168	0x3c2277e2	0.009916278
169	0xbc2529b7	-0.010080746
170	0xbe665e0e	-0.22496817
171	0xbd85265f	-0.06501459
172	0x3d3b62cb	0.045748513
173	0xbd44a325	-0.04800715
174	0xbc6e3ff7	-0.014541618
175	0x3c811f51	0.015762003
176	0xbab518b7	-0.001381657
177	0x3c8cfbcc	0.01720991
178	0xbcfd7c02	-0.03094292
179	0xbd295e07	-0.041349437
180	0xbd4717ac	-0.04860656
181	0xbd3e54d3	-0.046467613
182	0xbd609531	-0.05482978
183	0x3da1f2d1	0.07907642
184	0x3da7e323	0.0819762
185	0x39458c13	0.00018839566
186	0xba2417df	-0.00062596606
187	0x3dc48385	0.09595398
188	0xbd3a1f16	-0.045439802
189	0xbd513cff	-0.05108356
190	0xbbad8f15	-0.0052965977
191	0x3ce7e0de	0.028305467
192	0x3c1ee773	0.0096987365
193	0x3d485ea7	0.048918393
194	0x3d095a01	0.0335331
195	0x3d177949	0.0369809
196	0xbc23f8a1	-0.010008008
197	0x3ca2c3db	0.019868782
198	0x3d2ae85f	0.041725513
199	0xbcee9e33	-0.02912817
200	0xbd084ede	-0.03327834
201	0xbcf83486	-0.030298483
202	0x3d1040f7	0.035218205
203	0x3b9966bb	0.004681436
204	0x3cd91bb5	0.02650247
205	0x3d228c7f	0.03968477
206	0xbd969d1f	-0.07354187
207	0x3cf1df8c	0.02952554
208	0x3d613c59	0.054989193
209	0x3d33dfcf	0.043914612
210	0xbc838b04	-0.016057499
211	0xbb6672b2	-0.0035163579
212	0xb94cc2b3	-0.00019527487
213	0x3d8f4ab1	0.06996668
214	0x3dd91ea1	0.10601545
215	0x3d923e2c	0.071407646
216	0x3c998803	0.018741613
217	0xbd059749	-0.03261498
218	0xbd884012	-0.066528454
219	0xbd429cb8	-0.04751274
220	0x3cd227ad	0.025653685
221	0xbc9d7829	-0.019222336
222	0xbe03d7ec	-0.12875336
223	0xbc693797	-0.014234445
224	0x3d439d5b	0.047757488
225	0x3cfc548d	0.030802036
226	0x3d1e54c4	0.038655058
227	0x3afd65b6	0.001933268
228	0xbd8b4bc1	-0.06801558
229	0xbd002b6f	-0.03129142
230	0xbcfc1307	-0.030770792
231	0xbb890143	-0.0041810586
232	0xbcc59341	-0.024118068
233	0x3c9db09a	0.01924925
234	0x3c45a8fe	0.012064217
235	0x3d0b0a7e	0.033945553
236	0xbd88cc17	-0.06679552
237	0x3d35e063	0.044403445
238	0x3de000a2	0.10937621
239	0xbe11f43d	-0.14253326
240	0x3d07fa69	0.033197794
241	0x3b8e3e95	0.0043409565
242	0xba9377b6	-0.0011250887
243	0x3d104be7	0.035228636
244	0x3cc49b6f	0.023999898
245	0x3d1fb7ad	0.038993526
246	0xbd9760b0	-0.073914886
247	0x3db1a863	0.08674695
248	0x3c656ffa	0.014003748
249	0x3db593d7	0.08866089
250	0x3c92dc4e	0.017927315
251	0x3c327f3d	0.010894594
252	0x3d8f4ffd	0.069976784
253	0xbc986dfe	-0.018607136
254	0x3cc1b7ae	0.023647156
255	0xbdd66b82	-0.10469724

bias f4 [128]
0	0xbc9022d2	-0.017594729
1	0x3d842b67	0.06453591
2	0xbd602cb3	-0.05473013
3	0xbceddb2d	-0.029035175
4	0x3c98c72f	0.018649666
5	0xbd25139c	-0.040301904
6	0x3c883dfe	0.016631123
7	0x3d486e8d	0.048933554
8	0x3d29341d	0.041309465
9	0x3b73146b	0.0037091027
10	0x3d5bc084	0.053650394
11	0xbd9c4ad3	-0.07631459
12	0xbd37a2b5	-0.044832904
13	0xbc17affb	-0.009258266
14	0x3ccfacdc	0.02535098
15	0xbd32b6b2	-0.043631263
16	0xbc0579e6	-0.008146739
17	0x3ccdad82	0.025107149
18	0x3d013ccd	0.031552125
19	0xbd6fbe85	-0.058531303
20	0x3cb99f1c	0.022658877
21	0xbccbdd05	-0.024885664
22	0x3b9c8e46	0.0047777025
23	0xbd13ef8c	-0.03611712
24	0xbd82561a	-0.06364079
25	0x3d4b7524	0.04967226
26	0x3caeec2b	0.021352848
27	0xbccd1cdd	-0.025038177
28	0xba7b59f2	-0.0009588293
29	0x3bf8d71c	0.0075940024
30	0xbd13dce1	-0.03609932
31	0xbd6bef88	-0.05760148
32	0x3c9f48f9	0.019443976
33	0xbd6fc7cf	-0.05854016
34	0xbca85f20	-0.020553172
35	0xbd70068b	-0.05859999
36	0xbccdf539	-0.025141345
37	0x3d547e14	0.05187805
38	0x3d515b10	0.051112235
39	0xbba22573	-0.004948312
40	0x3c4e10e2	0.012577267
41	0x3bfd96e3	0.0077389344
42	0xb62e9a3c	-2.6017797e-06
43	0xbd39e195	-0.045381147
44	0xbd39982f	-0.04531115
45	0xbca40fc7	-0.020027054
46	0x3d335677	0.04378363
47	0x3ce10fec	0.027473412
48	0xbd2c700b	-0.04209904
49	0xbcd164d3	-0.025560772
50	0xbcd5a5de	-0.026080068
51	0xbd8fbb27	-0.07018118
52	0xbd785648	-0.06062916
53	0x3c712507	0.014718301
54	0x3b4c1234	0.003113878
55	0xbd1f8502	-0.038945206
56	0x3b455cb1	0.0030115063
57	0xbd3367e2	-0.043800242
58	0x3d2f0d8d	0.042737532
59	0xbd1a2bac	-0.037639305
60	0xbd2f7922	-0.04284013
61	0xbd69a46a	-0.057041563
62	0xbcd716e5	-0.026256034
63	0x3bc86cf1	0.0061165025
64	0x3c687a2d	0.014189285
65	0xbc93042a	-0.017946322
66	0xbc5b5eda	-0.013389314
67	0x3c58a048	0.013221808
68	0x3c52439d	0.012833503
69	0x3c3bdd75	0.011466374
70	0x3cb1f784	0.02172447
71	0x3d45675b	0.04819427
72	0xbd3b1c26	-0.04568114
73	0x3c028d19	0.007968211
74	0xbd449a71	-0.04799885
75	0xbd8473f2	-0.06467427
76	0xbd48fb77	-0.04906794
77	0xbd0b0e16	-0.03394898
78	0x3c5f932c	0.013645928
79	0xbd17985c	-0.037010536
80	0x3c362bc5	0.011118834
81	0xbc4e6464	-0.012597177
82	0xbd506e97	-0.050886717
83	0xbd876075	-0.066101946
84	0xbcf11f84	-0.029433973
85	0xbd172df3	-0.036909055
86	0xbd1e0f29	-0.038588677
87	0x3d23cee2	0.03999222
88	0x3c623ff2	0.013809191
89	0x3d86d783	0.06584074
90	0x3cd398d3	0.025829708
91	0xbcb6ee82	-0.022330526
92	0xbd22073f	-0.03955769
93	0x3bb173a7	0.005415398
94	0xbdc64c19	-0.09682483
95	0x3b997abc	0.0046838205
96	0x3cad2e2b	0.021140179
97	0xbc7060af	-0.014671489
98	0x3cf9bc3b	0.030485263
99	0xbd824601	-0.063610084
100	0x3c54a759	0.012979352
101	0xbd080bdd	-0.03321444
102	0xbca954b8	-0.02067028
103	0x3d1f18c8	0.038841993
104	0xbd56e6ee	-0.052466325
105	0xbd0f9ea0	-0.035063386
106	0x3d13745f	0.035999652
107	0x3c3d72a1	0.011562974
108	0xbd414fa5	-0.047195096
109	0x3c41059d	0.0117811235
110	0x3c6541ae	0.01399271
111	0xbd218d84	-0.0394416
112	0xb8885c5f	-6.502191e-05
113	0x3af9a679	0.0019046805
114	0xbd096f6a	-0.03355352
115	0x3d04b980	0.03240347
116	0x3c8124e7	0.015764667
117	0xbccf5865	-0.025310704
118	0xbd13126f	-0.03590625
119	0x3c852020	0.01625067
120	0xbbdb9aa2	-0.0067017833
121	0xbccb8903	-0.024845606
122	0xbd02b5c2	-0.03191162
123	0x3cc91c6e	0.02454969
124	0x3c7635d4	0.015027482
125	0xbc5a4f94	-0.013324637
126	0xbd8f6fd0	-0.070037484
127	0x3bce103d	0.006288557

weight f4 [128, 128]
0	0xbca10382	-0.019654993
1	0x3c102845	0.0087986635
2	0x3db5ef18	0.08883494
3	0xbcc32bb8	-0.023824558
4	0xbc9f6555	-0.019457499
5	0x3d867712	0.065656796
6	0xbd398a7d	-0.04529809
7	0x3cc0b389	0.023523109
8	0x3c5ffbb4	0.013670851
9	0x3ce88ebf	0.02838838
10	0xbc9d94db	-0.019236019
11	0x3de7b528	0.1131385
12	0x3cc92351	0.024552973
13	0x3ab90720	0.0014116503
14	0x39b64c89	0.00034770768
15	0x3c5f8cd4	0.013644416
16	0xbd38f60c	-0.045156524
17	0x3cbef4d4	0.023310103
18	0xbc8fb879	-0.017544018
19	0xbdcdc371	-0.10047043
20	0x3ba8182b	0.005129834
21	0x3c04ffcf	0.00811763
22	0x3dd79c8c	0.10527906
23	0x3ac841b4	0.001527837
24	0x3c69a44e	0.014260365
25	0x3deb0a57	0.114765815
26	0x3d79646a	0.060886778
27	0xbce4fcee	-0.027952638
28	0xbdb1e753	-0.086867
29	0x3da53925	0.0806754
30	0x3c000871	0.007814513
31	0x3d659666	0.056051634
32	0xbdcaf66f	-0.09910285
33	0x3b8efbad	0.004363498
34	0xbcc39500	-0.02387476
35	0xbbd981b2	-0.0066377753
36	0x3da35e15	0.07976929
37	0xbda0e847	-0.078568034
38	0xbd79c10d	-0.060975123
39	0x3dc00c95	0.093774
40	0x3d409e60	0.04702604
41	0xbc8d6608	-0.017260566
42	0xbc2e83c0	-0.010651529
43	0xbd3cd8ed	-0.046105314
44	0xbc65a646	-0.014016693
45	0xbbd07e2e	-0.006362698
46	0xbd7dc39d	-0.06195413
47	0xbd983d13	-0.07433524
48	0x3cb2f7a1	0.021846594
49	0xbd829686	-0.06376366
50	0xbbba0ee0	-0.005678043
51	0x3de6cba5	0.11269311
52	0x3c4c2512	0.01246001
53	0x3d2504ff	0.040287968
54	0x3e061100	0.13092422
55	0x3bece242	0.0072291205
56	0xbd73814a	-0.05944947
57	0x3d25bd98	0.040464014
58	0xbca5fa20	-0.02026087
59	0x3de985c3	0.11402466
60	0xbc3db78d	-0.011579406
61	0x3d3b77a2	0.045768388
62	0x3d2335d0	0.03984624
63	0x3deeb0e7	0.11654835
64	0x3d40cb38	0.047068805
65	0x3d4c356f	0.049855646
66	0x3dccc8a0	0.09999204
67	0x3d59dae4	0.053187266
68	0xbd0dae5e	-0.034590118
69	0x3dccf5f4	0.10007849
70	0xbcbc48c6	-0.02298392
71	0xbd84f6ba	-0.06492372
72	0x3d4f1f59	0.050567005
73	0xbccf7885	-0.025326023
74	0x3b08e385	0.0020887565
75	0x3e0e58c1	0.13901044
76	0x3ddbe03b	0.10736128
77	0xbd726dbc	-0.059186682
78	0x3ca7bcd3	0.02047578
79	0x3c052407	0.008126265
80	0xbd64e796	-0.05588492
81	0xbd6b62a2	-0.05746711
82	0xbd69365e	-0.056936614
83	0x3dbc90e3	0.092073224
84	0x3d3b78a4	0.04576935
85	0xbd2a6389	-0.04159883
86	0xbd935e00	-0.071956635
87	0xbd3e30d4	-0.046433285
88	0x3d6d1296	0.057879053
89	0xbde4d1e3	-0.11172845
90	0x3c89ab80	0.01680541
91	0x3c1f7998	0.00973358
92	0x3c378930	0.011202142
93	0x3c8e91f5	0.017403582
94	0x3d9d1d95	0.07671658
95	0xbd30eede	-0.04319655
96	0xbb8608a9	-0.004090388
97	0x3c0933ea	0.008374194
98	0xbc143e52	-0.009048061
99	0xbcd284db	-0.025698116
100	0xbc36c57b	-0.011155481
101	0xbda02ddc	-0.07821247
102	0x3cd3160c	0.025767349
103	0x3c16a16e	0.009193761
104	0x3cdcb55f	0.026941953
105	0x3d401f60	0.04690492
106	0x3d9db0bf	0.07699727
107	0x3c8338f8	0.016018376
108	0x3da7042f	0.08155095
109	0xbd8fc5fe	-0.07020186
110	0xbd3fba55	-0.04680856
111	0x3c4080e3	0.011749479
112	0xbc385841	-0.01125151
113	0x3dbdb800	0.09263611
114	0x3bbe21db	0.0058023757
115	0xbd137e06	-0.036008857
116	0x3d034de6	0.03205671
117	0xbd73202d	-0.059356857
118	0xbd8f0bfe	-0.06984709
119	0x3ca83208	0.02053167
120	0xbcdb3c48	-0.026762143
121	0x3cad0c66	0.021124076
122	0x3d8c6f63	0.06857183
123	0xbc9cf3e5	-0.019159267
124	0xbd83323f	-0.06406068
125	0x3c4f5453	0.012654382
126	0xbd889912	-0.06669821
127	0x3dadee7c	0.08492753
128	0x3dc7abbb	0.09749552
129	0xbd9ce224	-0.076603204
130	0x3d5a3e7d	0.05328225
131	0x3cd5e10d	0.02610829
132	0x3ce626af	0.028094618
133	0xbd053cbf	-0.032528635
134	0x3c018afb	0.007906671
135	0x3d83a35f	0.06427645
136	0x3d72d9b6	0.059289657
137	0xbd3ea581	-0.046544556
138	0xbb968eae	-0.0045946455
139	0x3deaf304	0.11472133
140	0x3d58d874	0.0529408
141	0x3da3aec9	0.07992322
142	0x3e02b369	0.12763752
143	0xbd32e20d	-0.04367261
144	0xbdcf5a6e	-0.1012467
145	0x3de87e26	0.11352186
146	0xbd0a46c3	-0.03375889
147	0xbd61901a	-0.055069067
148	0x3d2dfab5	0.04247542
149	0x3d8439b5	0.06456319
150	0xbc154a77	-0.009111992
151	0x3dfb0437	0.12256663
152	0x3ce3fe19	0.027831124
153	0xbba3fcfc	-0.0050045233
154	0x3d28067a	0.0410218
155	0x3c90eb8e	0.017690446
156	0xbc63af0d	-0.013896716
157	0xbd427024	-0.047470227
158	0x3db88e18	0.09011477
159	0xbb614606	-0.0034374013
160	0xbdb935af	-0.090434425
161	0xbbb5ce7e	-0.0055482974
162	0x3cd5a472	0.02607939
163	0x3dfcfe3b	0.12353178
164	0xbd481958	-0.048852295
165	0xb9a96280	-0.0003230758
166	0xbcff3801	-0.031154634
167	0xbc4f55e5	-0.012654756
168	0xbcefbf84	-0.029266126
169	0x3b143be7	0.0022618712
170	0x3ccae9e6	0.024769735
171	0x3d39cd9d	0.045362104
172	0x3c8bc833	0.017063236
173	0x3d046c35	0.032329757
174	0xbc61b85e	-0.013776867
175	0xbd03649e	-0.032078378
176	0x3e018bbc	0.1265096
177	0x39e955a5	0.00044505033
178	0x3cfcb7ca	0.030849356
179	0xbe09f41d	-0.13472028
180	0x3d716456	0.05893358
181	0x3c1e657e	0.009667752
182	0xbd9229e0	-0.07136893
183	0xbdb9c533	-0.09070816
184	0xba9325c5	-0.0011226466
185	0xbd0007b8	-0.03125736
186	0x3d45ed8f	0.048322257
187	0x3d156cb9	0.03648064
188	0x3d9ef81b	0.07762166
189	0x3daf7810	0.08567822
190	0x3da56476	0.08075802
191	0x3d202a66	0.039102934
192	0xbca94992	-0.020664964
193	0x3d25ed33	0.040509414
194	0x3d9c10cd	0.07620392
195	0x3c445df2	0.011985289
196	0xbd426d0c	-0.047467276
197	0x3d84f749	0.064924784
198	0xbc1573b0	-0.00912182
199	0xbd2812c3	-0.041033518
200	0xbd9214fc	-0.07132909
201	0x3db609c7	0.08888584
202	0x3dbcc3fc	0.092170686
203	0xbd3a65a8	-0.045507103
204	0x3cd81958	0.026379272
205	0x3c8b2467	0.016985131
206	0xbd1f03ef	-0.03882211
207	0x3d525bb9	0.051357005
208	0x3d4d7b90	0.050166667
209	0xbdea108f	-0.114289396
210	0x3e1aa68b	0.15102594
211	0x3bc6bc53	0.0060649305
212	0xbcb33748	-0.021876946
213	0xbd7fa1c0	-0.062410116
214	0xbd1f4801	-0.038887028
215	0x3d357b9d	0.04430734
216	0xbd99fb8c	-0.07518682
217	0x3c406dbc	0.011744913
218	0x3cf2060e	0.029543903
219	0x3da235b2	0.07920398
220	0x3d6e5d5d	0.058194507
221	0x3b79ca29	0.0038114882
222	0x3dce74e3	0.10080888
223	0x3d3d648a	0.04623846
224	0xbd21cbf0	-0.03950113
225	0xbb15c7aa	-0.0022854605
226	0x3d81b78a	0.063338354
227	0x3a885f5d	0.0010404397
228	0xbd26657e	-0.040624134
229	0xbd9fe97b	-0.07808205
230	0x3cf73890	0.030178338
231	0xbd04a8dd	-0.032387603
232	0xbd5282ce	-0.051394276
233	0xbc5dc060	-0.013534635
234	0x3cff35e4	0.031153627
235	0x3dc09c4c	0.09404811
236	0x3daa8f80	0.08328152
237	0xbd435964	-0.04769267
238	0xbc489e28	-0.012244739
239	0x3be4f5a5	0.006987291
240	0xbc333504	-0.010937933
241	0xbd235a43	-0.039881002
242	0x3e01960a	0.12654892
243	0x3d223449	0.039600644
244	0xbd538805	-0.05164339
245	0xbda742ab	-0.08167013
246	0x3deb4866	0.11488418
247	0xbb0d6e35	-0.002158058
248	0xbdb83d50	-0.089960694
249	0x3c9fef37	0.019523246
250	0xba97ded5	-0.0011586795
251	0xbda2978c	-0.079390615
252	0xbd70497c	-0.05866383
253	0xbdc52a59	-0.09627218
254	0x3d93eedd	0.07223294
255	0xbd37265f	-0.044714328

bias f4 [128]
0	0x3d7898b7	0.060692515
1	0xbcdaa63a	-0.026690591
2	0x3d661c70	0.056179464
3	0xbda59762	-0.080855146
4	0x3d7c3c59	0.06158099
5	0x3d37e2d4	0.044894055
6	0xbdac5e88	-0.08416468
7	0xbdbe0ada	-0.092794135
8	0x3cfee0a9	0.031112986
9	0xbc2a5c33	-0.010397959
10	0xbc918518	-0.01776366
11	0xbc62de0e	-0.013846887
12	0xbd2aa1ea	-0.04165832
13	0x3db4271a	0.087965205
14	0x3bf0262c	0.007328769
15	0xbd19b8e3	-0.037529837
16	0xbde6d958	-0.11271924
17	0x3bde0cbb	0.00677642
18	0x3d55164c	0.052023217
19	0xbc51f84b	-0.012815545
20	0xbdb36c92	-0.087609425
21	0xbc6e1c71	-0.014533148
22	0xbd764304	-0.060122505
23	0xbd14ff75	-0.036376435
24	0x3d4bf569	0.04979459
25	0xbd503144	-0.050828233
26	0x3afbbb3e	0.0019205583
27	0x3c3a30d9	0.011364185
28	0xbda8203d	-0.08209274
29	0xbd8f73c0	-0.070044994
30	0xbcb2afd6	-0.02181236
31	0xbdac9d64	-0.084284574
32	0xbd09a46d	-0.033604074
33	0xbc8abc0f	-0.016935376
34	0xbdca52d0	-0.098790765
35	0xbd8c6449	-0.068550654
36	0xbd2d54e7	-0.042317297
37	0x3d9bb792	0.07603373
38	0xbdba61d5	-0.09100691
39	0xbc84ae16	-0.016196292
40	0x3d8fb493	0.07016864
41	0xbe00f933	-0.12595062
42	0x3d8251f0	0.063632846
43	0x3d8a1e78	0.06744093
44	0xbd1a0258	-0.03759989
45	0xbd75de2c	-0.060026333
46	0xbd052f75	-0.03251596
47	0xbda7620d	-0.081729986
48	0xbd9bfc4f	-0.076164834
49	0x3d4f9972	0.050683446
50	0xbd8dc1c0	-0.069217205
51	0xbde03d62	-0.10949208
52	0x3c6f2f11	0.014598624
53	0xbcc52f4a	-0.0240704
54	0xbde2bfe8	-0.110717595
55	0xbb5a64ba	-0.0033324198
56	0x3dae6dc8	0.08517033
57	0x3dad5e05	0.084651984
58	0x3d1bc387	0.038028266
59	0xbd75de71	-0.06002659
60	0x3d62ff60	0.055419326
61	0xbd050ad1	-0.03248102
62	0xbdcf843f	-0.10132646
63	0xbd013b11	-0.03155047
64	0xbcd8b366	-0.026452731
65	0x3cf10b22	0.029424254
66	0x3d3a51c2	0.045488127
67	0x3cabd780	0.020976782
68	0xbe0d91ed	-0.13825198
69	0x3cde1ef1	0.027114363
70	0xbc98327e	-0.018578764
71	0xbd596978	-0.0530791
72	0xbd1b3821	-0.037895326
73	0x3d5f56bb	0.054526072
74	0xbd8198c0	-0.06327963
75	0xbc81bae8	-0.015836194
76	0x3ca0e6f6	0.01964138
77	0x3cd081a9	0.025452452
78	0x3da8c57a	0.08240791
79	0xbd2874c9	-0.041127
80	0xbd3f38ea	-0.046685137
81	0xbd1ef56f	-0.038808282
82	0x3cfc686b	0.03081151
83	0xbc872c0b	-0.016500494
84	0xbb80d9b3	-0.003932202
85	0xbd6eaf03	-0.058272373
86	0xbcb99712	-0.022655044
87	0xbbbc90bc	-0.0057545584
88	0x3da84d60	0.08217883
89	0xbdb08971	-0.08619965
90	0xbd8180cf	-0.063233964
91	0xbd91ef32	-0.07125701
92	0x3c2db26f	0.010601624
93	0xbd1a6760	-0.037696242
94	0x3d18ba7b	0.037287217
95	0xbd598663	-0.053106677
96	0xbd558fcf	-0.0521391
97	0x3d2b65de	0.041845195
98	0x3c82c6d2	0.015963946
99	0xbd96084b	-0.073258005
100	0x3d256d1d	0.04038726
101	0xbdb4339a	-0.08798905
102	0x3cfb7b10	0.03069833
103	0xbc42876c	-0.011873107
104	0xbd8ea9de	-0.06965993
105	0x3d9adec9	0.07562024
106	0xbc97c18b	-0.018524906
107	0x3d3d24ac	0.04617755
108	0xbdf422b3	-0.11920681
109	0x3d54f133	0.051987838
110	0x3d417bb2	0.047237106
111	0xbdcc83df	-0.0998609
112	0xbd7b9d61	-0.061429385
113	0x3d83b54b	0.06431063
114	0x3d878370	0.066168666
115	0xbdcd0399	-0.10010452
116	0x3d23415c	0.039857253
117	0xbdba35b7	-0.090922765
118	0x3d9e45fe	0.07728194
119	0xbdd76546	-0.10517363
120	0x3d52eb15	0.051493723
121	0x3da7f983	0.082018875
122	0x3d41699f	0.04721987
123	0xbd57a66a	-0.05264894
124	0xbd021aef	-0.031763967
125	0xbd66d312	-0.056353636
126	0x3da8313b	0.08212515
127	0x3d8d1066	0.068878934

weight f4 [23, 128]
0	0xbcf928a9	-0.030414896
1	0x3d6fd979	0.058557007
2	0xbd396696	-0.04526385
3	0x3d3b61ee	0.04574769
4	0xbe11fb91	-0.14256121
5	0x3d26236b	0.04056112
6	0x3ce28a2b	0.027653774
7	0xbd8ffea3	-0.0703099
8	0xbd13f328	-0.036120564
9	0xbc1f1ffc	-0.0097122155
10	0x3daaebc1	0.08345748
11	0xbd50c3a5	-0.05096783
12	0x3da3f247	0.08005195
13	0xbd1f14ec	-0.038838312
14	0x3dc80c48	0.097679675
15	0xbb96fa3e	-0.004607468
16	0xb879cc07	-5.955624e-05
17	0x3d166093	0.036713194
18	0xbd8247a9	-0.06361324
19	0x3bd205c8	0.0064093806
20	0x3db46948	0.08809143
21	0x3d814610	0.063121915
22	0x3e143342	0.14472678
23	0x3d4377eb	0.047721785
24	0x3c85a2b3	0.016312933
25	0x3cad51a9	0.021157103
26	0x3c1326a5	0.008981382
27	0xbdc0ee30	-0.09420431
28	0xbcad7f83	-0.021178966
29	0x3d8a0618	0.067394435
30	0x3d569ded	0.052396704
31	0x3c0903ec	0.008362751
32	0x3d9b459f	0.075816385
33	0x3d307b3b	0.04308627
34	0xbd1a6fbb	-0.03770421
35	0x3cbb768d	0.022883678
36	0x3d6878b2	0.05675573
37	0xbd8c32ad	-0.06845603
38	0x3da7a646	0.08186011
39	0xbd8a6365	-0.06757239
40	0xbd0cdb63	-0.03438891
41	0xbc6925df	-0.014230221
42	0xbdaa70cf	-0.08322298
43	0xbd20823a	-0.039186694
44	0x39a0d0c6	0.00030673126
45	0x3e12872f	0.14309381
46	0xbd22ddbe	-0.03976225
47	0x3d06ac1e	0.032878987
48	0xbc3302cd	-0.010925961
49	0xbda5557a	-0.08072944
50	0x3dbb4e62	0.0914581
51	0x3e301fea	0.17199674
52	0x3db03278	0.08603376
53	0xbc9b049e	-0.0189231
54	0x3d9043a3	0.07044151
55	0x3d0a73c6	0.033801816
56	0xbd3254ae	-0.043537788
57	0xbb85b593	-0.004080483
58	0xbde9d49e	-0.11417507
59	0x3dbb7e1a	0.09154911
60	0x3bda7283	0.006666483
61	0x3bf6dd2a	0.007533689
62	0x3c8187e4	0.015811868
63	0x3de05326	0.10953359
64	0xbc072749	-0.008249112
65	0x3d3125e9	0.043249045
66	0xbdbee204	-0.09320453
67	0xbd2afb3e	-0.04174351
68	0x3b4f1086	0.0031595542
69	0xba9e6fcc	-0.0012087761
70	0x3ce331ef	0.027733771
71	0x3dc023ed	0.09381852
72	0x3d12f9b5	0.03588267
73	0xbd2397d8	-0.03993973
74	0x3d3112ae	0.043230705
75	0x3c8bb6ea	0.017054994
76	0xbe48114c	-0.19537848
77	0x3d53e186	0.051728748
78	0xbd803bd0	-0.06261408
79	0x3d29db8c	0.04146914
80	0xbcc14306	-0.02359153
81	0x3d78c73e	0.060736887
82	0x3d4d6d82	0.050153263
83	0x3d3146c2	0.04328037
84	0xbd2ea782	-0.042640217
85	0xbcd3b41b	-0.025842717
86	0x3d68f434	0.056873515
87	0x3b1c0fd8	0.0023813155
88	0x3d0dc434	0.034610942
89	0x3d3bd67b	0.04585884
90	0xbc3e3efb	-0.011611695
91	0x3da2020a	0.07910545
92	0xbc7d1c81	-0.01544869
93	0xbc4f1374	-0.012638915
94	0x3d8603f2	0.06543721
95	0x3d271201	0.040788654
96	0x3d503a58	0.05083689
97	0xbd7a01e4	-0.06103696
98	0xbd930814	-0.07179275
99	0xbcc64b88	-0.024205938
100	0x3d8b1270	0.06790626
101	0x3dba0039	0.09082074
102	0x3da03c74	0.078240305
103	0xbd3da531	-0.046300117
104	0x3d5219df	0.051294204
105	0x3d2052b0	0.039141357
106	0x3d813c82	0.06310369
107	0x3dcd349d	0.10019801
108	0x3db77303	0.089574836
109	0x3de3580f	0.1110078
110	0xbb9b853f	-0.004746109
111	0x3df436a2	0.11924483
112	0x3dcfd5a2	0.10148169
113	0xbdeee5b9	-0.1166491
114	0xbd00f1ff	-0.031480785
115	0xbd0f2d49	-0.034955297
116	0xbdab02bc	-0.08350131
117	0x3c625a04	0.013815407
118	0x3d29539f	0.041339513
119	0x3cef660f	0.02922347
120	0xbe27f900	-0.1640358
121	0xbcb0b40a	-0.021570224
122	0xbd7d115d	-0.061784137
123	0x3cee603a	0.029098619
124	0x3e2e0966	0.16995773
125	0xbd0b55bd	-0.034017313
126	0xbe1c81b7	-0.15283857
127	0xbd702886	-0.058632396
128	0x3dbfb271	0.09360207
129	0x3cf69b5b	0.030103376
130	0x3dc3ecd6	0.09566657
131	0xbcd97760	-0.02654618
132	0x3dc31a30	0.09526479
133	0x3d984ece	0.07436906
134	0x3d5842e9	0.052798185
135	0x3c296a4b	0.010340284
136	0x3d5d2e63	0.053999316
137	0x3cc63bfd	0.024198527
138	0xbd6f4546	-0.058415674
139	0xbcc63ece	-0.02419987
140	0x3d8cff6d	0.06884656
141	0x3b12acba	0.0022380785
142	0xbdd1c51c	-0.10242674
143	0x3aa4ee78	0.0012583276
144	0xbcb0f8bb	-0.021602979
145	0x3d6b46d3	0.05744059
146	0x3d469596	0.0484825
147	0xbd23ce13	-0.03999145
148	0xbc89517c	-0.016762488
149	0x388ea2ec	6.801434e-05
150	0xbdea19a6	-0.11430673
151	0xbdb2b3a8	-0.08725673
152	0x3ccd644b	0.025072237
153	0x3db664ae	0.08905922
154	0x3d0378f8	0.032097787
155	0x3d3278c5	0.043572206
156	0xbe1e6670	-0.15468764
157	0xbdf6aca9	-0.12044651
158	0xb9a51ea3	-0.0003149408
159	0x3d9b048a	0.07569225
160	0xbdc3ec86	-0.09566598
161	0xbc316526	-0.010827338
162	0x3d36a71c	0.04459296
163	0xbd9321d4	-0.071841866
164	0x3d15b3b9	0.03654835
165	0xbd392728	-0.045203358
166	0xbcb07cb8	-0.021543846
167	0x3de4e3b6	0.11176245
168	0x3deb8c9a	0.11501427
169	0xbc31cb14	-0.01085164
170	0x3d467244	0.048448816
171	0xba4a14b9	-0.00077087764
172	0xbc677829	-0.0141277695
173	0xbd975d15	-0.07390801
174	0xbe09b3b4	-0.13447458
175	0xbcc6758f	-0.024225978
176	0xbbaccae0	-0.005273208
177	0xbcf1c33c	-0.02951204
178	0xbc206e3c	-0.009791907
179	0xbdfc7201	-0.12326432
180	0xbcca9659	-0.024729894
181	0x3bb6e11a	0.0055810334
182	0xbc69e5d7	-0.0142759895
183	0x3cd88cc2	0.026434306
184	0x3cd9c747	0.02658428
185	0x3bfaf237	0.007658269
186	0xbdd3c5f1	-0.10340489
187	0xbdcaf536	-0.099100515
188	0xbe21e1c1	-0.15808775
189	0xbc9595bb	-0.018259874
190	0x3d6dfb8d	0.058101226
191	0xbe14bde5	-0.14525564
192	0xbd8ae33f	-0.06781625
193	0x3ccd21c9	0.025040524
194	0xbcb6809e	-0.022278126
195	0xbd0d8683	-0.03455211
196	0xbd50ec03	-0.05100633
197	0xbd118553	-0.03552754
198	0x3c8df819	0.017330216
199	0xbdb12762	-0.0865009
200	0xbd5a74da	-0.053334095
201	0x3e11dc4a	0.1424419
202	0xbcb645fd	-0.02225017
203	0xbbebcc3f	-0.007195979
204	0x3cd6e834	0.02623377
205	0x3de8674e	0.11347829
206	0x3d7fe0c4	0.062470213
207	0xbdc79985	-0.097460784
208	0x3df1904e	0.11795102
209	0x3e5b10b2	0.21393088
210	0x3d7e3aa9	0.06206766
211	0xbdf630b7	-0.1202101
212	0x3d7f4ac0	0.062327147
213	0x3ccfe4b2	0.025377605
214	0xbe2d0270	-0.16895461
215	0xbd2a74ac	-0.041615173
216	0x3d380e73	0.044935655
217	0xbddc86ed	-0.107679226
218	0xbd1de9bd	-0.03855299
219	0xbd6f7576	-0.05846163
220	0x3dc4c85e	0.096085295
221	0xbc29fe59	-0.010375583
222	0xbdeea59a	-0.1165268
223	0xbd3eb98c	-0.04656367
224	0x3dc55d85	0.09636978
225	0xbd11590b	-0.03548531
226	0x3de5f24d	0.11227856
227	0xbe1cc450	-0.15309262
228	0xbda27e7f	-0.079342835
229	0xbd2481e3	-0.040162932
230	0xbd6b14aa	-0.057392754
231	0x3dc7819a	0.097415164
232	0x3d815976	0.063158914
233	0x3d88073c	0.06642005
234	0xbc09903b	-0.008396204
235	0xbd7c6629	-0.061620865
236	0x3c7c1b64	0.01538739
237	0xbc6422bc	-0.013924297
238	0xbcd1171a	-0.025523711
239	0xbdfc530a	-0.12320526
240	0xbc7ba42c	-0.015358966
241	0xbd0bd26a	-0.034136213
242	0xbc4d4c8d	-0.012530458
243	0x3d50175f	0.05080354
244	0x3d71b5c2	0.05901123
245	0xbbc085fe	-0.005875348
246	0x3da29240	0.07938051
247	0x3ce1b46d	0.027551854
248	0x3d041ddf	0.03225505
249	0x3c9265bc	0.017870776
250	0x3d8e1285	0.06937126
251	0xbe0b33ea	-0.13594022
252	0x3bf6ca75	0.007531459
253	0xbbaf3a14	-0.0053474996
254	0x3bcfb54c	0.006338751
255	0x3de19fb5	0.1101679

bias f4 [23]
0	0xbe4d6986	-0.20059785
1	0x3daf17b6	0.085494444
2	0x3e1efddc	0.15526527
3	0x3d8e53d0	0.0694958
4	0x3c2d5587	0.010579473
5	0xbbcdbe18	-0.0062787645
6	0xbdcb2a69	-0.099201985
7	0x3dbc57fb	0.091964684
8	0xbe55d361	-0.20881416
9	0xbd89fc71	-0.067376025
10	0xbc3016ee	-0.010747654
11	0x3d963372	0.07334031
12	0x3d5dcbdb	0.05414949
13	0x3d5b2403	0.05350114
14	0xbdc74250	-0.09729445
15	0xbc2bcb68	-0.010485508
16	0xbd82e7f5	-0.063918985
17	0xbca653b3	-0.020303583
18	0x3d040066	0.032226942
19	0x3ce72831	0.028217407
20	0xbdbf4572	-0.093394175
21	0xbd11e4c0	-0.035618544
22	0x3d0bfca6	0.03417649
