deploy/models/booster_gym_exp_1/model_3000.pt (torch, 303934 bytes, 8 tensors)

weight f4 [256, 80]
00000000: 0c6a 98be cdba 1b3e c4b4 8bbd d1a3 193c
00000010: cb6d e43c 33bd a33c a2a8 e03d 71f1 b03d
00000020: 55eb 85bd 5e12 dc3d b1f7 e13c 5611 a7bd
00000030: 62d3 f13b 5491 183b 5cb4 383c 5525 943b
00000040: 73fa e0bc c2c6 543c 815b 383d f916 c43a
00000050: a3b6 073d 583a 90be 309f 963e b373 25be
00000060: d664 32be 5359 a33d 3049 db3b debb 90bd
00000070: d353 92be fb6a 8abe 864c 49bd 05e0 96be
00000080: df8e b1bd ab53 3e3e 44bb 923d 31ed 873c
00000090: 6833 ff3d 20e5 d23d dc3f d5ba 208c d8bd
000000a0: d351 643d f833 043e 003a 5b3c 73d8 13bd
000000b0: 0544 d7bd 6d5a 1fbd aa1e 0bbe 5b3d 90bd
000000c0: 0aa6 49bc ecdd 25bd 29a8 aabc f027 4c3e
000000d0: f129 6f3e 6451 d6bb 2fe9 eebc 3273 bbbd
000000e0: 344f 5d3d fb7c 2bbe 88be 4dbc 8110 e6bc
000000f0: 8391 c93c 6240 04be d5a3 80bc 2802 87ba
00000100: c63f 683d cf6a 193a 6054 b23d 0cae 15be
00000110: a667 64be 0b62 113d d7af 513e cc53 12be
00000120: 6485 21bd 44d3 013e 461e 983c d5f5 843e
00000130: 37ff a3bd d225 30be 2190 353d f72c 46bd
00000140: 1945 c73d c943 25bf 6850 f7bd 95d1 173d
00000150: 2a39 923d 3bf5 16bd 775d 6bbd 326d 9bbd
00000160: c826 563d 72e6 2abd 61dd c4bd f371 b2bd
00000170: 4727 3a3e ced8 41bd 6b61 a6bd 01da c1bb
00000180: 5f23 78bd aaab 5b3d 9d9e 5e3a ae6c 50bc
00000190: eaa0 83bd e846 f8bd f76e 32bd a50a b33e
000001a0: 7cda a3be c679 563e 1ca2 893d 5f57 54be
000001b0: e5ab 22bd 052a 3ebe 1e46 da3d 4a77 07be
000001c0: a9c3 f4bd ccec 02bd 1ae2 9e3c 1fd4 4cbe
000001d0: 59c2 683d 4ba9 0ebe 21a6 3039 f298 b6bd
000001e0: b94e 15bd 5ce7 ab3d 5ab3 11bc b40e 3e3c
000001f0: 744a 723d e0ae be3e ccdd 083e a00a f3bd
00000200: c034 773e 3a4b 8c3d de2f 36bd 5caf 51be
00000210: 5214 a03e 8264 9bbd cf38 75bd 00b8 b33c
00000220: be44 c43b 592d 8e3e e369 9f3d 0e22 8c3d
00000230: 1916 993c 1ddd 06bd 8ad3 e13c 6a28 82bd
00000240: 6634 9abd ee1d c4bc 5a40 563d 0368 073d
00000250: 6401 e43c f5ac 23be aafc 533e f64b 163e
00000260: ef21 4f3d 90c9 a8bb 0559 51bd 3923 c9bd
00000270: a0d0 d23d 5a22 5e3d 6dda f7bd 533d 2cbe
00000280: 9eae 573e 277d 0fbf 5118 1f3d 4691 edbc
00000290: dde5 82bc 4a78 94bc 553f 1dbd 5936 ebbc
000002a0: a3e4 e53c e290 d53d cafa 2fbc 68e5 fdbd
000002b0: 948d 003d f496 673d 86e7 9b3d 8225 63bd
000002c0: 28c9 6e3d 1ab6 f9bd 56e3 9b3c 04ac 573d
000002d0: d042 253d 3071 2fbe f109 953d de80 ac3d
000002e0: a6b9 9ebe a714 253e 4d7a f53d f869 ecbd
000002f0: 257d 7f3e 7cc1 d63c 0e04 8f3e bf95 86be
00000300: e820 553e 6b15 233e 5307 f03a 29c4 89bb
00000310: 7c83 c9bb 15dc 7e3d c322 1ebd 039c 08be
00000320: cbad dabd efcc a6bd 64ab babc 6242 6a3d
00000330: e828 59bd 79bc 613e 1592 7abd 4df0 66bd
00000340: e11a f33d 4686 a43d dab1 063b 83bb 03be
00000350: 5ecc 7b3e 5a7c 2a3d 6758 e9bd 5773 83bd
00000360: e04f a7bc c056 6ebd b136 4fbd 733f db3d
00000370: a3b6 2bbd a229 183d da5b 9cbd 2b93 5c3d
00000380: 2176 53bd 21e6 913d cb54 513d a67d 27bc
00000390: 4eb4 7e3d a643 4c3c ce26 c73d 9fc0 33bd
000003a0: 8133 36bd 11c8 26be 4587 343c 2c7c f83d
000003b0: bede 353d 4f2f 47be b3c5 40bc 8c56 613e
000003c0: 65bd dcbd c57e a03e ce5a 183d 35b3 90bd
000003d0: df33 d7bb 3460 163d 6cf0 8bbd 73d1 dd3d
000003e0: af8c 92bd 479a 0c3d e14c d63d 725d fb3c
000003f0: e0e6 6ebd 1405 3d3d 681b b83c 3a26 ecbc
-0.29768407 0.15207978 -0.06821588 0.009377436 0.027884385 0.019987678 0.10969664 0.08639801
-0.06539027 0.10745691 0.027583929 -0.081576034 0.007379935 0.0023279982 0.01127347 0.004521052
-0.027463173 0.012986841 0.04500914 0.001496046 0.03313316 -0.28169513 0.29418325 -0.16157417
-0.17421278 0.079760216 0.0066920742 -0.07067083 -0.28579578 -0.27034745 -0.049145244 -0.29467788
-0.086698286 0.18586604 0.07164624 0.016592594 0.12460977 0.102976084 -0.0016269642 -0.10573602
0.055742096 0.1291045 0.0133805275 -0.036095094 -0.105110206 -0.038904596 -0.13585916 -0.070429526
-0.012307653 -0.040494844 -0.020832138 0.1993711 0.23355843 -0.0065404642 -0.029163925 -0.09152831
0.054030612 -0.16746895 -0.012557633 -0.028084042 0.024605518 -0.12915185 -0.015703121 -0.0010300325
0.056701444 0.00058524025 0.087074995 -0.14617175 -0.22305164 0.03549389 0.20477234 -0.14289778
-0.03943385 0.12678248 0.018569123 0.25968805 -0.08007663 -0.17201927 0.044326905 -0.048382726
0.09729976 -0.64556557 -0.12075883 0.037065107 0.071398094 -0.036854964 -0.057462182 -0.07589187
0.05228308 -0.041723676 -0.09612537 -0.0871314 0.18179046 -0.0473259 -0.0812405 -0.0059158807
-0.060580608 0.05363051 0.0008492263 -0.012721224 -0.06427176 -0.12122899 -0.043562856 0.3496906
-0.32002628 0.2094489 0.06720373 -0.20736454 -0.039714713 -0.18570717 0.10657905 -0.13229099
-0.11951382 -0.03196411 0.019394923 -0.20002793 0.05682597 -0.13931768 0.00016846556 -0.08915891
-0.03645203 0.08393738 -0.008892858 0.011600185 0.059153035 0.37242794 0.13365859 -0.11867261
0.24141216 0.06850286 -0.044479243 -0.2047705 0.31265503 -0.0758753 -0.05986863 0.021938324
0.00598964 0.27768973 0.07783868 0.06842433 0.018687295 -0.032925714 0.02756669 -0.063553646
-0.075295255 -0.023940053 0.052307464 0.033058178 0.027832694 -0.15983947 0.20701852 0.14677414
0.05056947 -0.0051509812 -0.051110286 -0.09821171 0.10293698 0.05423198 -0.12102208 -0.16820268
0.21062705 -0.5605034 0.03884155 -0.028999936 -0.015978748 -0.018123765 -0.038390476 -0.028712438
0.028063124 0.10428025 -0.010740945 -0.123972714 0.03138502 0.056540444 0.07612519 -0.055455692
0.058297306 -0.12192936 0.0190293 0.05265428 0.04034692 -0.17133021 0.07277287 0.08423017
-0.31001014 0.1612116 0.11986218 -0.115436494 0.24950083 0.026215307 0.2793278 -0.26286122
0.20813334 0.15926139 0.001831273 -0.0042042923 -0.0061497074 0.062221605 -0.03860737 -0.13340764
-0.1067768 -0.08144557 -0.022786804 0.057192214 -0.053017527 0.22044553 -0.06117447 -0.056381512
0.11870361 0.08033423 0.0020552785 -0.12864499 0.24589679 0.041622497 -0.113938145 -0.06418484
-0.02042383 -0.0581882 -0.050589267 0.10705461 -0.041922223 0.03714908 -0.07634707 0.053851288
-0.05162633 0.07123972 0.051106256 -0.010222828 0.06218367 0.0124673005 0.09724198 -0.04388487
-0.04448271 -0.16287257 0.011018579 0.12133059 0.044401877 -0.1945164 -0.011765885 0.22005671
-0.10778312 0.31346717 0.037195973 -0.07065431 -0.006567463 0.03671284 -0.06832966 0.10830965
-0.071557395 0.034326818 0.10463882 0.030684207 -0.05832565 0.04614742 0.022474006 -0.028826822

bias f4 [256]
00000000: f2ca aebd 7fe6 e13c a6cf 783d 1e91 c23d
00000010: ebcd c43d 3cdf 463c 88d0 013a 4360 34bd
00000020: de6f eebb 95a3 003d 8172 3dbd 78be 01be
00000030: aae4 e33d 22ef 3dbd 4a04 d7bd 6db7 823c
00000040: f7ca 93bc b867 c43d e698 963d a19a 97bd
00000050: 30d4 b73c e874 4cbd fb1a d53d d812 d6bd
00000060: 8587 31bd 948c c43d f5e9 e13d 1803 053d
00000070: 1dcc fe3d d2e5 2cbd dfd9 62bd fe84 fabd
00000080: 1567 4b3d 02f3 7b3d 6873 2a3c 512b f1bd
00000090: 2f57 28bd 3689 83bd b543 bfbd f975 b33d
000000a0: 3395 edba f85c 05be b688 d43b 06af 493d
000000b0: 79bf 253d f96a a1bd 0bef eb3d e075 a83d
000000c0: a2b5 7ebb 174c 99bd 0908 613d 35bb 91bd
000000d0: 4f0e 053d dc13 7bbc 50a6 8c3d 040a ee3a
000000e0: 4547 cbbc 4ea5 7f3d 31d5 b0bd 0502 d6bc
000000f0: e012 923d 578b 8a3c 9b60 d13d 0e95 7e3d
00000100: 1e51 96bd 4ed2 953d 17ee c73d fbec ebbd
00000110: 09b7 623d 31c1 9f3d 7c29 24bd 3cea e23a
00000120: dcfa f3bb 7805 993d e50e be3d 4756 0abd
00000130: 7a13 26bd 4d43 173d 79e0 33bd 94de 333d
00000140: 53d6 9dbd dedf f73d e766 99bd 94c5 e03c
00000150: 610a 9b3d 8998 1d3d dbd9 75bd 5723 92bd
00000160: bfa7 cd3c a5ca 84bd 6dda d13c 492e 6dbd
00000170: b90c edbc 2d09 343d 8782 d0bd 1a83 c0bc
00000180: 822e acbd 0495 5cbd 6684 8e3d a8cb 7f3d
00000190: 5829 b03d 5ef3 e53d 5f73 bbbd f137 c0bd
000001a0: 35e4 c53d 4e2e d2bd ff4b 943d ddc1 e6bd
000001b0: a927 383c aaba 25bd 7d1d 43bc 1f48 98bd
000001c0: 301b dd3d f9d8 b13d 231f 43bd e0dc 583d
000001d0: c631 b4bc ad7f 5abd 39cb 36bb fe7a aebd
000001e0: d773 a73d 3afc 2f3b 263e 82bb 1879 793d
000001f0: 6b09 01bc 502d e7bc 9d5f dcbd 7e45 503d
00000200: 5728 5b3c 7a0d 64bd dda7 c8bb b1e9 253d
00000210: ba4b 39bd fb4f b5bd 6cae 1cbd 91dc b73d
00000220: 3afb 983d dcbc a83d 7118 14bc 37f0 2bbd
00000230: 09ba dd39 ff16 0c3d 3329 363c 137a 8abc
00000240: 7fc2 56bd 90eb 83bd 595d aabd e2bb cabc
00000250: 95c7 8f3d e396 26bc 249e 7f3d bc1b da3d
00000260: 3855 083d 359f c2bd be73 3c3b d4de 273d
00000270: 8a88 7b3d 8872 b03c 0db4 ebbd 73fb f13d
00000280: 8150 94bd 1b22 14bc 6f2c a53d 761d fa3d
00000290: 8696 c33d 0838 1d3c 5770 68bd e78b a9bd
000002a0: ec1e b83d 1c88 c2bc 86e3 613d 33e0 e03c
000002b0: a491 19bc 7003 bf3d e153 8f3d 53d3 e13d
000002c0: 479b c8bd 7bd9 02bd bca1 3b3d b5e5 3bbd
000002d0: e13e 10bd 6efd 8bbd 7280 b0bd ade0 c93c
000002e0: 6480 29bc a1b4 c1bc c71a febd 8c6c 45bc
000002f0: f759 053d ec85 3c3c 3b70 e7bd f34a 5bbd
00000300: 6286 c13d 959b e4bc d3c5 9cbd fa81 8fbd
00000310: 5f75 2fbd 5545 203c 9b75 6a3d 0dd4 cdbd
00000320: da05 ccbd 686d 723d 999d 18bd e751 69bc
00000330: 7aea 923d 21c0 50bc 74a7 ca3c 684b 14bc
00000340: 6c0f c93c 53fa 863c c6a4 d1bc 30b0 a1bd
00000350: 8b58 fb3c b71f 9cbd 4f61 d2bc 38d4 703c
00000360: 999f 573d 176d b9bc c862 8f3c f5bc da3d
00000370: 604c 4fb8 943d 96bd 6221 243d 7ac2 273d
00000380: 4440 c1bb 93ca 8bbd 8bd6 343d 916a a5bd
00000390: 1887 12bd 1f88 d33d c55f 563c 2da8 a53d
000003a0: c6c0 a4bc 7beb 86bc 8f4a 81bd ac5d c8bc
000003b0: 0e50 183d 666d a5bd 4bfc 353d 5a43 9e3d
000003c0: b82e 81bd 73d6 23bd 37f8 40bb afee 3c3d
000003d0: eab7 203d fd88 72bd 6d6c 9cbd e6f8 823c
000003e0: 09e8 cabd 6b5b ddbd 6dd4 9a3d df46 7dbc
000003f0: 71c9 2bbd 0a06 6bbb 4e84 9cbd 40a0 4b3d
-0.085348025 0.02757573 0.060744904 0.09500335 0.09609588 0.012138184 0.0004952033 -0.044037115
-0.007276519 0.031406004 -0.046251778 -0.12670314 0.111275986 -0.046370633 -0.10498865 0.015956605
-0.018041117 0.09590095 0.07353382 -0.0740254 0.022440046 -0.049916178 0.10405537 -0.10452813
-0.043342132 0.09597126 0.11030952 0.032473654 0.12441275 -0.04221136 -0.05538356 -0.122323975
0.049658854 0.061511047 0.010403492 -0.1177584 -0.04109877 -0.06422655 -0.09339086 0.08762736
-0.001812613 -0.13023746 0.006486024 0.04923918 0.040465806 -0.078817315 0.11520203 0.08225608
-0.0038865586 -0.07485216 0.054939304 -0.07115785 0.03248435 -0.015324559 0.06867659 0.0018160944
-0.024814257 0.062413506 -0.08634413 -0.02612401 0.07132506 0.016912146 0.10223504 0.06215387
-0.073396906 0.07315503 0.09762209 -0.1151981 0.055350337 0.0780052 -0.040078625 0.0017312239
-0.0074456763 0.07471746 0.09280185 -0.033773687 -0.040545918 0.036929417 -0.043915246 0.04391344
-0.07706895 0.12103246 -0.0749033 0.027437963 0.07570339 0.038475547 -0.060022216 -0.07135647
0.025104402 -0.06483964 0.025616849 -0.05790547 -0.02893673 0.043954063 -0.10181146 -0.023500014
-0.08407308 -0.05385305 0.06958847 0.06245008 0.08601636 0.11228059 -0.09152865 -0.0938567
0.09662668 -0.10262738 0.072410576 -0.11267445 0.0112399245 -0.04046122 -0.011908886 -0.07435631
0.10796201 0.086839624 -0.047637116 0.052945018 -0.02199639 -0.053344417 -0.0027892126 -0.08519553
0.081763916 0.002685322 -0.003974694 0.0609065 -0.007875781 -0.028219849 -0.10760424 0.050847523
0.013376317 -0.055676915 -0.0061235265 0.04050607 -0.045238234 -0.08853146 -0.03825228 0.089776166
0.07469793 0.08239147 -0.00903903 -0.041977134 0.00042291012 0.03420162 0.011118221 -0.016903913
-0.05243158 -0.06441414 -0.08318586 -0.024747793 0.07020489 -0.01016781 0.062406674 0.10649821
0.033284396 -0.095030226 0.002875551 0.04098399 0.06140951 0.021538988 -0.11508951 0.11815538
-0.072419174 -0.0090413345 0.08065116 0.122126505 0.095501944 0.009595878 -0.05674776 -0.082786374
0.08990273 -0.023746543 0.055148624 0.027450657 -0.009373102 0.093268275 0.069984205 0.11026635
-0.09795242 -0.031945687 0.04580854 -0.045873363 -0.035216216 -0.06835447 -0.08618249 0.024643267
-0.010345552 -0.0236457 -0.12407451 -0.012049805 0.0325565 0.011506539 -0.11300703 -0.053538274
0.094494596 -0.027906219 -0.076549195 -0.07007213 -0.042836543 0.009782155 0.057241064 -0.10050211
-0.099620536 0.05918637 -0.03725967 -0.014240718 0.07173629 -0.01274112 0.024738051 -0.009051181
0.024543487 0.016476786 -0.025591265 -0.07894933 0.030681869 -0.076232366 -0.025681166 0.014699034
0.05264244 -0.022635026 0.017503157 0.10680572 -4.9423776e-05 -0.07335964 0.0400709 0.04095695
-0.0058975536 -0.06825747 0.044149917 -0.080769666 -0.035773367 0.103286974 0.013084357 0.080887176
-0.020111453 -0.016469708 -0.06313049 -0.024458729 0.03718572 -0.08077507 0.04443006 0.0772769
-0.06307739 -0.039999437 -0.0029444823 0.046126064 0.039237894 -0.059212673 -0.07637868 0.015987825
-0.099075384 -0.10808452 0.07560048 -0.0154587915 -0.041940156 -0.0035861754 -0.076424226 0.049713373

weight f4 [128, 256]
00000000: 0ac6 9b3d 18c7 be3d 5fda 583d 8bf9 933d
00000010: d059 333d 9b21 b13d 2360 433c 828f 94bd
00000020: 8d7b aebd e414 77bc a4ac 00bd 38b8 6ebd
00000030: f32b 783d bcc9 f8bc e577 d33c 9ec6 e1bc
00000040: bfb1 0ebd 4fb2 113d 69c1 7c3d a4b7 533d
00000050: ebbd b63d f7c1 5f3c 68e1 cfbc 353b 233d
00000060: 9ef2 983c eff1 923c 8279 86bd 72c9 f83d
00000070: 1031 a43d 3405 78bd d0e6 7f3c cc73 713c
00000080: 24e6 943d 73d9 103d fc71 72bd 3b64 74ba
00000090: 8712 253c c0d9 1abd 1e8e d83d 3dd6 473d
000000a0: 002d 35bd f8f8 183d 0bb9 7d3b a804 e43c
000000b0: 2921 19be 749f 843d 017e 46bb cc9a 603d
000000c0: 5fd1 c83c a830 d43d 02b4 d5bc bacc 6ebd
000000d0: 1d98 9abd 293f 9abd b003 483d 28b0 2a3d
000000e0: c2e5 39bc 71ba a63d 5058 863d bee6 50bd
000000f0: 401d 4d3c 8607 913b de25 4fbd 0866 043c
00000100: 1e1a febc 85de 923b e1b8 ce3c 6fa7 283d
00000110: 9668 113d 340d 083d d79d f5bc 09f1 90bc
00000120: 6aa1 09bd 37d6 81bd dbfb c93d dd34 fabc
00000130: cbec 193d f8cb 28bd 0e20 2b3d 52b1 493c
00000140: 6a6c 5ebc f06c aa3c eb5a 753d 6627 e8bc
00000150: 51be 11bd de2b 863d c496 d83c da87 843d
00000160: 9655 03bd 0d8a 413d 399a 683d 2250 363b
00000170: bed3 96bd c97d 6e3c 3967 163d 9b2e 813c
00000180: cdf0 053d 9afd 583c c836 dd3d a7ad 563c
00000190: aba6 66bd c058 513d 2d05 713d 227c 40bc
000001a0: 7170 203d 0c08 c4bc ded8 013d 22ab bb3c
000001b0: a420 2e3d 20a6 9cbc 5f6b 223c e386 bf3c
000001c0: c066 e23d 9ba3 b4bd 7748 9dbb 4019 aebb
000001d0: 2177 e83b b9bb 343d cb34 db3b 318f c5bd
000001e0: 9168 2abc 0343 a33c 031e 97bc f677 d9bc
000001f0: ee0f 9f3b 626b 393c 3e33 ad3c 56d9 ccbd
00000200: 3f02 aebc 8b0a 89bd 7af5 b7bc 94c3 363a
00000210: f7ad 42bd c259 163d 6bcd 923d dee9 44bc
00000220: 6547 ab3b f79e e53c 9019 0cbd cc75 3a3c
00000230: 4644 35bd 54d8 febc 7b7d c4bc e642 c33c
00000240: 9864 0ebd 8718 b1ba 6ba8 6d3d a3f5 4f3d
00000250: 633c 013e 2398 aabc 2501 413d 1cae 453d
00000260: e4ab d2bb 15ba 8b3c 8bac 2c3d 7ee7 94bd
00000270: 8314 113d 1940 b13d 19d2 073d 182e 4c3d
00000280: 2a9d a7bd 2b91 cbbc a3ab 83bc d59e 863d
00000290: 67c6 a23d 5313 183d d3b9 77bd f44e a93c
000002a0: 5df2 6f3c d1e4 5dbc eb56 12be e4e0 0fbd
000002b0: 0e5d 1d3d d330 8bbd afe0 d0bb bba7 953d
000002c0: 11cb 8e3c 3eb8 bc3c 5b86 2bbd 712d 1abd
000002d0: 2ea3 6cbd 7054 e3bc 4abe 94bd f369 6e3d
000002e0: 671f 783d 9f50 d8bc b15d 3fbd 0069 b53d
000002f0: c04c 29bd a631 0bbc 160e 5ebc 7931 023d
00000300: 72b6 803d d9c1 743d 07a6 4e3b d9b7 3a3d
00000310: 9ba2 bcbb e3d2 e63c 7935 943d 60a0 0abd
00000320: ef0d 38bd 43f7 b13c 7ca4 3b3b 18f5 21bd
00000330: a9d3 cb3b 2609 8d3d 418e 3ebd a9b8 033d
00000340: e8c2 98bb 7d80 a6bc 23bc 3cbc 2eee 973c
00000350: 4c0f 213a d2bc 673d 7e47 de3d 0e88 863d
00000360: 259e 0c3d d9d9 8f3c b0ce e1bc 6658 283d
00000370: 25bf 0c3d f55a 32bd 5c89 ccbd d958 89bc
00000380: 9875 1c3d b230 093d 12d9 443d 6ca9 b23c
00000390: 05ae 42bd db23 afbc 91e1 16bd df6f c63c
000003a0: 0728 f3bb aadd f23c 2677 a0bc e37a f33c
000003b0: 0f3b cdba 028e c93c a9e1 8c3d 8275 fdbd
000003c0: 776a 8c3a 55b9 8cbd 9a12 bd3b 430c 433d
000003d0: ba74 ffbb ab32 a53c 8fcd 96bd 2a08 3a3d
000003e0: 535a ffbb cb0d 913d 38dd cc3c 735b 073c
000003f0: 4e21 713d 35be 2c3d a846 1d3d f0f3 94bd
0.07606132 0.09315318 0.05294263 0.07225331 0.043786824 0.08648988 0.011924776 -0.072539344
-0.08519659 -0.015080664 -0.031414643 -0.058281153 0.06058879 -0.030369632 0.025814006 -0.027560528
-0.03483748 0.03557044 0.061707888 0.051688805 0.08922943 0.013657085 -0.025376037 0.039851386
0.018670376 0.017937629 -0.065661445 0.12147798 0.080171704 -0.060551837 0.015618995 0.014737081
0.07270458 0.035363626 -0.059190735 -0.0009322797 0.010075218 -0.03780532 0.10573982 0.048788298
-0.04423237 0.03734681 0.003871503 0.027834252 -0.14954056 0.06475726 -0.0030287507 0.054835126
0.024513898 0.10360843 -0.026086811 -0.05830071 -0.075485446 -0.07531578 0.04883164 0.041671902
-0.011346282 0.081410296 0.06559813 -0.051001303 0.012519181 0.0044259457 -0.050573222 0.008080967
-0.031018313 0.004482093 0.025234642 0.041175302 0.03550013 0.033215716 -0.02998249 -0.01769306
-0.033601202 -0.06339686 0.09862491 -0.030542785 0.03757934 -0.041210145 0.041778617 0.012310343
-0.013575653 0.020803899 0.05990116 -0.0283391 -0.03558189 0.06551336 0.026439078 0.06471224
-0.032064043 0.047250796 0.056787703 0.002781876 -0.07364605 0.014556357 0.036719535 0.015769294
0.03270035 0.013244057 0.10801464 0.013102925 -0.05631129 0.05111003 0.058842827 -0.011748346
0.039169732 -0.023929618 0.03170096 0.02290875 0.042511597 -0.019122183 0.009913295 0.023379749
0.11054754 -0.08820268 -0.0047998982 -0.0053130686 0.0070942794 0.04412434 0.006689643 -0.09646452
-0.010400907 0.019929415 -0.018446928 -0.02654646 0.004854194 0.011317106 0.021142598 -0.10002391
-0.021241305 -0.06691464 -0.02245592 0.00069718924 -0.047529187 0.036706693 0.071680866 -0.012018649
0.0052270168 0.028029902 -0.034204066 0.011380624 -0.044254564 -0.031109013 -0.023985615 0.02383561
-0.034763902 -0.0013511338 0.058021944 0.050771367 0.12620692 -0.020824498 0.047120232 0.048261747
-0.0064291824 0.017056504 0.042156737 -0.07270716 0.035419952 0.08654804 0.03315935 0.049848646
-0.081842735 -0.024849495 -0.016073054 0.065732636 0.079479985 0.037127804 -0.06047995 0.02066753
0.014645186 -0.013543324 -0.14290969 -0.03512658 0.038418822 -0.06796422 -0.0063744406 0.07307383
0.017430814 0.023037072 -0.04187618 -0.037640993 -0.057772808 -0.027750224 -0.07262857 0.05820651
0.060576823 -0.02640563 -0.04672021 0.08857918 -0.04133296 -0.008495724 -0.013553163 0.031785462
0.06284799 0.05975518 0.0031532065 0.045585487 -0.005756689 0.02817673 0.072367616 -0.03384435
-0.044935163 0.021724349 0.0028631976 -0.03954038 0.0062203 0.068865106 -0.046522383 0.032158528
-0.0046619065 -0.02032494 -0.011519465 0.01854619 0.0006143942 0.056576557 0.1085348 0.06568919
0.034330506 0.017559933 -0.027564377 0.04109993 0.034361977 -0.043543775 -0.09987137 -0.016765999
0.038198084 0.033493705 0.048058577 0.021809302 -0.04752924 -0.021379402 -0.03683621 0.024223266
-0.007420543 0.029646713 -0.019588064 0.029721683 -0.001565786 0.024603847 0.06878979 -0.123759285
0.0010712881 -0.06871287 0.0057700397 0.047619116 -0.0077958973 0.020165762 -0.07363426 0.045417942
-0.00779275 0.07082709 0.02500783 0.008261549 0.058869652 0.042173583 0.03839746 -0.0727309

bias f4 [128]
00000000: 0535 a8bc 806b 9f3d 4e07 6dbd 5fbd 13bd
00000010: c807 a63b 0e47 27bd 8bea 9d3c 77c5 453d
00000020: 9ebe 0e3d 32fd 31b9 a320 5c3d c01e cfbd
00000030: 1bbc 6dbd 50b6 acba 9cf2 ee3c 9793 39bd
00000040: adb3 76bc 9400 9f3c db7f 133d a72f 84bd
00000050: df83 a43c 6140 a9bc 9e8a afbb 9b0e 48bd
00000060: 1797 74bd 38b7 383d 14db c23c 6728 0ebd
00000070: 9e5c 40bc a66d 213b 590c 41bd a47f 91bd
00000080: 347e 793c 65df 8bbd 9bbd aebc fbc0 78bd
00000090: d975 f5bc 6928 4f3d bde9 613d 464d 21bc
000000a0: 24ca e8bb 351b 2a3c aa51 dfbb 11c6 8fbd
000000b0: 2f9b 90bd a84f 06bd 37d9 213d d1ab 023d
000000c0: 597b 99bd 4c1c 90bc af2a 25bd 6c85 a6bd
000000d0: f8f2 8dbd 5c44 623c b978 04bb 989a 1dbd
000000e0: 620f 533a 09f4 4fbd 5fce 5b3d 2762 3bbd
000000f0: e7f3 56bd 5a2a 8dbd dcf8 30bd 70ce b3bb
00000100: a999 8b3c a288 e9bc 3df7 cebc d2c4 343c
00000110: 1057 3f3b 7563 14bc 68ba b43c 3794 433d
00000120: 0d69 5ebd 2cfd 9fbb 3fe4 8dbd 15d1 83bd
00000130: cbc4 8fbd e2ae 19bd bdc1 b83b 2778 29bd
00000140: e27c 8b3c 260a 9dbc 21ce 88bd 4acf 99bd
00000150: dc23 b0bc e864 26bd a363 dfbc f3ab 2a3d
00000160: 4e58 133c dde1 8f3d 5d68 b53c f646 10bd
00000170: e501 33bd 5f9a 16bc 50e7 edbd 99cc 17bd
00000180: 3b4f 013d 49ae ffbc 0d4b f03c 35e1 9cbd
00000190: 1a9b 043c c09a 10bd 974f 16bd c7eb 1e3d
000001a0: 6d3a 46bd 34df 11bd 1af0 d73c 582e 353b
000001b0: 4be7 53bd 96e5 f9bb 410e f73b 4845 31bd
000001c0: e2f0 2cbc 373c 94bb 3c07 1fbd 7bd9 6c3c
000001d0: f846 233c 35e3 16bd a174 32bd 374c 9e3b
000001e0: 184e a0bc 176d 25bd 6593 3fbd 3f87 833c
000001f0: 361e 5c3c be42 84bc 53d9 aebd ccf9 70bb
-0.020533094 0.07784176 -0.057868294 -0.03606927 0.0050668456 -0.040839247 0.019276878 0.04828402
0.034849755 -0.00016974358 0.053742062 -0.10113287 -0.05804072 -0.0013176892 0.02916842 -0.04530677
-0.0150574865 0.019409455 0.036010604 -0.064544015 0.020082412 -0.020660581 -0.0053571006 -0.048842054
-0.059714403 0.045096606 0.023786105 -0.0347065 -0.011740832 0.0024632006 -0.047130916 -0.07104424
0.015227843 -0.068297185 -0.021330645 -0.060730916 -0.02996342 0.050575648 0.05515455 -0.009845084
-0.007104175 0.010382463 -0.006815155 -0.070202 -0.07060849 -0.03279081 0.039513793 0.03190214
-0.0749423 -0.017591618 -0.04032391 -0.08130917 -0.06931108 0.013810243 -0.0020213558 -0.03847751
0.00080513034 -0.05076984 0.053663608 -0.045747902 -0.052478697 -0.068928435 -0.04320608 -0.0054872558
0.017041044 -0.028507534 -0.025264377 0.011033254 0.002919618 -0.0090569155 0.022061542 0.04774877
-0.054299403 -0.0048824754 -0.069283 -0.064363636 -0.07019957 -0.037520297 0.00563833 -0.04137435
0.017027322 -0.019169878 -0.06679941 -0.075102404 -0.021501474 -0.040623575 -0.02726919 0.04166789
0.008993221 0.07025502 0.02214449 -0.035223924 -0.04370298 -0.009192078 -0.11616385 -0.037060354
0.0315697 -0.031211035 0.029332662 -0.07660142 0.00809362 -0.03530383 -0.036696997 0.038799074
-0.048395563 -0.035613254 0.026359607 0.0027646031 -0.05173425 -0.0076262457 0.007539541 -0.043278962
-0.010555478 -0.0045237797 -0.03882526 0.014456148 0.009965651 -0.036837775 -0.043568257 0.004830863
-0.019568488 -0.04038724 -0.046771426 0.016055701 0.013434937 -0.016145106 -0.08537545 -0.0036769984

weight f4 [128, 128]
00000000: 6078 3dbd da14 c03c c36f c83d ab07 9fbd
00000010: 2cb2 0abd 7877 ad3d cf36 0fbd e39b 0e3d
00000020: 4290 aebc d841 f0b9 56e3 36bd c8fa de3d
00000030: fa32 0d3c c8ae b43b a42b a8ba 83fa 613b
00000040: d21e 5dbd f0a4 313c 3287 bfbc bf41 d1bd
00000050: 4dba 8d3c 4d3a 1a3c 7db2 ef3d fa4d 3dbb
00000060: d16b dd3c cb6a f23d b20e 4f3d 6db9 bdbc
00000070: 8f22 c4bd 6fc4 803d a925 3cbc 1d4a 363d
00000080: 4470 e0bd 11a3 e63c 3949 11bd 2dd9 26bc
00000090: eab9 853d ae93 04be 5800 ddbd fa7e d03d
000000a0: e00a 013d f2b3 babc e0d0 933b c93e 50bd
000000b0: c7a0 71bc 729a 35bc ffef a4bd 8f58 a7bd
000000c0: 1a28 0e3d c53c 7bbd 777d c1bc b1ab b93d
000000d0: f3ac 633c 627f 9e3c c8a7 143e 1142 95bc
000000e0: 16c2 b0bd 39da 953d b285 bfbc 7f38 d03d
000000f0: b45e 14bc 1b95 0e3d f675 3c3d 84a8 f73d
00000100: 02bc 093d 62e5 4a3d e476 483d 116b 853d
00000110: ddd6 adbc c9ed dc3d 45f8 12bd 4ba9 87bd
00000120: 1067 4a3d af37 c8bc 7bf6 80bc 8b96 283e
00000130: f103 013e 3cad 2fbd 9aaa ca3c 641f 853c
00000140: 5324 65bd 52c6 14bd 2a87 7abd 98a3 ba3d
00000150: f1a7 953d 8a40 28bd a352 a1bd 65aa 74bd
00000160: 14b8 a33d 79bd 09be e769 483c ac69 893c
00000170: 0d2a ab3c c09d fd3c f290 943d 8070 4bbd
00000180: ae6d 8b3b 172f a73c ad27 3cbb d526 a0bc
00000190: 8cef ff3a a578 9cbd 2546 683c d0e4 cc3b
000001a0: cf10 2b3d aa0a e13b 0741 3e3d 090c 0a3c
000001b0: af1e b83d 06e5 a2bd 3c64 0abd fb45 cc3c
000001c0: 10b7 263a f149 bc3d fed9 cf3c eb1e 30bd
000001d0: cc68 3f3d 86ae 71bd 06ba 93bd a45b 943c
000001e0: 0233 7bbc 5489 0c3d cac8 4a3d a644 f8bc
000001f0: 88de a8bd 00fe bf3b 59c0 65bd e768 aa3d
00000200: 92e5 a23d 0319 d1bd 6542 b23d 5052 923d
00000210: a48b 323d 3760 70bd da91 483c 4292 b03d
00000220: 729f 943d 7154 78bd 4e14 953c 2242 f73d
00000230: 8595 0d3d 43a3 533d 0309 c73d abfc cdbc
00000240: a74d acbd af5b fd3d 247b e7bc 5dc8 88bd
00000250: 7143 fbbb cd24 943d 5c5a 7dbc 7796 bc3d
00000260: 42f5 2f3d c9f2 0cbc 05d8 993d cf9b 603d
00000270: 4715 b9bb 0a5e adbd ca29 c13d 02e9 52bc
00000280: 8207 eabd 8965 da3c 06c1 b83c f4ad 023e
00000290: 9737 2fbd 1aec 883c d533 8ebb 872c 56bc
000002a0: 301c 9fbc 786d 7abb 24f0 4e3d 599c 363d
000002b0: 47be ad3c c313 6b3d 793d a03c 14eb d6bc
000002c0: dced e13d ca69 9d3b 0307 073d b48f 25be
000002d0: 69a7 533d a48f 58bc cd3c 68bd 75f7 cebd
000002e0: 0268 093c 7081 debc ee2e a13d c0df be3c
000002f0: 01a8 a73d 9e8e 803d 364c a13d 87cd 0a3d
00000300: 7f38 80bc d055 8e3b c331 9e3d c397 b33c
00000310: 6b91 17bd 8901 ba3d 472b 11bc 1ea0 17bd
00000320: 165f 77bd b7a9 bd3d 4f15 ce3d 0c58 84bd
00000330: 6c14 1a3c 6579 a93c 5bdf 64bd f544 df3c
00000340: 7dc2 853d 3857 bdbd 6416 0a3e a57f c43c
00000350: 2d01 bbbc cde1 60bd 70c5 2b3c 41da 013d
00000360: 1f3f a2bd d2b8 0c3d 75f9 2f3d 2633 833d
00000370: 3529 883d f500 69bc 2b61 c63d c5a0 523d
00000380: c708 05bd 186c 233a 98fc a03d 7135 f9bb
00000390: 6092 95bc 3157 b8bd 2408 f53c f508 e0bc
000003a0: ed50 3ebd 91d5 b4bc f449 733d 6900 e23d
000003b0: 9ac3 5f3d 378d 26bd a383 88bb 7138 9bbc
000003c0: e4ae c43c 3141 09bd 7be0 e03d cc1a 193d
000003d0: 4c87 51bd c1b1 82bd 8f33 c13d 0a5a 2cba
000003e0: 62c1 edbd fb76 7a3c 05ab 65bc fd53 bfbd
000003f0: ef36 a4bd ec82 b8bd 29d5 e23d 9c08 c0bd
-0.046257377 0.023447443 0.09786942 -0.077651344 -0.033861324 0.084700525 -0.03496438 0.034816634
-0.021309022 -0.00045825425 -0.0446504 0.108876765 0.008618111 0.0055139996 -0.0012830389 0.0034481592
-0.05398447 0.010842547 -0.023379896 -0.10217618 0.01730075 0.009413314 0.11703966 -0.002888559
0.02702895 0.118367754 0.050551124 -0.023159707 -0.09576904 0.06287467 -0.011483588 0.044504274
-0.10958913 0.028153928 -0.03547022 -0.010183615 0.06529601 -0.1294696 -0.10791081 0.10180469
0.03150451 -0.022790883 0.004510984 -0.050841127 -0.014747805 -0.011084186 -0.08053588 -0.08171188
0.034706213 -0.06133725 -0.023619397 0.09065951 0.013896215 0.01934785 0.14517128 -0.01821998
-0.08630769 0.07317013 -0.02337918 0.10167026 -0.009055782 0.034810167 0.046010934 0.12092689
0.033626564 0.049535163 0.048941508 0.06514562 -0.021220619 0.107875414 -0.0358813 -0.06624087
0.049414694 -0.024440615 -0.015742531 0.16463678 0.1259916 -0.04288982 0.024739552 0.01625032
-0.055942845 -0.036321945 -0.06116406 0.09113234 0.07307423 -0.041077174 -0.0787709 -0.059732813
0.079940945 -0.13451184 0.01223228 0.016774021 0.020894075 0.03095901 0.072542086 -0.049667835
0.004255018 0.020408196 -0.0028710172 -0.019549767 0.0019526347 -0.076401986 0.01417688 0.0062528625
0.041764077 0.0068677263 0.046448734 0.008425721 0.089902274 -0.07953839 -0.033786997 0.024935713
0.0006359676 0.09193791 0.025372501 -0.042998236 0.0467308 -0.05900433 -0.072132155 0.018110104
-0.015331985 0.034310654 0.049507894 -0.030306172 -0.082455695 0.0058591366 -0.05609164 0.0832079
0.07953943 -0.10209849 0.0870407 0.07144606 0.043590203 -0.058685508 0.012241805 0.086216465
0.07256974 -0.060627405 0.018198159 0.12073161 0.03456642 0.05166937 0.09718516 -0.025144896
-0.084132485 0.12371003 -0.02825696 -0.06678841 -0.0076679518 0.07233582 -0.015463438 0.092083864
0.042958505 -0.008602806 0.075119056 0.05483609 -0.0056482884 -0.08465202 0.09431799 -0.012872936
-0.11427213 0.026659744 0.022552978 0.1276167 -0.042777624 0.016714144 -0.004339675 -0.01307214
-0.01942262 -0.003821222 0.050521985 0.0445827 0.021208895 0.057391893 0.019560562 -0.02623514
0.11031696 0.004803871 0.03296567 -0.161681 0.051673327 -0.01321784 -0.05669861 -0.101057924
0.008386614 -0.02716133 0.07870279 0.023300052 0.08186341 0.06277202 0.07875864 0.033887412
-0.01565194 0.0043437257 0.07724335 0.021922952 -0.037003916 0.09082324 -0.008860416 -0.037017934
-0.060393415 0.09260886 0.10062658 -0.06462106 0.009404283 0.020687768 -0.05587707 0.027254561
0.06531236 -0.09245151 0.13485104 0.023986647 -0.02282771 -0.05490284 0.0104840845 0.031702284
-0.07922196 0.034355946 0.04296251 0.0640624 0.066484846 -0.01422142 0.09686502 0.051422853
-0.032479074 0.0006234064 0.078606784 -0.0076052477 -0.018258274 -0.090010054 0.029911108 -0.027348021
-0.046463896 -0.022074493 0.0593967 0.110352345 0.0546299 -0.040662017 -0.004166083 -0.018947812
0.024009176 -0.033509437 0.10980316 0.03737907 -0.05115442 -0.0638156 0.09433662 -0.0006574696
-0.116091505 0.015287156 -0.014017825 -0.09342191 -0.0801829 -0.09009346 0.11075813 -0.09376642

bias f4 [128]
00000000: 22bd 7d3d 3f8a f7bc b475 613d f5b8 9ebd
00000010: abc5 7a3d d728 5c3d 2c14 a8bd 16de d1bd
00000020: 1f34 063d e462 09bc 048f 92bc f740 69bc
00000030: 0d77 1dbd ccf6 ac3d 47f8 5a3c 4539 6cbd
00000040: 4257 04be 12be 0a3c dd34 453d 2b0a 7cbc
00000050: a4f0 d3bd e25f aebc 8eea 5cbd b666 30bd
00000060: 58aa 4c3d 1435 2bbd fd3f 553b b88b 32bc
00000070: 6b10 b5bd bff7 90bd 96b1 d6bc 38bc c8bd
00000080: 4923 04bd 0698 99bc d58d d8bd 0848 78bd
00000090: ee06 4dbd d413 883d e1c2 d5bd e5b6 d9bc
000000a0: 51b4 883d 6d1e 14be ab97 563d 6aee 7d3d
000000b0: 78c6 16bd 4bad 8cbd 8b29 0dbd 6c85 97bd
000000c0: a2b2 afbd d3d6 323d cf37 9fbd 2d03 02be
000000d0: 5006 0438 6098 21bd 096d e8bd 6a3a 583b
000000e0: 4376 b83d f437 a13d 2390 0b3d b7f9 47bd
000000f0: f9f7 3b3d 0d8f 20bd d9f1 fcbd 6f89 dabc
00000100: 45e1 e4bc 5f5a d43c 1c4f 0a3d e4df 6e3c
00000110: 9ebe 22be bc88 1c3d bf64 b5bc c708 6ebd
00000120: 5073 2abd a1a5 403d 6a16 9bbd d68e b9bc
00000130: e01f dd3c 3d4a ab3c 23ef 973d a183 04bd
00000140: 35ad 5ebd 266c 15bd 38fa fd3c 066e cbbc
00000150: 499a 40bc 2eb9 43bd 8199 e7bc 629a cebb
00000160: 74f6 963d a5bd c0bd 0bbc 87bd d3ca 9abd
00000170: c84a 733c af25 22bd 5431 223d b7f8 6fbd
00000180: 6456 75bd cb4f ed3c 9287 a33c 7861 9cbd
00000190: d843 3e3d 2d92 c6bd c8e2 413c 7f28 03bc
000001a0: 232b b9bd 941a b13d dc9b 88bc daee 583d
000001b0: 7875 febd 1b98 1f3d 5109 2e3d 72e4 dabd
000001c0: f86e 71bd b9d6 843d d0cf 863d 2027 eabd
000001d0: 617e 373d f526 cabd 1198 9a3d 37bf 02be
000001e0: e949 093d b3d9 b03d 1eef 623d 2879 5abd
000001f0: 7f12 1cbd 58dd 4ebd 377e 823d 8df8 8c3d
0.06194795 -0.030217288 0.05504389 -0.077501215 0.061223667 0.053749885 -0.082069725 -0.10247438
0.03276455 -0.008385394 -0.01789046 -0.01423668 -0.038443614 0.0844551 0.013364858 -0.057671804
-0.12923911 0.008468168 0.048146117 -0.015383284 -0.10348633 -0.021285955 -0.053934626 -0.043066703
0.04996714 -0.041798666 0.003253936 -0.010897569 -0.08841022 -0.07078504 -0.026207726 -0.09801525
-0.032260213 -0.018749248 -0.10573927 -0.06061557 -0.050055437 0.06644407 -0.10437561 -0.026576469
0.066750176 -0.14464732 0.052390736 0.061994947 -0.03681037 -0.068689905 -0.034463447 -0.07398495
-0.085789934 0.043661904 -0.077743165 -0.12696524 3.147713e-05 -0.039451957 -0.11348922 0.0032993802
0.09006932 0.07872 0.034073006 -0.04882213 0.045890782 -0.039198924 -0.12350816 -0.026676862
-0.027939448 0.025921999 0.03376685 0.014579747 -0.15893027 0.038216338 -0.022142766 -0.05811384
-0.041613877 0.047032956 -0.075726345 -0.022651117 0.026992738 0.020909423 0.074186586 -0.032352094
-0.0543644 -0.03648009 0.031003103 -0.024832737 -0.011755534 -0.047784023 -0.028271439 -0.006305025
0.07371226 -0.09411172 -0.06627663 -0.07558217 0.014849372 -0.03958672 0.039597824 -0.058586802
-0.05989684 0.028968712 0.019962106 -0.07635778 0.04645142 -0.096958496 0.011833854 -0.0080052605
-0.09041431 0.086476475 -0.016675882 0.05296216 -0.12424749 0.03896342 0.042489354 -0.10688104
-0.05894372 0.064862676 0.06582606 -0.11433244 0.04479826 -0.09870712 0.075485356 -0.12768255
0.03351775 0.08635273 0.05540382 -0.0533382 -0.038103577 -0.05050406 0.0637173 0.06883345

weight f4 [23, 128]
00000000: 180e 92bc 9af0 9bbc e41d 57bd fabd 5c3d
00000010: b538 98bd c139 d43c a48b fa3c 799c a6bd
00000020: 4d5f f5bc 85b6 24bc 4cf0 433d 90a2 39bd
00000030: bb35 dc3c 22bb 97bc cfcf 0bbc 2ebb 0f3c
00000040: 7c55 283b eed2 51bb aa05 80bd 2024 fbbc
00000050: 7cb2 b03d 1b61 0dbc f1c1 903d b67f 3f3d
00000060: 84a9 7f3b e722 fe3c 5792 003d 1204 22bd
00000070: 5feb 82bd 2bba eb3d cc62 7d3d 1b26 7abb
00000080: bc59 5a3d 8d8a a63d 465f 15bd aa4c c23c
00000090: da17 ab3d 5877 e1bd 1e11 813d 74b1 c2bc
000000a0: 0b65 09bd 5d7f 6dbc 2248 e3bd 7424 5fbd
000000b0: 77d0 98bb 6ae2 cd3d 7b63 67bc 7210 84bc
000000c0: 2a82 a53c 840c b4bd 108a aa3c 4541 103e
000000d0: d4d2 e03d 2f94 a83d 9def 573c c8eb b43c
000000e0: 62a8 b3bc 1611 0c3c a114 f4bd 4a6a 8c3d
000000f0: 1372 193d 4585 acbc a9be 0b3d 78d5 923d
00000100: c82d eebc 9c8c 4cbb 56f1 48bd 8800 63bd
00000110: dd0b 153c eec0 f63c 8908 443c 6ae8 cb3d
00000120: 49b2 333d 2929 ddbc d65e b63c 36a5 10b9
00000130: eac8 27be 6ed2 8b3c 021f bfbb fc8a 293d
00000140: c9bc 073d 69e8 043d e12f bb3d 06f1 673d
00000150: eff0 57bc 2360 37bd 3fa2 943d fbbb 4abd
00000160: 4c06 9e3d 0d62 3c3d 11a9 953c 138d a53b
00000170: c490 02bc d1a0 133c 7e88 f73b e77e dc3c
00000180: d175 003d efee bcbd ba69 c2bd b131 24bd
00000190: a434 a63d 20e5 4a3d a420 d5bc a1a3 f1bc
000001a0: 4381 2b3c 184a 07bd 56a5 0f3d b98f 5a3d
000001b0: 5390 553d ec8b 583c 60ec 06bd 4eda d93d
000001c0: ee87 a33c 2cd0 b1bd c831 c43c d0a4 27bd
000001d0: 2873 81bd 7e6c c1bb 0b63 853d a847 3a3d
000001e0: 7312 2ebe e593 d93c cd73 81bd ce94 ecbc
000001f0: 208e 083e f7b4 98bc 7af6 f2bd 441b 9f3c
00000200: 6920 893d 37ba 943c 10f9 543d dfd3 a5bd
00000210: a66e 663d 73fa 483d e413 473d 122f c3bc
00000220: 4fcf 163d f0e1 a3ba 805d 95bd d06b f8bc
00000230: 2e4a 463c b63e 923d 7858 34be 5bbf 16bb
00000240: 368f 21bd d740 113d 30a5 ae3d b5a7 7fbd
00000250: c117 7cbd b671 a13c 0792 60bd 4684 c3bd
00000260: 75be 463d 0128 253d 4201 263d 294d 193d
00000270: bdf3 8cbd 88af fabd 95b1 603d 3218 2b3d
00000280: ec65 65bd 6a2f 06bd 3369 cb3c 3131 d4bc
00000290: ffb4 843d dbc3 453d 4210 4bbb 9d45 4e3d
000002a0: 8a7d a13d 20eb 6dbc 2af7 4e3d fed8 a6bc
000002b0: bb11 d23c 1835 61bd 1ced 19be b1e6 cdbd
000002c0: 0608 b43b 5a4c e2bc 6609 163d ee20 99bd
000002d0: 96aa ac3c 2122 2a3d 4d2e f3bb fa98 bfbb
000002e0: 36bd 08bd 676f 4dbc 0429 b1bd 7969 02be
000002f0: 9675 a2bd fa49 6fbc 0af5 313d 467b dcbd
00000300: 4e62 1bbd bfa8 8b3d b1ad 2dbd e803 88bc
00000310: 32b6 6fbc 53f7 80bd 4f48 693c 8458 22bd
00000320: 2d74 64bd 6c8c bd3d e5d5 00bd 88ec a83b
00000330: 641c 1c3d 317a a73d 86b5 913d 0650 b0bc
00000340: 14eb e63d cdf6 223e 90b8 893d 567d 263b
00000350: ce9d 253e 228a 2d3d e8bb d2bd 4834 573b
00000360: 7b00 523d 10b3 10be 5b97 dbbc 7674 08bd
00000370: c141 a43d 5431 a53b b394 e0bc a891 8cbd
00000380: 7917 c13d b363 093d fe2a 323d ad3d 5dbd
00000390: 8f93 b8bd c9bb 81bd 4a8b 5abd 92da f53d
000003a0: d85c 413d 2009 d33b cf5a f83b 180f e53a
000003b0: 0a15 e4bc 47b2 d7bc 929c 073c 558a febd
000003c0: 464e cabb 6c4b 25bd 9446 b1bc d376 143c
000003d0: 36f8 a73c 0f90 7dbc dab4 893c cde4 3abc
000003e0: acd9 dd3d 5a95 923c 33f5 e23d 94bc 94bd
000003f0: 5e71 1bbc c09c 1d3b 6abf 3b3c 6583 0d3e
-0.017828986 -0.019035626 -0.05251874 0.053892113 -0.07432691 0.025906445 0.030584164 -0.081353135
-0.02995267 -0.010053282 0.047836587 -0.045321047 0.02688109 -0.018521849 -0.008533432 0.008772654
0.0025685718 -0.0032016593 -0.0625108 -0.030656874 0.08627793 -0.008629109 0.070682414 0.046752654
0.0039010951 0.031022502 0.03138956 -0.039554663 -0.0639255 0.11510118 0.0618618 -0.0038169685
0.053308234 0.08131895 -0.036467813 0.023718197 0.08354159 -0.11009091 0.06302093 -0.023766257
-0.033543628 -0.014495698 -0.110977426 -0.054478124 -0.004663523 0.10052951 -0.014122839 -0.016121123
0.020203669 -0.0879145 0.020817786 0.14087398 0.10977712 0.08231389 0.013179687 0.022085086
-0.021930877 0.0085489955 -0.11917997 0.068562105 0.037462305 -0.021059642 0.034117375 0.07169622
-0.029074565 -0.003121174 -0.04905828 -0.05542043 0.009097067 0.030121293 0.011964926 0.09956439
0.043871198 -0.026997166 0.022262018 -0.00013794456 -0.16385236 0.017068114 -0.005832554 0.04139231
0.033139024 0.032448206 0.091399916 0.056626342 -0.013180002 -0.044769417 0.072575085 -0.04949568
0.07716045 0.045991946 0.018269094 0.0050522177 -0.007969085 0.00901051 0.007554113 0.02691598
0.03136236 -0.092252605 -0.09492822 -0.040086452 0.08115509 0.049534917 -0.02601654 -0.02949697
0.01046783 -0.033029646 0.035069786 0.05335972 0.05213959 0.013216954 -0.03294027 0.106373414
0.019962277 -0.08682284 0.023949519 -0.04092866 -0.063207924 -0.005902826 0.065130316 0.045478493
-0.16999225 0.02655978 -0.06320915 -0.02887955 0.13335466 -0.018640978 -0.11863418 0.019422181
0.06695635 0.0181552 0.051995337 -0.08097052 0.056257866 0.049066972 0.048602954 -0.023826156
0.0368188 -0.0012503248 -0.07293224 -0.030324847 0.012102647 0.071408674 -0.17611873 -0.002300224
-0.039443217 0.035462227 0.08527601 -0.062415797 -0.06154609 0.019707542 -0.054826763 -0.095467135
0.048521478 0.040321354 0.040528543 0.0374271 -0.06882427 -0.12240511 0.054856855 0.04177112
-0.056005403 -0.03276006 0.024830436 -0.025902363 0.06479835 0.048282485 -0.0030985032 0.050359357
0.07885273 -0.01452139 0.050528683 -0.020367142 0.02564322 -0.054982275 -0.15031856 -0.100537665
0.0054941205 -0.027624298 0.036630057 -0.07476984 0.021077435 0.041536454 -0.007421291 -0.0058470936
-0.03338357 -0.012538767 -0.08650401 -0.12735547 -0.07932584 -0.01460504 0.043446578 -0.107657
-0.037935548 0.06819295 -0.042401973 -0.016603425 -0.014630841 -0.06297173 0.014238431 -0.039635196
-0.055774856 0.09255299 -0.031453986 0.00515515 0.038113013 0.08177603 0.07114701 -0.021522533
0.11275306 0.1591446 0.06724656 0.0025404296 0.16173479 0.04236806 -0.102897465 0.0032837559
0.05126999 -0.14130807 -0.02680557 -0.03331419 0.08020354 0.0050412808 -0.027414655 -0.06863719
0.09428305 0.033542346 0.04349803 -0.054013897 -0.090125196 -0.06334645 -0.053355493 0.120045796
0.047207683 0.006440297 0.0075791846 0.0017475812 -0.027842063 -0.026330126 0.008277075 -0.124287285
-0.0061738817 -0.04035513 -0.0216401 0.009061533 0.020504098 -0.015476241 0.01680987 -0.011407089
0.10832533 0.017893482 0.11081924 -0.07262531 -0.009487478 0.002404973 0.011459211 0.13819654

bias f4 [23]
00000000: d3e5 5ebe 15cb 303e ac26 ac3d 19c5 e83d
00000010: 8193 a2bd fc13 053e e88e da3c 322d 303d
00000020: ec80 49be cb8d 57bd 0590 783d 1ab4 8f3d
00000030: a1ba 623d eded 5a3d b01a cfbd 0119 d5bb
00000040: 7f17 5fbd e29e 79bc 4424 c23c 7a8a 003d
00000050: 4402 debd 9d72 0abd 5e88 ac3c
-0.21767358 0.1726497 0.084058136 0.113657184 -0.079382904 0.12995905 0.026679471 0.04301185
-0.19678086 -0.05262546 0.060684223 0.070167735 0.055353764 0.05344956 -0.10112512 -0.006503225
-0.054465767 -0.0152356345 0.023698933 0.03138206 -0.10840276 -0.03380071 0.021061119
