deploy/models/booster_gym_exp_hip/model_1000.pt (torch, 298238 bytes, 8 tensors)

weight f4 [256, 80]
0	0xbdcd6e8a	-0.10030849
1	0x3e809382	0.2511254
2	0xbd8733ff	-0.06601714
3	0x3d9d56c2	0.07682563
4	0xbc0d9e16	-0.008643648
5	0xbc2991c4	-0.010349695
6	0x3de0a8a2	0.10969664
7	0x3db0f171	0.08639801
8	0xbd85eb55	-0.06539027
9	0x3ddc125e	0.10745691
10	0x3ce1f7b1	0.027583929
11	0xbcabbb88	-0.020963445
12	0xbd85b1c1	-0.065280445
13	0xbc3cb8ea	-0.011518696
14	0x3ba20047	0.0049438807
15	0x3b4c027f	0.0031129417
16	0xbd17a1d9	-0.037019584
17	0x3bd6ccbc	0.006555168
18	0x3d214114	0.039368704
19	0x3c65edb6	0.0140337255
20	0x3c98ab32	0.01863632
21	0x3e44206a	0.1915299
22	0xbe071f32	-0.13195494
23	0xbde7456c	-0.11292538
24	0x3db6af5a	0.089201644
25	0xbe07a65d	-0.13247056
26	0x3db9de29	0.09075577
27	0xbe1e8de4	-0.15483814
28	0xbed49279	-0.41518
29	0xbd5f3e4b	-0.054502767
30	0x3e66f70b	0.22555177
31	0xbe70ec15	-0.23527558
32	0xbd314c2b	-0.04328553
33	0x3e8d23c6	0.27566355
34	0x3ddab4bc	0.106790036
35	0x3e001915	0.12509568
36	0xbca0bc50	-0.019621044
37	0x3cd9d99f	0.026593028
38	0xbccf0ea0	-0.025275528
39	0xbb0f090c	-0.002182546
40	0x3d6a94e8	0.057270914
41	0x3cb91bb1	0.022596212
42	0x3d05e674	0.03269048
43	0xbbdc0a6f	-0.006715111
44	0x3dbd9a35	0.09257928
45	0x3bd0d3a9	0.006372888
46	0xbe128e9d	-0.14312215
47	0xbda97702	-0.08274652
48	0x3dee1f80	0.11627102
49	0xbd519750	-0.051169693
50	0xbd80affe	-0.06283568
51	0x3d155c0c	0.036464736
52	0x3d360908	0.044442207
53	0xbddf759f	-0.10911106
54	0x3bbf2b40	0.005834013
55	0x3d631bc8	0.055446416
56	0x3d0109c8	0.03150347
57	0xbd871f85	-0.06597809
58	0x3db118dc	0.0864732
59	0xbcd23340	-0.025659204
60	0x3d023ff8	0.031799287
61	0xbdfa5289	-0.122227736
62	0xbd175450	-0.03694564
63	0x3b97fe30	0.004638456
64	0xbbe5f867	-0.0070181373
65	0xbc87ba61	-0.016568365
66	0x3dba6030	0.091003776
67	0x3c9cefe6	0.019157361
68	0xbb770384	-0.0037691304
69	0xbd01bbc4	-0.031673208
70	0x3e237873	0.15963916
71	0xbda546b6	-0.08070128
72	0x3c9f11d0	0.019417673
73	0x3d04226a	0.032259382
74	0xbc679ae0	-0.014136046
75	0x3e3f6ca4	0.18693787
76	0xbd7e40d0	-0.06207353
77	0xbc483cd3	-0.012221533
78	0xbdabf06d	-0.08395467
79	0x3de9ccbb	0.11416002
80	0xbe78e99a	-0.24307862
81	0xbe2209b2	-0.15824011
82	0xbe0febd1	-0.140548
83	0xbccd2bd0	-0.025045305
84	0x3cd66ca7	0.026174856
85	0xbd5c8e91	-0.0538469
86	0xbd6b5d77	-0.057462182
87	0xbd9b6d32	-0.07589187
88	0x3d5626c8	0.05228308
89	0xbd2ae672	-0.041723676
90	0xbdc4dd61	-0.09612537
91	0xbdb1525f	-0.08658289
92	0x3d6c1e85	0.057646293
93	0xbd397449	-0.045276914
94	0xbe07d0b0	-0.13263202
95	0x3c761712	0.015020149
96	0xbd92418c	-0.07141408
97	0x3d643474	0.055714086
98	0x3c8044f8	0.015657887
99	0x3ca910b4	0.020637847
100	0xbd767f5b	-0.06018005
101	0x3d9bca9d	0.07607005
102	0xbe5cf284	-0.21576887
103	0xbc641532	-0.013921069
104	0xbdb59cfb	-0.08867832
105	0xbe62365f	-0.22091053
106	0x3c907718	0.017634913
107	0x3bcda083	0.006275238
108	0xbd9d0f72	-0.076689616
109	0xbe5b1e44	-0.21398264
110	0xbd906d37	-0.07052081
111	0x3e09a9c2	0.13443664
112	0xbeaaca97	-0.3335769
113	0xbcb85d2a	-0.022505362
114	0x3c6066f7	0.013696424
115	0xbda96aa8	-0.08272296
116	0xbddd51d4	-0.10806623
117	0xbcf1117a	-0.029427279
118	0xbd47c281	-0.048769478
119	0x3db4ebb5	0.0883402
120	0xbd844c1a	-0.06459828
121	0xbd0476c1	-0.032339815
122	0xbc21a8cc	-0.0098669045
123	0x3c38b727	0.011274136
124	0x3d911343	0.07083752
125	0x3e65b4cb	0.22432248
126	0x3cf673a5	0.03008444
127	0xbde5b99f	-0.11217045
128	0x3e345ace	0.17612764
129	0x3dd588bb	0.1042647
130	0xbd2f8714	-0.04285343
131	0x3df26e44	0.11837438
132	0xbe0fe692	-0.140528
133	0xbded2d6b	-0.115809284
134	0x3e1a7ac7	0.15085898
135	0x3de3e4ce	0.111276254
136	0x3d1de3c3	0.03854729
137	0x3ddde626	0.10834913
138	0x3e1986a5	0.14992769
139	0x3d839828	0.06425506
140	0xbc226632	-0.009912061
141	0xbcfe7993	-0.03106383
142	0x3d2c8389	0.04211763
143	0xbd6d1689	-0.05788282
144	0xbdbbcdcd	-0.09170113
145	0xbcca63cf	-0.024705796
146	0x3cd48bc8	0.02594556
147	0xbcc6ffe1	-0.024291934
148	0x3d3cd48c	0.046101138
149	0x3d9a2846	0.07527213
150	0x3d42f23f	0.047594305
151	0x3e3939d9	0.18088473
152	0x3d0ed469	0.03487054
153	0x3e26e0ad	0.16296645
154	0x3ce80800	0.028324127
155	0x3c21c84f	0.009874417
156	0x3b41608d	0.0029507012
157	0x3d4f02d0	0.05053979
158	0xbd805c85	-0.06267647
159	0xbddbca95	-0.10731999
160	0x3d15e682	0.036596783
161	0x3e958590	0.29203463
162	0x3d9028a7	0.07039004
163	0xbcd5127b	-0.026009789
164	0xbd97dd71	-0.074152835
165	0xbc03d809	-0.008047112
166	0xbd1d3f55	-0.038390476
167	0xbceb3659	-0.028712438
168	0x3ce5e4a3	0.028063124
169	0x3dd590e2	0.10428025
170	0xbc2ffaca	-0.010740945
171	0xbda64706	-0.081190154
172	0xbcecc8b8	-0.028904304
173	0x3d1d4d1d	0.03840362
174	0x3d7997fe	0.060935967
175	0xbd52a401	-0.051425938
176	0x3c0111c2	0.007877769
177	0xbe0a0fe2	-0.13482621
178	0x3d64ff1e	0.05590736
179	0x3d3b0f98	0.04566917
180	0x3d4cb52a	0.04997746
181	0x3dd891a9	0.105746575
182	0x3c60b5fc	0.013715263
183	0xbf05efd3	-0.5231907
184	0x3c8eddd3	0.017439758
185	0x3df319c7	0.11870151
186	0x3c8cb66e	0.017176833
187	0x3d9d6158	0.076845825
188	0xbddc1e52	-0.10747971
189	0xbc9037a8	-0.017604664
190	0x3e27e56b	0.1639611
191	0xbeb931c3	-0.36170778
192	0x3e88ed07	0.26743338
193	0x3da93099	0.082612224
194	0xbd7174d1	-0.058949295
195	0xbe18c1b1	-0.14917637
196	0xbd2b26ac	-0.041784927
197	0x3d40a6d6	0.047034107
198	0x3cbccc16	0.023046535
199	0xbde9e5da	-0.11420794
200	0xbdd865ef	-0.10566317
201	0xbd7c08a6	-0.061531685
202	0xbd41e901	-0.04734135
203	0xbe02034a	-0.12696567
204	0xbba0f43a	-0.0049119266
205	0x3d0671b4	0.03282328
206	0xbdcd16dc	-0.10014126
207	0x3d2c75da	0.04210458
208	0x3d20e808	0.039283782
209	0x3e01ebd5	0.12687619
210	0xbd7885d2	-0.060674496
211	0xbe72c529	-0.23708023
212	0xbd8b8277	-0.068119936
213	0x3e0c8e95	0.13726266
214	0xbe4aec7a	-0.19816771
215	0xbd256bb4	-0.040385917
216	0xbd5ba689	-0.053625617
217	0x3d103207	0.03520396
218	0x3c91573f	0.017741797
219	0x3dcb8c05	0.09938816
220	0xbd360d98	-0.044446558
221	0x3d7517c5	0.05983712
222	0xbdbc100d	-0.09182749
223	0x3d6698e4	0.05629815
224	0xbd474115	-0.04864605
225	0x3d8fd089	0.07022197
226	0x3d51a1db	0.051179748
227	0x3dd20808	0.10255438
228	0x3d658a01	0.056039814
229	0x3d88bacc	0.06676254
230	0x3d1ad8d2	0.037804432
231	0xbe14919a	-0.14508668
232	0xbdf3a429	-0.118965454
233	0xbe122699	-0.14272536
234	0xbca91266	-0.020638656
235	0x3e0fe75b	0.14053099
236	0x3cca1bd3	0.02467147
237	0xbe1b560e	-0.15169546
238	0xbda481a8	-0.080325425
239	0x3dd16a8f	0.102254026
240	0xbf0a5deb	-0.5404956
241	0x3e4d0887	0.20022784
242	0x3d9d782d	0.07688937
243	0xbd4ed15c	-0.05049263
244	0xbd5bf1e5	-0.053697485
245	0x3d09ec0c	0.033672377
246	0xbd8bf06c	-0.06832966
247	0x3dddd173	0.10830965
248	0xbd928caf	-0.071557395
249	0x3d0c9a47	0.034326818
250	0x3dd64ce1	0.10463882
251	0xbc94a515	-0.018145123
252	0xbe100dc4	-0.14067751
253	0x3d100c0b	0.035167735
254	0x3d2fe43a	0.042942263
255	0xbd46ef88	-0.04856828

bias f4 [256]
0	0xbd969d1d	-0.07354186
1	0x3d210896	0.03931483
2	0x3d5b5487	0.05354741
3	0x3db642ab	0.08899435
4	0x3dae0987	0.08497911
5	0x3c86ab34	0.016439058
6	0x3a98724b	0.0011630742
7	0xbd734a7d	-0.05939721
8	0x3c9f1123	0.019417351
9	0x3cb85cf2	0.022505257
10	0xbd0d5a51	-0.03450996
11	0xbdd3aeb7	-0.103360586
12	0x3def8749	0.116957255
13	0xbd1673e8	-0.03673163
14	0xbdc1da52	-0.094654694
15	0x3c03c270	0.008041963
16	0xbd1da318	-0.038485616
17	0x3db40954	0.08790842
18	0x3de91161	0.11380268
19	0xbdc2417f	-0.09485149
20	0x3c85630c	0.01628258
21	0xbcc71209	-0.024300592
22	0x3dc017e0	0.09379554
23	0xbe0025e1	-0.1251445
24	0xbcf6b6c9	-0.030116456
25	0x3d69eaa8	0.05710855
26	0x3de756b6	0.11295836
27	0x3cf42fad	0.02980789
28	0x3dd1ed2d	0.10250316
29	0xbd909fd7	-0.07061737
30	0xbd22d528	-0.039754063
31	0xbddc8836	-0.10768168
32	0x3d5f4639	0.05451033
33	0x3d469ad7	0.04848751
34	0xbc40ea8b	-0.011774669
35	0xbddf0ad4	-0.10890737
36	0xbd2cacd2	-0.042157
37	0xbd4d4c8d	-0.050121833
38	0xbdb0925e	-0.08621667
39	0x3da8bf22	0.08239581
40	0x3d170950	0.036874115
41	0xbddd7d6d	-0.10814939
42	0x3c8b31ec	0.016991578
43	0x3d582c90	0.052776873
44	0x3d4eb0b3	0.050461482
45	0xbd4e5f7e	-0.050384037
46	0x3ddf4c6c	0.10903248
47	0x3df095fa	0.11747356
48	0xbbcd1418	-0.006258499
49	0xbd84e714	-0.06489387
50	0x3ddeb31d	0.10874007
51	0xbd834d7a	-0.06411262
52	0x3d2a37b2	0.04155702
53	0xbd6d25f2	-0.057897516
54	0x3d417328	0.047228962
55	0xbb92d1f3	-0.0044805943
56	0xbd28d7d6	-0.041221462
57	0x3d8210b7	0.06350844
58	0xbd5d43ec	-0.054019853
59	0xbab3bee2	-0.0013713504
60	0x3d8c6df5	0.0685691
61	0xbc485e96	-0.012229582
62	0x3df52b30	0.11971128
63	0x3dab6007	0.08367925
64	0xbd6445f0	-0.05573076
65	0x3da8d2d0	0.08243334
66	0x3ddc9dbd	0.10772274
67	0xbddfeeca	-0.10934217
68	0x3d637032	0.05552692
69	0x3dc9acb1	0.098473914
70	0xbd25e100	-0.04049778
71	0x3b26ac86	0.0025432422
72	0x3c5792fa	0.013157601
73	0x3d83c6d3	0.06434407
74	0x3ddec15f	0.10876726
75	0xbd41a1d9	-0.04727349
76	0xbd58c25f	-0.05291974
77	0x3d1aadcc	0.037763402
78	0xbd863b80	-0.065543175
79	0x3d43bf33	0.047789764
80	0xbd847a81	-0.06468678
81	0x3de6fc74	0.1127862
82	0xbdb2e9ec	-0.08736023
83	0x3cbae43b	0.022813907
84	0x3daf6aac	0.08565268
85	0x3d5d0358	0.053958267
86	0xbd2a85ac	-0.041631386
87	0xbda26ec0	-0.0793128
88	0x3d036d93	0.03208692
89	0xbd89f09b	-0.06735345
90	0x3c46ae2f	0.01212649
91	0xbd1d5091	-0.038406912
92	0xbce2fe71	-0.027709218
93	0x3d8e9348	0.069616854
94	0xbdcf8626	-0.10133009
95	0x3ba675db	0.0050799674
96	0xbda07553	-0.07834878
97	0xbdbc810d	-0.09204302
98	0x3db11358	0.08646268
99	0x3d282e42	0.04105974
100	0x3daf374e	0.085554704
101	0x3dafde26	0.08587293
102	0xbd903b95	-0.07042614
103	0xbda6684c	-0.08125362
104	0x3db2c9d2	0.087299004
105	0xbdbb43a8	-0.09143764
106	0x3d844720	0.064588785
107	0xbdec1ef1	-0.11529339
108	0x3cb5da8f	0.022198943
109	0xbc9f6d7f	-0.019461391
110	0xbc3315e3	-0.010930511
111	0xbd34774a	-0.044059075
112	0x3df45877	0.11930936
113	0x3dd47a09	0.10374839
114	0xbd3d5f56	-0.046233498
115	0x3d9ebc68	0.077507794
116	0xbcc72822	-0.024311129
117	0xbd0acd99	-0.03388748
118	0x3b25862d	0.0025256977
119	0xbd9f02a0	-0.077641726
120	0x3d945dc2	0.072444454
121	0x3bd918c8	0.0066252686
122	0x3c2bd2f2	0.010487305
123	0x3d98d517	0.07462519
124	0x3b4aaf94	0.0030927407
125	0xbc5aa51d	-0.01334503
126	0xbdd50df2	-0.104030505
127	0x3d3cb866	0.046074294
128	0xbb0dda51	-0.002164502
129	0xbd25c9dd	-0.040475715
130	0x3ce33615	0.02773575
131	0x3d6cf029	0.057846222
132	0xbd53d691	-0.0517183
133	0xbda4d51c	-0.0804846
134	0xbd4e773c	-0.05040668
135	0x3dad8ef3	0.08474531
136	0x3da9dbcf	0.08293878
137	0x3d9a54a0	0.07535672
138	0xbb4d816e	-0.0031357664
139	0xbceecdd3	-0.029150879
140	0x3d252ce6	0.04032602
141	0x3cb5f348	0.022210732
142	0x3d0b6e54	0.034040764
143	0xbcd36a47	-0.025807513
144	0xbd32c3c5	-0.04364373
145	0xbd8d5f83	-0.06902983
146	0xbd3b654b	-0.045750897
147	0xbc9056d0	-0.01761952
148	0x3d84618c	0.06463918
149	0xbc815f35	-0.015792469
150	0x3d670f94	0.05641134
151	0x3e01eb75	0.12687476
152	0x3c94528e	0.018105771
153	0xbdad521b	-0.08462926
154	0xba2b10f9	-0.00065256614
155	0x3d319873	0.043358278
156	0x3d7a0286	0.061037563
157	0x3cdcb114	0.026939906
158	0xbe0be4d5	-0.13661511
159	0x3da51f2a	0.08062585
160	0xbd8318f6	-0.06401245
161	0xbb68a06f	-0.0035496016
162	0x3d9a4911	0.075334676
163	0x3e0999bd	0.13437553
164	0x3db0743c	0.0861592
165	0x3ccf83c2	0.025331382
166	0xbd8a0e87	-0.06741052
167	0xbdbc4e27	-0.09194594
168	0x3d9ecaf7	0.07753556
169	0xbd2e0c47	-0.042492177
170	0x3d22255b	0.039586406
171	0x3cd8b70a	0.026454467
172	0x3a3d76a0	0.00072274543
173	0x3d587121	0.052842263
174	0x3d6da665	0.058020014
175	0x3d997285	0.07492546
176	0xbdb512c8	-0.08841473
177	0xbcb16154	-0.021652855
178	0x3dce0c5f	0.10060953
179	0xbcb89967	-0.022534085
180	0xbd5d6d81	-0.05405951
181	0xbd5dbc53	-0.054134678
182	0xbdb422c0	-0.087956905
183	0x3b11a91d	0.0022226044
184	0x3c80a550	0.015703827
185	0xbc9365b8	-0.01799284
186	0xbdbdaab3	-0.09261074
187	0xbd1cbe9b	-0.038267713
188	0x3d483e35	0.04888745
189	0x3ceb40d9	0.028717445
190	0xbddc2240	-0.1074872
191	0xbd66852d	-0.05627935
192	0x3de9cfbe	0.11416577
193	0xbd067e66	-0.032835387
194	0xbd99e689	-0.07514674
195	0xbd86b4a7	-0.065774255
196	0xbcee6f74	-0.02910588
197	0x3cbdea5c	0.02318304
198	0x3dc1949f	0.09452175
199	0xbdab1654	-0.08353868
200	0xbdd4c29b	-0.103886805
201	0x3da220d4	0.07916418
202	0xbd367ec7	-0.044554498
203	0xbc864048	-0.016388074
204	0x3da31f4e	0.07964955
205	0x3c297555	0.010342916
206	0x3d1aab75	0.03776117
207	0x3b5e9623	0.0033964
208	0x3d70611b	0.058686357
209	0x3d275414	0.040851668
210	0xbc3f557d	-0.011678097
211	0xbdb5419c	-0.088504046
212	0x3ba026ee	0.0048874533
213	0xbd9e2650	-0.07722151
214	0xbd48c896	-0.04901942
215	0x3d4b9883	0.049705993
216	0x3d1ad3da	0.037799694
217	0xbc9327a4	-0.017963238
218	0x3d0a64a3	0.03378738
219	0x3dc8d168	0.09805566
220	0x3cc3759b	0.02385979
221	0xbd9ab7d3	-0.07554593
222	0x3cf4adc9	0.029868023
223	0x3daa600d	0.083191015
224	0x3b423331	0.0029632563
225	0xbdba2f85	-0.09091095
226	0x3cc7cb5f	0.024388967
227	0xbd9609dc	-0.07326099
228	0xbc45ed1f	-0.01208046
229	0x3ddf8d09	0.10915572
230	0x3d442968	0.04789105
231	0x3d45d850	0.048301995
232	0xbd0fdee3	-0.03512467
233	0xbc4bec7d	-0.01244652
234	0xbd4fe7c6	-0.050758146
235	0xbcae04bb	-0.02124249
236	0x3cc2d82d	0.023784721
237	0xbd961f10	-0.073301435
238	0x3d72e228	0.05929771
239	0x3dbdcb3d	0.0926728
240	0xbd121935	-0.03566857
241	0xbce308d1	-0.027714165
242	0xbbf7b6f5	-0.007559652
243	0x3d3d6716	0.04624089
244	0x3d6fc077	0.05853316
245	0xbcdab420	-0.026697218
246	0xbce5236e	-0.027970996
247	0x3ce9fa76	0.028561812
248	0xbddb273e	-0.10700844
249	0xbdccb700	-0.09995842
250	0x3dacc88e	0.0843669
251	0xbc0562ea	-0.008141259
252	0xbd2843aa	-0.041080154
253	0xbc9536ec	-0.018214665
254	0xbd0b99ec	-0.03408234
255	0x3d636a9e	0.0555216

weight f4 [128, 256]
0	0x3c4159c5	0.011801188
1	0x3df914cd	0.121621706
2	0x3d6c3e8d	0.05767684
3	0x3c98f231	0.018670173
4	0x3cd4eb45	0.025991092
5	0x3c554279	0.013016337
6	0x3d246379	0.040133927
7	0x3c9b65fb	0.018969527
8	0xbdd70d2f	-0.105005614
9	0xbd1cdbb0	-0.038295448
10	0xbc8594bc	-0.016306274
11	0x3d956578	0.07294744
12	0x3d858ff3	0.06521597
13	0xbd363c45	-0.04449107
14	0x3e0690cb	0.13141172
15	0xbdb1fcb6	-0.08690779
16	0xbd464539	-0.04840586
17	0xbd7b0ecb	-0.061293405
18	0x3d8d81a6	0.06909494
19	0xbc8845fd	-0.016634936
20	0x3dcd59aa	0.10026868
21	0xbc2b1ae1	-0.01044342
22	0xbdab2714	-0.08357063
23	0xbd22c114	-0.039734915
24	0xb9075222	-0.000129052
25	0x3d78e907	0.060769107
26	0xbd93bfe0	-0.072143316
27	0x3d798775	0.060920198
28	0x3ddfa695	0.10920445
29	0xbdc94a57	-0.09828632
30	0x3d953944	0.07286313
31	0x3d8ea6cd	0.069654085
32	0x3d78363b	0.060598593
33	0x3c8bdb05	0.01707221
34	0x3d4cee83	0.05003215
35	0x3c5a6790	0.013330355
36	0xbc8fecc3	-0.017568951
37	0x3d5c991e	0.05385696
38	0x3ddde82c	0.10835299
39	0x3c8a87bb	0.016910424
40	0x3c488cf3	0.012240636
41	0x3d2f2c0c	0.042766616
42	0x3cb2303b	0.021751514
43	0x3ca9f63b	0.020747295
44	0xbbd151f7	-0.006387945
45	0x3d53fe12	0.051755972
46	0xbccd45bf	-0.025057672
47	0x3dc7468b	0.09730252
48	0x3e11d48a	0.14241233
49	0x3d2b2dc5	0.041791696
50	0xbd85207a	-0.06500335
51	0x3d855e17	0.06512087
52	0xbd6cfe4a	-0.057859696
53	0xbd7d0d5f	-0.06178033
54	0xbdd33a36	-0.10313837
55	0xbd2e3a51	-0.042536084
56	0xbcb38082	-0.021911863
57	0x3d3f18ad	0.046654392
58	0x3d5db921	0.05413163
59	0x3d84bd69	0.064814396
60	0xbd105479	-0.03523681
61	0x3cc13557	0.023585005
62	0xbdab0a47	-0.083515696
63	0x3cfba00d	0.030715967
64	0xbd205254	-0.039141014
65	0x3d40fd0a	0.047116317
66	0xbc8e3057	-0.017357035
67	0x3d4cee57	0.050031986
68	0xbde00a51	-0.10939468
69	0x3c5ff6ef	0.013669713
70	0xbdd5aa11	-0.10432828
71	0x3cc6258f	0.024187831
72	0xbd95b58e	-0.073100194
73	0x3cc1ac59	0.023641752
74	0x3db6e7d3	0.08930936
75	0x3c875bef	0.01652333
76	0x3d3652e4	0.044512644
77	0xbd19c393	-0.03754003
78	0xba9c6ace	-0.0011933686
79	0x3d27e7cd	0.040992547
80	0x3c90a5a5	0.01765711
81	0xbe151ceb	-0.14561813
82	0x3baaefb6	0.005216564
83	0xbb197851	-0.0023417661
84	0xbe42a2b4	-0.19007379
85	0x3d10a223	0.035310876
86	0x3c2b8b84	0.010470275
87	0x3dd71bae	0.10503326
88	0x3d1c6490	0.03818184
89	0x3cfd1792	0.030895028
90	0x3da8dabd	0.08244846
91	0xbcd49860	-0.025951564
92	0x3d5b6f00	0.053572655
93	0x3d7ceee7	0.061751273
94	0x3d07456c	0.03302519
95	0xbd43d426	-0.047809742
96	0x3e0acbb7	0.13554274
97	0x3b9a6e67	0.004712868
98	0x3da1abe3	0.07894113
99	0xbb7d2e60	-0.0038632378
100	0xbdb29d79	-0.08721442
101	0xbd465c08	-0.04842761
102	0x3c194399	0.009354495
103	0xbb83128e	-0.0040000146
104	0x3cf389c1	0.029728772
105	0xbdd769f0	-0.10518253
106	0xbcc0276a	-0.023456294
107	0xbcfe505a	-0.031044174
108	0x3e0ddd85	0.13854034
109	0xbd2f57e1	-0.042808417
110	0xbdf3dcd3	-0.11907353
111	0x3c650844	0.013979021
112	0x3cedda21	0.029034676
113	0xbb53462d	-0.0032237873
114	0xbb347b4e	-0.0027539316
115	0x3d6c2f9c	0.05766259
116	0x3cfebf27	0.031097008
117	0x3e10c34f	0.14137004
118	0x3d50e51b	0.050999742
119	0xbd4963f7	-0.0491676
120	0xbca575f9	-0.020197855
121	0xbcd5e081	-0.026108028
122	0xbbca4f02	-0.0061739692
123	0xbcb80a99	-0.02246599
124	0x3d3f2cc1	0.04667354
125	0xbd35b925	-0.04436602
126	0xbd3065c8	-0.043065816
127	0x3c7f1261	0.015568347
128	0xbd1dce6d	-0.03852694
129	0x3d95186b	0.07280048
130	0xb9dbc5e6	-0.0004191838
131	0xbd8b2e02	-0.06795885
132	0xbda32fce	-0.079681024
133	0xbcbfde3e	-0.023421403
134	0x3db31e98	0.0874607
135	0xbc3ede4f	-0.011649682
136	0x3d2857b1	0.041099254
137	0xbda541ac	-0.080691665
138	0x3c1da7cb	0.0096225245
139	0x3a8e5fae	0.0010862255
140	0xbd96f533	-0.07370987
141	0x3d3bfed6	0.045897327
142	0xbc8f78e5	-0.017513702
143	0xbb487be4	-0.0030591423
144	0xbd8011a4	-0.06253365
145	0x3ad0e536	0.0015937451
146	0x3dda5b01	0.10661889
147	0xbda14b2c	-0.07875666
148	0x3b8a1bce	0.0042147404
149	0xba1626ad	-0.0005727809
150	0xbb5b033d	-0.0033418678
151	0x3da9457a	0.08265205
152	0xbdafa5c2	-0.08576538
153	0x3d949154	0.07254282
154	0x3cb73ed1	0.02236882
155	0xbd52b63f	-0.051443335
156	0xbd317cd1	-0.043331925
157	0x3c613c43	0.013747278
158	0xbc94247a	-0.0180838
159	0x3d696bca	0.05698756
160	0xbdc2d2ed	-0.09512887
161	0x3c422ceb	0.01185153
162	0xbe037044	-0.12835795
163	0xbd85d1c1	-0.06534148
164	0x3d4a2fa9	0.04936186
165	0x3d3227b1	0.043494884
166	0x3da72c82	0.08162786
167	0x3c8528ba	0.016254772
168	0xba8abc36	-0.0010584656
169	0x3d041598	0.032247156
170	0xbe1586ca	-0.14602199
171	0x3dca3aaf	0.09874474
172	0xbddc4af5	-0.107564844
173	0x3cb0a7d2	0.021564398
174	0x3ca64f49	0.020301478
175	0x3d44c1d5	0.048036415
176	0x3da2e90a	0.07954605
177	0xbc74a76d	-0.014932496
178	0xbd31f334	-0.043444827
179	0xbcb9fc87	-0.022703422
180	0x3d3e8357	0.046511974
181	0xbd4c6c05	-0.049907703
182	0x3d36fcd1	0.0446747
183	0x3df42903	0.11921885
184	0x3e059382	0.13044551
185	0x3d558078	0.05212447
186	0xbe04f3f8	-0.12983692
187	0x3d5ea81f	0.05435955
188	0xbd85d1d3	-0.065341614
189	0x3dbd452a	0.092417076
190	0xbd740294	-0.05957277
191	0xbda06e86	-0.07833581
192	0x3ca42d4b	0.020041129
193	0x3d877189	0.06613452
194	0x3c9ba179	0.018997895
195	0xbd883644	-0.06650975
196	0x3da960dc	0.082704276
197	0x3cd0cb9a	0.02548771
198	0x3cdb54b0	0.02677378
199	0xbd43fcd4	-0.047848538
200	0xbcb04871	-0.021518918
201	0xbd9bdec0	-0.076108456
202	0x3d5b392b	0.053521316
203	0x3d5b1fff	0.05349731
204	0x3c18ccb3	0.009326148
205	0x3cddef0b	0.027091524
206	0xbc498a40	-0.012301028
207	0xbc14a513	-0.00907256
208	0xbdc0cbaf	-0.094138496
209	0xbd13072d	-0.035895515
210	0x3c8a75a1	0.016901793
211	0xbd43d6da	-0.04781232
212	0x3c8008d7	0.015629215
213	0xbdd54f3d	-0.10415504
214	0x3dd05fdb	0.10174533
215	0xbc452813	-0.01203348
216	0x3d45c99a	0.048287965
217	0xbde3c0a4	-0.11120728
218	0xbce49d09	-0.027906911
219	0x3c8904a3	0.016725844
220	0x3c53beef	0.01292394
221	0xbd47c9c7	-0.048776414
222	0xbde026e2	-0.10944916
223	0xbcf9a00c	-0.030471824
224	0x3d7f6943	0.062356245
225	0x3e029018	0.1275028
226	0x3d5e665f	0.054296847
227	0x3c7ab1ff	0.015301227
228	0xbce11d58	-0.027479813
229	0x3b5a2d5b	0.0033291194
230	0xbd3b32a8	-0.045702606
231	0xbb92ab21	-0.0044759666
232	0x3c98fb81	0.018674614
233	0xbce74f0e	-0.028235938
234	0xbd0ec916	-0.03485974
235	0x3b8e628d	0.0043452443
236	0xbd4d7e65	-0.050169367
237	0xbd9220fc	-0.071351975
238	0x3db9695a	0.09053297
239	0xbdc9d4d2	-0.098550454
240	0x3cd8e34e	0.026475575
241	0xbd0c487e	-0.03424882
242	0xbaa96a71	-0.0012925399
243	0x3d82c446	0.063850924
244	0x3ce0bc11	0.027433427
245	0x3d8913d7	0.06693237
246	0xbdb1b0ce	-0.08676301
247	0xbdd10097	-0.10205191
248	0xbded88e1	-0.11598373
249	0x3b6978a0	0.0035624877
250	0xbd7b50f8	-0.061356515
251	0x3cb69510	0.022287875
252	0x3dc041bc	0.09387538
253	0xbd413de9	-0.047178183
254	0x3d3e68ad	0.046486545
255	0x3d3fc517	0.04681882

bias f4 [128]
0	0xbcaa93a5	-0.020822356
1	0x3d657c00	0.05602646
2	0xbd7e83e3	-0.062137496
3	0xbd0e4a93	-0.03473909
4	0x3c8580f2	0.016296837
5	0xbcfd099f	-0.030888377
6	0x3ba1051c	0.004913939
7	0x3d163e82	0.036680706
8	0x3d7aa353	0.061190914
9	0x3ca49c84	0.020094164
10	0x3ceb1baa	0.028699715
11	0xbd607ca2	-0.05480636
12	0xbd51ae7e	-0.0511918
13	0xbc8673cf	-0.016412644
14	0xbc936924	-0.01799447
15	0xbd742d5f	-0.05961358
16	0xbc93b377	-0.018029911
17	0x3caf1eec	0.02137705
18	0x3ca04b96	0.019567292
19	0xbd1fa6a3	-0.038977277
20	0x3a6ea920	0.0009104181
21	0xbc84580e	-0.016155269
22	0x3c199407	0.009373671
23	0xbd69716f	-0.056992944
24	0xbce65664	-0.028117366
25	0x3cea2afe	0.028584953
26	0x3c3f91bd	0.011692462
27	0xbc0fa2e6	-0.008766865
28	0xbc1f30fc	-0.009716269
29	0xbc3e2ad6	-0.011606893
30	0xbcb8c50b	-0.022554895
31	0xbd84b326	-0.06479482
32	0x3d0564e2	0.032566912
33	0xbd270fa8	-0.040786415
34	0xbcdeb5ed	-0.027186358
35	0xbd6e9abd	-0.05825304
36	0xbc82b233	-0.015954113
37	0x3d4a54e6	0.04939737
38	0x3d3c21fa	0.04593084
39	0xbbe92873	-0.0071154176
40	0x3cc6592e	0.024212446
41	0x3c5b0a25	0.013369118
42	0xbab53477	-0.001382484
43	0xbcdef4a7	-0.027216269
44	0xbca70774	-0.020389296
45	0xbcbbf29c	-0.022942834
46	0x3c2b3592	0.010449784
47	0x3d1bc043	0.038025152
48	0xbd009d18	-0.031399816
49	0xbc5f034f	-0.013611629
50	0xbd080a61	-0.033213023
51	0xbd834a4c	-0.064106554
52	0xbcf0d000	-0.029396057
53	0x3c96d4eb	0.018412074
54	0xbaf7d4dd	-0.0018908043
55	0xbd1b290e	-0.03788095
56	0x3c18feb8	0.009338073
57	0xbd02b3b2	-0.031909652
58	0x3cbad9b1	0.022808881
59	0xbd1eba84	-0.038752094
60	0xbd0bca58	-0.034128517
61	0xbaceb6d7	-0.0015771043
62	0xbc9c261b	-0.019061139
63	0x3bd4ddbf	0.0064961608
64	0x3ca529ac	0.020161472
65	0xbd242179	-0.040070985
66	0xbc92a47d	-0.0179007
67	0xbc052574	-0.008126605
68	0x3d254805	0.040351886
69	0x3d068ab6	0.03284713
70	0xbc3cb0e6	-0.011516785
71	0x3d6be368	0.05758992
72	0xbd19f899	-0.037590597
73	0x3c269ef7	0.010169736
74	0xbd298a6f	-0.041391786
75	0xbd9bd34d	-0.07608662
76	0xbd010ebc	-0.031508192
77	0xbd30abb6	-0.043132506
78	0x3d39185a	0.04518924
79	0xbd34a2d9	-0.044100616
80	0x3cd10c06	0.025518429
81	0x3ab15562	0.0013529474
82	0xbd1561ab	-0.036470097
83	0xbd379dea	-0.044828333
84	0xbd1a6fda	-0.037704326
85	0xbd4886aa	-0.04895655
86	0xbd6157aa	-0.055015244
87	0x3d084ab4	0.033274367
88	0xbc052365	-0.0081261145
89	0x3d81e87e	0.063431725
90	0x3c993196	0.018700402
91	0xbcc9a087	-0.024612678
92	0xbd1d8563	-0.038457286
93	0xbc35a9a6	-0.011087811
94	0xbd66f274	-0.056383565
95	0xbb8255bd	-0.003977506
96	0x3bb9611b	0.005657328
97	0x3b9a3f0c	0.004707223
98	0x3cb75af1	0.022382231
99	0xbd7dab97	-0.06193122
100	0x3d18ae8d	0.03727584
101	0xbce9c58e	-0.028536584
102	0x3d0524d5	0.03250583
103	0x3d18e379	0.03732631
104	0xbd65a801	-0.056068424
105	0xbcd408a6	-0.02588303
106	0x3d1adb8c	0.037807032
107	0x3c158acf	0.009127333
108	0xbd8213d2	-0.06351437
109	0xbc994f9a	-0.018714715
110	0xbcd7f564	-0.026362129
111	0xbcd675d3	-0.02617923
112	0xbb59e6ce	-0.0033249143
113	0x3d21987e	0.03945207
114	0xbd78f254	-0.060777977
115	0x3d1ed31d	0.038775552
116	0x3ba4d753	0.0050305515
117	0xbcf3dfe8	-0.029769853
118	0xbd87852d	-0.06617198
119	0x3cbff4d3	0.023432171
120	0xba3b2405	-0.0007138851
121	0xbcc1be9e	-0.023650464
122	0xbd89bd40	-0.0672555
123	0x3cdf386b	0.027248582
124	0x39068101	0.00012827294
125	0xbbf8db6c	-0.0075945165
126	0xbd897ac6	-0.0671287
127	0x3c456004	0.012046818

weight f4 [128, 128]
0	0xbc101de2	-0.008796187
1	0xbd0610cf	-0.032730874
2	0x3db44ede	0.08804105
3	0x3d306ae2	0.04307068
4	0xbd11c518	-0.035588354
5	0x3db5502f	0.088531844
6	0xbc0e2134	-0.008674908
7	0x3d293fbc	0.041320547
8	0x3d79a7a0	0.060950875
9	0x3d2858a7	0.04110017
10	0xbc0677bd	-0.008207259
11	0x3db5c50f	0.088754766
12	0xbc70ea6e	-0.01470433
13	0xbca5c1ff	-0.020234106
14	0xbd74743f	-0.059681173
15	0x3cd3b51c	0.025843196
16	0xbd985cff	-0.074396126
17	0x3c4bb725	0.012433802
18	0xbd37784a	-0.04479245
19	0xbd9631d3	-0.07333722
20	0x3cdcfe94	0.026976861
21	0x3bed0ce4	0.0072342027
22	0x3d8a2322	0.06744982
23	0xbca46610	-0.020068198
24	0xbcc5517b	-0.024086704
25	0x3daca570	0.08429992
26	0x3dd8342e	0.105568275
27	0xbd6d157a	-0.05788181
28	0xbd0970c0	-0.033554792
29	0x3d972574	0.073801905
30	0xbd093796	-0.033500277
31	0x3ca19471	0.019724103
32	0xbe0ed1c6	-0.1394721
33	0xbc64092d	-0.013918203
34	0xbd24cb44	-0.04023291
35	0x3d1da291	0.038485114
36	0x3d230793	0.039802145
37	0xbcf34b1e	-0.029698905
38	0x3c8ed8d4	0.017437376
39	0x3c852555	0.016253153
40	0x3d0ffa2a	0.035150684
41	0xbcdd28af	-0.026996939
42	0xbd18d9b3	-0.03731699
43	0xbcbe00ac	-0.02319368
44	0xbd064d99	-0.032788847
45	0xbd093ddc	-0.03350626
46	0xbd6dfd6b	-0.058103006
47	0x3d4f146d	0.05055659
48	0xbd0f0ed2	-0.034926243
49	0xbd5bd840	-0.05367303
50	0x3ccb3416	0.02480511
51	0x3d6b77b8	0.05748722
52	0xbc48a421	-0.012246163
53	0x3d4be386	0.04977753
54	0x3db3e243	0.087833904
55	0x3b452b68	0.0030085687
56	0xbd32da10	-0.04366499
57	0xbca01419	-0.019540833
58	0xbce0014d	-0.02734437
59	0x3d851ca2	0.06499602
60	0xbbf71ef0	-0.00754153
61	0xbd1c2687	-0.03812268
62	0xbc9111d7	-0.017708702
63	0x3dcb1f9e	0.0991814
64	0x3d0d6edc	0.034529552
65	0x3da00930	0.078142524
66	0x3dc735cd	0.097270586
67	0x3cb05f92	0.021529946
68	0xbd5bd79e	-0.053672425
69	0x3d8f91b7	0.07010215
70	0xbcbc4b7f	-0.022985218
71	0xbd734670	-0.059393346
72	0x3d088104	0.033326164
73	0xbd494e70	-0.04914707
74	0xbbd0d57e	-0.0063731065
75	0x3da4afe7	0.08041363
76	0x3d51ee5b	0.051252704
77	0xbc24435d	-0.010025826
78	0xbbff6afe	-0.007794737
79	0xbb61775f	-0.0034403426
80	0xbd8e4bac	-0.06948027
81	0xbcf58149	-0.029968875
82	0xbd777077	-0.06040999
83	0x3de52018	0.11187762
84	0x3c37133f	0.011174022
85	0xbd4845ce	-0.048894696
86	0xbd3d8072	-0.046265073
87	0xbd5f34b9	-0.05449364
88	0x3d95ee6e	0.073208675
89	0xbd3adcc0	-0.04562068
90	0x3d248bd0	0.040172398
91	0x3bf9d7e6	0.007624614
92	0x3d365236	0.044511996
93	0x3d54cf3c	0.051955447
94	0x3dbb2cea	0.09139426
95	0xbca244ed	-0.019808257
96	0x3d400966	0.046883963
97	0xbcc5abbc	-0.02412974
98	0xbc0428e2	-0.008066388
99	0x3c6c9e5a	0.014442051
100	0xbd425b2f	-0.04745024
101	0xbcca3ae0	-0.024686277
102	0x3d4151c5	0.047197122
103	0xbc98620f	-0.018601445
104	0x3ce8e3a0	0.028428853
105	0x3ace4b1f	0.001573894
106	0x3dbee2a8	0.09320575
107	0xbc9081e4	-0.017640062
108	0x3ceee124	0.02916009
109	0xbd88d3df	-0.06681036
110	0x3c8287da	0.01593392
111	0x3c4f7900	0.012663126
112	0xbd4540ac	-0.04815738
113	0x3e0016e6	0.12508735
114	0x3c85cfe2	0.016334478
115	0xbe08d057	-0.13360725
116	0x3d1bc2ef	0.0380277
117	0xbd904c2d	-0.070457794
118	0xbd8967b1	-0.06709231
119	0x3cf2ddf9	0.02964686
120	0x3ce0ac71	0.027425976
121	0xbc6f9b0d	-0.014624369
122	0x3dad8801	0.08473206
123	0xbbb16ef7	-0.0054148394
124	0xbdaef604	-0.085430175
125	0x3d7e968b	0.062155288
126	0x3bbc9edc	0.005756242
127	0x3cf44949	0.029820101
128	0x3d6a6dc9	0.057233606
129	0xbdf145b8	-0.11780876
130	0x3ccd6bd3	0.025075829
131	0x3c262c0c	0.0101423375
132	0xbcd85e0c	-0.026412033
133	0xbd24a6b9	-0.04019806
134	0x3d20949f	0.039204236
135	0x3d383e24	0.044981137
136	0x3bc67df1	0.006057494
137	0xbda689df	-0.081317656
138	0x3d404acf	0.046946343
139	0x3de50c92	0.11184038
140	0x3dca16ad	0.09867606
141	0xbcb475a0	-0.022028744
142	0x3dcbd823	0.09953334
143	0xbe153e81	-0.14574625
144	0xbcc95aca	-0.024579424
145	0x3de6333c	0.11240241
146	0xbd60aaad	-0.05485027
147	0xbd9d3a66	-0.07677154
148	0x3d07ad4a	0.033124246
149	0x3d7ab4dc	0.061207637
150	0xbdaa9265	-0.08328704
151	0x3dfe3191	0.12411798
152	0x3c6922ad	0.014229459
153	0xbd50b82b	-0.050956886
154	0x3e3853fe	0.1800079
155	0x3d056e6d	0.032576013
156	0x3d0dd3dc	0.034625873
157	0xbd97024b	-0.07373484
158	0x3909c940	0.0001314031
159	0x3cf4381e	0.029811915
160	0xbd5d5ccf	-0.054043587
161	0x3aba0cea	0.0014194523
162	0xbc7e090c	-0.015505087
163	0x3d5f316b	0.054490488
164	0xbce96730	-0.028491586
165	0x3db18f72	0.08669938
166	0x3e4089f5	0.18802626
167	0xbd29c948	-0.041451722
168	0xbd599f3a	-0.053130366
169	0xbd28c3af	-0.041202243
170	0xbd6fe6ac	-0.058569595
171	0x3ce686e3	0.02814049
172	0xbd598b72	-0.0531115
173	0xbbe4a41a	-0.0069775702
174	0x3b77e7bd	0.0037827336
175	0xbdbd04ea	-0.09229453
176	0x3e0e2d04	0.1388436
177	0xbcb75db0	-0.02238354
178	0x3dcb586e	0.09928976
179	0xbd918f03	-0.071073554
180	0xbc08ffbb	-0.008361752
181	0x3be603b6	0.0070194853
182	0xbe0b22c3	-0.1358748
183	0xbd91526a	-0.07095797
184	0x3d9d5d9b	0.076838695
185	0xbd020fae	-0.031753235
186	0x3ca438c4	0.0200466
187	0x3d05b872	0.032646604
188	0x3d356351	0.04428417
189	0x3d916413	0.07099166
190	0x3d14a5e7	0.03629103
191	0x3d91cd59	0.07119245
192	0xbdf0274f	-0.117262475
193	0x3d8bb3f3	0.06821432
194	0x3da0e1af	0.07855546
195	0x3ca5dee7	0.02024789
196	0x3d1a4b18	0.03766927
197	0xbc7b95fb	-0.015355582
198	0x3d82b59d	0.06382296
199	0xbd0d84e7	-0.034550574
200	0xbe02dd79	-0.12779798
201	0x3d6bf31f	0.057604905
202	0x3e138db1	0.1440952
203	0xbdac8c75	-0.084252276
204	0x3d1f6874	0.038917974
205	0xbccef2a4	-0.025262184
206	0xbcdb7832	-0.026790712
207	0x3dab0bf4	0.08351889
208	0x3d5a9c5e	0.05337178
209	0xbc8a7536	-0.016901594
210	0x3e109a4c	0.1412136
211	0x3cc6aee8	0.024253324
212	0xbc99f861	-0.018795194
213	0xbd19b8c9	-0.03752974
214	0xbd57908f	-0.052628096
215	0x3d138ffb	0.036025982
216	0x3c01e3c0	0.007927835
217	0x3d6c4b43	0.057688963
218	0x3c4dbb3e	0.012556849
219	0x3daf4042	0.08557178
220	0x3d235df2	0.039884515
221	0x3cb89faf	0.02253708
222	0x3e1c0a2e	0.15238258
223	0x3c2f9e87	0.010718948
224	0xbd488af3	-0.048960637
225	0xbda4bd74	-0.08043948
226	0x3e04b08b	0.12957971
227	0x3d5a237d	0.0532565
228	0xbca086b0	-0.019595474
229	0x3c0732f3	0.008251893
230	0x3c59913f	0.013279258
231	0xbdee7d27	-0.11644965
232	0x3b624d27	0.003453085
233	0x3d62473b	0.055243712
234	0x3d9ac953	0.07557931
235	0x3ce2a5f8	0.02766703
236	0x3cdeb4be	0.027185794
237	0xbdbcec5e	-0.09224771
238	0x3dad85c3	0.08472779
239	0x3cb7a009	0.022415178
240	0xbcc5d53a	-0.024149526
241	0xbcd51e41	-0.026015403
242	0x3d89e9f6	0.06734078
243	0x3da75936	0.081713125
244	0xbd81e688	-0.063427985
245	0xbcf3c198	-0.029755399
246	0x3dba00a5	0.09082154
247	0x3d2071e3	0.03917111
248	0xbdd3f0d6	-0.1034867
249	0x3d929883	0.071579956
250	0xbd894487	-0.06702524
251	0xbca84ec0	-0.020545363
252	0xbdc7db05	-0.097585715
253	0x3c7feccd	0.015620423
254	0x3d9bb2b3	0.076024435
255	0xbd9e76f2	-0.07737531

bias f4 [128]
0	0x3d8de7ba	0.06928964
1	0xbd764e62	-0.060133345
2	0x3d101149	0.035172734
3	0xbdb4a1d5	-0.088199295
4	0x3b61f419	0.003447777
5	0xbcadf2c3	-0.021233922
6	0xbd642582	-0.055699833
7	0xbd4214a9	-0.047382984
8	0xbb996aee	-0.0046819365
9	0xbca7ee4b	-0.02049937
10	0xbc92fa35	-0.017941574
11	0xbc27796c	-0.01022182
12	0xbd209986	-0.03920891
13	0x3d35c78d	0.04437976
14	0x3c4cd98d	0.01250304
15	0xbb0650cb	-0.0020494934
16	0xbd62dae2	-0.055384524
17	0x3ca2e609	0.01988508
18	0x3cdecd67	0.027197553
19	0xbd2dfc53	-0.042476963
20	0xbd1e075a	-0.03858123
21	0xbd00a70c	-0.03140931
22	0xbd20b364	-0.03923358
23	0xbb85515b	-0.004068536
24	0x3d0c7591	0.034291808
25	0xbd3b8459	-0.045780513
26	0x3cc29b43	0.023755675
27	0x3d45ad6f	0.048261102
28	0xbdabc6a2	-0.083874956
29	0xbd78eb9f	-0.06077158
30	0x3a2fa29e	0.0006699952
31	0xbd86f64b	-0.065899454
32	0xbc32dff8	-0.010917656
33	0xbcdad098	-0.026710793
34	0xbda6b0f9	-0.081392236
35	0xbd62c212	-0.05536086
36	0x3a9eeed0	0.0012125615
37	0x3d6672ac	0.056261703
38	0xbdd44673	-0.103649996
39	0xbc169aef	-0.0091922125
40	0x3db0e868	0.08638078
41	0xbd77cc9b	-0.06049786
42	0x3cb31fd0	0.021865755
43	0x3d6d797d	0.05797719
44	0xbd81c979	-0.06337256
45	0xbcfd5987	-0.030926479
46	0xbd9c5cf9	-0.076349206
47	0xbdb0a862	-0.086258665
48	0xbd674e4a	-0.056471147
49	0x3d75d5ad	0.06001823
50	0xbd99cae7	-0.07509404
51	0xbdd30078	-0.10302824
52	0x3cd81bd3	0.026380455
53	0xbcdff95b	-0.027340582
54	0xbdeffd9f	-0.11718296
55	0xbbd88818	-0.0066080205
56	0x3d3e3b2b	0.046443146
57	0x3d7d3f8e	0.06182819
58	0x3d3afff3	0.04565425
59	0xbda6d39c	-0.0814583
60	0x3d52365a	0.051321365
61	0xbd958db1	-0.07302416
62	0xbd9fff69	-0.078123875
63	0xbcae7325	-0.02129514
64	0xbd021b47	-0.031764295
65	0x3cc28247	0.023743762
66	0x3d821f67	0.06353646
67	0x3c22fbdc	0.009947743
68	0xbd99e846	-0.07515006
69	0x3d437a2a	0.047723927
70	0xbba914d2	-0.0051599527
71	0xbcf2e119	-0.02964835
72	0xbcb715f2	-0.022349332
73	0x3bda9e8e	0.006671733
74	0xbd2b8ccc	-0.04188232
75	0xbc37293c	-0.011179265
76	0x3d0d0fca	0.034438886
77	0x3d32767e	0.043570034
78	0x3d824a94	0.06361881
79	0xbd8ad486	-0.06778817
80	0xbd4fb203	-0.050706875
81	0xbcbd1641	-0.0230819
82	0x3d298e97	0.04139575
83	0x3cc4004a	0.02392592
84	0x3c9d46b8	0.01919876
85	0xbe032b15	-0.12809403
86	0xbc6800fe	-0.014160393
87	0xbcd63d6d	-0.026152337
88	0x3d8092df	0.062780134
89	0xbdd37ede	-0.10326932
90	0xbdadfc81	-0.08495427
91	0xbcd033d8	-0.025415346
92	0x3c03512d	0.008014959
93	0xbcba5740	-0.022746682
94	0x3d75e456	0.06003221
95	0xbd9c4851	-0.07630981
96	0xbd19b59e	-0.03752672
97	0x3d0298d3	0.031884026
98	0x3c9a21db	0.018814972
99	0xbd9e91cd	-0.07742653
100	0x3b8bde45	0.00426844
101	0xbdb61086	-0.0888987
102	0x3d886232	0.06659354
103	0xbcfd042d	-0.03088578
104	0xbd3e198f	-0.046411093
105	0x3d75602d	0.059906173
106	0xbc970bc6	-0.018438231
107	0x3d8b98e7	0.06816273
108	0xbd575853	-0.052574467
109	0x3d695333	0.05696411
110	0x3d800b24	0.06252125
111	0xbd9f1b5e	-0.07768892
112	0xbd4381d7	-0.047731247
113	0x3d00e07e	0.031464092
114	0x3d8c60ec	0.06854424
115	0xbd640889	-0.055672202
116	0x3ce415cb	0.027842423
117	0xbdbfd008	-0.09365851
118	0x3db02f1a	0.08602734
119	0xbd8fc933	-0.070207976
120	0x3cbc3ca7	0.02297814
121	0x3d8c5b08	0.068533
122	0x3cbbfdf3	0.02294824
123	0xbdb4be8c	-0.088254064
124	0x3be0f333	0.006864929
125	0xbd793245	-0.060838956
126	0x3d6a3b74	0.057185605
127	0x3d6f28dd	0.05838858

weight f4 [12, 128]
0	0xbb97db18	-0.0046342723
1	0xbc46fca2	-0.012145193
2	0xbbe582dc	-0.007004125
3	0xbc546eaa	-0.0129658375
4	0xbaafb263	-0.0013404604
5	0x3d0c8b06	0.03431227
6	0x3cdf3788	0.027248159
7	0xbcc32d0b	-0.02382519
8	0x3bd0f875	0.0063772746
9	0xba43e5e4	-0.0007472916
10	0xbc70827d	-0.014679548
11	0x3b987116	0.004652153
12	0xbc25bf85	-0.010116463
13	0x3bb0bea0	0.005393818
14	0xbb5bd6e1	-0.0033544826
15	0x3bc7341f	0.0060792114
16	0xbcba4f9e	-0.022743043
17	0x3b54def1	0.0032481516
18	0xbc2c7dfa	-0.010528082
19	0x3c777956	0.015104612
20	0x3cc51b8c	0.024060987
21	0x3c2d4ec8	0.010577865
22	0xbbe832ff	-0.0070861573
23	0x3c8a8ac3	0.01691187
24	0xb93957ab	-0.00017675634
25	0x3c1375b6	0.009000232
26	0x3caef5df	0.021357475
27	0xba8d97b4	-0.0010802657
28	0xbd6934ec	-0.056935236
29	0x3a752da1	0.00093528075
30	0xbbf7f827	-0.007567424
31	0xbca8813f	-0.020569442
32	0xbbc687f9	-0.0060586897
33	0x3b2486aa	0.002510468
34	0xb9acf69d	-0.00032990138
35	0x3aa57328	0.001262282
36	0x3c631637	0.013860277
37	0x3c498cf9	0.012301677
38	0x3d833674	0.064068705
39	0xbc97dea3	-0.018538779
40	0x3b644f33	0.0034837245
41	0xbd850937	-0.06495898
42	0xbabbc49d	-0.0014325563
43	0xbc5054ed	-0.01271556
44	0x3c6702a0	0.014099747
45	0x3d0bdd8f	0.03414684
46	0xbd3194f3	-0.04335494
47	0x3d1562d9	0.03647122
48	0xba9b1db4	-0.0011834414
49	0xbc7e8422	-0.015534433
50	0x3c78f243	0.015194478
51	0x3c2912d7	0.010319433
52	0xbc13dd95	-0.009024997
53	0xbd2ec48d	-0.042667914
54	0xbcadbbcf	-0.021207718
55	0x3c314360	0.010819286
56	0xbc01a43f	-0.0079126945
57	0x3c22c90d	0.00993563
58	0xbc509b83	-0.012732389
59	0x3c53d79b	0.012929822
60	0xbb78abeb	-0.0037944268
61	0xbb98e27c	-0.004665671
62	0xbcf85175	-0.03031228
63	0x3b0a8fe8	0.0021142904
64	0xbd1b59ac	-0.037927315
65	0xbafb2258	-0.0019160016
66	0x3c6d7a3a	0.014494473
67	0xbce41f4a	-0.027846951
68	0xbd7ffeca	-0.062498845
69	0x3d0f3fc4	0.03497292
70	0x3c08f1c7	0.008358425
71	0x39a58c16	0.00031575625
72	0x3ca29de3	0.019850677
73	0x3a7b5c68	0.000958866
74	0x3bf7d176	0.0075628115
75	0xb9fb8ff6	-0.0004798171
76	0xbbf1effa	-0.0073833438
77	0x3c25edeb	0.010127525
78	0xbca7b59d	-0.020472342
79	0xbb94045c	-0.0045171212
80	0x3b923117	0.0044614184
81	0x3a13f326	0.0005643837
82	0x3c06711c	0.008205678
83	0xba087729	-0.00052057445
84	0x3d32bc5b	0.04363666
85	0xbb7886ee	-0.0037922221
86	0x3b9107c2	0.0044259736
87	0xbba46972	-0.005017453
88	0x3d012e09	0.031538043
89	0x3bf79810	0.007555969
90	0xbcfbd480	-0.030740976
91	0xbc7bc91e	-0.015367774
92	0x3a0fd540	0.0005486794
93	0x39fcdceb	0.00048229782
94	0x3cdce579	0.02696489
95	0xbc2e6012	-0.010643022
96	0xbb4edde9	-0.0031565374
97	0x3bc93452	0.0061402703
98	0xbd1f2b99	-0.038859937
99	0xbc811c49	-0.015760558
100	0x3c0e4409	0.008683213
101	0x3d54e839	0.051979277
102	0xbd13e3ad	-0.0361058
103	0xbc2e0084	-0.01062024
104	0xbb65c188	-0.003505798
105	0xbb83cc30	-0.004022144
106	0xbb8b0586	-0.004242602
107	0x3d4df803	0.05028535
108	0xbb34dc7f	-0.0027597246
109	0x3d0226f1	0.03177542
110	0x3acc9fd7	0.0015611601
111	0xbc4a3fa4	-0.012344275
112	0xbb22ed3c	-0.002486064
113	0xbc39e172	-0.011345254
114	0xbb2e78cc	-0.0026622294
115	0xbd195073	-0.037430238
116	0x3c0dc5e3	0.008653137
117	0xbcb2b18a	-0.021813173
118	0x3c4226d8	0.011850081
119	0xbd014d6b	-0.031567972
120	0xbb39c2fc	-0.002834498
121	0x3bd2364c	0.006415164
122	0xbc7989eb	-0.015230636
123	0xbbd35dce	-0.0064503914
124	0xba54621a	-0.00081017765
125	0xba165a68	-0.00057355175
126	0xbca473f1	-0.020074816
127	0xbc93290c	-0.017963909
128	0x3be8aa39	0.0071003702
129	0x3c84187f	0.016124962
130	0xbce6fdd9	-0.028197216
131	0x3c01ed48	0.007930107
132	0x3c25ff2b	0.010131638
133	0x3c766a00	0.015039921
134	0xbd0dec77	-0.03464934
135	0xbb96c2f9	-0.0046008793
136	0xbc476874	-0.0121709
137	0x3be7eb78	0.0070776306
138	0xbbd7e3be	-0.0065884283
139	0x3d59ffd6	0.0532225
140	0xbc37edbb	-0.011226113
141	0xb9fc09b4	-0.00048072415
142	0xbb327fba	-0.0027236775
143	0xbc4ca2e0	-0.012490004
144	0x3b415ba4	0.0029504085
145	0x3a0a9054	0.0005285789
146	0xbbe60a89	-0.007020299
147	0xbcfe043a	-0.031007875
148	0xbbae8de2	-0.0053269723
149	0x3ca914cf	0.020639805
150	0xbc14aefa	-0.009074921
151	0x3ca660d6	0.020309847
152	0xbc468bf1	-0.012118326
153	0x3cc27052	0.0237352
154	0xbd03b389	-0.03215364
155	0xbb5ddb0b	-0.0033852484
156	0xbcdc74c5	-0.026911149
157	0x3bf5332d	0.0074829073
158	0x3b633705	0.0034670245
159	0x3c4e5f80	0.012596011
160	0xbabcf3c7	-0.0014415913
161	0x3cb2aac2	0.02180994
162	0x3c0639a7	0.008192456
163	0xbd5bd5ea	-0.0536708
164	0x3c558959	0.0130332345
165	0xbbd115e4	-0.0063807834
166	0x3b6aac51	0.0035808275
167	0x3d24eb16	0.040263258
168	0x3cf671b6	0.030083518
169	0xbd0366ad	-0.03208034
170	0x3bdd8ac5	0.0067609274
171	0x3c9bb563	0.01900739
172	0xbb0d3781	-0.0021547975
173	0x3d5d134e	0.05397349
174	0xbc89aa49	-0.016804831
175	0xbb5417a2	-0.003236272
176	0xbc6a7e5f	-0.014312356
177	0xbce04058	-0.027374431
178	0x3b81fd15	0.0039669373
179	0x3c353aa2	0.011061342
180	0xbc9211e2	-0.017830793
181	0xbc0fe431	-0.008782432
182	0x3c61c8b9	0.013780766
183	0x3c309c42	0.010779442
184	0x3b82417a	0.0039750906
185	0xbc892163	-0.016739553
186	0xbbb9624c	-0.00565747
187	0xbc57e84a	-0.013177941
188	0xb962ef92	-0.00021642286
189	0xbb8e63c8	-0.004345391
190	0x3d0352ae	0.03206127
191	0xbcdd99ce	-0.027050879
192	0xbc938e50	-0.018012196
193	0x3c0d3ab8	0.008619957
194	0xbbdc9c5d	-0.006732507
195	0xbbb155a8	-0.0054118223
196	0xbd430058	-0.04760775
197	0xbd843892	-0.064561024
198	0xbcb46872	-0.02202246
199	0xbc0a1868	-0.0084286705
200	0x3ca70e48	0.020392552
201	0xbcb697a1	-0.0222891
202	0xbbd8dcb1	-0.0066181053
203	0x3a85a0f7	0.0010195066
204	0xbc836af0	-0.016042203
205	0x3b99834f	0.0046848427
206	0x3c8108ae	0.01575121
207	0x3bc1334a	0.0058960067
208	0xbca93bc3	-0.02065838
209	0x3b8f2f02	0.0043696174
210	0x3ceff889	0.029293315
211	0xbc55eab1	-0.013056443
212	0xbccdcacd	-0.025121117
213	0x3c91fa1b	0.017819455
214	0x3c2a2d68	0.010386802
215	0x3c2aef9f	0.010433107
216	0xbc29454c	-0.010331463
217	0x3b1f36bc	0.00242941
218	0x3d09ddd7	0.03365883
219	0xbba50b90	-0.0050367787
220	0x3b9335c8	0.004492495
221	0x3b71b20f	0.0036879813
222	0xbc66805e	-0.014068691
223	0x3c4d4731	0.01252918
224	0x3c9390ad	0.018013323
225	0x3bc6fd2e	0.006072662
226	0x3b5e0fbd	0.0033883892
227	0x3ca7d0b5	0.020485261
228	0x3c9fafe3	0.019493049
229	0x3cb0aae4	0.021565862
230	0x3d238734	0.03992386
231	0x3ba3310a	0.004980211
232	0x3c016a08	0.007898815
233	0xbc022170	-0.007942542
234	0x3c256423	0.010094675
235	0xbd3c26f5	-0.04593559
236	0xbbf42299	-0.0074504134
237	0xbccf0a0a	-0.025273342
238	0x3cace1ec	0.021103822
239	0xbd508049	-0.050903592
240	0x3c47ae61	0.012187571
241	0x3c2e7847	0.010648794
242	0xbc4109a8	-0.011782087
243	0x3ca772dd	0.020440513
244	0xbb859dd0	-0.0040776506
245	0xbb367b13	-0.0027844354
246	0x3a96511f	0.0011468268
247	0x3d0411ce	0.032243542
248	0xbbbe25dc	-0.005802853
249	0xbb6f0cb7	-0.0036476084
250	0x3c91325d	0.01772421
251	0xbca701fb	-0.020386687
252	0xbc9f74a9	-0.019464808
253	0x3c98d69a	0.018657017
254	0xbc8aae8a	-0.01692893
255	0x3cf523e9	0.02992435

bias f4 [12]
0	0x3d523984	0.051324382
1	0x3d85494c	0.06508121
2	0xbbfc37b5	-0.0076970705
3	0xbdafb014	-0.08578506
4	0xbc9bf877	-0.019039376
5	0xbdb74471	-0.08948601
6	0x3d8ebc9b	0.069695674
7	0xbd9ebf26	-0.077513024
8	0xbd951440	-0.07279253
9	0xbdfc5cfb	-0.12322422
10	0x3cf37fbf	0.029724
11	0x3d783285	0.060595054
