deploy/models/booster_gym_exp_hip/model_2000.pt (torch, 298238 bytes, 8 tensors)

weight f4 [256, 80]
0	0xbeb1d719	-0.3473442
1	0x3ec55635	0.38542333
2	0xbd4c776b	-0.049918573
3	0x3d6833c9	0.05669001
4	0x3d880477	0.066414766
5	0x3bc34edd	0.005960329
6	0x3de0a8a2	0.10969664
7	0x3db0f171	0.08639801
8	0xbd85eb55	-0.06539027
9	0x3ddc125e	0.10745691
10	0x3ce1f7b1	0.027583929
11	0x3c36aeb3	0.01115005
12	0xbde06160	-0.10956073
13	0xbc33c51f	-0.01097229
14	0x3a4c9ac2	0.0007805043
15	0x3c5f51d7	0.013630352
16	0xbd03a389	-0.03213838
17	0x3c174055	0.009231647
18	0x3bdc6944	0.006726416
19	0x3c96bc07	0.018400205
20	0x3cfe6016	0.031051677
21	0x3e9bbad3	0.30415973
22	0xbe29faf4	-0.16599637
23	0xbda2e478	-0.07953733
24	0xbcf95463	-0.030435747
25	0xbe075f37	-0.13219915
26	0x3e04c35e	0.12965152
27	0xbe21f0cc	-0.15814513
28	0xbf04e606	-0.5191349
29	0xbe21d2b1	-0.15803029
30	0x3e5f9936	0.21835789
31	0xbe8da578	-0.27665305
32	0xbd96a962	-0.07356526
33	0x3eb47971	0.35248902
34	0x3d232ece	0.03983956
35	0x3e8b0c62	0.27157885
36	0x3d5ca87a	0.05387161
37	0x3deecef9	0.11660571
38	0x3b1d365c	0.00239887
39	0x3e01bea9	0.12670387
40	0x3e3345f7	0.17507158
41	0x3de5b2a5	0.11215714
42	0xbba9ab39	-0.005177882
43	0xbd82e088	-0.06390482
44	0x3ddc9634	0.107708365
45	0x3de8879d	0.11353991
46	0x3cc12641	0.023577811
47	0x3c0eec38	0.008723311
48	0x3cb0c31b	0.021577409
49	0x3c4ccdc0	0.0125002265
50	0xbdb5597f	-0.08854961
51	0x3d357721	0.044303063
52	0x3eb29068	0.34875798
53	0x3cab269e	0.020892438
54	0xbcf68fa8	-0.030097798
55	0xbc9555f6	-0.018229466
56	0x3c9c65b2	0.01909146
57	0xbe0743b5	-0.13209422
58	0x3cef3fb3	0.029205179
59	0xbcb246c8	-0.021762267
60	0xbc80a749	-0.015704768
61	0xbdf2a3d8	-0.11847657
62	0xbcf4ebfc	-0.029897682
63	0x3c2eb186	0.010662442
64	0x3c710c2a	0.014712373
65	0xbc2b1693	-0.010442394
66	0x3dae0334	0.08496705
67	0x3e34e202	0.1766434
68	0xbd513f44	-0.051085725
69	0x3e202ee9	0.15642895
70	0x3e13b5b3	0.14424782
71	0xbdb7932a	-0.08963616
72	0x3c2ca2dd	0.0105368765
73	0x3dd1439f	0.10217976
74	0x3d5230ad	0.051315952
75	0x3e443740	0.19161701
76	0xbdf07b88	-0.11742312
77	0xbc09d558	-0.0084126815
78	0xbdebea37	-0.11519282
79	0x3d7aceec	0.061232492
80	0xbe8e53de	-0.2779836
81	0xbdf00958	-0.11720532
82	0xbdfdbdc9	-0.12389714
83	0xbd33ade0	-0.043866992
84	0x3d95f245	0.073216
85	0xbd0e9ddb	-0.03481851
86	0xbd6b5d77	-0.057462182
87	0xbd9b6d32	-0.07589187
88	0x3d5626c8	0.05228308
89	0xbd2ae672	-0.041723676
90	0xbdc4dd61	-0.09612537
91	0xbd561933	-0.052270126
92	0xbba6ee6d	-0.0050943405
93	0xbd5a41c5	-0.05328538
94	0xbdc36f93	-0.095427655
95	0x3c8bf481	0.017084362
96	0xbdabe246	-0.083927676
97	0x3d4e6db3	0.050397586
98	0x3cf81ca1	0.030287089
99	0x3c4ed237	0.012623361
100	0xbd585a3c	-0.05282043
101	0xbda460ef	-0.08026301
102	0xbe92513c	-0.28577602
103	0x3d9ac6a8	0.07557422
104	0xbdc4f2fd	-0.09616659
105	0xbe6fa9bf	-0.23404597
106	0x3d101700	0.035178185
107	0xbe41acdb	-0.18913595
108	0xbe3a597a	-0.18198195
109	0xbe9e5d2b	-0.30930457
110	0xbd17193e	-0.036889307
111	0x3dfb3c25	0.12267331
112	0xbeaca219	-0.3371742
113	0x3d8594ab	0.06522497
114	0xbd71ad3a	-0.059003092
115	0xbdaf3989	-0.08555896
116	0x3db3a033	0.0877079
117	0x3c10e041	0.008842529
118	0xbabfa1b5	-0.0014620336
119	0xbc95aab7	-0.01826988
120	0x3ce0ff2c	0.027465425
121	0x3df48a0c	0.11940393
122	0xbc1a9ff2	-0.009437548
123	0x3d5c75a6	0.053823136
124	0x3e03e9ff	0.12882231
125	0x3ee89329	0.45424774
126	0x3da57240	0.08078432
127	0xbd5818de	-0.05275809
128	0x3e46af0f	0.19402717
129	0x3c8353a9	0.016031103
130	0x3ba11fe8	0.0049171336
131	0x3e54cc92	0.20781162
132	0xbe24a917	-0.16080128
133	0x3d375cdf	0.044766303
134	0x3e03b2b9	0.12861146
135	0xbd903354	-0.0704104
136	0xbcb26051	-0.021774443
137	0x3de57194	0.11203304
138	0x3e076bac	0.13224667
139	0x3d8e7896	0.06956594
140	0x3c65bc48	0.0140219405
141	0xbd33e909	-0.04392341
142	0x3d09d94a	0.03365449
143	0xbd735666	-0.059408568
144	0xbdb116b7	-0.08646911
145	0xbce1f095	-0.027580539
146	0x3d11ad2e	0.035565548
147	0x3dba5b75	0.09099475
148	0x3d656673	0.056005906
149	0x3da6482a	0.08119233
150	0x3e21a0d0	0.15784001
151	0x3e326512	0.17421368
152	0x3c630c45	0.013857906
153	0x3e2705f2	0.16310862
154	0x3d6f8445	0.05847575
155	0xbc481f29	-0.01221446
156	0x3c40c482	0.011765601
157	0x3d4c9df2	0.049955316
158	0x3ce09251	0.02741352
159	0xbe0d9a65	-0.13828428
160	0xbe766e6b	-0.24065559
161	0x3ee44ae8	0.445884
162	0x3dc548c9	0.09633023
163	0xbd010033	-0.03149433
164	0xbe095670	-0.1341188
165	0xbd38a7a8	-0.045081764
166	0xbd1d3f55	-0.038390476
167	0xbceb3659	-0.028712438
168	0x3ce5e4a3	0.028063124
169	0x3dd590e2	0.10428025
170	0xbc2ffaca	-0.010740945
171	0xbd18c726	-0.037299298
172	0xbcdffdf7	-0.02734278
173	0x3d0aff44	0.033934847
174	0x3d8bbf71	0.06823624
175	0xbda69a8b	-0.081349455
176	0x3d304288	0.0430322
177	0xbe154f7a	-0.14581099
178	0x3cf830ca	0.030296702
179	0x3d059a30	0.032617748
180	0x3c719cac	0.014746826
181	0x3e3d4920	0.18484926
182	0x3ca9ee72	0.020743582
183	0xbf5d11ed	-0.8635548
184	0x3d1e1bf4	0.038600877
185	0x3e16daf8	0.14731967
186	0x3d07ab13	0.033122133
187	0x3e49a7b3	0.19692878
188	0xbe8a77ef	-0.27044627
189	0x3dfd4a66	0.12367706
190	0x3e32831c	0.17432827
191	0xbec6045a	-0.38675195
192	0x3ea1fedd	0.31639758
193	0xbd973781	-0.073836334
194	0xbd87ffbb	-0.066405736
195	0xbe4661bc	-0.1937322
196	0xbdb09250	-0.08621657
197	0xbc9a7caf	-0.018858282
198	0xbb0113e7	-0.00196957
199	0xbd45ab59	-0.048259113
200	0xbe4603bd	-0.19337364
201	0xbd9ecade	-0.077535376
202	0xbd246563	-0.040135752
203	0x3e455040	0.19268894
204	0xbc16bcd5	-0.0092002945
205	0x3e7e0f2d	0.24810477
206	0xbe93c54c	-0.28861463
207	0x3da9826e	0.082768306
208	0x3e4b25b2	0.19838598
209	0x3caed936	0.021343809
210	0x3c8b7da1	0.017027678
211	0xbeb2fc8b	-0.349583
212	0x3e009cfc	0.12559885
213	0xbca33a11	-0.01992515
214	0xbeac14c4	-0.33609593
215	0x3d9502b3	0.072759055
216	0xba8b0dee	-0.001060901
217	0xbce844c2	-0.028353099
218	0x3d965b38	0.07341617
219	0x3dc3c117	0.09558313
220	0xbdafb4a8	-0.08579379
221	0x3d1764d0	0.036961377
222	0xbd4e5ea0	-0.05038321
223	0x3d60ad6a	0.05485288
224	0xbca0ad45	-0.019613871
225	0x3d8c64f1	0.068551905
226	0x3d65f739	0.056143973
227	0x3dcce450	0.10004485
228	0x3ddff2e8	0.109350026
229	0xbd9ef578	-0.07761663
230	0x3e26d41e	0.16291854
231	0xbe025341	-0.12727071
232	0xbd4e47c3	-0.050361406
233	0xbdf15eb7	-0.117856435
234	0xbd770c29	-0.06031433
235	0x3e87c2ad	0.26515713
236	0xbd94cf96	-0.072661564
237	0xbe37b2c3	-0.17939286
238	0xbdd790d7	-0.10525673
239	0x3e56a635	0.2096184
240	0xbf596ec2	-0.8493463
241	0x3eafc5bf	0.34330556
242	0x3db3583c	0.08757064
243	0xbd56f792	-0.052482195
244	0xbcf44907	-0.029819978
245	0xbb19f6cd	-0.0023493052
246	0xbd8bf06c	-0.06832966
247	0x3dddd173	0.10830965
248	0xbd928caf	-0.071557395
249	0x3d0c9a47	0.034326818
250	0x3dd64ce1	0.10463882
251	0x3c445b75	0.011984696
252	0xbe49ff58	-0.19726312
253	0x3d0316dc	0.032004222
254	0x3ccc429a	0.024934102
255	0xbd46f8d5	-0.04857715

bias f4 [256]
0	0xbdb7ab0b	-0.08968171
1	0x3cc89181	0.024483444
2	0x3ce4b782	0.027919535
3	0x3d9e1a3b	0.07719847
4	0x3da6a04f	0.08136045
5	0x3cbb176e	0.02283832
6	0x3b349dcf	0.0027559882
7	0xbd2fecad	-0.04295032
8	0x3c47d6e4	0.01219723
9	0x3c9e229b	0.01930361
10	0xbcb696d8	-0.022288725
11	0xbdec35ba	-0.11533685
12	0x3e1291ee	0.1431348
13	0xbcafbdb5	-0.021452764
14	0xbdd63d43	-0.104609035
15	0x3bbc69d0	0.0057499185
16	0xbd8ddc81	-0.069268234
17	0x3dabfe7d	0.08398149
18	0x3e00f613	0.1259387
19	0xbdc8db65	-0.09807471
20	0x3bd27b3a	0.006423381
21	0xbcbce11c	-0.02305656
22	0x3dbad394	0.091223866
23	0xbe280bed	-0.164108
24	0xbd513d28	-0.051083714
25	0x3d507f3e	0.050902598
26	0x3e025669	0.12728275
27	0x3d101bec	0.03518288
28	0x3df3373a	0.11875768
29	0xbda941f4	-0.08264533
30	0xbd22bc3a	-0.039730288
31	0xbde13a8e	-0.109974965
32	0x3d68b858	0.05681643
33	0x3cf601ac	0.030030094
34	0x3bfb3023	0.0076656505
35	0xbddfef2a	-0.10934289
36	0xbd11c435	-0.03558751
37	0xbd448928	-0.047982365
38	0xbd9bbfef	-0.07604968
39	0x3d873080	0.066010475
40	0x3cf559b6	0.029950004
41	0xbdf5cc66	-0.120018765
42	0x3d0d690e	0.034524016
43	0x3d459caa	0.04824511
44	0x3d476eac	0.04868953
45	0xbd60b9bc	-0.05486463
46	0x3de6d21d	0.11270545
47	0x3e0db8f0	0.1384008
48	0xbcd0ce5f	-0.02548903
49	0xbda8a386	-0.082343146
50	0x3ddc1a42	0.10747196
51	0xbd73661a	-0.059423544
52	0x3cc07584	0.023493536
53	0xbd94d137	-0.07266467
54	0x3d3f7ffd	0.04675292
55	0x3a4cb4fa	0.000780895
56	0xbd60fca7	-0.054928448
57	0x3d8d0f16	0.06887643
58	0xbd5330dd	-0.05156027
59	0xbbda78e5	-0.006667244
60	0x3d8f08f8	0.069841325
61	0xbca5f92e	-0.02026042
62	0x3e08bdc1	0.13353635
63	0x3db9083b	0.09034773
64	0xbd4de335	-0.05026551
65	0x3d897f14	0.06713691
66	0x3dfd96a4	0.12382248
67	0xbe0073b3	-0.12544136
68	0x3d5320f4	0.0515451
69	0x3dcf0ebc	0.10110232
70	0xbd824a88	-0.06361872
71	0xbc058da9	-0.00815145
72	0x3c92ec02	0.017934803
73	0x3d730bad	0.059337307
74	0x3dd735ee	0.10508333
75	0xbd83df03	-0.064390205
76	0xbd734f52	-0.059401818
77	0x3ce143c5	0.027498135
78	0xbda2a61d	-0.0794184
79	0x3d2ee139	0.042695258
80	0xbd7161a9	-0.058931027
81	0x3ddac99e	0.10682987
82	0xbda1211e	-0.07867645
83	0x3cbcb5a2	0.023035828
84	0x3dad290c	0.08455095
85	0x3d5a969d	0.053366292
86	0xbd2c8db7	-0.042127337
87	0xbd92e35f	-0.07172274
88	0x3ca1fe9d	0.01977473
89	0xbd90a5ac	-0.070628494
90	0x3cdd4ce0	0.027014196
91	0xbc0448ea	-0.008074025
92	0xbd1ecc56	-0.03876909
93	0x3da37724	0.07981709
94	0xbdd01155	-0.10159556
95	0xbc6ea820	-0.014566451
96	0xbdac5098	-0.084138095
97	0xbe079a15	-0.13242371
98	0x3dbb9f38	0.09161228
99	0x3d3313f0	0.043720186
100	0x3da99a08	0.08281332
101	0x3da6f5fb	0.08152386
102	0xbdb4c587	-0.08826738
103	0xbdb753c3	-0.08951523
104	0x3d5e9983	0.05434562
105	0xbdce2775	-0.100661196
106	0x3cfe2b75	0.031026581
107	0xbe00400c	-0.12524432
108	0x3c2efde2	0.010680648
109	0xbc1e4960	-0.009661049
110	0x37e2b943	2.7027569e-05
111	0xbd2dbcb0	-0.042416275
112	0x3e06c336	0.13160405
113	0x3dbf46f7	0.09339707
114	0xbd546bca	-0.05186061
115	0x3db669fb	0.08906933
116	0xbca97e80	-0.020690203
117	0xbd026614	-0.03183563
118	0xbb7df375	-0.0038749848
119	0xbdba71aa	-0.09103711
120	0x3dafdc1e	0.08586906
121	0x3b1ebb28	0.002422044
122	0x3c2d3adb	0.010573114
123	0x3dc09cf1	0.09404934
124	0x3ba2be02	0.0049664984
125	0xbca0959f	-0.019602595
126	0xbdbfcbc0	-0.09365034
127	0x3cf66835	0.030078987
128	0x3ac611a8	0.0015111463
129	0xbd7dece6	-0.061993502
130	0x3cd41952	0.02589098
131	0x3d8436ce	0.06455766
132	0xbd87a6b4	-0.06623593
133	0xbda3dbcf	-0.080009095
134	0xbd21cc30	-0.03950137
135	0x3d990f8e	0.0747367
136	0x3dadf134	0.084932715
137	0x3db5d4a7	0.08878451
138	0xbbb20bb2	-0.005433523
139	0xbd3123e9	-0.043247137
140	0x3d8113f7	0.06302636
141	0x3c9c1deb	0.019057235
142	0x3cdfe705	0.027331838
143	0xbd231a6d	-0.039820123
144	0xbd0feb19	-0.035136316
145	0xbd986c67	-0.07442551
146	0xbd4946c4	-0.049139753
147	0xbcd528a7	-0.026020361
148	0x3d5c248a	0.053745784
149	0xbcc78f2a	-0.024360258
150	0x3d48bac5	0.049006242
151	0x3e017c19	0.12644996
152	0x3b021f25	0.001985499
153	0xbdb1f2d1	-0.08688892
154	0xbc4980ae	-0.012298746
155	0x3d091f38	0.03347704
156	0x3d6dafbf	0.058028933
157	0x3ccb7676	0.02483676
158	0xbe19bb1e	-0.15012786
159	0x3d90371e	0.07041763
160	0xbda4f5dc	-0.080547065
161	0xbc753607	-0.014966494
162	0x3db9460f	0.09046566
163	0x3e0ebb11	0.13938548
164	0x3da96051	0.08270324
165	0x3c1d6405	0.009606366
166	0xbd557b11	-0.05211932
167	0xbdd7f4a1	-0.10544706
168	0x3da03859	0.078232475
169	0xbd759a3b	-0.05996154
170	0x3c8e7ab6	0.017392498
171	0x3c0a0903	0.008425
172	0x383f6886	4.5635294e-05
173	0x3d3bed49	0.04588059
174	0x3d26e874	0.04074903
175	0x3d856656	0.0651366
176	0xbdcbce5a	-0.09951468
177	0xbc9aad0f	-0.018881349
178	0x3e05b70b	0.13058107
179	0xbcad42c0	-0.021149993
180	0xbd48958b	-0.04897074
181	0xbd419885	-0.047264595
182	0xbdcca056	-0.09991519
183	0x3ac5a4a1	0.001507897
184	0x3c932cf1	0.017965766
185	0xbc31664a	-0.01082761
186	0xbdc132f7	-0.09433549
187	0xbd7c2a2e	-0.061563663
188	0x3d5406c0	0.05176425
189	0x3cf1b0fa	0.029503334
190	0xbdf3a658	-0.11896962
191	0xbd9f3bf4	-0.07775107
192	0x3dd2b20b	0.10287865
193	0xbd479e2d	-0.048734833
194	0xbd9fe28d	-0.07806883
195	0xbd8cb6c3	-0.068707965
196	0xbcb29f3b	-0.021804443
197	0x3c4b6060	0.012413114
198	0x3db2e652	0.08735336
199	0xbd914492	-0.07093157
200	0xbdf188ae	-0.11793648
201	0x3da3adac	0.0799211
202	0xbd21cb80	-0.039500713
203	0xbc993d8b	-0.018706104
204	0x3db0f37c	0.08640191
205	0x3c521e65	0.012824629
206	0x3d97796a	0.07396205
207	0xbc6852fb	-0.01417994
208	0x3db318fc	0.08745
209	0x3d41bca7	0.047299054
210	0xba399ef7	-0.00070808775
211	0xbdc4be82	-0.09606649
212	0xbcb55fd6	-0.022140425
213	0xbd99cf27	-0.07510214
214	0xbd89eebf	-0.0673499
215	0x3d81091e	0.06300567
216	0x3ce5664a	0.028002877
217	0xbc967342	-0.018365506
218	0x3ce7f07b	0.028312912
219	0x3dc618be	0.09672688
220	0x3c8fc49b	0.017549803
221	0xbd9db44f	-0.07700407
222	0x3cb8640a	0.02250864
223	0x3db010ba	0.0859694
224	0xbb93824a	-0.0045016157
225	0xbdc6d80e	-0.09709178
226	0x3c6c7a20	0.014433414
227	0xbd93ec5c	-0.07222816
228	0xbbeb481f	-0.0071802284
229	0x3de6f8b4	0.11277905
230	0x3d6aa690	0.057287753
231	0x3d3f1c16	0.046657644
232	0xbd38fdd6	-0.04516395
233	0xbc2acf2e	-0.010425372
234	0xbd4d1fac	-0.050079033
235	0xbc95bf0a	-0.018279571
236	0x3c869fe2	0.01643366
237	0xbdc0c5d3	-0.09412732
238	0x3d575e4b	0.05258016
239	0x3db1ffa7	0.0869134
240	0xbd1dac05	-0.03849413
241	0xbcca261a	-0.024676371
242	0xbce8171b	-0.02833133
243	0x3d40ed7c	0.047101483
244	0x3d8f326e	0.069920406
245	0xbc11615d	-0.008873311
246	0xbd1b12ac	-0.037859604
247	0x3d036c28	0.032085568
248	0xbde661c3	-0.11249115
249	0xbde86078	-0.11346525
250	0x3daff106	0.085908934
251	0xbc36548b	-0.011128555
252	0xbd012460	-0.03152883
253	0xbc562600	-0.013070583
254	0xbd361c43	-0.044460546
255	0x3da6d0ff	0.081453316

weight f4 [128, 256]
0	0xbc03e059	-0.008049094
1	0xbc666cc0	-0.014064014
2	0x3e16c355	0.14722951
3	0x3d52f88d	0.051506568
4	0x3d569bc8	0.05239466
5	0xbcd7ef6d	-0.026359284
6	0x3d3f49f1	0.046701375
7	0xbd3512a0	-0.044207215
8	0xbe1602ad	-0.14649458
9	0xbdb587dc	-0.08863804
10	0x3d639112	0.05555827
11	0x3df8600c	0.121276945
12	0x3e82a723	0.2551814
13	0xbdf7dc67	-0.12102585
14	0x3e2a137e	0.16608998
15	0xbe078547	-0.13234435
16	0xbc0c08e6	-0.008547043
17	0xbdb412cf	-0.0879265
18	0x3da70f3b	0.08157202
19	0x3d9e46fc	0.07728383
20	0x3dbf3290	0.09335816
21	0x3cbcde01	0.023055078
22	0xbde9a37a	-0.11408134
23	0xbd70389d	-0.05864774
24	0x3d328a73	0.043589067
25	0x3d41949c	0.047260866
26	0xbda45bdc	-0.08025333
27	0x3d527ef1	0.051390592
28	0x3dfe159e	0.12406467
29	0xbd86ba12	-0.06578459
30	0x3e15d2de	0.1463122
31	0x3d3c7da4	0.046018258
32	0x3da615dd	0.08109639
33	0x3ca33f88	0.019927755
34	0x3d08cece	0.03340035
35	0x3d99ba37	0.07506221
36	0xbcd577bd	-0.026058072
37	0x3e1027e0	0.14077711
38	0x3d0cbb25	0.034358162
39	0xbd42dea7	-0.04757562
40	0x3d89b3c5	0.067237414
41	0x3da591b0	0.08084428
42	0x3cb9ff17	0.022704644
43	0x3d36a555	0.044591267
44	0xbd87626a	-0.06610568
45	0x3d78e2e4	0.060763255
46	0xbc2e8deb	-0.010653953
47	0x3d87e665	0.06635741
48	0x3e577990	0.21042466
49	0xbc58af44	-0.01322538
50	0xbdcb3fe7	-0.09924298
51	0x3ccf11eb	0.025277099
52	0xbdb07c7c	-0.086174935
53	0xbda68262	-0.08130337
54	0xbdbd2de1	-0.09237266
55	0xbc01f9d0	-0.007933095
56	0xbcae5bae	-0.02128395
57	0xbe0d8de1	-0.13823654
58	0x3da18b24	0.07887867
59	0x3def6eb1	0.116910346
60	0xbcb6ab9f	-0.022298632
61	0xbc881693	-0.016612327
62	0xbe0e5254	-0.13898593
63	0x3cd69146	0.026192319
64	0xbd6fec0e	-0.05857473
65	0x3d713d5e	0.058896415
66	0xbc2d61ba	-0.010582382
67	0x3d0cbc94	0.03435953
68	0xbe3e22d3	-0.18567972
69	0x3d33b955	0.04387792
70	0xbd1bf418	-0.038074583
71	0x3e316880	0.1732502
72	0xbdbccb86	-0.092185065
73	0x3c526de2	0.012843581
74	0x3dc175d8	0.09446305
75	0x3ca8b836	0.020595651
76	0x3d98010d	0.074220754
77	0xbdb66cc5	-0.08907465
78	0x3d17fbd2	0.03710539
79	0x3dc84262	0.097782865
80	0x3d507327	0.050891068
81	0xbe193322	-0.14960912
82	0xbc9a11c5	-0.018807301
83	0xbb9ffcfa	-0.004882452
84	0xbe791dc0	-0.24327755
85	0xbb83bb61	-0.00402014
86	0x3ce02873	0.027363038
87	0x3df5d9e7	0.12004452
88	0x3e286bab	0.16447322
89	0x3d8171c2	0.06320526
90	0x3e3a2ca1	0.18181087
91	0xbd0f3dfc	-0.034971222
92	0x3e061479	0.13093747
93	0x3c9a3200	0.01882267
94	0x3cf83055	0.030296484
95	0xbd74809d	-0.059692968
96	0x3e79866e	0.24367687
97	0xbd8c5d31	-0.06853712
98	0x3db9cb4e	0.090719804
99	0x3df87bfe	0.12133025
100	0xbdaac487	-0.08338266
101	0xbd1b1c36	-0.0378687
102	0xbc153655	-0.009107192
103	0xbd153d08	-0.036435157
104	0xbcf0f49e	-0.029413518
105	0xbe19590b	-0.14975373
106	0xbc0449b4	-0.008074213
107	0xbbeca9ca	-0.007222389
108	0x3e050dbb	0.12993519
109	0xbe2587b5	-0.1616505
110	0xbe34aaa2	-0.17643216
111	0x3dc40674	0.09571543
112	0x3bd7f10a	0.0065900134
113	0xbc8b6845	-0.017017493
114	0x3d912499	0.070870586
115	0x3ccc6571	0.024950715
116	0xbbc799d8	-0.0060913377
117	0x3e09689b	0.1341881
118	0x3d3ec7e3	0.046577346
119	0xbd3537d6	-0.044242702
120	0xbe0f7872	-0.1401079
121	0x3cd2eb68	0.025747016
122	0x3aad621f	0.0013228095
123	0xbdf93c50	-0.12169707
124	0x3c947a8c	0.018124841
125	0xbdd2766b	-0.10276493
126	0xbc8661a3	-0.016403979
127	0x3dab2327	0.08356314
128	0xbceee39b	-0.029161265
129	0x3e3b3567	0.1828209
130	0x3ccd4942	0.025059346
131	0xbdbc58d6	-0.091966316
132	0xbd127423	-0.035755288
133	0x3d15bc7b	0.036556702
134	0x3e034cc9	0.1282226
135	0x3d05697c	0.0325713
136	0x3baca237	0.005268361
137	0xbd9b3bcb	-0.07579764
138	0xbd0d2cd2	-0.034466572
139	0x3c8a1424	0.016855307
140	0xbdbb49de	-0.091449484
141	0x3dc1ad3d	0.09456871
142	0xbc568df8	-0.013095371
143	0x3ccca53a	0.02498113
144	0xbc9c9c9e	-0.01911765
145	0x3c6d484c	0.014482569
146	0x3e13e3de	0.14442393
147	0xbdcbbd6a	-0.09948237
148	0x3d02acc0	0.03190303
149	0x3d826862	0.06367566
150	0xbc91681a	-0.017749835
151	0x3d853128	0.065035164
152	0xbdcec2d8	-0.10095757
153	0x3e188a15	0.14896424
154	0x3c4a7846	0.012357777
155	0x3d595871	0.05306286
156	0xbd88b5f6	-0.06675331
157	0xbd03f0bf	-0.032212015
158	0xbce5eb34	-0.028066255
159	0x3d386fc6	0.04502847
160	0xbe0796d9	-0.13241138
161	0x3d43bd62	0.04778803
162	0xbe84bfe9	-0.25927666
163	0xbe0f3ffe	-0.13989255
164	0x3d295466	0.041340254
165	0x3db35049	0.087555476
166	0xbcb865a4	-0.022509404
167	0x3cb43005	0.021995554
168	0x3c45a5e3	0.012063476
169	0xbda9c55c	-0.082895964
170	0xbe4c1e01	-0.1993332
171	0x3dccb4e6	0.09995441
172	0xbe39d3a9	-0.18147148
173	0x3cf6a06b	0.03010579
174	0x3dc4585a	0.09587164
175	0x3de0dd0d	0.10979662
176	0x3dfa8c73	0.1223382
177	0xbdd06347	-0.10175186
178	0xbdc7fe1e	-0.09765266
179	0xbd5ca705	-0.05387022
180	0x3dd14d63	0.102198385
181	0xbdcd9323	-0.1003783
182	0x3dbad1f5	0.091220774
183	0x3e3b2c9a	0.18278733
184	0x3da81e75	0.08208934
185	0x3dec5361	0.11539341
186	0xbe1c55f2	-0.1526716
187	0x3da82653	0.08210435
188	0xbd20025d	-0.039064754
189	0x3e042907	0.12906276
190	0xbddd3539	-0.10801167
191	0xbe23780e	-0.15963766
192	0xbc688a66	-0.014193153
193	0x3dccd880	0.100022316
194	0xbb1b70e7	-0.0023718418
195	0xbd5c9d27	-0.05386081
196	0x3dd408a4	0.103532106
197	0x3d1808f8	0.03711793
198	0xbcb54369	-0.02212687
199	0xbda065f0	-0.07831943
200	0xbc615ef8	-0.0137555525
201	0xbe188ab2	-0.14896658
202	0x3dc73f9b	0.09728929
203	0x3daae42a	0.083443
204	0xbca98f18	-0.020698115
205	0x3d1a7eec	0.0377187
206	0x3ca0fda5	0.019652197
207	0x3d2faa2a	0.04288689
208	0xbd8508d0	-0.064958215
209	0xbc18a327	-0.009316242
210	0x3b6d4583	0.0036204762
211	0xba1df59f	-0.0006025675
212	0x3dacd1af	0.084384315
213	0xbe41df25	-0.18932779
214	0x3deb8696	0.115002796
215	0xbd55e1ce	-0.052217297
216	0x3df673c2	0.12033798
217	0xbdfbc3d5	-0.12293211
218	0xbd6bfd0b	-0.057614367
219	0x3da7fda3	0.08202674
220	0x3d63dcd2	0.055630513
221	0xbcf5d01c	-0.03000646
222	0xbda71f01	-0.081602104
223	0xbd3d0680	-0.046148777
224	0x3dc3c06c	0.09558186
225	0x3e1a81f7	0.1508864
226	0xbac18a26	-0.0014765903
227	0x3c866685	0.016406307
228	0xbb9e30c7	-0.004827592
229	0x3caa18eb	0.020763835
230	0xbdf6d203	-0.12051775
231	0x3d8603d1	0.06543697
232	0x3c51d304	0.012806658
233	0xbe0fc280	-0.1403904
234	0xbd40bd5d	-0.04705559
235	0x3c06399d	0.008192447
236	0xbdcdd700	-0.100507736
237	0xbdc73e68	-0.097287
238	0x3e017a4d	0.1264431
239	0xbdd73aa2	-0.1050923
240	0x3e09c928	0.13455641
241	0xbcbe19f7	-0.02320574
242	0x3c6fd48d	0.014638078
243	0x3d6d1d7b	0.057889443
244	0xbd547d00	-0.05187702
245	0x3d8305bf	0.0639758
246	0xbd06c3b2	-0.032901473
247	0xbe126c7f	-0.142992
248	0xbe44af7e	-0.1920757
249	0xbc9bda9f	-0.019025145
250	0xbe0e082d	-0.13870306
251	0x3cb96cb9	0.02263485
252	0x3dc90e0a	0.09817131
253	0x3b76de59	0.003766915
254	0x3d5508f6	0.0520105
255	0xbd387801	-0.04503632

bias f4 [128]
0	0xbd28e4e5	-0.041233916
1	0x3d94a3fe	0.072578415
2	0xbd9c3a16	-0.076282665
3	0xbd2dd723	-0.0424415
4	0x3a7c5724	0.0009626022
5	0xbcb27d9c	-0.02178841
6	0xbc626508	-0.013818033
7	0x3c9dc7d0	0.019260317
8	0x3d360eb4	0.044447616
9	0x3cdc2d69	0.026877122
10	0x3cb2cc4f	0.021825938
11	0xbda24944	-0.079241306
12	0xbd8d45e1	-0.06898094
13	0xbced081e	-0.028934535
14	0xbd0ce025	-0.03439345
15	0xbdb927b7	-0.09040778
16	0xbc0736c6	-0.008252805
17	0x3c5c6b96	0.013453385
18	0x3c9c70c9	0.019096749
19	0xbd72d19c	-0.05928193
20	0xbbdf9756	-0.0068234606
21	0xbba2b025	-0.0049648457
22	0x3beb9a59	0.0071900305
23	0xbd8feaaa	-0.070271805
24	0xbcaadca2	-0.020857159
25	0x3d086177	0.033296075
26	0x3c0ac168	0.008468963
27	0xbc5d4495	-0.013505121
28	0xbcf75b6e	-0.030194964
29	0xbc838c8c	-0.016058229
30	0xbd83f6ea	-0.064435795
31	0xbdb467c9	-0.08808858
32	0x3cee9f83	0.029128795
33	0xbd7a71db	-0.061143737
34	0xbd124366	-0.035708807
35	0xbd803da8	-0.0626176
36	0xbcd932d3	-0.026513493
37	0x3d6f25ff	0.058385845
38	0x3d4d286c	0.050087377
39	0xbc4248d7	-0.011858187
40	0xbb80d69c	-0.0039318334
41	0x3c42be02	0.011886122
42	0xbbf7e48d	-0.007565087
43	0xbd45ad03	-0.0482607
44	0xbc8355b3	-0.016032076
45	0xbd370ebe	-0.044691794
46	0xbd8370f3	-0.06418028
47	0x3d100bb8	0.035167426
48	0xbd3ea5d8	-0.04654488
49	0xbcbc5783	-0.022990948
50	0xbd0e0898	-0.034676164
51	0xbda1ea07	-0.07905965
52	0xbd44697f	-0.04795217
53	0x3c90c3a6	0.017671417
54	0xbbe6df40	-0.0070456564
55	0xbd5f327f	-0.054491516
56	0x3b40f546	0.002944307
57	0xbd1995d2	-0.037496395
58	0x3c9797d5	0.018505016
59	0xbd8d88e2	-0.06910874
60	0xbd2ef94e	-0.042718224
61	0xbb72b68b	-0.0037035074
62	0xbd24f7cf	-0.04027539
63	0xbc8bab18	-0.017049357
64	0x3bfe4108	0.007759217
65	0xbd8536be	-0.06504582
66	0xbd27d60d	-0.04097562
67	0xbc7bb44b	-0.015362809
68	0x3c72c0e9	0.014816501
69	0x3c5c476f	0.0134447655
70	0xbd46da7c	-0.048548207
71	0x3d2aba8b	0.041681807
72	0xbd4d078f	-0.050056037
73	0xbc967233	-0.018365001
74	0xbd5cb341	-0.053881887
75	0xbdb6834f	-0.08911764
76	0xbd242ec3	-0.040083658
77	0xbd901641	-0.070354946
78	0x3d3d43ca	0.046207227
79	0xbd685172	-0.056718297
80	0x3d16542d	0.03670137
81	0xbc8ccf7d	-0.017188782
82	0xbd406266	-0.04696884
83	0xbd774ded	-0.06037705
84	0xbd2c9a0f	-0.04213911
85	0xbd27d751	-0.040976826
86	0xbda460f4	-0.08026305
87	0x3c426c71	0.011866675
88	0xbb66c33e	-0.0035211588
89	0x3d69f259	0.057115886
90	0x3bcc8c63	0.0062423213
91	0xbce5d79d	-0.028056914
92	0xbd45442b	-0.048160713
93	0xbc88aee4	-0.016684957
94	0xbdcc4c75	-0.099755205
95	0xbb8e23c7	-0.004337761
96	0xbba6b4d5	-0.005087475
97	0x3cb93ecb	0.02261295
98	0x3af8533d	0.0018945705
99	0xbd921b9e	-0.07134174
100	0x3d0b242c	0.033970043
101	0xbd0ebdea	-0.034849085
102	0x3c19ee19	0.009395146
103	0x3ca1cc06	0.019750606
104	0xbd7d980d	-0.061912585
105	0xbc9d5286	-0.01920439
106	0x3d2d8ed6	0.042372547
107	0xbbcd4a63	-0.006264971
108	0xbd7800f2	-0.060547777
109	0xbd39ff59	-0.045409534
110	0xbe01a9ba	-0.12662402
111	0xbce6a4ee	-0.028154816
112	0xbc692434	-0.014229823
113	0x3d24e624	0.04025854
114	0xbd62324a	-0.05522374
115	0x3d0b9421	0.034076814
116	0xbcb3ca1b	-0.021946957
117	0xbd1d09a1	-0.03833926
118	0xbdb65701	-0.089033134
119	0x3c90083c	0.017582051
120	0x3c5325f8	0.01288747
121	0xbce86010	-0.028366119
122	0xbdcd4a04	-0.10023883
123	0x3ca60441	0.0202657
124	0xbc6a6da3	-0.014308366
125	0xbca9c205	-0.020722399
126	0xbda1e7be	-0.079055294
127	0xbb489933	-0.0030608892

weight f4 [128, 128]
0	0xbc799e40	-0.015235484
1	0xbc27aa79	-0.010233515
2	0x3db09e81	0.08623982
3	0x3d1bbb87	0.038020637
4	0xbda4ef60	-0.0805347
5	0x3d4fe504	0.050755516
6	0xbd23d805	-0.040000934
7	0x3d465205	0.048418064
8	0xbc494551	-0.012284593
9	0x3cf63355	0.030053774
10	0xbb71daa3	-0.0036904
11	0x3dd4b9e1	0.10387016
12	0xbced4283	-0.02896238
13	0x3c1645ea	0.009171942
14	0xbdd6acdc	-0.10482189
15	0xbb64008f	-0.0034790372
16	0x3d4e0c69	0.050304804
17	0x3b6b15c5	0.003587113
18	0x3c1c1033	0.009525347
19	0xbd5bf573	-0.053700875
20	0x3d416b32	0.04722137
21	0x3d29c89d	0.041451085
22	0x3da55c63	0.08074262
23	0xbd1e3e0a	-0.038633384
24	0xbd1e4986	-0.038644336
25	0x3cc8fc6d	0.024534428
26	0x3dccc701	0.099988945
27	0x3d034ebe	0.032057516
28	0xbcd89c18	-0.026441619
29	0x3d838a47	0.06422859
30	0xbc735e0f	-0.014853968
31	0x3d0c1560	0.034200072
32	0xbd655b27	-0.055995133
33	0xbcd22615	-0.025652925
34	0xbd69993a	-0.057030894
35	0x3d5d54b8	0.054035872
36	0x3d1b1bed	0.03786843
37	0xbc623a45	-0.013807838
38	0x3ca9623f	0.02067673
39	0x3c8f8774	0.017520644
40	0x3d2f77ac	0.042838737
41	0x3c4e9bd3	0.012610394
42	0xbc93888e	-0.01800945
43	0x3d7636a2	0.060110696
44	0xbc822829	-0.01588829
45	0xbb917202	-0.0044386396
46	0xbd85e1a6	-0.0653718
47	0x3cb623cb	0.022233864
48	0xbc170648	-0.009217806
49	0xbd5b4c57	-0.0535396
50	0xbbcca124	-0.0062447954
51	0x3d3d546e	0.046223097
52	0xbcdefd15	-0.027220288
53	0x3ca0d676	0.019633513
54	0x3d9b15df	0.07572531
55	0x3c8bca0e	0.01706412
56	0xbd4d1953	-0.05007298
57	0x3cb46874	0.022022463
58	0xbcc82600	-0.024432182
59	0x3da2c25a	0.07947226
60	0xbcc48301	-0.023988249
61	0xbb9a1333	-0.0047019958
62	0xbc763505	-0.015027289
63	0x3ddec742	0.10877849
64	0xbc40337b	-0.011731024
65	0x3d00c5dd	0.031438697
66	0x3d29acd9	0.041424606
67	0xbcacf149	-0.021111147
68	0xbcc83227	-0.024437977
69	0x3cee2b3e	0.029073354
70	0xbcd4a79c	-0.025958829
71	0xbccd3626	-0.025050234
72	0x3d278227	0.040895607
73	0xbc13e0e6	-0.009025788
74	0x3c5b08fc	0.013368841
75	0x3d8f2aa1	0.06990553
76	0x3cb69b8d	0.02229097
77	0x3cf79834	0.030223943
78	0x3c943506	0.01809169
79	0x3d1bdf6e	0.038054876
80	0x3c89155b	0.016733816
81	0xbda43404	-0.08017734
82	0xbd61750f	-0.055043276
83	0x3dc02055	0.09381167
84	0xbcbd252d	-0.023089016
85	0xbc838e88	-0.016059175
86	0xbcd1d6c0	-0.025615096
87	0x3ca41a75	0.020032147
88	0x3bf1239e	0.007358982
89	0xbd9722ba	-0.073796704
90	0x3d6ccf2c	0.057814762
91	0x3b9c13cc	0.004763102
92	0x3bf87284	0.0075820107
93	0x3ca3d773	0.020000195
94	0x3d264b5d	0.040599216
95	0xbd39dd55	-0.045377094
96	0x3d88ad7e	0.06673716
97	0xbd1410f1	-0.03614897
98	0x3bba69bb	0.0056888736
99	0xbb95037e	-0.0045475354
100	0x3b2a8829	0.00260211
101	0xbd1ac5d6	-0.037786327
102	0x3ccf823f	0.02533066
103	0x3c86c3e1	0.016450824
104	0x3bfaa74f	0.0076493393
105	0x3cea5396	0.02860431
106	0x3d82113c	0.063509434
107	0xbb6e548c	-0.0036366312
108	0x3d1bbaf6	0.038020097
109	0xbd2b2050	-0.041778862
110	0x3b8e0ada	0.0043347897
111	0x3b59668c	0.0033172695
112	0x3c50945c	0.012730684
113	0x3d8cb8d3	0.0687119
114	0x3be956fd	0.0071209655
115	0xbd6d1cb8	-0.057888716
116	0x38a2c77e	7.76192e-05
117	0xbd2b283a	-0.04178641
118	0xbd55d670	-0.052206457
119	0x3d28b3c2	0.041187055
120	0x3d1e67ee	0.038673334
121	0x3c8a62c3	0.016892796
122	0x3d841b68	0.0645054
123	0x3b92e85b	0.0044832653
124	0xbd89e16a	-0.067324474
125	0x3ceff26c	0.0292904
126	0x3bbbe6d0	0.005734302
127	0xbb76594f	-0.0037589853
128	0x3d0ac626	0.033880375
129	0xbe08c55f	-0.13356541
130	0x3d2fcd1a	0.04292021
131	0x3d752977	0.059853997
132	0xbd1cdef9	-0.03829858
133	0x39fed2dc	0.00048603758
134	0x3d3dc26d	0.046327997
135	0x3d2b6e63	0.04185332
136	0x3ce374df	0.02776569
137	0xbdf45c40	-0.11931658
138	0x3d714542	0.05890394
139	0x3df0b8dc	0.11754009
140	0x3ddb859f	0.107188456
141	0xbb4cdfa5	-0.0031261232
142	0x3da43641	0.080181606
143	0xbe18c28d	-0.14917965
144	0xbd8e7bbd	-0.06957195
145	0x3e092b20	0.13395357
146	0x3d17eae4	0.037089244
147	0xbd0dd9c2	-0.0346315
148	0x3d210d49	0.03931931
149	0x3dbe3949	0.0928827
150	0xbdcaea4c	-0.0990797
151	0x3e0d0b18	0.13773763
152	0x3c960540	0.01831305
153	0x3c8f83d6	0.017518919
154	0x3e53aeb8	0.20672119
155	0x3d191026	0.037368916
156	0x3d87ac9f	0.06624722
157	0xbdfc7ce3	-0.12328508
158	0xbc55dacf	-0.013052656
159	0x3d4d337e	0.050097935
160	0xbe18ec60	-0.1493392
161	0x3cda4e55	0.02664868
162	0xbd3a0e0a	-0.045423545
163	0x3d3db1db	0.046312194
164	0xbdc8d502	-0.09806253
165	0x3d9c200a	0.076232985
166	0x3e161188	0.14655125
167	0xbc30f7c2	-0.010801258
168	0xbcd33b0f	-0.025784997
169	0xbd731456	-0.059345566
170	0xbd3e39e3	-0.046441924
171	0x3ccf0710	0.025271922
172	0xbc3dc789	-0.011583217
173	0x3bde6ef7	0.0067881304
174	0xbc1036cd	-0.008802128
175	0xbdc337b4	-0.09532109
176	0x3e2eae47	0.17058669
177	0xbd17c97e	-0.037057392
178	0x3d70cc86	0.0587888
179	0xbd6b6eee	-0.057478838
180	0xbcb3bef9	-0.021941649
181	0xbc783d00	-0.015151262
182	0xbddc7e80	-0.107663155
183	0xbd9804a7	-0.07422762
184	0x3de6963f	0.11259126
185	0xbd35166f	-0.044210847
186	0x3d23687e	0.039894573
187	0x3d4cff32	0.05004806
188	0x3c801671	0.0156357
189	0x3da79790	0.08183205
190	0x3d12247a	0.035679318
191	0x3d873429	0.06601746
192	0xbd579872	-0.052635618
193	0x3db9f81f	0.090805285
194	0x3ce04868	0.027378276
195	0x3da9d944	0.08293393
196	0x3d24658a	0.040135898
197	0xbbc3fb22	-0.005980865
198	0x3d8f8f5f	0.07009768
199	0xbd03c9c1	-0.03217483
200	0xbddaa2b3	-0.10675564
201	0x3d155d78	0.036466092
202	0x3e23b1f8	0.15985858
203	0xbd2afb51	-0.04174358
204	0x3d20d432	0.039264865
205	0xbd02b56e	-0.031911306
206	0xbbda795e	-0.0066673
207	0x3d5535d3	0.052053284
208	0x3d8e7e9a	0.06957741
209	0xbc7ddb15	-0.015494128
210	0x3e138e10	0.14409661
211	0x3d336e69	0.043806467
212	0xbc974b4f	-0.018468527
213	0xbdd95d14	-0.10613456
214	0xbd90268e	-0.07038604
215	0x3d117202	0.035509117
216	0xbc89775e	-0.016780552
217	0xbc067adc	-0.008208003
218	0x3bda7dfc	0.0066678505
219	0x3e0a909e	0.1353173
220	0x3d3e428e	0.04645019
221	0x3d0ac0cd	0.033875275
222	0x3e154a8c	0.14579219
223	0xbc5eb434	-0.013592768
224	0xbcc5a912	-0.02412847
225	0xbd54e21b	-0.051973443
226	0x3e06bb9b	0.13157503
227	0x3cda1349	0.026620524
228	0xbc5c5c37	-0.01344972
229	0x3c28b701	0.010297538
230	0xbd054d2c	-0.0325443
231	0xbe170030	-0.14746165
232	0xbc80b999	-0.0157135
233	0x3df60d16	0.12014215
234	0x3d5c140d	0.05373006
235	0x3c4ea54d	0.012612653
236	0x3d426a92	0.047464915
237	0xbda7dcba	-0.08196397
238	0x3de52157	0.11188
239	0xbc8b44b8	-0.017000541
240	0xbd88b2d5	-0.066747345
241	0xbd247c07	-0.040157344
242	0x3d516d29	0.051129494
243	0x3df70716	0.120618984
244	0xbd9d54e5	-0.07682208
245	0xbdbfd3c0	-0.0936656
246	0x3dcf5b2e	0.10124813
247	0x3b575f2d	0.0032863126
248	0xbe11a2e6	-0.14222297
249	0x3db20657	0.086926155
250	0xbd4a2e35	-0.049360473
251	0xbdcffbea	-0.10155471
252	0xbda2c1b9	-0.07947106
253	0xbc83076a	-0.015994746
254	0x3e0ef403	0.1396027
255	0xbdb6066c	-0.088879436

bias f4 [128]
0	0x3d88980d	0.066696264
1	0xbdc10d1e	-0.0942633
2	0x3cfd1dfd	0.030898089
3	0xbdbf30ab	-0.093354546
4	0xbca5d6a6	-0.020243954
5	0xbd42b988	-0.047540218
6	0xbd465c81	-0.048428062
7	0xbd4eb254	-0.050463036
8	0xbcfae5ee	-0.030627217
9	0xbcfface8	-0.031210378
10	0xbcd01711	-0.025401624
11	0xbc6c9d34	-0.014441777
12	0xbd5c69e0	-0.053811908
13	0x3d2846de	0.04108321
14	0x3ce6d105	0.02817584
15	0xbab25e13	-0.0013608359
16	0xbd7d6338	-0.0618622
17	0x3c01cbf1	0.007922159
18	0x3d109921	0.035302285
19	0xbd914288	-0.07092768
20	0xbcd2af77	-0.025718434
21	0xbd1c04ae	-0.0380904
22	0xbd20fb66	-0.039302252
23	0xbc01d71e	-0.007924823
24	0x3d29c1be	0.041444533
25	0xbd52ac76	-0.051434003
26	0x3cec0621	0.028811516
27	0x3d57a613	0.052648615
28	0xbdb16868	-0.08662492
29	0xbd414c17	-0.047191706
30	0x3c6e3c5e	0.01454076
31	0xbdc607fc	-0.09669492
32	0xbc3df794	-0.011594672
33	0xbb998990	-0.004685588
34	0xbda65f1f	-0.08123612
35	0xbd984b71	-0.07436264
36	0x3c732c82	0.014842154
37	0x3d8f9764	0.07011297
38	0xbddf2d33	-0.10897293
39	0xbb920047	-0.0044555995
40	0x3d95a45a	0.07306738
41	0xbd8aba85	-0.06773857
42	0x3c625b0a	0.013815651
43	0x3d4e4682	0.05036021
44	0xbd83c6b9	-0.06434388
45	0xbd130daf	-0.03590172
46	0xbde7dd41	-0.11321498
47	0xbdbf1590	-0.093302846
48	0xbd883e7e	-0.066525444
49	0x3d34ff21	0.044188622
50	0xbdce34ae	-0.100686416
51	0xbe1b2c9c	-0.15153736
52	0x3d06ec4e	0.0329402
53	0xbce73a9a	-0.028226186
54	0xbe349b95	-0.17637475
55	0xbc56bfd5	-0.01310726
56	0x3d12c346	0.03583076
57	0x3d5e4216	0.054262243
58	0x3d845b9b	0.06462785
59	0xbdb81b22	-0.0898955
60	0x3d84bcd6	0.0648133
61	0xbdf5a1e1	-0.119937666
62	0xbdb821da	-0.08990832
63	0xbc57afed	-0.013164503
64	0xbd17f9c2	-0.037103422
65	0x3b9f6626	0.004864472
66	0x3d960da0	0.073268175
67	0xb9d61840	-0.00040835328
68	0xbd92a8e5	-0.0716112
69	0x3d59bb6c	0.053157255
70	0xbbfa4065	-0.007637071
71	0xbc48415c	-0.012222614
72	0xbc9ae09c	-0.01890593
73	0xbc5e594a	-0.013571093
74	0xbd406758	-0.046973556
75	0xbbfb032d	-0.0076602907
76	0x3d4e75f2	0.05040545
77	0x3d5155dd	0.051107276
78	0x3d629405	0.055316944
79	0xbd5b99eb	-0.053613584
80	0xbd8dad02	-0.06917764
81	0xbbea79f8	-0.007155653
82	0x3d1e70a0	0.038681626
83	0x3d006197	0.03134307
84	0x3c55d81a	0.013052011
85	0xbe31ffc7	-0.17382728
86	0xbc83d336	-0.016091924
87	0xbd19ad7a	-0.037518956
88	0x3d88bebd	0.066770054
89	0xbdeeedd9	-0.116664596
90	0xbdfd5390	-0.12369454
91	0xbd024bd3	-0.031810593
92	0xbc6f45d9	-0.014604055
93	0x3ab5759c	0.0013844254
94	0x3d81f065	0.0634468
95	0xbd8cb809	-0.068710394
96	0xbd51815b	-0.051148754
97	0x3d2b88c4	0.041878477
98	0xbcc819a7	-0.024426294
99	0xbdc94827	-0.09828215
100	0xbc5537e0	-0.01301381
101	0xbdfe93c5	-0.124305286
102	0x3d84ecf6	0.06490509
103	0xbce8315e	-0.028343853
104	0xbd30eb47	-0.043193128
105	0x3d79a682	0.06094981
106	0xbcf31872	-0.029674742
107	0x3d9bde1d	0.07610724
108	0xbd5631be	-0.05229353
109	0x3d8b0638	0.067882955
110	0x3d33d565	0.04390468
111	0xbda81674	-0.082074076
112	0xbd94b778	-0.072615564
113	0x3cd5ba2b	0.026089748
114	0x3d7b4a33	0.06135006
115	0xbd6e9348	-0.058245927
116	0x3d1d096a	0.038339056
117	0xbdd54f5b	-0.104155265
118	0x3dc2e270	0.09515846
119	0xbd85c011	-0.065307744
120	0x3c36eff1	0.011165605
121	0x3db0a23f	0.08624696
122	0x3ce0d9c7	0.027447594
123	0xbdb63fbb	-0.08898874
124	0xbba2855f	-0.0049597467
125	0xbd80588c	-0.06266889
126	0x3d5c5e76	0.053801022
127	0x3d763506	0.06010916

weight f4 [12, 128]
0	0xbbb4f571	-0.005522423
1	0xbc9bea4f	-0.019032625
2	0xbc344ffe	-0.0110054
3	0xbb94b886	-0.0045385985
4	0x3cb2c227	0.021821095
5	0x3c636ddb	0.013881172
6	0xbbe11601	-0.006869078
7	0xbc4bd291	-0.01244034
8	0xbb0ac58a	-0.0021174871
9	0xbbbfa24b	-0.0058482043
10	0xba764a26	-0.0009395204
11	0xbaeacf63	-0.0017914589
12	0xba93ddf1	-0.0011281354
13	0xbc320ec1	-0.010867775
14	0x3b819f52	0.00395576
15	0xbc37ac94	-0.011210579
16	0xbc39698b	-0.011316667
17	0xb88d7578	-6.745284e-05
18	0xbaf14ace	-0.0018409134
19	0x3bcf6be2	0.0063299993
20	0x3c0e6295	0.008690496
21	0xba1acbd9	-0.00059050095
22	0x3c315f28	0.01082591
23	0x3ca11276	0.019662123
24	0x3bdb9628	0.0067012496
25	0x3bee83af	0.0072788815
26	0x3c55ddaa	0.013053337
27	0x3b307f64	0.00269314
28	0xbd10d1d1	-0.035356347
29	0xbbb41723	-0.005495922
30	0xbbd67050	-0.0065441504
31	0xba23f41b	-0.0006254331
32	0xbb86f042	-0.0041179964
33	0x3b44ee91	0.0030049423
34	0x3b89377e	0.0041875234
35	0x3c17df52	0.009269552
36	0x3b788b09	0.0037924668
37	0x3bf765c5	0.0075499737
38	0x3d81b264	0.063328534
39	0xbcc71720	-0.024303019
40	0x3c6636a9	0.014051118
41	0xbca590de	-0.02021068
42	0xbbc2350f	-0.0059267352
43	0x3960b8da	0.00021431167
44	0x3bf67631	0.0075214137
45	0x3c9ba988	0.019001737
46	0xbccd934b	-0.025094649
47	0x3c49551c	0.012288358
48	0xbc903fa1	-0.017608466
49	0xbbb3b6b6	-0.0054844273
50	0x3d037861	0.032097224
51	0x3c728268	0.014801599
52	0xbc87548c	-0.016519807
53	0xbc71e662	-0.0147644
54	0xbcca4fbb	-0.024696222
55	0x3d070d57	0.032971706
56	0xbac0af62	-0.0014700706
57	0xbc0e4329	-0.008683004
58	0x3b6f6eb4	0.003653449
59	0x3ccacdc8	0.024756327
60	0xbc43a33c	-0.011940774
61	0xbc69eba9	-0.014277377
62	0xbc8bf516	-0.01708464
63	0x3a3658c2	0.0006955975
64	0xbcca904c	-0.02472701
65	0xbc69d770	-0.014272556
66	0x3be3f2db	0.006956441
67	0xbbe10e5f	-0.0068681682
68	0xbcae44c2	-0.02127302
69	0x3bda6316	0.006664644
70	0x3ca32d56	0.019919079
71	0x3b1da703	0.0024055846
72	0x3c188974	0.009310115
73	0x3c7783ba	0.01510709
74	0xbb596da4	-0.0033176923
75	0xbbf4b5fb	-0.007467983
76	0xbb19a7fc	-0.0023446074
77	0xbba0296f	-0.004887752
78	0xbc3275f7	-0.010892383
79	0xba08cb9c	-0.00052183284
80	0x3a19b680	0.00058636814
81	0xbb0cb8a0	-0.002147235
82	0x3c808991	0.015690597
83	0x3c270d26	0.010196006
84	0x3d2f175c	0.042746887
85	0xbc22b64f	-0.009931161
86	0x3ba409f7	0.0050060707
87	0xbbb10833	-0.0054025888
88	0x3ccba37e	0.024858233
89	0x3ae8d598	0.0017763851
90	0xbd457011	-0.048202578
91	0xbb62b511	-0.0034592787
92	0xba924332	-0.0011158942
93	0x3bfa7f49	0.007644568
94	0x3c9da5b9	0.019244062
95	0x3c14ff2b	0.00909404
96	0x3ab58a0e	0.0013850348
97	0xbbf3e5ac	-0.0074431505
98	0xbd4a0fba	-0.049331404
99	0xbcc60005	-0.024169931
100	0xbc48395c	-0.012220707
101	0x3d8733ca	0.06601675
102	0xbd0b9186	-0.03407433
103	0xba669780	-0.0008796379
104	0x3b31e0a9	0.0027141965
105	0xbb9bd47e	-0.0047555557
106	0x3b9f5850	0.0048628226
107	0x3ce0c2eb	0.027436694
108	0xbc79df4a	-0.01525099
109	0x3cb86e8a	0.022513647
110	0xbb0ff2d0	-0.0021964796
111	0x3b668c4c	0.0035178838
112	0xbbac8a3d	-0.0052655027
113	0x3b2b96f2	0.00261825
114	0xbb84382a	-0.0040350156
115	0xbb41a8f9	-0.0029550178
116	0x3c069edb	0.008216585
117	0xbc472d07	-0.012156731
118	0x3c4cfb8e	0.012511147
119	0xbcd104b2	-0.025514934
120	0x3baa3784	0.0051946063
121	0x3b49bec7	0.0030783878
122	0x3c2adc82	0.01042855
123	0xbc7acbb1	-0.015307353
124	0x3c04f9b6	0.008116176
125	0xbb680f16	-0.0035409383
126	0x3a066a38	0.0005127522
127	0xb96b990a	-0.00022468358
128	0xbc378d1b	-0.011203076
129	0x3c86b2a2	0.0164426
130	0xbb9af816	-0.004729281
131	0x3b8940c6	0.00418863
132	0x3d2e406f	0.042541917
133	0xbbef08c4	-0.007294746
134	0xbd480c9e	-0.048840158
135	0x3bb236e5	0.005438673
136	0xbcc82614	-0.02443222
137	0xb9dc27f6	-0.00041991443
138	0xbc1abe22	-0.009444745
139	0x3d4cb14f	0.049973782
140	0xbc12e301	-0.008965255
141	0x3cc9869c	0.02460032
142	0xba1407e8	-0.000564693
143	0xbc0768ab	-0.008264701
144	0x3c330fca	0.010929057
145	0x3c9fda74	0.019513346
146	0x3c2efddb	0.010680641
147	0xbc81af0d	-0.015830541
148	0xbc0c774c	-0.0085733645
149	0xbcaf9a67	-0.02143593
150	0x3bbbc6d4	0.0057304893
151	0x3ccbb39b	0.024865916
152	0x3c23a50e	0.009988083
153	0x3d052a6c	0.03251116
154	0xbb54a23e	-0.0032445337
155	0x3bc34b7e	0.005959927
156	0x3d078270	0.03308338
157	0x3b50c362	0.0031854738
158	0xbbc11542	-0.0058924267
159	0x3c40ce64	0.011767957
160	0x3b6262ae	0.003454368
161	0x39edb341	0.00045337717
162	0x3c601386	0.01367653
163	0xbd0c88a0	-0.034309983
164	0xbb4b1d11	-0.0030992667
165	0x3bd5a357	0.006519716
166	0xb946c931	-0.00018957701
167	0x3d619746	0.055075906
168	0x3d1d5ad5	0.038416702
169	0xbd279467	-0.040913012
170	0x3c38afec	0.011272412
171	0xbc7e4568	-0.015519477
172	0x38f91fb2	0.00011879149
173	0x3d15bd27	0.036557343
174	0xbb943b9a	-0.0045237066
175	0x3c819ad2	0.015820894
176	0xbb8b93c3	-0.004259558
177	0xbd071239	-0.032976363
178	0x3bd4306a	0.006475498
179	0x3cd2aa1d	0.025715882
180	0x3ad37b66	0.0016134798
181	0xbc9a7da7	-0.018858744
182	0xbaaeb69a	-0.0013329566
183	0x3cf55921	0.029949727
184	0xbbef7e50	-0.007308759
185	0xbbf80292	-0.007568666
186	0x3c1b21af	0.00946848
187	0xbcabe431	-0.020982834
188	0x3b7f4148	0.0038948823
189	0x393bcc64	0.00017909851
190	0x3cf59da2	0.029982392
191	0x3cc2cc67	0.023779107
192	0x3b7ceee5	0.003859454
193	0x39a5fb79	0.00031658614
194	0xbc733a41	-0.014845432
195	0x3bdfa745	0.00682536
196	0xbd39567d	-0.045248497
197	0xbd6186df	-0.055060264
198	0x3bcab13e	0.0061856797
199	0x3c412a9e	0.011789946
200	0x3a90b305	0.001103968
201	0xbd627456	-0.055286728
202	0xbbcf995c	-0.0063354205
203	0xbba5025e	-0.0050356826
204	0xbc6f0b45	-0.014590089
205	0xbbef753a	-0.0073076757
206	0xbc127763	-0.008939597
207	0x3c617392	0.013760464
208	0xbc4ccf5e	-0.012500612
209	0x3b820436	0.003967787
210	0x3b26f815	0.0025477458
211	0x3cb01766	0.021495532
212	0xbc97b84f	-0.018520502
213	0xbb6f143a	-0.0036480562
214	0x3bb562ca	0.005535458
215	0x3bcb466d	0.0062034638
216	0x3c42b745	0.011884515
217	0xbc29dd77	-0.010367743
218	0x3d2e2d00	0.042523384
219	0xbc07f3eb	-0.008297901
220	0x3b09da29	0.0021034575
221	0x3c165fe1	0.009178133
222	0x3badb35f	0.0053009237
223	0xbb0e4956	-0.0021711192
224	0x3c987ac4	0.018613227
225	0xb9f88512	-0.0004740139
226	0x3c0aaa2c	0.008463424
227	0x3d37fa2a	0.04491631
228	0x3c82b874	0.015957095
229	0x3d1faee1	0.038985137
230	0x3cf14bbb	0.029455056
231	0x3c236c4b	0.0099745495
232	0xbc70d1bb	-0.014698441
233	0xbca0534c	-0.019570969
234	0x3b7b8995	0.0038381566
235	0xbd02efbd	-0.031966913
236	0xbab58093	-0.0013847522
237	0xbd385a5e	-0.045008056
238	0x3c82f800	0.015987396
239	0xbd3ca30a	-0.046053924
240	0x3cc0f522	0.023554388
241	0xbb7aa5f1	-0.0038245881
242	0xbba01fef	-0.0048866193
243	0x3ca0e480	0.019640207
244	0xba6c4679	-0.0009013187
245	0xbc2ff348	-0.010739155
246	0xbc7ac993	-0.015306848
247	0x3bdcf154	0.0067426357
248	0xbb31076c	-0.002701248
249	0xbb887b6a	-0.0041651027
250	0x3bbed51a	0.0058237435
251	0xbcd2d212	-0.025734935
252	0xbb3fd777	-0.0029272714
253	0xbb06b903	-0.0020557053
254	0xbcaea478	-0.02131866
255	0x3b146f49	0.002264934

bias f4 [12]
0	0x3d68ccf0	0.05683607
1	0x3d47cbb7	0.048778262
2	0xbcdc419a	-0.02688675
3	0xbe0d4aec	-0.13798112
4	0xbbead458	-0.0071664266
5	0xbdbb7a72	-0.09154214
6	0x3d813319	0.06308574
7	0xbd941179	-0.07229895
8	0xbd53f55b	-0.05174766
9	0xbe2d5383	-0.16926388
10	0x3d3b5507	0.045735385
11	0x3d65ce0f	0.056104716
