deploy/models/booster_gym_exp_hip/model_3000.pt (torch, 298238 bytes, 8 tensors)

weight f4 [256, 80]
0	0xbf05e1eb	-0.5229785
1	0x3ee964af	0.45584628
2	0xbd2112a2	-0.03932441
3	0x3daeb6fb	0.085309945
4	0x3b896c63	0.004193829
5	0x3c3b9fd7	0.011451683
6	0x3de0a8a2	0.10969664
7	0x3db0f171	0.08639801
8	0xbd85eb55	-0.06539027
9	0x3ddc125e	0.10745691
10	0x3ce1f7b1	0.027583929
11	0x3c2607d1	0.0101336995
12	0xbdde97a5	-0.10868768
13	0xbc77b626	-0.015119111
14	0xbb3a1557	-0.0028394067
15	0x3d0e3ea6	0.034727715
16	0xbcfca1ee	-0.030838933
17	0x3bd20c04	0.006410124
18	0xbc1cfa0c	-0.0095811
19	0x3c72fe53	0.014831143
20	0x3b53b402	0.0032303338
21	0x3e469d2d	0.19395895
22	0xbdf0e005	-0.11761478
23	0xbe044940	-0.12918568
24	0xbd59dea9	-0.05319086
25	0xbe25f960	-0.1620841
26	0x3e4ca09e	0.19983146
27	0xbe8beb6d	-0.27328053
28	0xbf1fcc3c	-0.6242101
29	0xbe226f11	-0.15862681
30	0x3e8aac19	0.27084425
31	0xbeaad1e9	-0.33363274
32	0xbdc19c3b	-0.09453627
33	0x3ebbeb31	0.36702874
34	0x3d83c58d	0.06434164
35	0x3de5891f	0.112077944
36	0x3ceeafe1	0.0291366
37	0x3d295b16	0.041346632
38	0xbca5b09d	-0.020225817
39	0xbcf97287	-0.030450119
40	0x3e06fafd	0.13181682
41	0x3bcee396	0.0063137515
42	0x3a82b645	0.0009972533
43	0xbe8ad583	-0.27116022
44	0x3dbe0f5a	0.09280272
45	0x3e6065ef	0.21913885
46	0x3e6fd826	0.23422298
47	0x3d183628	0.037161022
48	0x3da6b843	0.08140614
49	0xbddfc855	-0.10926882
50	0xbd358200	-0.04431343
51	0xbdb0e30f	-0.08637058
52	0x3e6e4295	0.23267587
53	0xbcda8ce8	-0.026678517
54	0xbc95ef6d	-0.018302644
55	0xbd108066	-0.0352787
56	0x3dba6601	0.09101487
57	0xbe06954f	-0.13142894
58	0xbbba3471	-0.005682521
59	0xbca8b977	-0.020596249
60	0xbd09fffd	-0.033691395
61	0xbde2e6a5	-0.11079148
62	0xbd37f4f4	-0.04491134
63	0x3bfa7a88	0.0076440014
64	0xbc441623	-0.011968168
65	0xbc30ac6c	-0.010783296
66	0x3d9a381a	0.07530232
67	0x3b09f0c3	0.0021048046
68	0xbd569beb	-0.05239479
69	0x3e0f98c4	0.14023119
70	0x3e1bd273	0.15216999
71	0xbd884821	-0.066543825
72	0xbb1b106c	-0.0023660911
73	0x3e1ce9c1	0.15323545
74	0x3d09242b	0.033481758
75	0x3e12bfef	0.1433103
76	0xbdef8fc5	-0.11697344
77	0xbca90f4f	-0.020637183
78	0xbdf80c35	-0.12111703
79	0xbc9cf413	-0.019159352
80	0xbeb23616	-0.3480689
81	0xbdd3e260	-0.10345912
82	0xbe069a3b	-0.13144772
83	0x3a89e446	0.0010520301
84	0x3df63afe	0.120229706
85	0x3cc17b40	0.02361834
86	0xbd6b5d77	-0.057462182
87	0xbd9b6d32	-0.07589187
88	0x3d5626c8	0.05228308
89	0xbd2ae672	-0.041723676
90	0xbdc4dd61	-0.09612537
91	0xbc65895f	-0.014009803
92	0xbcb2684d	-0.02177825
93	0xbd67f3cc	-0.056628987
94	0xbdb311ef	-0.08743655
95	0x3ca3310e	0.019920852
96	0xbd3e8039	-0.046509
97	0x3d40d2cf	0.047076043
98	0x3d2a4cb1	0.041577045
99	0x3c83ef75	0.016105393
100	0xbd62c6a0	-0.055365205
101	0xbe7ece45	-0.24883373
102	0xbe7b1cec	-0.24522752
103	0x3e161469	0.14656223
104	0xbdb71385	-0.0893927
105	0xbe85e295	-0.2614943
106	0x3d0ea8b8	0.03482887
107	0xbe815df7	-0.25267002
108	0xbe8e2ca8	-0.27768445
109	0xbed2eb12	-0.4119497
110	0xbb979f3d	-0.004627137
111	0x3dd5c5f6	0.10438149
112	0xbec4f08d	-0.38464776
113	0xbc1ed3f0	-0.0096940845
114	0xbd6b5cc6	-0.057461523
115	0xbddf946d	-0.10916982
116	0xbd30cd33	-0.043164443
117	0x3c80ce3d	0.015723342
118	0x3b0ddd15	0.0021646668
119	0xbc2ba78a	-0.010476956
120	0xbc5b2adf	-0.0133769205
121	0x3c16212b	0.009163181
122	0x3c8bac36	0.01704989
123	0xbc466ca2	-0.012110861
124	0x3e05ad52	0.13054398
125	0x3f23a8e8	0.63929605
126	0xbd3f9388	-0.046771556
127	0xbdc4ddb7	-0.09612601
128	0x3e697759	0.22799434
129	0x3bd331d8	0.006445151
130	0x3b2e0544	0.0026553432
131	0x3e0a8a54	0.1352933
132	0xbe00c214	-0.12574035
133	0x3dc3220a	0.09527977
134	0x3d560133	0.052247237
135	0xbdade830	-0.08491552
136	0xbd65c709	-0.056098018
137	0x3e3890aa	0.18023935
138	0x3de4c22c	0.11169848
139	0x3d8bb04f	0.068207376
140	0xbb6574ef	-0.0035012325
141	0xbd690ef9	-0.056899045
142	0x3d0ec419	0.034854982
143	0xbd6ef3b4	-0.058337882
144	0xbd70c291	-0.058779303
145	0xbcae5bae	-0.02128395
146	0x3d6df52b	0.05809514
147	0x3e20ab67	0.15690385
148	0x3e0739bf	0.13205622
149	0x3de8d2c7	0.113683276
150	0x3dbf1529	0.09330208
151	0x3e4875b8	0.19576156
152	0xbd1bf232	-0.038072772
153	0x3e7ef7f5	0.24899276
154	0xbcd1c782	-0.025607828
155	0x3def03c4	0.1167064
156	0x3d149154	0.03627141
157	0x3da28ea3	0.07937362
158	0x3c1e97e5	0.009679769
159	0xbd82aa8b	-0.06380185
160	0xbedb0d98	-0.4278381
161	0x3ef99080	0.48743057
162	0x3de33a9b	0.110951625
163	0xbd73fce9	-0.059567366
164	0xbd6b91b2	-0.057511993
165	0xbc717276	-0.014736762
166	0xbd1d3f55	-0.038390476
167	0xbceb3659	-0.028712438
168	0x3ce5e4a3	0.028063124
169	0x3dd590e2	0.10428025
170	0xbc2ffaca	-0.010740945
171	0xbdb64abe	-0.08900975
172	0xbd03002b	-0.031982582
173	0x3cebb3d9	0.028772281
174	0x3d921093	0.071320675
175	0xbdc7ae64	-0.09750059
176	0x3d6249ec	0.05524628
177	0xbe16530d	-0.14680119
178	0x3d77b31e	0.060473554
179	0x3be56131	0.0070001115
180	0xbc880077	-0.016601784
181	0x3d03daba	0.032191016
182	0xbbf3b516	-0.0074373586
183	0xbf8418c2	-1.0320055
184	0x3d3349a7	0.043771412
185	0x3e1c11a9	0.15241112
186	0x3d1c272f	0.038123306
187	0x3e4db6fa	0.20089331
188	0xbe820f6d	-0.25402394
189	0x3e5b0837	0.21389852
190	0x3e17b15e	0.14813754
191	0xbedabc24	-0.42721665
192	0x3eb57973	0.3544422
193	0xbe1f3bc8	-0.15550148
194	0x3d024b77	0.03181025
195	0xbe0a9a9a	-0.13535538
196	0xbd50cbba	-0.05097554
197	0xbe14c52f	-0.14528345
198	0x3b7ed4c8	0.0038884152
199	0xbd03199b	-0.03200684
200	0xbe36e770	-0.17861724
201	0xbd3345ed	-0.04376786
202	0xbd84c39a	-0.064826205
203	0xbe25c714	-0.16189224
204	0x3d61889c	0.05506192
205	0x3ea99993	0.3312498
206	0xbe5536cd	-0.20821686
207	0x3c57e0c3	0.013176146
208	0x3eb177c1	0.34661677
209	0x3d9a25d4	0.075267464
210	0x3d92e0ba	0.071717694
211	0xbf07058d	-0.52742845
212	0x3e1ce56f	0.15321897
213	0xbdca3821	-0.09873987
214	0xbe94fdbd	-0.29099837
215	0xbc8fcb23	-0.017552918
216	0x3cf48f1b	0.029853394
217	0xbdc7ddd9	-0.09759111
218	0x3e111897	0.14169537
219	0x3dc905f9	0.09815592
220	0xbd99649a	-0.07489891
221	0x3d293190	0.041307032
222	0xbd2c75e4	-0.042104617
223	0x3d6afc5e	0.057369582
224	0x3bab7a5b	0.005233092
225	0x3d866067	0.06561356
226	0x3d3111de	0.04322993
227	0xbdb73650	-0.08945906
228	0x3ce1b065	0.027549932
229	0xbd5138cf	-0.051079568
230	0x3e5119aa	0.20419946
231	0xbda3e157	-0.080019645
232	0xbda812bb	-0.082066976
233	0xbe2477d8	-0.16061342
234	0x3d12159f	0.03566515
235	0x3e141064	0.14459378
236	0xbde00bb5	-0.10939733
237	0xbe325754	-0.17416126
238	0xbd5f114b	-0.05445985
239	0x3e463f6d	0.19360133
240	0xbf84b8c9	-1.0368892
241	0x3ebd17d2	0.36932236
242	0x3db5cd71	0.088770755
243	0xbc94330e	-0.018090751
244	0xbd173cfd	-0.036923397
245	0x3c4d28a8	0.0125219
246	0xbd8bf06c	-0.06832966
247	0x3dddd173	0.10830965
248	0xbd928caf	-0.071557395
249	0x3d0c9a47	0.034326818
250	0x3dd64ce1	0.10463882
251	0x3a2c10c1	0.0006563776
252	0xbe873e84	-0.26414883
253	0x3d02200f	0.031768855
254	0x3d6f2a2f	0.05838984
255	0xbd3814c6	-0.044941686

bias f4 [256]
0	0xbdcdbf14	-0.10046211
1	0x3cf9f95e	0.030514415
2	0x3c74c7fe	0.01494026
3	0x3d9aa1aa	0.07550366
4	0x3da1230d	0.078680135
5	0x3ca7f218	0.020501181
6	0xbbd191df	-0.006395563
7	0xbd1f773e	-0.038932078
8	0x3b049252	0.0020228815
9	0x3cfcc500	0.030855656
10	0xbcaf3b68	-0.021390632
11	0xbe03e317	-0.12879597
12	0x3e2436e9	0.16036572
13	0xbcd92ba0	-0.02651006
14	0xbdeaae58	-0.11459035
15	0x3c1d92bb	0.009617503
16	0xbdba8ffd	-0.09109495
17	0x3da06286	0.07831292
18	0x3de8e2ef	0.11371409
19	0xbdc23595	-0.09482876
20	0xba8aaa7f	-0.0010579376
21	0xbc89211e	-0.016739424
22	0x3dad0fca	0.08450277
23	0xbe370c6b	-0.17875831
24	0xbd7ec5d5	-0.062200386
25	0x3d578963	0.052621257
26	0x3e15d1a1	0.14630748
27	0x3d3de34c	0.046359345
28	0x3e0b7a45	0.13620861
29	0xbdc1ca49	-0.09462411
30	0xbd0fc9e4	-0.035104647
31	0xbde9f7e9	-0.11424238
32	0x3d68d44e	0.056843095
33	0x3bcb7b13	0.00620974
34	0x3cad9154	0.021187462
35	0xbdd9fbda	-0.1064374
36	0xbd054696	-0.03253802
37	0xbd3f13d4	-0.04664977
38	0xbd80afa3	-0.062835
39	0x3d67093c	0.05640529
40	0x3d41c446	0.04730632
41	0xbe08bb5f	-0.13352726
42	0x3d2f42e4	0.0427884
43	0x3d84cd4e	0.06484471
44	0x3cc45000	0.023963928
45	0xbd626bcd	-0.055278588
46	0x3de307d8	0.110854805
47	0x3e1c268b	0.15249078
48	0xbd425c42	-0.047451265
49	0xbde1e938	-0.11030811
50	0x3dd8c453	0.10584321
51	0xbd7e6bf0	-0.062114656
52	0xbc408ca3	-0.01175228
53	0xbd96a452	-0.0735556
54	0x3d511539	0.05104563
55	0xbb94a0f1	-0.0045357873
56	0xbd90c8e8	-0.0706957
57	0x3d7b83fa	0.06140516
58	0xbd758ba6	-0.059947632
59	0xbc838615	-0.016055146
60	0x3d87fce6	0.066400334
61	0xbcaadbba	-0.020856727
62	0x3e1cd759	0.15316524
63	0x3dcc923f	0.09988832
64	0xbd5378f3	-0.051629018
65	0x3d3cec1c	0.04612361
66	0x3df48a5b	0.11940452
67	0xbe051b2f	-0.12998651
68	0x3d353954	0.044244125
69	0x3dea0f12	0.11428656
70	0xbd93c202	-0.072147384
71	0xbc8827f4	-0.016620614
72	0x3befe02c	0.0073204245
73	0x3d3e3323	0.046435487
74	0x3db4036b	0.087897144
75	0xbd9454c8	-0.07242733
76	0xbd82644d	-0.06366787
77	0x3cb30e37	0.021857364
78	0xbdd2cd8d	-0.10293112
79	0x3cf873b0	0.030328602
80	0xbd6975cc	-0.056997105
81	0x3dd6631c	0.10468122
82	0xbda0f511	-0.07859243
83	0x3c6d71ab	0.014492433
84	0x3d98e6a8	0.07465869
85	0x3d65b30e	0.056078963
86	0xbd2e9e49	-0.04263142
87	0xbd917d13	-0.07103934
88	0xbafcca3d	-0.0019286346
89	0xbd957bfa	-0.07299037
90	0x3cf90917	0.030399842
91	0x3cabf2b0	0.020989746
92	0xbd3ac47c	-0.04559754
93	0x3daaa601	0.08332444
94	0xbdd2365a	-0.10264273
95	0xbcadc973	-0.021214223
96	0xbdca301f	-0.098724596
97	0xbe1ce98a	-0.15323463
98	0x3d988566	0.07447319
99	0x3d256b92	0.04038579
100	0x3dbb0722	0.0913222
101	0x3dae2cb4	0.0850462
102	0xbde0bd78	-0.10973638
103	0xbddb9dab	-0.10723432
104	0x3d3e7a9c	0.04650365
105	0xbde6a009	-0.11260993
106	0x3c20dcde	0.009818284
107	0xbe0a83b1	-0.13526799
108	0xba92c614	-0.0011197948
109	0xbbfc8caf	-0.0077072005
110	0x3bf24890	0.007393904
111	0xbd3fa886	-0.046791576
112	0x3e0ea8b3	0.13931541
113	0x3de6175d	0.11234925
114	0xbd697409	-0.056995425
115	0x3dd5d287	0.104405455
116	0xbce10d4e	-0.027472164
117	0xbd061903	-0.032738697
118	0xbc264540	-0.010148346
119	0xbdcb730f	-0.09934055
120	0x3dcb0c92	0.09914507
121	0xbbced820	-0.006312385
122	0x3c81a2f2	0.015824769
123	0x3de92282	0.11383535
124	0x3c69cba1	0.01426974
125	0xbcf5a671	-0.029986592
126	0xbdbf93f9	-0.093543954
127	0x3c2d196d	0.010565144
128	0x3b2b7122	0.0026159962
129	0xbdbb9bb9	-0.09160561
130	0x3cd4f54d	0.025995875
131	0x3da86921	0.08223177
132	0xbda6c64d	-0.081432916
133	0xbdb071ba	-0.086154416
134	0xbd37f55e	-0.044911735
135	0x3d9a5cdd	0.075372435
136	0x3dc45aed	0.09587655
137	0x3dcac612	0.0990106
138	0xbc917bd9	-0.01775925
139	0xbd83019f	-0.063967936
140	0x3d8f3c7d	0.06993959
141	0x3ccb99f5	0.024853686
142	0x3c99ce99	0.018775271
143	0xbd65af8d	-0.05607562
144	0xbcc0a1c1	-0.02351463
145	0xbdbe1baa	-0.0928262
146	0xbd64373f	-0.05571675
147	0xbd2ae3dc	-0.04172121
148	0x3d61c586	0.055120014
149	0xbd064a76	-0.032785855
150	0x3d1073d9	0.03526673
151	0x3e0b5447	0.13606368
152	0xbc3224b6	-0.01087301
153	0xbd986849	-0.07441766
154	0xbc819c16	-0.015821498
155	0x3cfc7032	0.030815218
156	0x3d6bb48f	0.05754524
157	0x3ca3d33e	0.019998189
158	0xbe1cb4cf	-0.15303348
159	0x3d73ec68	0.059551626
160	0xbdd36113	-0.1032125
161	0xbc9245ea	-0.017855603
162	0x3dc94263	0.098271154
163	0x3e0c41f5	0.13697036
164	0x3da37762	0.07981755
165	0xbcf23a07	-0.029568685
166	0xbd49cb99	-0.04926643
167	0xbde28f52	-0.110624924
168	0x3d9cd077	0.07656949
169	0xbd98c0a5	-0.07458619
170	0x3c38d612	0.011281507
171	0xbcfd01a6	-0.030884575
172	0xbab3ff0f	-0.001373263
173	0x3d33c26c	0.043886587
174	0x3d0c96cd	0.034323502
175	0x3d8183b3	0.06323948
176	0xbde4a271	-0.11163796
177	0xbc777893	-0.015104431
178	0x3e157841	0.14596654
179	0xbca9a70a	-0.020709533
180	0xbd625619	-0.05525789
181	0xbd356377	-0.04428431
182	0xbdcd89e7	-0.100360684
183	0xbab4a025	-0.0013780637
184	0x3c9ed1db	0.019387176
185	0xbc29d3ef	-0.01036547
186	0xbdd65b20	-0.104665995
187	0xbd83d6b9	-0.064374395
188	0x3d443912	0.04790599
189	0x3cc0b575	0.023524025
190	0xbe0301e3	-0.12793688
191	0xbdb4f88f	-0.08836471
192	0x3dab9e53	0.08379807
193	0xbd6053e5	-0.054767508
194	0xbdb91ced	-0.0903872
195	0xbdaa79fc	-0.08324048
196	0xbcb89e66	-0.022536468
197	0x3bfc033b	0.007690815
198	0x3d9f61c0	0.07782316
199	0xbd7e7f55	-0.062133152
200	0xbdfab8fb	-0.122423135
201	0x3dac26f6	0.08405869
202	0xbd0d3b5b	-0.034480434
203	0xbd2225fd	-0.03958701
204	0x3db7bfd9	0.08972139
205	0x3be886e5	0.007096159
206	0x3de147b4	0.110000044
207	0xbcdcbc7b	-0.026945343
208	0x3dd31e84	0.10308555
209	0x3d83659f	0.06415867
210	0xbc94645e	-0.018114265
211	0xbde3a835	-0.11116067
212	0xbcd2b131	-0.025719257
213	0xbd93fb70	-0.07225692
214	0xbda58c30	-0.08083379
215	0x3d87bed5	0.06628195
216	0x3cedb82f	0.02901849
217	0xbcaafca7	-0.020872427
218	0x3cd98ec7	0.02655734
219	0x3de40e12	0.11135496
220	0x3cbe328b	0.02321746
221	0xbdb9cc2f	-0.09072148
222	0x3d1fbd68	0.03899899
223	0x3dbefd81	0.09325696
224	0xbd0a826d	-0.03381579
225	0xbddba7e4	-0.10725382
226	0x3bf9240e	0.007603175
227	0xbd9caa0d	-0.07649622
228	0xbc059c23	-0.008154902
229	0x3dfee3ef	0.12445819
230	0x3d8fd3b0	0.07022798
231	0x3d8afa68	0.067860425
232	0xbd6e9c46	-0.058254503
233	0xbc3b668a	-0.011438021
234	0xbd7e7e2c	-0.062132046
235	0xbcb94953	-0.022617972
236	0x3c3453d3	0.011006313
237	0xbde482d9	-0.1115777
238	0x3d45943d	0.048237074
239	0x3da636ff	0.081159584
240	0xbd19cb97	-0.037547674
241	0xbc95e34b	-0.018296858
242	0xbd4a0820	-0.049324155
243	0x3d25a650	0.04044181
244	0x3d913a44	0.070911914
245	0xbc8b442b	-0.017000278
246	0xbd40b080	-0.047043324
247	0x3cb7d8b7	0.022442205
248	0xbde49c75	-0.11162654
249	0xbe083f26	-0.13305339
250	0x3daa7c46	0.083244845
251	0xbc96b36b	-0.0183961
252	0xbcb2af6f	-0.021812169
253	0xbc83cf5e	-0.016090091
254	0xbd93c41e	-0.07215141
255	0x3dc96ceb	0.098352276

weight f4 [128, 256]
0	0x3d8de54b	0.069285
1	0xbc3a5cab	-0.011374633
2	0x3dda3122	0.106539026
3	0x3d215935	0.039391715
4	0x3cbac697	0.022799773
5	0x3dce9252	0.10086502
6	0x3dd5baaf	0.10435998
7	0xbbd8f14a	-0.006620561
8	0xbe0d1dec	-0.13780946
9	0xbe2168a0	-0.15762568
10	0x3dc68599	0.096934505
11	0x3d8ee5f1	0.069774516
12	0x3e5ea434	0.21742326
13	0xbe0e8196	-0.1391662
14	0x3e58ae53	0.2116025
15	0xbe2302fc	-0.15919107
16	0xbdf39dd2	-0.11895336
17	0xbd002ecd	-0.031294633
18	0x3d9e71c2	0.07736541
19	0x3d9a856a	0.07544978
20	0x3d60a013	0.05484016
21	0x3ca04028	0.019561842
22	0xbe038e9a	-0.12847367
23	0xbd80d2b7	-0.06290191
24	0x3c8000d7	0.0156254
25	0x3deb102d	0.11477695
26	0xbdb10657	-0.08643787
27	0x3daba39d	0.08380816
28	0x3df43acb	0.11925276
29	0xbd965cd1	-0.07341922
30	0x3ddcab95	0.10774914
31	0xbbbff2fd	-0.005857824
32	0x3d31edea	0.043439783
33	0x3db8a1f7	0.09015267
34	0x3d1639a7	0.036676075
35	0xbc9efaf2	-0.01940677
36	0xbda9ec83	-0.08297064
37	0x3e1cfc71	0.15330674
38	0x3d58867e	0.052862637
39	0xbd6b184a	-0.05739621
40	0xbd018f75	-0.031630952
41	0x3da34c02	0.07973482
42	0x3cb4b247	0.022057666
43	0xbcbe7a4e	-0.023251679
44	0xbd96bdb5	-0.073604025
45	0x3df16f6f	0.117888324
46	0xbd06056c	-0.032720014
47	0x3dcfef18	0.101530254
48	0x3e4a1bce	0.19737169
49	0xbce01b43	-0.02735675
50	0xbdde27f9	-0.10847468
51	0xbcae61ed	-0.021286929
52	0xbd9ab99c	-0.075549334
53	0xbdf023f4	-0.117256075
54	0xbd6bf8cc	-0.057610318
55	0xbd4cf2dc	-0.050036296
56	0x3cf0f9f3	0.02941606
57	0xbdca7243	-0.09885075
58	0x3d77b6fb	0.06047724
59	0x3d9e4193	0.07727351
60	0xbd12307f	-0.03569078
61	0xbcc6d480	-0.02427125
62	0xbe08da3e	-0.13364503
63	0x3d28c2c9	0.041201387
64	0xbcc034bd	-0.023462648
65	0x3d6364dd	0.055516113
66	0x3b9ee82e	0.0048494553
67	0xbdb8b61c	-0.090191096
68	0xbe2e3eac	-0.17016095
69	0x3cc5232c	0.024064623
70	0xbd318e9a	-0.043348886
71	0x3e37bba7	0.17942677
72	0xbe0dd40b	-0.13850419
73	0x3d852e21	0.06502939
74	0x3d954b34	0.072897345
75	0xbc986ade	-0.018605646
76	0x3d51ac5f	0.051189777
77	0xbdd08808	-0.10182196
78	0x3d661004	0.056167617
79	0x3dc5fb34	0.09667054
80	0x3d7d1692	0.061789103
81	0xbe0ee067	-0.1395279
82	0xbc371387	-0.011174089
83	0x3cf74737	0.030185325
84	0xbe92c3e5	-0.2866508
85	0xbd506828	-0.05088058
86	0x3c8bf9b4	0.017086841
87	0x3dec0e7a	0.11526199
88	0x3e1a930a	0.15095153
89	0x3dcf1d6c	0.10113034
90	0x3e279849	0.16366686
91	0xbd9c0c87	-0.07619577
92	0x3d8c6905	0.068559684
93	0x3dbb8e76	0.09158032
94	0x3cdafb96	0.026731294
95	0xbe0d205a	-0.13781872
96	0x3e83cf6b	0.25744185
97	0xbdad24ce	-0.084542856
98	0x3db27585	0.08713821
99	0x3dc9cfe1	0.09854103
100	0xbda7934f	-0.08182394
101	0xbdd9d0c3	-0.10635521
102	0xbc985d88	-0.018599287
103	0xbd4de316	-0.050265394
104	0xbca7d828	-0.020488814
105	0xbe24f1fd	-0.16107936
106	0xbd21b82e	-0.039482288
107	0x3c194b14	0.009356279
108	0x3e2856af	0.16439317
109	0xbdc4578b	-0.0958701
110	0xbe021e86	-0.12706956
111	0x3df329b4	0.118731886
112	0x3cd0e965	0.025501916
113	0xbdff0d48	-0.12453705
114	0x3d796dc0	0.06089568
115	0xbce8dd14	-0.02842573
116	0xbd202f41	-0.039107565
117	0x3de88763	0.11353948
118	0xbb96fe54	-0.004607955
119	0xbd698a4b	-0.057016652
120	0xbe01e6d2	-0.12685707
121	0xbc749437	-0.014927915
122	0x3c5be244	0.013420645
123	0xbde5c7cb	-0.11219748
124	0x3c1df80d	0.009641659
125	0xbd0fdf71	-0.0351252
126	0x3da3fbbc	0.08006999
127	0x3d714f71	0.05891365
128	0xbc4a55fb	-0.012349601
129	0x3e5cdaf9	0.21567906
130	0x3c7674af	0.015042468
131	0xbe1ce04d	-0.15319939
132	0xbd6b902f	-0.05751055
133	0x3d065d81	0.032804016
134	0x3e069587	0.13142978
135	0xbc8746dc	-0.01651328
136	0x3d52d294	0.051470354
137	0x3cfbc7e6	0.030734967
138	0xbd26735b	-0.040637355
139	0xbbc65515	-0.006052623
140	0xbd0ddbe9	-0.03463355
141	0x3d543101	0.051804546
142	0xbcf89ba7	-0.030347658
143	0x3beb80c7	0.0071869823
144	0x3bd46122	0.0064813057
145	0x3dda914a	0.10672243
146	0x3de28e79	0.11062331
147	0xbda52759	-0.080641456
148	0x3bf33657	0.0074222493
149	0x3d56f29e	0.05247747
150	0xbcd5d3e9	-0.026102023
151	0xbb898638	-0.0041969083
152	0xbdbfd543	-0.09366848
153	0x3e0dbead	0.13842268
154	0xbc682efa	-0.014171356
155	0x3d0fd9e2	0.0351199
156	0xbe135b50	-0.14390302
157	0xbd7cd88b	-0.06172995
158	0xbdc900fb	-0.0981464
159	0x3d1fe69c	0.039038286
160	0xbe4c4067	-0.19946443
161	0xbd3181ff	-0.043336865
162	0xbe1b8187	-0.1518613
163	0xbe05a325	-0.13050516
164	0x3d8b4101	0.06799508
165	0x3d9f40e1	0.077760465
166	0xbd0fd523	-0.035115372
167	0xbb62e7e9	-0.0034623093
168	0x3cfbbbfb	0.030729285
169	0xbdf8476d	-0.121229984
170	0xbe705702	-0.23470691
171	0x3de723bf	0.11286115
172	0xbe39ddeb	-0.18151061
173	0xbd06b3d0	-0.032886326
174	0x3d1729cb	0.03690509
175	0x3e090e26	0.13384303
176	0x3e3f9828	0.18710387
177	0xbdeeb66d	-0.11655889
178	0xbda15140	-0.07876825
179	0xbd6e5374	-0.058185056
180	0x3e270b2c	0.16312855
181	0xbdf008de	-0.11720441
182	0x3db7d6e6	0.089765355
183	0x3e4836f5	0.19552214
184	0x3dbb27d8	0.09138459
185	0x3e0c5747	0.13705169
186	0xbe285171	-0.16437317
187	0x3da83a27	0.08214217
188	0xbd9188f8	-0.07106203
189	0x3e24432d	0.1604125
190	0xbdc4c1b9	-0.09607262
191	0xbe163ce6	-0.14671668
192	0xbcdccb07	-0.02695228
193	0x3debfba7	0.11522608
194	0xbd7c2a2b	-0.061563652
195	0x3db176b3	0.08665218
196	0x3dcdbd59	0.10045881
197	0x3d1af3f5	0.03783031
198	0xbd364d43	-0.044507276
199	0xbd871ca2	-0.06597258
200	0xbd262308	-0.040560752
201	0xbe3bf55c	-0.18355316
202	0x3daec3cb	0.08533438
203	0x3d742a9c	0.059610948
204	0xbc4eefce	-0.012630416
205	0xbb86a01c	-0.004108442
206	0x3cd02672	0.025408957
207	0x3d1d627b	0.038423996
208	0xbd773fc7	-0.060363557
209	0xbcda4d52	-0.026648197
210	0x3d7495ce	0.059713177
211	0x3ad8fe31	0.0016555247
212	0x3d27a1f1	0.040925924
213	0xbe6b21ee	-0.22962162
214	0x3db01d03	0.085992835
215	0xbc84568e	-0.016154554
216	0x3e0063f8	0.12538135
217	0xbe2080da	-0.15674153
218	0xbb94ecba	-0.0045448216
219	0x3d8f331c	0.0699217
220	0x3dc550c2	0.09634544
221	0xbce10178	-0.02746652
222	0xbe027a48	-0.12741959
223	0xbdb56e78	-0.08858961
224	0x3dba7c14	0.09105697
225	0x3dc9046d	0.09815297
226	0x3d15b84c	0.036552712
227	0x3ac6ad72	0.0015157892
228	0xbce7123d	-0.028206939
229	0x3d2aaa41	0.041666273
230	0xbe7b04e6	-0.24513587
231	0x3cda3ee0	0.02664131
232	0x3c35ea39	0.011103206
233	0xbdb443c9	-0.088019915
234	0xbd5099b2	-0.050927825
235	0x3d62125d	0.055193294
236	0xbd1bc9d0	-0.03803426
237	0xbda9431f	-0.082647555
238	0x3dbd0600	0.0922966
239	0xbe05cbbc	-0.13066
240	0x3def4643	0.11683323
241	0x3da1b47d	0.078957535
242	0x3c8b223a	0.016984094
243	0x3d5f2c33	0.05448551
244	0xbd942cd1	-0.072351106
245	0x3d949127	0.07254248
246	0xbc9a05ac	-0.018801533
247	0xbdf5eee9	-0.12008459
248	0xbe1c8759	-0.15286006
249	0xbd021182	-0.031754978
250	0xbe312841	-0.17300512
251	0xbd2eb1bc	-0.04264997
252	0x3dd5cf19	0.10439891
253	0x3d8338ec	0.06407341
254	0x3d7f2d99	0.062299345
255	0xbb6e2021	-0.0036335068

bias f4 [128]
0	0xbd2e0f90	-0.04249531
1	0x3dc3b9bc	0.095569104
2	0xbdcb10d8	-0.09915322
3	0xbd3dc706	-0.04633238
4	0xbc8b4e3f	-0.017005084
5	0xbcaca811	-0.021076234
6	0xbcc880ad	-0.02447542
7	0x3cd52157	0.026016874
8	0x3d644615	0.055730898
9	0x3d1a49a8	0.0376679
10	0x3c8a2e6b	0.016867837
11	0xbdc93d3f	-0.09826135
12	0xbda6d68f	-0.081463926
13	0xbd323318	-0.043505758
14	0xbd2ae3f2	-0.04172129
15	0xbe02a3bc	-0.12757772
16	0xbbe2dd22	-0.0069233337
17	0x3c21ae82	0.009868266
18	0x3ca4dcf8	0.020124897
19	0xbd918dd5	-0.071071304
20	0xbc9cb3ab	-0.019128641
21	0x3c0fe1f4	0.008781899
22	0x3a2b3454	0.000653093
23	0xbdac3695	-0.08408848
24	0xbc991596	-0.01868705
25	0x3d659775	0.056052644
26	0x3c0f3864	0.008741472
27	0xbb5201de	-0.003204457
28	0xbd449f6a	-0.04800359
29	0xbcf488dd	-0.029850418
30	0xbdecbb8c	-0.11559209
31	0xbde29eca	-0.11065443
32	0x3d235d42	0.03988386
33	0xbd9356b7	-0.07194274
34	0xbd2514b1	-0.040302936
35	0xbd9330cf	-0.07187044
36	0xbd0a595c	-0.033776626
37	0x3d8b27aa	0.06794675
38	0x3d6892e6	0.05678072
39	0xbc567f8c	-0.013091933
40	0xbc263306	-0.010144001
41	0x3b86b0d2	0.004110434
42	0xbc586dd4	-0.013209779
43	0xbd800f50	-0.06252921
44	0xbbcb07a8	-0.006195981
45	0xbd8ed131	-0.06973494
46	0xbe0a6173	-0.13513736
47	0x3d1b6ad2	0.03794367
48	0xbd59bff5	-0.05316158
49	0xbd02d7f3	-0.031944226
50	0xbd4c72e5	-0.04991426
51	0xbd9fb5ac	-0.07798323
52	0xbd796aa3	-0.060892712
53	0x3cef6247	0.029221667
54	0xbb6a7c20	-0.003577955
55	0xbd94da7b	-0.07268234
56	0x3aeaf7f9	0.0017926685
57	0xbd3bafdc	-0.04582201
58	0x3bf73f08	0.0075453557
59	0xbdb989a2	-0.090594545
60	0xbd8c3aa3	-0.068471216
61	0xbab6496b	-0.0013907378
62	0xbd30b3ff	-0.043140408
63	0xbd41741a	-0.047229864
64	0x3c21f5da	0.009885276
65	0xbdc43704	-0.09580806
66	0xbd8137e9	-0.06309492
67	0xbc8feb21	-0.017568173
68	0xbc13eff4	-0.009029377
69	0x3bbc6eb7	0.005750503
70	0xbd8a8a7c	-0.06764695
71	0x3ce37c7b	0.027769318
72	0xbda19e17	-0.07891481
73	0xbd64065b	-0.055670124
74	0xbd8fda23	-0.07024028
75	0xbdc11fa4	-0.09429863
76	0xbd82bf8f	-0.06384193
77	0xbda21e27	-0.07915907
78	0x3d3b5a5e	0.045740478
79	0xbda69528	-0.08133918
80	0x3d486e18	0.04893312
81	0xbcfb1eae	-0.030654278
82	0xbd05d8b0	-0.032677352
83	0xbd91f982	-0.07127668
84	0xbd4c5e5d	-0.04989468
85	0xbcb936ba	-0.022609103
86	0xbde19a49	-0.11015756
87	0xbc2276b5	-0.009915997
88	0xbbe009e6	-0.0068371175
89	0x3d983eee	0.07433878
90	0xbca13c88	-0.019682184
91	0xbd0c8d1a	-0.034314252
92	0xbd6d509e	-0.05793821
93	0xbcbaa4e9	-0.022783713
94	0xbdf28637	-0.11842006
95	0xbca67db1	-0.020323606
96	0xbbfd922a	-0.0077383714
97	0x3cc590e0	0.024116933
98	0xbbf8c5ca	-0.0075919377
99	0xbdc218b5	-0.09477369
100	0x3ca58d32	0.020208929
101	0xbd211cce	-0.03933411
102	0x3a833687	0.0010010757
103	0x3cc74b97	0.024328036
104	0xbd8d7baf	-0.069083564
105	0xbcaaee2e	-0.020865526
106	0x3d82b1df	0.063815825
107	0xbc2a2db9	-0.010386878
108	0xbd84ce1c	-0.06484625
109	0xbd819ea8	-0.063290894
110	0xbe97cea4	-0.29649842
111	0xbd08669a	-0.033300973
112	0xbb9e16b4	-0.0048244838
113	0x3d2390da	0.039933063
114	0xbd495bc6	-0.049159788
115	0x3cd62807	0.026142133
116	0xbd89526d	-0.067051746
117	0xbd31d1b0	-0.043412864
118	0xbdfb0bfe	-0.12258147
119	0x3c9f2831	0.019428344
120	0x3cf1abed	0.029500926
121	0xbd4b2f3a	-0.049605586
122	0xbe06e33d	-0.13172622
123	0x3c77cc34	0.015124369
124	0xbc5be089	-0.013420233
125	0xbcc59d22	-0.024122778
126	0xbda19498	-0.0788967
127	0xbc3163fc	-0.010827061

weight f4 [128, 128]
0	0xbcccea73	-0.025014138
1	0xbd67f03e	-0.056625597
2	0x3d64e22c	0.055879757
3	0x3d061108	0.032731086
4	0xbd6d8ee3	-0.057997596
5	0xb9ec52b8	-0.00045075058
6	0xbd0ed4ce	-0.034870915
7	0x3d7a5b1a	0.061122037
8	0xbd21948d	-0.03944831
9	0x3ce33f6d	0.027740205
10	0xbba994bf	-0.0051752026
11	0x3d9138d3	0.070909165
12	0xbd76ce74	-0.060255483
13	0xbcdd3462	-0.027002517
14	0xbd92eb00	-0.07173729
15	0x3c05c329	0.008164206
16	0x3d19b9d8	0.03753075
17	0x3c763949	0.015028306
18	0xbd162539	-0.036656592
19	0xbca1a9ae	-0.01973423
20	0x3d1739ce	0.03692036
21	0x3cfe9dc0	0.03108108
22	0x3d00c7d9	0.03144059
23	0xbc98d1e9	-0.01865478
24	0xbcd3db46	-0.025861394
25	0x3bccec8d	0.006253785
26	0x3dc65cc9	0.09685666
27	0xbcde7877	-0.027157051
28	0xbcd9a664	-0.026568599
29	0x3cf8f64f	0.030390887
30	0x3be1003a	0.006866482
31	0xbc0640f9	-0.008194202
32	0xbcc319bb	-0.02381598
33	0x3cb7f820	0.022457182
34	0xbd87df2b	-0.06634363
35	0x3d6f72e3	0.058459174
36	0x3d22048b	0.039555114
37	0xbcf6224e	-0.030045655
38	0x3c98a835	0.018634895
39	0xbc99b3b3	-0.018762445
40	0x3cc464ba	0.023973811
41	0x3c57b5d9	0.013165914
42	0x3beb21ee	0.0071756756
43	0x3ce38e1c	0.027777724
44	0xbc8a7636	-0.01690207
45	0xbc64ac54	-0.013957102
46	0xbd6c52f7	-0.05769631
47	0xbb6851b6	-0.0035449094
48	0xbcaf1ad4	-0.021375097
49	0xbd8fa566	-0.07013969
50	0x3adff9a4	0.0017087949
51	0x3d0d6f9f	0.03453028
52	0xbbd1ebed	-0.0064062984
53	0xbc130a22	-0.008974584
54	0x3d443396	0.04790076
55	0xbc013abc	-0.0078875385
56	0xbd3d7fc5	-0.04626443
57	0x3d092176	0.033479176
58	0x3d69fad2	0.057123967
59	0x3d85a63f	0.065258496
60	0xbd0b917e	-0.0340743
61	0xbb89e00f	-0.004207618
62	0x3c224c00	0.009905815
63	0x3db55598	0.08854216
64	0x3c0ee426	0.008721387
65	0x3c533222	0.012890371
66	0x3d06aa0d	0.032877017
67	0xbd1451c8	-0.036210805
68	0xbcf4a568	-0.029864028
69	0xbcc38ae1	-0.023869934
70	0xbd0913d6	-0.033466183
71	0xbcd23877	-0.02566169
72	0x3d71ab43	0.05900122
73	0xbbb7d45f	-0.0056100334
74	0x3d376f44	0.044783846
75	0x3da9de89	0.08294398
76	0xbd4f5ee9	-0.050627623
77	0x3cc9f816	0.02465443
78	0x3c8305fc	0.015994065
79	0x3d0d7682	0.034536846
80	0xbbb83cfb	-0.005622504
81	0xbca29578	-0.019846663
82	0xbd2cbdab	-0.04217307
83	0x3d897530	0.06711805
84	0xbcfcf454	-0.030878223
85	0xbc8721e4	-0.016495652
86	0xbbeb768c	-0.0071857627
87	0xbbd72266	-0.00656538
88	0xbd124a3f	-0.035715338
89	0xbd8453f1	-0.06461323
90	0x3d9c8a89	0.07643611
91	0xbc5b772b	-0.013395111
92	0x3c68ff0c	0.014220964
93	0xbb0e3407	-0.0021698491
94	0xbb34b77b	-0.0027575183
95	0xbc724943	-0.014787975
96	0x3d55185b	0.05202518
97	0xbd8d6e33	-0.069057845
98	0x3cf4fc3e	0.029905435
99	0xbd2753cd	-0.040851403
100	0x3cb7b7d3	0.022426521
101	0xbc5d1297	-0.013493202
102	0x3d04a738	0.032386035
103	0xbcc40c93	-0.023931777
104	0x3b1f82cc	0.0024339436
105	0x3d40e97b	0.047097664
106	0x3d46af9a	0.04850731
107	0xb9868145	-0.00025654785
108	0x3d8b54a3	0.068032525
109	0xbc6917e6	-0.014226889
110	0x3bc7ea3a	0.00610092
111	0x3b832dcb	0.0040032617
112	0x3d361e20	0.044462323
113	0x3d4cea83	0.050028335
114	0x3d1d7e0f	0.038450297
115	0xbca6c97f	-0.020359753
116	0x3d16ba0a	0.036798514
117	0xbcb2f8d8	-0.021847174
118	0xbd578364	-0.05261554
119	0x3a73641f	0.00092846336
120	0x3d103b6f	0.03521293
121	0x3b7457d6	0.00372838
122	0x3d549ced	0.05190747
123	0x3be74b4a	0.0070585357
124	0xbd632a1d	-0.055460084
125	0x3dba1dfa	0.09087749
126	0x3bccbb1e	0.006247892
127	0xbd305e00	-0.043058395
128	0x3c5e7987	0.013578779
129	0xbe0f4e05	-0.13994606
130	0x3bdd7d37	0.0067593115
131	0x3da360fd	0.079774834
132	0xbd561e01	-0.052274708
133	0xbd1689e2	-0.03675259
134	0x3d156593	0.03647382
135	0x3d9132da	0.07089777
136	0xbbd6a738	-0.0065506957
137	0xbdcfbcbe	-0.101434216
138	0x3d8b1ce7	0.06792622
139	0x3dfd6912	0.12373556
140	0x3e081daa	0.13292566
141	0xbbfbb69f	-0.0076816822
142	0x3d8edb2f	0.069754
143	0xbe41e649	-0.18935503
144	0x3ca57b7d	0.020200485
145	0x3de3e179	0.1112699
146	0x3cbe9c38	0.02326785
147	0x3cdd4bea	0.027013738
148	0x3d2f1b0e	0.04275041
149	0x3c9c3311	0.01906732
150	0xbd439352	-0.047747917
151	0x3e09b24e	0.13446924
152	0x3d5c279c	0.053748712
153	0x3d6b30a8	0.05741945
154	0x3df4bb88	0.11949831
155	0xbd36c888	-0.044624835
156	0x3c0b2473	0.008492577
157	0xbe1215fb	-0.14266197
158	0xbc856899	-0.016285228
159	0x3d52615d	0.051362384
160	0xbd92179f	-0.071334116
161	0x3db018f7	0.08598512
162	0xbd9cdca3	-0.076592706
163	0x3d5e3260	0.05424726
164	0xbdaa4a9f	-0.08315014
165	0x3d8e8bf2	0.06960286
166	0x3dfdf7a8	0.12400752
167	0xbd76e6fe	-0.060278885
168	0xbd89266a	-0.0669678
169	0xbd5dd2e6	-0.054156207
170	0xbc5c9614	-0.013463516
171	0x3c67f25a	0.014156902
172	0xbb5baeaf	-0.0033520868
173	0x3bda7cc7	0.0066677066
174	0xbcf82948	-0.030293122
175	0xbcfc667f	-0.030810593
176	0x3dc327fc	0.09529111
177	0xbdb67e66	-0.08910827
178	0x3d8c055c	0.0683696
179	0xbe1d937d	-0.15388294
180	0xbc8755fb	-0.01652049
181	0xbca9e555	-0.020739237
182	0xbd220393	-0.03955419
183	0xbd983852	-0.07432617
184	0x3e297b48	0.16550934
185	0x3ccc0ea7	0.02490933
186	0x3defd8e0	0.117112875
187	0xbbe96dc7	-0.007123682
188	0xbcdade6c	-0.026717387
189	0x3d8f2ccf	0.069909684
190	0x3cc531ab	0.024071535
191	0x3d17eba5	0.037089963
192	0xbcaf614e	-0.021408703
193	0x3dc238a6	0.09483461
194	0xbccf162d	-0.025279129
195	0x3c5d02de	0.013489453
196	0x3dba9660	0.09110713
197	0x3c96228c	0.01832702
198	0x3dadbc2d	0.08483157
199	0x3b0fef3b	0.002196266
200	0xbde7c621	-0.11317087
201	0x3d44d68a	0.048056163
202	0x3e0bc39c	0.13648838
203	0x3badd007	0.00530434
204	0xbb92d081	-0.004480422
205	0xbd489895	-0.04897364
206	0x3caf3b7a	0.021390665
207	0x3cb598d7	0.022167606
208	0x3d4eeea4	0.050520554
209	0x3c5186fd	0.012788531
210	0x3e254251	0.16138579
211	0xbbd7ee5d	-0.0065896944
212	0xbb99a6f9	-0.004689094
213	0xbda67565	-0.0812786
214	0xbe0c8eee	-0.13726398
215	0x3d689ba7	0.056789067
216	0x3ca5b167	0.020226194
217	0xbcbe54b6	-0.023233753
218	0x3cbfb552	0.02340189
219	0x3dc3ae3b	0.09554716
220	0xbd1b2667	-0.03787842
221	0x3d537375	0.05162378
222	0x3e2feb0d	0.17179509
223	0xbcc32bf3	-0.023824668
224	0xbd8e9417	-0.0696184
225	0xbd81d065	-0.06338576
226	0x3e0bba5c	0.13645309
227	0xbb6b15ec	-0.003587122
228	0xb93a4dee	-0.00017767373
229	0xbcab5b29	-0.020917492
230	0x3c3801c8	0.011230893
231	0xbe0d75ff	-0.13814543
232	0xbcc0a1a4	-0.023514576
233	0x3de2c9e7	0.11073666
234	0x3cb35dbf	0.021895288
235	0xbd0485e2	-0.032354243
236	0x3d29512d	0.04133718
237	0xbdfe9fc2	-0.12432815
238	0x3e08bc98	0.13353193
239	0xbd31b9c7	-0.04339006
240	0xbd821e67	-0.06353455
241	0xbd8cab98	-0.068686664
242	0x3cf192e8	0.029488996
243	0x3dbedefa	0.09319873
244	0xbe015587	-0.12630282
245	0xbd9bd965	-0.07609824
246	0x3d85cb3a	0.06532903
247	0xbdd960c1	-0.106141575
248	0xbdfb9e52	-0.122860566
249	0x3d4642fd	0.04840373
250	0xbda4af37	-0.08041232
251	0xbdb5d79d	-0.088790156
252	0xbdb05003	-0.08609011
253	0x3d23326f	0.03984302
254	0x3dcb0464	0.09912947
255	0xbde224dc	-0.110421866

bias f4 [128]
0	0x3d8fb218	0.070163906
1	0xbdc34c90	-0.095360875
2	0x3ca892f3	0.020577883
3	0xbdcfa50c	-0.10138902
4	0xbce71a20	-0.0282107
5	0xbd6ec0c8	-0.05828932
6	0xbd9b46ca	-0.07581861
7	0xbd2e3708	-0.04253295
8	0xbd4cb1b1	-0.049974147
9	0xbd064847	-0.032783773
10	0xbd01eba2	-0.031718858
11	0xbc880528	-0.016604021
12	0xbd6d97b3	-0.058006
13	0x3d348440	0.044071436
14	0x3cd61c14	0.026136436
15	0xbbc030bf	-0.005865186
16	0xbd5f612f	-0.05453604
17	0xbc158514	-0.009125967
18	0x3d165204	0.03669931
19	0xbd9a227d	-0.07526109
20	0xbbc65b87	-0.0060533914
21	0xbc82c70b	-0.015964052
22	0xbcfb938d	-0.030710006
23	0xbbc0854c	-0.005875265
24	0x3d0187fc	0.031623825
25	0xbd1390c2	-0.036026724
26	0x3cb898cb	0.022533795
27	0x3d180703	0.037116062
28	0xbdb32927	-0.087480836
29	0xbcc6c2ba	-0.024262775
30	0x3c54e9c1	0.012995184
31	0xbda0d825	-0.07853726
32	0xbc02835b	-0.007965888
33	0x392b9cad	0.00016366197
34	0xbdbf1f95	-0.09332196
35	0xbd8ac8a0	-0.067765474
36	0x3d05445c	0.032535896
37	0x3d888b5a	0.06667204
38	0xbe07dc7f	-0.13267706
39	0xbb415650	-0.002950091
40	0x3d87da2f	0.06633412
41	0xbdaa2957	-0.08308666
42	0x3c87f538	0.016596422
43	0x3d4e7e59	0.050413463
44	0xbd63a866	-0.05558052
45	0xbcd287aa	-0.025699455
46	0xbe082cbc	-0.13298315
47	0xbdbf5944	-0.09343198
48	0xbda18783	-0.07887175
49	0x3d372fc3	0.044723283
50	0xbde2d7eb	-0.11076339
51	0xbe866a1f	-0.2625284
52	0x3d09a340	0.033602953
53	0xbd0009b6	-0.03125926
54	0xbe5ad678	-0.21370876
55	0xbd1a0732	-0.03760452
56	0x3d16a15c	0.036774978
57	0x3d6d366b	0.057913225
58	0x3d83db04	0.06438258
59	0xbdb978a3	-0.09056213
60	0x3d3dd72d	0.046347786
61	0xbe118134	-0.14209443
62	0xbdcb02a5	-0.09912614
63	0x3ba91c28	0.005160827
64	0xbd21d440	-0.039509058
65	0x3be22af2	0.006902092
66	0x3d8101fe	0.06299208
67	0xbb9e2c80	-0.004827082
68	0xbdc72efe	-0.0972576
69	0x3d20d6e1	0.039267424
70	0x3a5214b7	0.0008013951
71	0xbc3def49	-0.011592695
72	0xbae08414	-0.0017129206
73	0xbd10f83b	-0.03539298
74	0xbd1f31a6	-0.038865708
75	0x3b5cc5a8	0.0033687148
76	0x3d2874ff	0.0411272
77	0x3d1a8442	0.037723787
78	0x3d55ba36	0.052179538
79	0xbd48cf1f	-0.04902565
80	0xbd92c571	-0.07166565
81	0xbc453fee	-0.012039168
82	0x3d10b5a9	0.035329495
83	0x3cf65b66	0.030072879
84	0x3b7133c7	0.0036804543
85	0xbe381540	-0.17976856
86	0xbcd29d7f	-0.025709866
87	0xbccec52b	-0.025240501
88	0x3d26afa0	0.040694833
89	0xbe0918b1	-0.13388325
90	0xbe0310ea	-0.12799421
91	0xbcfb6271	-0.030686589
92	0xbca59c25	-0.020216057
93	0x3b383243	0.002810613
94	0x3d28d679	0.041220162
95	0xbd93ac53	-0.072106026
96	0xbd86a5f6	-0.06574623
97	0x3d1cc124	0.03827013
98	0xbd10dd69	-0.035367403
99	0xbdb5574d	-0.08854542
100	0xbcc75f5f	-0.024337469
101	0xbe222ad1	-0.15836646
102	0x3d936e9b	0.07198831
103	0xbcf50333	-0.029908752
104	0xbd5e1abd	-0.05422472
105	0x3d6e6aec	0.058207437
106	0xbc0432cf	-0.008068754
107	0x3d6a1034	0.05714436
108	0xbd7ab127	-0.061204102
109	0x3d8b45d9	0.06800432
110	0x3d46b076	0.04850813
111	0xbdc4d9f0	-0.09611881
112	0xbd8a1293	-0.06741824
113	0x3cae602c	0.021286093
114	0x3d606844	0.054786935
115	0xbd5e95a2	-0.05434192
116	0x3d3aa5ed	0.045568395
117	0xbdb53b96	-0.08849256
118	0x3dbf58d9	0.09343118
119	0xbd74c7d7	-0.059760895
120	0x3c3a103f	0.011356412
121	0x3d9a2793	0.075270794
122	0x3d0b000c	0.03393559
123	0xbde54929	-0.11195595
124	0xbc91a1d6	-0.017777365
125	0xbd304e82	-0.04304362
126	0x3d867f5a	0.06567259
127	0x3d84958d	0.06473837

weight f4 [12, 128]
0	0xbc3056e9	-0.0107629085
1	0xbc417f41	-0.011810125
2	0xbb37846b	-0.0028002511
3	0xbc32ce31	-0.010913418
4	0x3bcdbe18	0.0062787645
5	0xb9f40062	-0.00046539592
6	0xbc1ea6f7	-0.009683362
7	0x3ba9a742	0.0051774094
8	0xbc68af07	-0.014201886
9	0x3b0f21a5	0.0021840122
10	0xbbbe85ac	-0.005814275
11	0xbae3c5dc	-0.0017377692
12	0x3b36ef1e	0.002791352
13	0xbb9b2808	-0.0047349967
14	0x3bc90f22	0.006135837
15	0xbaf042c2	-0.0018330442
16	0xbbf81309	-0.0075706285
17	0x396f31cc	0.00022811367
18	0x3b4a9964	0.0030914182
19	0x3c7dab9a	0.0154828075
20	0x3c27f466	0.01025114
21	0x3c1073c2	0.008816661
22	0x3b942f3c	0.0045222323
23	0x3bfcc2e9	0.007713665
24	0xba3914ee	-0.00070603087
25	0x3be588d9	0.007004839
26	0x3c81c77f	0.015842197
27	0x3ae30583	0.0017320368
28	0xbd1b41de	-0.037904613
29	0xb905fec1	-0.00012778772
30	0x3a8b8b5e	0.0010646393
31	0xbbbe201c	-0.0058021676
32	0x3bd3ce58	0.006463807
33	0xba8fde14	-0.0010976219
34	0xba567768	-0.0008181245
35	0x3c643172	0.013927804
36	0xbb82a014	-0.003986368
37	0xbb5fa46b	-0.00341251
38	0x3d8860d9	0.06659097
39	0xbce0d3aa	-0.02744468
40	0x3c14f044	0.009090487
41	0xbd0b039d	-0.033938993
42	0x3b894a2a	0.0041897492
43	0x3b39b2b4	0.0028335275
44	0x3b679b05	0.0035340202
45	0x3ccc0ec4	0.024909385
46	0xba6f83b1	-0.000913675
47	0x3cc0b449	0.023523467
48	0x3b81fce6	0.0039669154
49	0xbc5f5f1b	-0.013633515
50	0x3c82ca5f	0.015965639
51	0xbbf01329	-0.007326503
52	0xbb10b275	-0.0022079025
53	0xbb8347f8	-0.004006382
54	0xbc90eba7	-0.017690493
55	0x3cba8714	0.022769488
56	0x3a031a5f	0.0005001183
57	0xbc392ac9	-0.011301705
58	0xbbd8c04f	-0.006614722
59	0x3bad9512	0.0052973116
60	0x3a1f161b	0.00060686626
61	0xbc8bacea	-0.017050225
62	0xbc16911a	-0.009189868
63	0xbc000f1b	-0.007816101
64	0xbcbecbb4	-0.023290493
65	0xbc9968f5	-0.018726805
66	0x3b9d95fd	0.0048091398
67	0xbb8b6a28	-0.004254598
68	0xbcc9ff3d	-0.02465784
69	0x3bc4058f	0.005982108
70	0x3c86c8cb	0.016453167
71	0xbb818373	-0.0039524375
72	0x3c58c63f	0.013230859
73	0x3cf850b8	0.030311927
74	0xbbc086a7	-0.005875427
75	0x3b4b8178	0.0031052511
76	0x39d09a72	0.00039787922
77	0xbbb1a2c6	-0.0054210154
78	0xbc0ebce4	-0.008712027
79	0xbbbe80f7	-0.0058137137
80	0x3bd62274	0.006534869
81	0xbad05d52	-0.0015896952
82	0x39e578db	0.00043768328
83	0x3a2b5356	0.00065355503
84	0x3d04b524	0.03239931
85	0xbca2b755	-0.01986281
86	0x3abab075	0.0014243262
87	0x3c49efd4	0.012325246
88	0x3ceea03f	0.029129146
89	0x3b9a4e53	0.004709044
90	0xbd231717	-0.039816942
91	0x3c354690	0.011064187
92	0x3a8bba0c	0.0010660305
93	0xb982add1	-0.00024925036
94	0x3b1be46e	0.0023787278
95	0x3c1f5e2a	0.00972704
96	0xbbb345c2	-0.0054709623
97	0xbb269f9e	-0.002542473
98	0xbcf54907	-0.029942049
99	0xbc9bb157	-0.01900546
100	0x3c91a800	0.017780304
101	0x3d944755	0.07240168
102	0xbced990d	-0.029003644
103	0xbbac2fcd	-0.0052547217
104	0xbb948e3f	-0.0045335586
105	0xbb35cb81	-0.0027739706
106	0xb81ce8eb	-3.741022e-05
107	0x3cfac802	0.03061295
108	0x3c8042fa	0.015656937
109	0x3d030156	0.031983696
110	0x3ab2f266	0.0013652563
111	0x3b01f965	0.0019832489
112	0x3b22173a	0.0024733082
113	0x3c53685f	0.012903302
114	0xbbf52d5b	-0.0074822134
115	0x3c6612b2	0.014042543
116	0x3c459bbb	0.012061055
117	0x3b3003f5	0.0026857827
118	0xbb989953	-0.0046569495
119	0xbc24a7f9	-0.010049813
120	0xbb33acfd	-0.0027416341
121	0xbaa72260	-0.0012751333
122	0x3b02e420	0.00199724
123	0xbb88883f	-0.0041666324
124	0x3b5f78fc	0.0034099212
125	0x3b485d27	0.0030573101
126	0xbc2c4dee	-0.010516627
127	0x3bd0a9ec	0.0063679125
128	0x3bce7eea	0.0063017504
129	0x3c514bbc	0.012774404
130	0x3bb0ecda	0.0053993287
131	0xbc181527	-0.009282387
132	0x3d031eb0	0.032011688
133	0xbbcfbbec	-0.0063395407
134	0xbd5a613a	-0.05331538
135	0x3afb49fe	0.0019171832
136	0xbd0edc8d	-0.034878302
137	0xba9a0d3c	-0.0011753212
138	0x3c8126f0	0.015765637
139	0x3ca886ec	0.020572148
140	0xba257714	-0.00063119945
141	0x3cad1c2d	0.0211316
142	0x3b67c4e7	0.0035365166
143	0x3c1ab0dc	0.009441581
144	0xbc0adb59	-0.008475148
145	0x3c344117	0.011001847
146	0x3bb3fdff	0.005492925
147	0xbc141fab	-0.009040753
148	0x3a809422	0.0009809772
149	0xbb25f829	-0.0025324917
150	0x3aa4ec48	0.0012582624
151	0x3ba08866	0.0048990725
152	0xbc269812	-0.010168092
153	0x3cbc2176	0.022965174
154	0x3be0f720	0.006865397
155	0x3c2cd663	0.010549161
156	0x3c90a374	0.017656066
157	0xbb7c1056	-0.0038461885
158	0xbc71bcca	-0.0147544835
159	0xbb70f51f	-0.0036767197
160	0x3ae18218	0.0017204909
161	0x3bee4240	0.007271081
162	0xbc20959c	-0.009801295
163	0xbcfc305e	-0.030784782
164	0x3cd0553f	0.025431274
165	0xbb720ba9	-0.003693322
166	0x3b5aa4f1	0.0033362473
167	0x3d0b769c	0.03404866
168	0x3c99415d	0.018707925
169	0xbd246185	-0.040132064
170	0xbc617b02	-0.0137622375
171	0x3ae2a30d	0.0017291025
172	0x3c2d11fc	0.01056337
173	0x3c9656fa	0.01835202
174	0x3c68d2ad	0.014210385
175	0x3c429bae	0.011877937
176	0xbb9baffa	-0.0047512027
177	0xbca11cf9	-0.019667136
178	0x3c9baf53	0.0190045
179	0x3cd3c260	0.025849521
180	0xbb66f900	-0.003524363
181	0xbc18a0e4	-0.009315703
182	0xbc5f557a	-0.013631219
183	0x3cbeac78	0.023275599
184	0x3bda6a61	0.0066655134
185	0x3b6b6f22	0.0035924395
186	0xbb8126d4	-0.0039413963
187	0xbca0dcf3	-0.019636607
188	0xba5eaef8	-0.00084947003
189	0xbc8f6379	-0.017503487
190	0x3ca8b53b	0.02059423
191	0x3b82c3a1	0.003990606
192	0x3b63536a	0.003468717
193	0x3c3d8f55	0.011569818
194	0xbaf7fd46	-0.0018920086
195	0x3b971073	0.004610115
196	0xbccb1184	-0.024788626
197	0xbd0cb5b8	-0.034352988
198	0x3bf01509	0.0073267263
199	0xbb4b06b8	-0.0030979346
200	0xbb7b5d49	-0.0038355163
201	0xbd204c4b	-0.03913526
202	0xbba36914	-0.0049868915
203	0x3b802ea8	0.003911812
204	0xbc9b8c96	-0.018987935
205	0x3c591f39	0.013252073
206	0xbb8e7457	-0.004347365
207	0x3c0904c1	0.00836295
208	0xbceee0bd	-0.029159898
209	0x3b193ce6	0.0023382246
210	0x3c558046	0.013031071
211	0x3b045f34	0.0020198347
212	0xbc48d440	-0.012257636
213	0x3b173da1	0.0023077505
214	0x3c180ca3	0.009280357
215	0x3b8194fd	0.0039545284
216	0xbc3499fe	-0.011023043
217	0xbbb9236f	-0.005649976
218	0x3c952cf8	0.01820992
219	0xbc034ad0	-0.008013442
220	0x3bc0104b	0.0058613173
221	0x3ada4c9f	0.0016654915
222	0xbbe20d47	-0.0068985554
223	0x3b300a26	0.0026861518
224	0x3c3dc50d	0.011582625
225	0xbb0d4873	-0.0021558076
226	0xbc0e8a1d	-0.008699921
227	0x3d0b6115	0.03402813
228	0x3bdfd00a	0.00683022
229	0x3d41d79a	0.047324754
230	0x3b6fa3c0	0.0036566108
231	0x3be78632	0.007065558
232	0xbc18c91d	-0.009325293
233	0x3afc1803	0.001923323
234	0x3a7aa713	0.0009561639
235	0xbcc64023	-0.024200505
236	0x3c1484c6	0.009064859
237	0xbc28470e	-0.010270847
238	0x3c214026	0.009841954
239	0xbd1d2ab4	-0.038370803
240	0x3c04e2f3	0.00811075
241	0xbc489c0a	-0.012244234
242	0x3c06d8c9	0.008230397
243	0x3ca8cc8e	0.020605352
244	0xbc39d6b8	-0.011342697
245	0xbac15c1a	-0.001475218
246	0x3bc9ebcb	0.006162142
247	0x3c67ed36	0.014155677
248	0xbbfc4548	-0.0076986887
249	0xbb5d3cf5	-0.0033758257
250	0x3a983dd3	0.0011615105
251	0x3b1c6dc8	0.0023869146
252	0x3ca5f727	0.020259453
253	0xb8bbeec5	-8.961329e-05
254	0xbcce8d68	-0.025213912
255	0xb986e90b	-0.00025732102

bias f4 [12]
0	0x3d5bd6f4	0.053671792
1	0x3d4c0ea4	0.04981865
2	0xbd02b598	-0.031911463
3	0xbe23fb56	-0.16013846
4	0x3b4a00c0	0.00308232
5	0xbd8b1ea7	-0.06792956
6	0x3d4e6df7	0.05039784
7	0xbdad3e26	-0.084591195
8	0xbd439d98	-0.047757715
9	0xbe30b1b8	-0.17255294
10	0x3d8b5502	0.06803323
11	0x3d17a57f	0.037023064
