deploy/models/booster_gym_v4/model_10000.pt (torch, 298265 bytes, 8 tensors)

weight f4 [256, 80]
00000000: 0008 73bf f7ca 2a3f 0392 de3c 988c 34bc
00000010: cdfa 463d e4ce 113d a2a8 e03d 71f1 b03d
00000020: 55eb 85bd 5e12 dc3d b1f7 e13c 695c 8c3d
00000030: 276c 69bd a603 d4bc 6fe3 8dbd c469 953c
00000040: ba45 e73a 8a25 68bc eb7f 183e 0b7a a43d
00000050: 5906 b73c e8e9 fc3e f7c8 97be 29bb 85be
00000060: 6465 1d3e f932 dcbd dc3a 163e f0f6 c13d
00000070: 75ba 5fbf fb7d 80bd 0dd1 863e 759d fcbe
00000080: d45e b8bd acd3 d83e d26b 5fbc 3a62 ecbd
00000090: 6384 1ebd e375 fc3c cd54 9ebc fcd0 bcbd
000000a0: f6a6 07be 93fc 013c 0b75 873c 4a19 b3bd
000000b0: 61bc cbbc 6a91 273e 902d 3bbe a49c 20bd
000000c0: 7311 a13d 422f b3bd 159a 56bd f027 1e3d
000000d0: 934c 453e 3cc4 18bd ae8c ce3d 4602 b13b
000000e0: 8557 583d 7f7a ddbc 9a9c 083e efbc 51bb
000000f0: ad16 a5bc d2e3 02be 154f 403d eb6d d83c
00000100: 842f 29bd c665 19bd 148d f03c 84c5 5f3e
00000110: a54a 5bbc 5042 6ebc 8b67 d43c ddbc 5bbe
00000120: f829 073c bef4 3b3e ec6e f83d 2f63 4d3e
00000130: d9cf aabd f981 10bd 0c18 e9bd 60ef e83c
00000140: 4074 79be f398 253f 1745 84be 0c6a 4ebd
00000150: 39e0 7f3d 175b 973c 775d 6bbd 326d 9bbd
00000160: c826 563d 72e6 2abd 61dd c4bd b80d 61bd
00000170: e5fc 2f3d 2b21 37bd 69d0 2fbe dbce abbb
00000180: 2dd0 3cbc d31e a73d fdd9 603d 375a 9c3b
00000190: 4b5d 91bd a149 d73d cba6 91be 5164 17bc
000001a0: 14f5 e2be 1d32 61bd d454 12be fc35 a9be
000001b0: cb8f ea3c df14 74bf 37e1 e43e 6cf9 a83e
000001c0: 70f9 cebe 43f4 d53d 4f7d 81bd 2636 b6bd
000001d0: 623c d5bd fff0 39bc ac58 ee3c b9ae 923d
000001e0: d120 bfbc 785a 49bd 390f 8abc 48a0 9d3d
000001f0: dfaf 8b3d df02 013e 93ff b8be c34b 7cbd
00000200: ce4b d83d 41c1 ff3c a926 9cbd 553c a23e
00000210: 3457 56be 343b 323b 754e 663e 0149 023c
00000220: ce6e 843b 3e95 d83d a973 143d 3052 9b3d
00000230: 4328 db3d 1a82 9abd d9a4 263c cd23 68bd
00000240: 0bb7 18bd 8087 893c 8b24 5f3d 343d bfbd
00000250: 310d 3c3d 0775 b3bd d379 573e c8d0 3d3e
00000260: a58f 51bd f719 823d 0b91 4dbd a61b cc3d
00000270: 225b dabc bc75 663e ae0c 7c3d 44fb 39be
00000280: a03e 073f d6ad b83e b5a3 a93d 65ff 0d3d
00000290: 8b0e b2bc 73d8 f1ba 553f 1dbd 5936 ebbc
000002a0: a3e4 e53c e290 d53d cafa 2fbc 9c18 53bd
000002b0: 0f22 4cbd 07f7 193d 7265 86bc cbf6 93bd
000002c0: e7b0 a23d 418f 13be eb89 443d 8291 10bd
000002d0: 08b0 0c3d 722f 313e 74b3 353e 94e0 98bd
000002e0: a120 d33d 8a0d c03e 0d5e b5bc e205 f3bc
000002f0: ab82 153e 1701 c3be e3c1 a2bd 9d7c 9ebe
00000300: 93ea 963e 2a00 a63c 9614 a1bd e7d4 123e
00000310: 8469 3c3d eef9 193c b584 473d 1de0 bdbc
00000320: 9e32 40be 6302 a6be 9fcf 0fbc fe86 b43b
00000330: a51f 663d 2ec4 da3d 0995 6fbd d1e2 383d
00000340: b4c7 b93d 6a7b 143d 5466 49bd 9c18 07be
00000350: 2385 623e 7328 3c3b 5310 1cbe 4df9 a0bd
00000360: 0756 94bd 28d2 06bd dae9 b93d 49d4 5c3d
00000370: 5fb4 d3bc 228c 8d3d 2ecf 11bd 863b 0f3d
00000380: a8d1 363d 2e59 d63c bc9b 47bb 7912 bb3e
00000390: 2f28 6bbd 7977 a63d d1f1 663e b768 75bd
000003a0: acd3 08be cebd 2abd 63f7 24be 0557 40bd
000003b0: 02e4 37bb 3042 54be 87ee 60bc 27fa 8b3d
000003c0: 943f 81bf f06c 2c3f 3b42 593d d28f 71be
000003d0: 8b1d 14be 6cfb 1e3d 6cf0 8bbd 73d1 dd3d
000003e0: af8c 92bd 479a 0c3d e14c d63d a14a 753d
000003f0: d29d 8e3c 853d 993c d818 9a3d 46b9 66bd
-0.9493408 0.6671595 0.027169233 -0.011019848 0.048579026 0.035597697 0.10969664 0.08639801
-0.06539027 0.10745691 0.027583929 0.06853563 -0.056987908 -0.025880646 -0.06928145 0.01823891
0.0017644682 -0.014169106 0.14892547 0.0803109 0.022341894 0.49397206 -0.29645512 -0.26119354
0.15370709 -0.1075191 0.1467089 0.09470928 -0.87393886 -0.06274029 0.26331368 -0.4933888
-0.09002462 0.42348993 -0.013636546 -0.11542173 -0.038700473 0.030817932 -0.019327546 -0.09219548
-0.13247284 0.007933754 0.016535303 -0.08745058 -0.0248701 0.16364065 -0.182791 -0.039211884
0.07864656 -0.08749248 -0.052393038 0.038612306 0.19267492 -0.03729652 0.10085426 0.0054018823
0.05281784 -0.02703595 0.13340989 -0.0032003482 -0.020152414 -0.12782219 0.04695042 0.0264196
-0.04130508 -0.037450574 0.029364146 0.2185269 -0.013384496 -0.014542177 0.02592828 -0.21458764
0.008249752 0.1835508 0.12130532 0.20057367 -0.08340425 -0.0352802 -0.1138154 0.028434455
-0.24360752 0.64686507 -0.2583396 -0.050394103 0.062469695 0.018476052 -0.057462182 -0.07589187
0.05228308 -0.041723676 -0.09612537 -0.054944724 0.04296579 -0.044709366 -0.17169346 -0.005243165
-0.011524242 0.08160176 0.05489539 0.0047714966 -0.07097872 0.105120905 -0.28447565 -0.009240226
-0.44327605 -0.054979432 -0.14290172 -0.33049 0.028633019 -0.95344347 0.44703075 0.33002794
-0.4042468 0.1044698 -0.06322729 -0.08897047 -0.10411908 -0.011348962 0.029095016 0.07162232
-0.023331078 -0.049158543 -0.016852962 0.07696587 0.06820654 0.12598751 -0.36132488 -0.06159569
0.105613336 0.03122008 -0.07624561 0.31686655 -0.20931703 0.0027195932 0.22490866 0.007951976
0.0040415293 0.10575341 0.036243115 0.075840354 0.10701039 -0.07544346 0.010171139 -0.056674767
-0.03728394 0.016788244 0.05447821 -0.093378454 0.045911018 -0.087625556 0.21042566 0.18536675
-0.05116238 0.06352609 -0.050187152 0.09966211 -0.026654784 0.2250585 0.06153553 -0.18162256
0.52829933 0.36070126 0.08283178 0.03466739 -0.02173545 -0.0018451348 -0.038390476 -0.028712438
0.028063124 0.10428025 -0.010740945 -0.05153714 -0.04983717 0.0375891 -0.016405795 -0.072248064
0.07943898 -0.14410116 0.04798309 -0.035295017 0.034347564 0.17303255 0.17744237 -0.0746471
0.10308958 0.3751033 -0.022139573 -0.029665891 0.14600627 -0.3808677 -0.07947137 -0.30954447
0.2947584 0.02026375 -0.078652546 0.14339028 0.045999065 0.009397967 0.048710544 -0.023178155
-0.18769309 -0.32423696 -0.008777528 0.0055092564 0.056182522 0.106819496 -0.05849174 0.045138184
0.090712935 0.03625051 -0.049169853 -0.13192981 0.221211 0.0028710633 -0.15240602 -0.0786005
-0.07242971 -0.032915264 0.09077807 0.05391339 -0.025842844 0.06911494 -0.035597973 0.034968875
0.044633538 0.026165571 -0.0030457815 0.3653753 -0.05741137 0.08128256 0.22553183 -0.059914317
-0.13361996 -0.041684918 -0.16109996 -0.04695799 -0.0028059487 -0.20728374 -0.013728744 0.06834822
-1.0097528 0.67353725 0.053041678 -0.2359002 -0.14464395 0.038813993 -0.06832966 0.10830965
-0.071557395 0.034326818 0.10463882 0.059885625 0.017409239 0.018706093 0.0752427 -0.056329034

bias f4 [256]
00000000: cac8 39be 1af7 283e 6f34 6c3d ddf1 c43d
00000010: d9d8 113e 1baa c8bc 8454 91bc 9627 13be
00000020: 89e9 acbc 5ff2 373d 1178 05be 869b 04be
00000030: 0002 c63b 8797 dbbd f29a 82be 8d07 c13c
00000040: 75fa 49bd b697 dc3d a14e a83d f6ca e8bd
00000050: 40ee f33d a7db 48bd 668e 033e 124c 39be
00000060: 22fa 12be cad0 dc3d c515 133e f619 113d
00000070: 60be 223e 3b9f 74bc 64cf e6bd ba4c 31be
00000080: 22a0 0f3c dea3 edbc 3e39 93bc 19ea 53be
00000090: a6d4 d5bd f487 d3bd d434 2ebe 0dde a63b
000000a0: 4b47 05bc 2431 2ebe 7154 efbc 756d 4f3d
000000b0: 01b6 25bc 04a5 bebd b961 aa3d 9fe7 183d
000000c0: 87fc 83be d6a6 9dbe 4dbd 9a3d a0e7 aabd
000000d0: c39c 473c 15ec 87bc b52d b93c 683b 73bc
000000e0: 193b 43be feb1 0e3e 1f68 49be 8c9f 613c
000000f0: c152 ea3d 976e 623d 7645 4b3e f9c0 423e
00000100: c503 dcbd 7eeb 703d 6abb ed3d 8d84 f3bd
00000110: 09d7 813d 038c 423e e73b 83bd 5093 2bbd
00000120: 808e 4abd df66 733d 5357 2f3d b3b0 dbbd
00000130: 5e1b 463c a43f 14bc 98e3 fabd fc77 17bd
00000140: 2aa9 25be 3427 123e 9a51 20be 1941 ee3b
00000150: 48ad 8e3d 4ecd 043c 93d6 b6bc 7902 f9bd
00000160: 1c33 9a3d 394e 1cbe 9a87 51bd f366 98bd
00000170: a8a6 02be 36d1 bd3d 19d3 33be 5f80 7abd
00000180: 77ae 11be 85c5 03be 091d e63d 21c5 f73d
00000190: 82f2 8d3d 9bc1 c53d 08ae 3cbe cb23 4cbe
000001a0: 9d8e fa3d f950 87be b5fb 95bc 74e1 1ebe
000001b0: 857b 41bd 7903 cebc 0484 89bd 5870 44be
000001c0: a6fe 513e 0de8 f83d 6382 8cbd 61e4 933d
000001d0: 7626 bdbd 6060 83bd 6f63 2ebb 5953 08be
000001e0: c7ed 2e3e dde7 6c3d 434e 15bc c2b0 df3d
000001f0: a962 c63a 720a 12be e579 32be b57d 423d
00000200: 89f6 dfbc 9cd7 92bd dd2a 293c 87d1 f6bb
00000210: 76a0 55be c268 b1bd 00fd ebbd 739d 753e
00000220: 2996 b33c b473 f23d a02b 47bd 7b1d 3ebc
00000230: 8517 27bd 6ddb 29bd f0fa c63b 3cba 09bd
00000240: 48eb d8bc 1fcf 11be 6458 bbbd 16d5 f3bd
00000250: e6fe e53d bfe1 b3bd 5fae cb3b 6024 0a3e
00000260: ed0f 22bd 6e28 afbd 0296 67bc f5fd f43b
00000270: fcc8 af3d ac3b 98bd 8408 63be 9934 193d
00000280: 9e0b 70be 061e 89bd 53bf 843d 74a6 173e
00000290: 47c6 c43d 90bd 71bd 4be4 25be d856 f6bd
000002a0: 5412 cb3d 2010 d6bd d81f e93d e84c 60be
000002b0: b441 76b9 335d 3b3e 131a da3c df28 2c3e
000002c0: 1b58 53be cfc3 54bc 1569 303e c2a3 7dbd
000002d0: 89fb c2bd 437e 6bbd 3f03 4cbe 2a3b ca3c
000002e0: 3337 8dbd 7c09 f7bc 6ab2 3fbd 2b3e e0bc
000002f0: 10fd 1dbe 5caf 52bc ebec 3dbe 6b9a f0bd
00000300: 056e 693e 9f72 43be 7be2 e9bd b679 16be
00000310: ce8f 13be 485f 62be faca 143e bb49 fbbd
00000320: ccb9 08be 531f d43d af63 0abe 1bf9 5bbe
00000330: 971b b33c 46c2 63be b386 483d 7315 56bd
00000340: d7b5 f43d b9c5 633d e786 d5bd c0dc b0bd
00000350: 92ed debd a63c a3bd be17 efbd f307 b0bc
00000360: 86a1 0e3d d093 86bd a488 37bd 4f60 283e
00000370: 0221 6d3c d973 0cbe 9d1d 33bd 7d11 ee3d
00000380: 99fa d5bb 26e6 25bd 6eb4 203d 93bf 00be
00000390: 7382 2fbd dbe9 1a3e f844 9d3d 2fdc 2d3e
000003a0: d063 06be 9e64 de3c dfe5 a4bd c2ee b7bc
000003b0: fad4 693c 1911 0bbe 44de 823d 9f4a c63d
000003c0: 316b b1bd 87d5 1cbd 2c28 a13c 57f7 8d3c
000003d0: 88bd 113e a25b b1bd ad7a 84bd 7e5e 82bc
000003e0: 38f0 3abe 89b4 2fbe f7a7 393e b129 17be
000003f0: c72d 93bd 624e b8bd e15c 70be 6a4c 973d
-0.18143001 0.16500512 0.057667192 0.09616444 0.14242877 -0.024495175 -0.017740496 -0.1437057
-0.021107452 0.044908877 -0.13034083 -0.12949952 0.006042719 -0.10722261 -0.2550884 0.02356317
-0.04931112 0.10771124 0.08218122 -0.11366837 0.11910677 -0.0490376 0.1284729 -0.18095425
-0.1435323 0.10782011 0.14363773 0.03542515 0.15892935 -0.014930542 -0.11270025 -0.17314425
0.008766206 -0.029008802 -0.017971631 -0.2069477 -0.1044095 -0.103286654 -0.1701234 0.0050923885
-0.008134673 -0.17010933 -0.02921507 0.050641496 -0.010114194 -0.09308818 0.0831942 0.037330266
-0.257786 -0.30791348 0.075556375 -0.0834496 0.012183371 -0.016592065 0.022604803 -0.0148457065
-0.19065513 0.13935086 -0.19668625 0.013770949 0.11441565 0.055281248 0.19850716 0.19018926
-0.107429065 0.058818333 0.11608012 -0.118905164 0.06339843 0.18998723 -0.0640791 -0.041888535
-0.049452305 0.059424277 0.04280789 -0.10727062 0.012091486 -0.009048376 -0.12250441 -0.03697966
-0.16177812 0.14272767 -0.15656129 0.007270944 0.069666445 0.008105589 -0.022319114 -0.12158675
0.075292796 -0.15264215 -0.05115471 -0.07441511 -0.12758887 0.092684194 -0.17560996 -0.06115758
-0.1422671 -0.12868316 0.11236007 0.12098146 0.0693102 0.09656068 -0.18425763 -0.19935529
0.122342326 -0.26428965 -0.0183085 -0.15515691 -0.047236938 -0.02514814 -0.06714633 -0.1918348
0.20507297 0.12153635 -0.06860807 0.07221294 -0.092358515 -0.064148664 -0.002660956 -0.13313045
0.17082892 0.05783831 -0.009112897 0.10922386 0.0015135604 -0.14261797 -0.17429312 0.047483165
-0.027339237 -0.071700305 0.010325161 -0.007532302 -0.20861992 -0.08662559 -0.11522865 0.23985843
0.021922188 0.11838475 -0.04862559 -0.011603708 -0.040793914 -0.041469026 0.0060723945 -0.033624873
-0.026479378 -0.14239167 -0.091477185 -0.11905877 0.11230259 -0.08783292 0.006215855 0.13490438
-0.03956597 -0.08552633 -0.014134886 0.007476563 0.085832566 -0.074332565 -0.22171217 0.037403677
-0.23441932 -0.0669518 0.06481805 0.1480959 0.09608131 -0.05901867 -0.16200368 -0.12028283
0.09915605 -0.10452294 0.11383027 -0.21904337 -0.00023484865 0.18297271 0.026623761 0.16812466
-0.20639078 -0.0129861375 0.17227586 -0.06192375 -0.09520633 -0.05749346 -0.19923113 0.024686415
-0.06895294 -0.03015589 -0.04680101 -0.027373394 -0.15428567 -0.012859192 -0.18547408 -0.11748203
0.22795875 -0.19086693 -0.11420151 -0.14694867 -0.14410326 -0.2210666 0.14530554 -0.12269922
-0.13352126 0.10357537 -0.13514589 -0.21481745 0.021863742 -0.22242078 0.048956584 -0.05226655
0.11948746 0.055608485 -0.10426121 -0.08635855 -0.10885157 -0.07970552 -0.1167445 -0.021488165
0.03482201 -0.06571162 -0.044808045 0.16442989 0.014473202 -0.13716067 -0.043729413 0.116244294
-0.0065301177 -0.04050269 0.03923457 -0.1257308 -0.042849015 0.15128271 0.0767917 0.16978525
-0.13124013 0.027147587 -0.08051657 -0.022452716 0.014271969 -0.13580741 0.0639005 0.096822016
-0.08663023 -0.038289573 0.019672476 0.017329855 0.14232457 -0.08660056 -0.06468711 -0.015914198
-0.18255699 -0.17158712 0.1813048 -0.14761998 -0.07186466 -0.08999325 -0.2347293 0.07387622

weight f4 [128, 256]
00000000: e653 8e3e 4923 b7bd c120 bc3d 5c55 95bd
00000010: 7328 63bd e842 763c 5aca 963e c14a ab3e
00000020: 8b2a bfbd c438 c63d c211 9d3d 9d15 ad3d
00000030: c55b ed3d 3a4d 523d eb69 ad3d 5c82 39be
00000040: f424 0a3d 4e24 f33d 22a9 a239 880d 4fbe
00000050: 36a3 a4bd 22e7 8e3e c5e4 aebd 2f59 25be
00000060: cfe4 22be b932 5ebd 289c c3be a8ed 923d
00000070: e4e6 123e abdb f7bd d4d4 1b3c 2173 213d
00000080: c50e 98bd cd27 a13e 1680 213d 872c 663e
00000090: 2383 9ebd be5a 2b3d fdfe 483d 6518 803e
000000a0: 0e29 30be c693 d33d 1104 c53d 7779 03be
000000b0: 977f 933d 6da1 26be cbca 6bbd 7d3c a93d
000000c0: fe16 e43d 39d2 943d 0549 61bd 772c d3bd
000000d0: 4f99 153e 3074 6d3e 2bc6 cebd 7f2f e2bc
000000e0: 3c6f 4c3d 6078 dcbb c912 d03c 08b3 9b3c
000000f0: 2ba2 4abd 3412 57bd e0fb 78be e319 393e
00000100: 341d e9bd 72b2 273e 9caf b2ba 37f1 3d3a
00000110: e5df 01be 29d3 80bd 0a5f 9e3d c5e2 29bd
00000120: 0c31 85bd deb4 f53e c7e0 0d3e ab12 a63d
00000130: 9015 033e 664c a1bd 30ae 2fbd 6bc0 d13d
00000140: f487 a6bd f382 b1bc e758 78bd c132 1dbd
00000150: 2eb8 09be cd40 aa3d e725 e33c dbda 20bc
00000160: 9e2a 973d 3b2a e63c 8854 2cbc 6e0a eb3c
00000170: d422 933d 852e 473e 4990 f53d 023d 2c3e
00000180: c42e a33e 2970 a0bd bfae 713d 41e2 913d
00000190: dde9 1d3d fd56 3a3e b1dd 993d 7497 073c
000001a0: eedf 89be 1063 093d de10 30be 73bb c7bc
000001b0: 0197 113e 4201 7d3c 6578 30be 498f d93d
000001c0: d51e 203a 2457 96be c1f1 193e 2c38 04be
000001d0: ac12 06be 7d6e 7e3d 4ec4 443c c3ca 81bd
000001e0: 387e 4abc 1e0e 44bd 0e26 393e 56e0 a8be
000001f0: b2ac f13d 7d6e 503c 5429 d0bb 71e5 363e
00000200: 1401 80bc d377 09bd 72c9 39be 4ccc 483d
00000210: 3505 8abd 629b 49bd f0a7 d03d 3533 4bbe
00000220: 0c28 fa3c dab1 99be fbfe 9dbd 224e 3b3d
00000230: b4bc 77bd b4f5 273d 206b 8bbe 9193 df3d
00000240: 421c 403d c96f 5cbe 02cd 553e f5e5 12be
00000250: f402 513e f885 693d 8c6d 24be 65ac a6bd
00000260: ae8b 3cbe 9677 e6bc 2580 053e d014 203d
00000270: a699 1a3e f9ef 823d 42e8 e4bd 445b 24bd
00000280: c6b5 073e 2a61 a13d 092f a8bd 2a48 013e
00000290: 0979 69bd 0f5f 183e 364b 8abc 5f17 af3c
000002a0: 9d61 8fbd adfb 5a3d 6e82 2abe 1715 133e
000002b0: 7122 353e a95b 1b3d 4fce 103e c74a 093e
000002c0: d115 2a3d fc4a f8bc 171f 49bd 6d27 8abd
000002d0: c85b 5abe 6328 c6be 6a70 8bbd a2a8 78bd
000002e0: 9c41 0e3e 8d4b 4fbe 3045 963c a98b c83b
000002f0: f7e4 a73b 6d81 59bd 4153 a73d db6e 803e
00000300: dc1f 0ebd 5b79 eb3d 42a9 743e 6dfa dd3d
00000310: bc45 f03c 97f7 853d 325c 673e b399 133e
00000320: 54a0 6ebd bcdc c6bd e07a 6dbd 7653 b63d
00000330: fca4 613c f5c0 f73d 552f 0c3d c220 1e3c
00000340: 15b2 dbbd c107 4f3e 46d8 883d 084b b73d
00000350: f361 513e 79cf 23bc 556a 873d f0a4 2c3e
00000360: c5b9 a1bd 3cc6 0b3b 89f8 8fbd 45fa 2bbe
00000370: 564c 803d ec92 d2bd 89e3 0bbd be73 bfbd
00000380: e8b0 153e 85bc 6e3c d389 84be a85f b3bd
00000390: ef22 363e b1df 86bd 833c e2bd 6b62 3a3d
000003a0: 1379 e33c 8aa0 323e 8ed8 95bd efa7 bc3c
000003b0: 5e75 90be 8b18 d1ba 76db cd3d 3ebb 8d3d
000003c0: 5e08 573c f46e f83d 36e0 c53d c00e b1bd
000003d0: c687 2cbe 6de8 70bd db6b 323d f80d 0ebe
000003e0: 57d5 cdbd 48d5 4d3e 4d58 06be 2348 d8bd
000003f0: cc95 863e 3e84 37bc 0908 9d3d b523 6fbd
0.27798384 -0.08942277 0.09185935 -0.07291672 -0.055458497 0.0150306 0.29451257 0.3345547
-0.09334286 0.09678796 0.07669403 0.08451388 0.11589769 0.05134318 0.08467468 -0.18116134
0.033726647 0.11872159 0.00031025062 -0.20220006 -0.080389425 0.27910715 -0.08539728 -0.16147302
-0.15907596 -0.05424759 -0.38205075 0.071742356 0.1434589 -0.12102445 0.009511191 0.039416436
-0.07424692 0.31475678 0.039428793 0.22477923 -0.07739856 0.041834585 0.0490713 0.25018612
-0.17203161 0.1033092 0.09619916 -0.12839304 0.0720207 -0.16272517 -0.057566445 0.0826349
0.11137198 0.07266659 -0.055001277 -0.10311215 0.14609264 0.23188853 -0.10096391 -0.027610539
0.04991077 -0.006728217 0.025399582 0.019006267 -0.04947106 -0.052507594 -0.24314833 0.18076281
-0.11382523 0.16376665 -0.0013632658 0.00072457216 -0.12683065 -0.062902756 0.07732971 -0.04147603
-0.065034956 0.47989553 0.13855277 0.081090294 0.12801194 -0.078759 -0.042890728 0.10241779
-0.081314 -0.021668887 -0.06063166 -0.03837848 -0.13449165 0.08313141 0.027728034 -0.009817804
0.073811755 0.028096309 -0.010518201 0.028691497 0.07184377 0.1945134 0.11990411 0.16820148
0.31871617 -0.07833893 0.05900454 0.07123233 0.038553108 0.18197246 0.075129874 0.008275855
-0.26928657 0.03354174 -0.17193934 -0.024381375 0.1421776 0.015442194 -0.17233427 0.106230326
0.000610811 -0.29363358 0.15033628 -0.12912053 -0.1309306 0.06211709 0.012009693 -0.06337502
-0.012359194 -0.047865026 0.18080923 -0.32983655 0.11800517 0.012721655 -0.006352583 0.17860962
-0.015625514 -0.03356154 -0.18143252 0.049022958 -0.067392744 -0.04922045 0.101882815 -0.19843753
0.030536674 -0.30018502 -0.07714649 0.04572881 -0.060482696 0.041005805 -0.27230167 0.10916818
0.04690195 -0.21527018 0.20878986 -0.14345534 0.20411283 0.05701253 -0.16057414 -0.081383504
-0.18412659 -0.028133195 0.13037165 0.03908235 0.15097675 0.063934274 -0.11177112 -0.0401261
0.13252935 0.07879861 -0.08212096 0.12625185 -0.057000194 0.14880012 -0.016881566 0.021373449
-0.0700104 0.053462673 -0.16651317 0.14363514 0.1768892 0.03792921 0.141412 0.13407432
0.041524712 -0.030309193 -0.049101915 -0.06745801 -0.21324074 -0.38702688 -0.06808551 -0.060707696
0.13892215 -0.20243664 0.018343538 0.0061201644 0.0051237303 -0.053101946 0.08170176 0.25084576
-0.034698352 0.11497756 0.23892692 0.108387806 0.029330127 0.06541365 0.22593763 0.144141
-0.05825837 -0.097100705 -0.05797851 0.08902638 0.0137722455 0.120973505 0.034224827 0.009651365
-0.10727326 0.20217802 0.06681876 0.08949858 0.20447521 -0.009998196 0.06612078 0.16859794
-0.07896761 0.0021327874 -0.07029826 -0.16794689 0.0626456 -0.102819294 -0.03415254 -0.09348248
0.14618266 0.014571314 -0.25886402 -0.08758479 0.17786764 -0.065856345 -0.11046698 0.045504015
0.027767694 0.17444053 -0.07316695 0.023029296 -0.28214544 -0.0015952749 0.100516245 0.06920479
0.0131245535 0.12130538 0.096619055 -0.086453915 -0.16848668 -0.05881541 0.04355989 -0.13872516
-0.10050457 0.20100892 -0.13119622 -0.10560634 0.2628616 -0.011200963 0.07667548 -0.058383662

bias f4 [128]
00000000: a07c cfbd 4a39 d53d c88d dbbd c98c 8fbd
00000010: 9491 d23c 317d ffbc 6cfd 1fbd b210 e03a
00000020: e34c 16bc a265 aabd 44d0 1b3b 7280 11be
00000030: 7b66 efbd 5a9b d6bd 557d 6dbd 55de cabd
00000040: 5b14 d3bc 1783 a63c 3536 f6bc a292 6ebd
00000050: 7931 e3bd 175b 10bd 0a09 bdbc da15 fdbd
00000060: 6739 a4bd e8e6 a53d 819a 78bd ec23 05be
00000070: 3263 06be f36b 02bd 1e21 a0be 59c3 fdbd
00000080: be49 4abd c3c8 02be 5baa 33be 8ca0 1abe
00000090: 7c52 c83c ba90 f83c e345 63bd d8b5 59bd
000000a0: 0ded edbd 7aab 843d 0ed1 8dbd 0b79 7dbd
000000b0: e47f 78bd 56e6 16be 3f7a 263d 872e 6abd
000000c0: 9a0c 40be 922e a1bd c5cc 1bbe 1edc d9be
000000d0: 5d6f e0bd c3e7 423c 86f3 2dbd 9ef8 2cbe
000000e0: 4495 0b3d 93e4 bfbd 10aa 91bc c356 8fbc
000000f0: b501 ffbd a80c 3bbd b8ea 08bd da67 b3bd
00000100: 004a b3bc d945 8bbd 6753 02bc ef38 12be
00000110: 19b8 fc3c 7fc2 d0be 2533 a53c 3572 353d
00000120: 90a7 bcbd 5165 39be e2b7 24be 3ad6 90bd
00000130: 87a5 a4bd 4c12 18bd 09f4 2fbb 5999 cbbe
00000140: 8bb0 18bc d885 e9bd be40 abbe 2d6c 20be
00000150: b2a0 1ebd 5408 bdbd 9893 91bd 8dd5 44bb
00000160: c6f3 ea3c 3711 72bd 43d2 403d 4e93 a8bd
00000170: 718c 88bd 5bc5 14be df45 a8be df15 98bd
00000180: 6b4f a8bc 4b53 c93c a8de 5d3d c194 2cbe
00000190: 625b ffbb 9d2d acbc 7cd4 fdbc f975 563d
000001a0: a9e0 33be 35fc f33b f7da cc3d c7d2 1dbd
000001b0: 386f 2dbd b072 2abe a441 68bd af85 d0bd
000001c0: 8b87 b3bd e83c 123e 32f6 c1be 3876 783d
000001d0: 4f76 17be e66e 69bd 8693 51be ab9a 40be
000001e0: 3362 18bd 655b eabc eade 1cbe 692a c03c
000001f0: 7d14 c339 1529 82bd f38e d5bd 0c68 2fbc
-0.10131192 0.10411318 -0.10720402 -0.070092745 0.025704183 -0.031187626 -0.03906004 0.0017094819
-0.009173605 -0.08320166 0.002377526 -0.14209154 -0.116894685 -0.1047885 -0.057980854 -0.09905688
-0.025766542 0.02032618 -0.030055145 -0.05824531 -0.110934205 -0.03524312 -0.0230756 -0.123576835
-0.08018761 0.081006825 -0.06069422 -0.13001984 -0.13123778 -0.03184123 -0.31275266 -0.12390775
-0.049386732 -0.12771897 -0.17545454 -0.15100306 0.024453394 0.030342449 -0.05548657 -0.053151935
-0.116174795 0.06478019 -0.0692464 -0.061883014 -0.06066884 -0.14736304 0.040643927 -0.05717328
-0.18754807 -0.07870211 -0.15214832 -0.4255075 -0.10958741 0.011896077 -0.04246857 -0.16891715
0.034077898 -0.09369769 -0.017781287 -0.017497426 -0.124514975 -0.045666367 -0.03342697 -0.087600425
-0.021885872 -0.06800432 -0.007954455 -0.14279531 0.030849503 -0.4077339 0.02016599 0.04429837
-0.092116475 -0.18105055 -0.1608577 -0.070721105 -0.08039384 -0.037126824 -0.0026848337 -0.39765432
-0.009319435 -0.11402482 -0.33447832 -0.15666266 -0.03872747 -0.09230104 -0.071082294 -0.0030034513
0.028680693 -0.05909845 0.04707552 -0.08231221 -0.06667412 -0.1452841 -0.32865807 -0.074260466
-0.020545682 0.02457585 0.05416742 -0.1685362 -0.007792876 -0.021017844 -0.03098511 0.0523586
-0.1756617 0.007445837 0.10002702 -0.03853109 -0.042342395 -0.16645312 -0.056703225 -0.10181748
-0.08766087 0.14281046 -0.37883145 0.060659617 -0.14791225 -0.056990527 -0.20466432 -0.18809001
-0.037203025 -0.028608033 -0.1531941 0.023457723 0.00037208563 -0.06355492 -0.10427656 -0.010705959

weight f4 [128, 128]
00000000: dc7c 81bd bbe2 1fbd 398c 9b3c a62b cb3b
00000010: ee72 89bc 5d10 8abb 37b5 c53c 59f5 3b3d
00000020: dd2d d33c c221 073c 5d6e 7c3c 4c2f 353d
00000030: 85b4 82bc 0ede 373c 41d7 d1bc c4c6 69bc
00000040: 6ff5 16bd a207 86bb 95e1 20bd 296d e7bc
00000050: d1ee ebbc 332b cc3c a308 aa3d 2802 08bd
00000060: 4022 d93d c81b 793d 7333 963c f81b 98bd
00000070: 3ba6 05bd 4896 a03d 799e 31bd c2ed 2c3d
00000080: 1e70 9cbc 5472 6a3c 43e6 e73c 5afb 913c
00000090: 6eae 963c bbeb 123c 0d79 063d 9f0d 6f3d
000000a0: 7d41 bf3c 6e5b 333c 6156 51bc 0c72 373c
000000b0: 561c 4dbb 9562 c6ba 4b83 83bc 71c4 1cbb
000000c0: 8c9e 36bd 0ced 91bc d0c2 fbbb 513b d23d
000000d0: 0df0 d23c 44f4 bd3a a133 a03d 023b a53c
000000e0: 2acd dabc cb9b 55bc d5a1 30bd 09c2 90bc
000000f0: fb81 69bd 8901 20bc cdbf a73b 5e19 273d
00000100: b0f7 f83c a34a 0b3d e1c7 9fbc b72b 273d
00000110: b3f1 38bd 2118 6e3d c6a9 e23b 35b7 acbd
00000120: babd fb3c a362 653c 69a1 a9bc f051 85bc
00000130: b809 10bb 36f8 f13b 4bb9 d53c 4e6a 40bd
00000140: ce4c 0abd 5734 adbd 1845 c2bd c800 b93d
00000150: 327c 193c fc43 60bd 718c 98bc c906 fb3b
00000160: 2aaa a33c d74c b5bd fe6c f33b a9d9 d8bc
00000170: 0d99 433d dcdf 823d a4b6 e43c ff9a 863d
00000180: 12a5 8fbc 3f52 fdbc 196c 8bbc 85df cfbc
00000190: 1525 cc3c 1d82 babc 30e5 113d fc0d 25bd
000001a0: 5cc6 983c 718f 12bb d2bb 2b3d 93ea 213c
000001b0: 217e bbbc d82c 23bd 17e3 c53b af1b c43c
000001c0: 2b76 9e3c 3bdc d9bc d39b 90bc c5cb de3c
000001d0: 3d24 773d f250 10bd 1a74 77bd f90c 7a3a
000001e0: 4344 0abd fe83 63bd 2b5e f83b 9b5b 97bc
000001f0: 825e 30bc 0baa 4c3d aefc d5bc 3e13 463d
00000200: 3af1 1d3d 260d 3ebe e7f5 2c3d d1a3 533d
00000210: 667c 1ebd d343 c1bd 9959 5e3c 0482 e73c
00000220: 7224 863d a3a6 bd3c 2a59 923d b421 063e
00000230: 7a99 913d 00f5 44bd 3c07 c23d 658c 0fbe
00000240: d582 e5bd ec8c 3fbc f36d 15ba 47e3 9bbc
00000250: b245 86bd d72a a43d 5447 45be d0b9 553d
00000260: 7141 293e ad75 133e 7ee6 113e bd92 81bd
00000270: 4375 87bd c5e6 5bbd 3f6d 54bc 6f51 4bbd
00000280: 304a 1cbe 1bcd ad3d e553 4b3d 7a9d 04bd
00000290: 11d0 eabc ddc0 dd3d d3a5 57bc b10a 273d
000002a0: 9322 073d d9f1 c43c a215 92bd 7cc3 483c
000002b0: 1db6 4bbe efcc 35bc 9388 dbbc 27e0 b6bd
000002c0: e338 903d e48d aebc ac56 21bb 47f3 aebc
000002d0: e988 5abd 5301 5b3c 9869 1abc 3762 1ebc
000002e0: 91e2 a53d af6f 8cbd da9a bf3d 795c 013c
000002f0: a6aa 36bd cd61 35bc 7ceb 49bd 05f2 aa3d
00000300: f332 25be e259 0d3e 3bad 7ebd 41b7 a13d
00000310: 1470 08bd 73d0 74bd f04a 003d 22ab 213e
00000320: 7793 cf3b ad0f 923d 4b46 f23d d366 69bd
00000330: 6cf4 9ebd 524e ae3b b712 88bd c556 863d
00000340: f302 1838 b189 d7bc 8eb4 e13d a707 85bd
00000350: cf62 9abc 7ab6 57bd f233 183d df39 743d
00000360: 1f24 153d 8969 683d b73d 5b3c a199 3c3d
00000370: debd bf3d 36a3 4c3c 49f7 693d 7480 883d
00000380: 0c3f f2bc e935 4c3d 79d8 933d 6bed f3bc
00000390: 01ed c2bc 9c09 82bd 919d d93d 8481 2fbd
000003a0: 8765 e3b8 4a2c a5bd 1246 aa3d e557 723c
000003b0: 28ee dc3c 8e54 1fbe 7cc8 55bd 473f c8bd
000003c0: 7a5b a53b 4bf5 5bbd 51d4 ba3d 0699 703d
000003d0: f5eb 1dbd 72b0 a9bd dd76 9f3d cfa6 42bc
000003e0: 39f0 a9bd 1851 4b3d a07a 6ebd ec9e 0dbe
000003f0: d4c9 8abd 7d35 d8bc 546c 103e dbe4 f93c
-0.06322643 -0.039034586 0.018987762 0.0062002717 -0.016778436 -0.0042133764 0.024134262 0.04588828
0.025778705 0.008247795 0.015407172 0.04423456 -0.015955219 0.011222376 -0.025615336 -0.014268581
-0.036855157 -0.0040902654 -0.03927763 -0.028250294 -0.0288004 0.024922943 0.083024286 -0.03320518
0.10602236 0.06081751 0.01833508 -0.074272096 -0.032629233 0.07841164 -0.043364022 0.04221893
-0.01909643 0.0143094845 0.02830804 0.01782005 0.018393721 0.008967335 0.032830287 0.0583626
0.023346657 0.0109470915 -0.012776942 0.0111966245 -0.0031297407 -0.0015135581 -0.016053816 -0.00239208
-0.044584796 -0.017813228 -0.0076831356 0.1026522 0.02574923 0.0014492352 0.078223474 0.020169739
-0.026709158 -0.013037632 -0.043123085 -0.017670648 -0.057008725 -0.009765991 0.0051193 0.040795676
0.030391544 0.034006726 -0.01950449 0.040813174 -0.045152377 0.05812848 0.006917211 -0.084333815
0.030730117 0.014000568 -0.02070685 -0.016274422 -0.002197845 0.0073843254 0.026089331 -0.04697638
-0.033764653 -0.08457249 -0.09485835 0.09033352 0.009367989 -0.054752335 -0.018621655 0.007660721
0.019978601 -0.08852547 0.0074287644 -0.026470976 0.047753382 0.06390354 0.027919121 0.06572532
-0.017534766 -0.030923007 -0.017019318 -0.025375137 0.024920026 -0.022767121 0.03561896 -0.04029654
0.018649273 -0.002236333 0.041927166 0.009882587 -0.022887291 -0.03983769 0.006039034 0.023938982
0.019343456 -0.026594272 -0.017652428 0.027196774 0.060337294 -0.035233445 -0.060413457 0.0009538676
-0.033756506 -0.0555458 0.007579585 -0.018476298 -0.01076472 0.049966853 -0.026121464 0.048358195
0.03856013 -0.18559703 0.0422267 0.0516699 -0.038692854 -0.094367646 0.013571166 0.028260238
0.0654992 0.023150748 0.07145913 0.13098794 0.071093515 -0.048085213 0.09474036 -0.140184
-0.11206595 -0.011691313 -0.00057002826 -0.019029273 -0.06556262 0.080159836 -0.19265491 0.052179158
0.1652887 0.14400358 0.14248082 -0.06326816 -0.06614163 -0.053686876 -0.012965499 -0.049638208
-0.15262675 0.084863864 0.049640555 -0.032376744 -0.028663667 0.108278014 -0.013162094 0.04078168
0.032991957 0.024041103 -0.071330324 0.012253638 -0.1989369 -0.011096223 -0.026798522 -0.089294724
0.070421 -0.021307893 -0.002461831 -0.021356238 -0.053353224 0.013367015 -0.00942459 -0.009666971
0.08099855 -0.068572395 0.093557075 0.007895582 -0.044596337 -0.011070681 -0.04929684 0.08346943
-0.16132717 0.13803819 -0.062176924 0.07896281 -0.03331001 -0.059769105 0.031321466 0.15787938
0.006334718 0.07131896 0.118298136 -0.056982826 -0.077614635 0.005319395 -0.066441946 0.06559519
3.624237e-05 -0.026310774 0.11020766 -0.064956 -0.018845944 -0.052664258 0.037158914 0.059625503
0.0364114 0.05674127 0.013381413 0.04604495 0.09362386 0.012490084 0.057120595 0.066651255
-0.029571079 0.0498561 0.07219023 -0.029776296 -0.023794653 -0.06349489 0.106257565 -0.042848125
-0.000108431144 -0.08065088 0.08314146 0.0147914635 0.02696903 -0.15559599 -0.05219315 -0.09777694
0.0050463052 -0.053700726 0.091225274 0.058739685 -0.038555104 -0.082856074 0.07786343 -0.011880591
-0.08297772 0.049637884 -0.058222413 -0.13830155 -0.06776777 -0.026392693 0.14103824 0.030504635

bias f4 [128]
00000000: b80c 403d 24b3 64bd c25a 853d 270d 16be
00000010: ce44 363d c588 1ebe 6803 adbd 06ec 95bd
00000020: aa0f 04bc 7a5e 28bd a879 23bb 643f 443c
00000030: 66a5 a8bc 45c4 063d ebd9 b7bc bea6 2dba
00000040: c445 ddbd 23bd 013d 8f49 963b c587 c2bd
00000050: b55a 62bd ad6d 73bc 0edc d0bc 7577 d33c
00000060: 242e 4ebd a188 18bd 9fbe 153b c70d 723d
00000070: 41b7 d6bd 3278 acbd 291b 60bc 6215 03be
00000080: 1bbe 97bc 7bf8 0bbd 033b b9bd f1a5 9fbd
00000090: 06a9 99bc 5051 783c 58e4 65be 6a02 32bd
000000a0: daf8 9a3c cb8b 87bd e862 fa38 e652 603d
000000b0: 9f96 69bd e055 43bc b717 d7bd 31f4 c6bd
000000c0: ed03 5dbd 79ce 1c3d 3d0b 30bd bf7d a1bd
000000d0: 6b5e b23d 65e6 08be d275 8abe 233b 1a3b
000000e0: 9c46 dd3c 1d4f 8e3d fb00 873d 76b3 a2bc
000000f0: debd 0a3d 3393 d1bd ddfa e5bd b6d7 9c3c
00000100: c3a5 10bd 4c17 1f3d 8b54 8f3c 4e63 83bd
00000110: 0e7f e2bd 74d7 2c3d 9579 88bc 01f0 2dbd
00000120: 458e 2bbc fbe7 293d 1f8c 56bd f2d0 2abd
00000130: 8c07 a8bc 2963 833c 2386 803d 9632 50bd
00000140: 5ead 77bb 8592 2b39 f5c7 973d fe11 b83c
00000150: cd6f 073b a4c3 63be f6bc 18bd c859 563c
00000160: 7f99 6f3d cf12 2cbe dee5 96bd 14be 7ebd
00000170: f3b9 aabb f20f eabc cab0 4e3d 29e4 83bd
00000180: ec7e 88bd b157 b2ba 310c 54be e504 0abe
00000190: e040 3abe 077e 9cbe dfa9 8f3d 0635 29bc
000001a0: 0c8f aebc 7b2f cf3d e2fc a4bc 1803 023d
000001b0: 6ee0 08bd c0bc 613d 6447 293d ae22 b7bd
000001c0: e7d1 f3bb 5565 a13d 0101 4d3d 47a3 5fbd
000001d0: f833 6b3c 9f89 68bd 3ffd aa3d 9f76 66bd
000001e0: 6a27 7e3b 8036 a73d 256f 87bb 107f 11be
000001f0: ba87 203b 7dfe 1ebd 473a 903d 48f6 b03d
0.04688713 -0.055834904 0.06511451 -0.14653455 0.04449921 -0.15481861 -0.08447915 -0.073204085
-0.008060375 -0.041105725 -0.002494434 0.011978004 -0.02058668 0.03290202 -0.022442779 -0.0006624273
-0.10804322 0.031674515 0.0045864056 -0.09498552 -0.055262286 -0.014857692 -0.025495555 0.025813797
-0.050336972 -0.037239674 0.0022849215 0.05909517 -0.10484172 -0.08421363 -0.0136783505 -0.12801126
-0.018523267 -0.034172516 -0.09044459 -0.07795323 -0.018757354 0.015156105 -0.22450387 -0.043459333
0.01891749 -0.0661846 0.00011939352 0.054766558 -0.05702841 -0.01192233 -0.1050257 -0.097145446
-0.053958822 0.038282845 -0.042979468 -0.07885312 0.08709415 -0.13369139 -0.27043015 0.0023533783
0.027011208 0.069486834 0.06591984 -0.019860964 0.033872478 -0.10233154 -0.11229489 0.019145828
-0.035314333 0.038840577 0.017496368 -0.06415425 -0.1105939 0.04219766 -0.016659537 -0.042465214
-0.010470931 0.041481 -0.052379724 -0.041703172 -0.020511411 0.016038494 0.062755845 -0.050829493
-0.0037792544 0.00016362414 0.07411186 0.022469517 0.0020666004 -0.222426 -0.037289582 0.013082929
0.058495995 -0.1680405 -0.073680624 -0.06219299 -0.005210155 -0.028572056 0.050461568 -0.064400025
-0.066648334 -0.0013606456 -0.20707776 -0.1347843 -0.1818881 -0.305649 0.07014822 -0.010327583
-0.021308444 0.10116478 -0.020140115 0.03174123 -0.033417158 0.055111647 0.04132785 -0.089421615
-0.007440794 0.07880656 0.050049786 -0.054599073 0.014355652 -0.05677187 0.08349084 -0.05626547
0.0038780817 0.08164692 -0.0041331225 -0.14208627 0.0024494962 -0.038816918 0.070423655 0.086407244

weight f4 [12, 128]
00000000: 5f2b 0abc 2841 69ba e790 af3a f0eb aabb
00000010: 2887 533c 0b76 093d 2953 c33b bb6a 2dbc
00000020: c013 363c 9500 bd3b 0402 e2bc e18f 323b
00000030: 37f3 33bc c3ab 353c 0276 a23c 52db 2f3c
00000040: 4c60 35bd f929 8ebb 6554 ec3b 635b 87bb
00000050: 03f6 1bbc d9af 24bc ab25 243c 984e d83b
00000060: e608 483b 62e2 a93b 567f ab3c 9fa2 65bc
00000070: 57d2 78bc 6eaa 65bc 79c6 f93a c58e 8fbc
00000080: e794 b23b f3e2 49bb c22d 033b b9f0 b9bc
00000090: 11aa e3bb 7e16 3e3b e744 503d 627e a1bb
000000a0: 905f 1dbc a9be b6bc 0e8d d83b 9440 deb9
000000b0: 9afa 3e3b 47de b63b d96c 3c3c 8234 2a3d
000000c0: 1f86 7abb c3df 03bc cfea fbbb 4622 f73b
000000d0: 5ef6 bb3a a651 62bc 7f75 3dbd fc5b d8bb
000000e0: f619 483b 39ad 683a 4fce 883b 1d2b c43b
000000f0: 99cb d1bb 89b7 4abd 1aa7 c5bb bf46 a43b
00000100: 8f2a a0bb 0520 c5bb dcf1 b5bc a239 f8bc
00000110: 6794 fabc b109 9d3c cd2c db3a 6825 903c
00000120: 565e 923b 5cbe c4bb bbdb 0dbb f7d1 4abc
00000130: 6758 d3bb 47d1 b33b 606d f5b9 02e3 bfbb
00000140: 5cd3 86bc 07e9 8cbb 8cd8 1d3c 319f 7d3b
00000150: cc54 a93b cb14 073c bb7b 263d d708 bf3b
00000160: bede 833c edc3 ba3c 9fd7 993a 2370 9b3c
00000170: ba1a f1bb ef97 b6bb d9cd 38bb 3f57 01bc
00000180: abd0 073c ce44 133b 3a2c 55bd bd64 c53a
00000190: e029 053d d98b 903d 354b 89bb dca3 ef3b
000001a0: b6da 48bb 18e6 5b3c a18c b0bc 9607 133d
000001b0: ad07 c2bb 5856 8d3c cf71 853b 28b0 103a
000001c0: ebaf a33b 143d 2abd 9230 6d3c b842 28bc
000001d0: d620 703c 4f26 833c 18ed 27bc 0596 53bc
000001e0: 96b5 2dbc 811a 2bbb ff28 a73c 2d32 dfba
000001f0: 4660 50bb 9dfa 2c3c b802 e7b9 5c11 023c
00000200: b45c 04ba 4840 45bc 74b4 cabb e829 233d
00000210: ce20 fb3c aa53 c9bb ac5f 563b a3f5 ff3b
00000220: 1b78 9f39 3a9a fe3b e948 5fbc 2f49 89bc
00000230: 2fc3 193a 5da0 d73b c44a 7b3b 1754 33bb
00000240: 1e5c 89bc 5f80 b73b dc62 84bc 3576 bf3a
00000250: 65bd bfbb 75e2 993c 1127 c93b 2dff 25bc
00000260: 2db6 8abc 3deb fd3b 80f7 903c 20e0 2cbc
00000270: 15cc d138 a186 c43b 8d84 d839 86ca cabc
00000280: 1b54 36bc dd70 4c3b 085e ef3b 8f7f a5bc
00000290: 7357 37bb d1f7 c7bc 1cb1 263d f989 213d
000002a0: d65b 523d e514 ef3c 6e09 c7bc d90d a83a
000002b0: 4f90 973c a1c2 a8ba 6065 a3bb 0c4b aa3c
000002c0: a529 af3b d036 28bc 9000 ca3a 8a0c 52bc
000002d0: 35b3 0a3b 5a2c b1bb 0e51 013b 0f5f c33b
000002e0: 4182 e33b 3d5c c8bb 4e6b be3b 24ff 8bbc
000002f0: 4bfb 4b3c 1452 373b c1df 773c 145d 193c
00000300: b322 ba3c 3cba 21ba b146 253c 2b25 d4b9
00000310: 62db 8bbc 1381 c6bc b928 e9bb 8550 dcbc
00000320: cb71 013c 6766 3cbb 83a8 b33b df0f 793c
00000330: 7fa5 0dbc 7c37 40bc 1e9e 713c 09fd b73b
00000340: d3d9 9bbc 11ec 023c dfcc 053c 1809 343b
00000350: 636c 44bc b6aa 0abc aa8d 3f3b c094 f7bb
00000360: 3ba5 ca3c c9b1 d3ba 293b 273d 837b 653c
00000370: 8400 c53b 1f64 8abc c702 b7bb bab7 933a
00000380: cca4 303c f9b2 bdb9 9971 003d db27 8f3c
00000390: c7e4 923b 02cc e9bc ce81 5cbc 5df8 db3a
000003a0: 7870 b1bc d8b9 fdba bc16 84bb 6d7c a3bc
000003b0: feab af3b 3d38 003c 9c75 e33c 6b69 d7bb
000003c0: a9b5 bb3c 05db 15bc 0083 063c c6b1 c239
000003d0: f1a7 3cbc 7e60 dd3b 5885 b6ba f2ee d93b
000003e0: 1c1b e8bb b64f 94bb 5aff 12bc e0dc aabc
000003f0: 5c8f cc3b a9ec e4bb 7565 5abc 3ab1 5a3a
-0.008433192 -0.00088979537 0.0013394625 -0.005216114 0.012910642 0.03355984 0.005960841 -0.010584529
0.011113107 0.0057678916 -0.027588852 0.0027246403 -0.01098328 0.0110883145 0.019831661 0.010733442
-0.04428129 -0.0043384996 0.007212209 -0.004130767 -0.009519103 -0.010051691 0.010018746 0.006601166
0.0030522882 0.0051844576 0.020934742 -0.014015823 -0.015186868 -0.014017684 0.0019056342 -0.017524133
0.0054498794 -0.0030805438 0.0020016287 -0.022697793 -0.0069477637 0.0029005106 0.05084696 -0.004928396
-0.009605303 -0.02230771 0.006608612 -0.00042391254 0.002914107 0.0055806967 0.011500561 0.04155398
-0.0038226915 -0.008048954 -0.0076879035 0.0075419275 0.0014340391 -0.013813412 -0.04625463 -0.0066027623
0.0030533052 0.000887591 0.0041749845 0.005986585 -0.0064024446 -0.04949144 -0.006031883 0.0050133164
-0.004887886 -0.00601578 -0.022210054 -0.030300919 -0.030588342 0.01916966 0.0016721726 0.017595962
0.004466812 -0.006004138 -0.0021645862 -0.012379161 -0.0064497474 0.0054875943 -0.00046811532 -0.005855919
-0.016458206 -0.00430024 0.009634148 0.0038699622 0.0051675793 0.0082447035 0.040645342 0.005829911
0.016097423 0.022798503 0.0011737234 0.01897437 -0.0073579224 -0.005572311 -0.0028198867 -0.007894336
0.008289496 0.002247143 -0.05204413 0.001505993 0.03251064 0.07057924 -0.0041898736 0.0073132347
-0.003064794 0.013421558 -0.021551432 0.035895906 -0.005921325 0.017253086 0.004072405 0.00055194134
0.0049953363 -0.041562155 0.014476912 -0.010269813 0.014656266 0.016009478 -0.010249399 -0.012914185
-0.0106023755 -0.0026108327 0.02040529 -0.0017028503 -0.0031795665 0.010557798 -0.0004406178 0.007938709
-0.0005049214 -0.012039252 -0.0061860625 0.039834887 0.030655291 -0.0061440067 0.0032710833 0.0078112646
0.0003041633 0.00776985 -0.013628223 -0.01675853 0.00058655714 0.006580396 0.0038344124 -0.0027363354
-0.016767558 0.00560002 -0.016160421 0.0014607372 -0.005851435 0.018784741 0.0061386903 -0.010131639
-0.016932571 0.00774899 0.017696142 -0.010551482 0.0001000391 0.0059974943 0.00041297488 -0.024754774
-0.011128451 0.0031195201 0.0073049106 -0.020202426 -0.0027975708 -0.02441016 0.04069625 0.03943822
0.051357113 0.029184768 -0.024296489 0.001282151 0.018501429 -0.0012875387 -0.00498645 0.020787738
0.0053455406 -0.010266975 0.0015411545 -0.012820372 0.0021163945 -0.0054068984 0.001973215 0.0059622596
0.0069430177 -0.0061145113 0.0058111316 -0.017089434 0.01245005 0.0027972506 0.015129031 0.00936057
0.022721624 -0.00061694137 0.010087655 -0.00040463483 -0.017072383 -0.02423147 -0.00711545 -0.026893863
0.0079006655 -0.002874756 0.0054827346 0.015201538 -0.008645414 -0.0117319785 0.014747171 0.005614881
-0.019024765 0.007990853 0.008166521 0.002747124 -0.011988732 -0.008463552 0.0029228725 -0.007555574
0.024736991 -0.0016151007 0.040827904 0.014006498 0.0060120244 -0.016893445 -0.005585048 0.0011269965
0.010781478 -0.00036182234 0.031358335 0.01747506 0.004482839 -0.028539661 -0.013458682 0.0016782392
-0.021660075 -0.0019357754 -0.0040310305 -0.019956792 0.0053610792 0.007825908 0.027766041 -0.006573846
0.02291377 -0.009146457 0.008209944 0.00037135015 -0.01151465 0.0067558875 -0.0013925238 0.006650799
-0.00708331 -0.004526104 -0.008972013 -0.020857275 0.0062426757 -0.00698622 -0.013329853 0.0008342449

bias f4 [12]
00000000: 571e 8b3d 9c99 ab3d c80e 423c 951f 0fbe
00000010: 6c54 533d d7b0 4dbd 598e 443d 34ec b7bd
00000020: 750c 46bd 234c 2cbe cf9a c13d c6aa 363d
0.06792896 0.08378908 0.011844344 -0.13976891 0.051594183 -0.050217476 0.047987316 -0.08980599
-0.048351724 -0.16825919 0.094533555 0.044596456
