deploy/models/booster_gym_exp_ankle/model_2000.pt (torch, 294142 bytes, 8 tensors)

weight f4 [256, 80]
000000 bf 67 ff be 31 b1 ba bd 90 59 23 3d 19 32 55 3e
       -0.4988384 -0.09115828 0.039880335 0.20819892
000010 c6 d8 90 3d 8c d8 ea 3d a2 a8 e0 3d 71 f1 b0 3d
       0.07072596 0.11467084 0.10969664 0.08639801
000020 55 eb 85 bd 5e 12 dc 3d b1 f7 e1 3c e7 30 97 bd
       -0.06539027 0.10745691 0.027583929 -0.07382374
000030 d1 85 4b be a0 54 57 bc 8e 0b 03 3e e5 10 5f 3d
       -0.19875266 -0.013142735 0.12797377 0.05445947
000040 00 13 1c 3c 6b 2a 06 3d ef 8a 04 3d 4f 84 9a 3d
       0.009526014 0.032755297 0.03235906 0.07544767
000050 7e d0 a1 3c 3c f2 dc bc 1f dc 44 be 2a 1e d1 3e
       0.019752737 -0.026970975 -0.19224595 0.40843326
000060 5a 2c 38 3f 1b 4a 70 3d 23 b2 08 bf 7b 81 a3 bf
       0.71942675 0.058664422 -0.53396815 -1.2773889
000070 8b 43 56 3e 9d ff 87 bf a4 ee 4b bf 63 29 5c 3c
       0.20924203 -1.0624882 -0.7966101 0.013437602
000080 c1 15 87 be e7 83 33 3f 91 c9 69 be 73 3d 36 bf
       -0.26383784 0.7012314 -0.22830798 -0.71187514
000090 d0 ca 1b be ba 3f d3 3e 79 d7 ac bd a3 16 f5 bd
       -0.15214086 0.41259557 -0.08439536 -0.11967208
0000a0 00 74 9c 3e b0 11 a0 3e 56 19 63 3d b5 83 1f bd
       0.3055725 0.31263494 0.055444084 -0.038943965
0000b0 5f c5 65 3e 37 12 1f bf 1d c5 eb 3f 77 75 a7 be
       0.22438572 -0.6213717 1.8419529 -0.32706806
0000c0 04 95 72 bd 0e ff 6e 3e ec d7 fb 3c 45 33 28 3f
       -0.059224144 0.23339483 0.030742608 0.6570323
0000d0 f8 7d 56 bf 94 00 8d 3d 03 ab 83 3f 0f f3 42 3f
       -0.83785963 0.06884876 1.0286564 0.7615213
0000e0 58 4a 88 bd 7a 22 04 bd 21 16 92 3e 5c 2c 52 bd
       -0.06654805 -0.032259442 0.28532508 -0.051311836
0000f0 56 39 a2 3d a3 1b a5 be 11 72 c0 bd 17 85 29 bd
       0.07921092 -0.32247648 -0.093967564 -0.04138669
000100 7e 54 60 3c b2 78 99 bd 49 41 05 3e f0 c5 7b 3e
       0.0136920195 -0.07493724 0.13013186 0.24587226
000110 96 8d c2 be 7b 0a 7a 3c 30 5a b1 be ab 93 44 3d
       -0.37998646 0.015261288 -0.3463912 0.04799239
000120 6b 84 e6 bc 47 b4 8c 3d 11 64 06 bf 4f 5a 40 3e
       -0.028139314 0.06870323 -0.5249644 0.1878445
000130 3c 87 82 bd c6 6b 8f 3d c0 f0 01 3f 8c 2b 3a bf
       -0.0637345 0.07002978 0.5075798 -0.727227
000140 d7 58 54 3f 1b a9 8c 3f bb 44 fe bd fa ec 27 3d
       0.8294806 1.0989107 -0.12415453 0.040997483
000150 c0 50 20 3e f9 b4 01 be 77 5d 6b bd 32 6d 9b bd
       0.15655804 -0.12666692 -0.057462182 -0.07589187
000160 c8 26 56 3d 72 e6 2a bd 61 dd c4 bd 96 e8 12 bf
       0.05228308 -0.041723676 -0.09612537 -0.5738615
000170 ad 07 30 3e 01 d8 cb bd 21 5f 05 bf 22 c1 a9 bd
       0.17190428 -0.09953309 -0.5209828 -0.0828879
000180 40 b7 89 ba 17 ba 0c 3d 0a 89 44 be d1 94 fe bb
       -0.0010506883 0.034357157 -0.19192901 -0.007769205
000190 3a a1 1b be 1f 82 9e be 98 9e b3 3c cf f7 de 3e
       -0.15198222 -0.3095865 0.02192621 0.43548438
0001a0 a1 7d 2a bd 6a 14 f3 3d 59 b7 53 bf 78 14 ae bf
       -0.041623715 0.11869128 -0.8270164 -1.3599997
0001b0 dc 3e 44 3f b9 84 9f 3e b4 27 d1 be e3 e5 c0 3d
       0.76658416 0.31155947 -0.40850604 0.094188474
0001c0 d1 d5 75 bf 6a 89 86 bd fc 51 65 3e e9 94 91 bf
       -0.9602938 -0.065691784 0.22394556 -1.1373569
0001d0 69 5c a2 be 71 6c 73 be 0d 50 db 3d 84 8c 82 be
       -0.31711128 -0.23771836 0.10708628 -0.2549783
0001e0 0e 0c b7 be 85 55 de 3c 11 1f e4 3d 1b 2a a2 bc
       -0.35751384 0.027140388 0.11138738 -0.019795468
0001f0 e3 b6 a9 bf a7 b6 84 3f d5 ee 87 bd 62 74 ee 3d
       -1.3258938 1.0368241 -0.066373505 0.11643292
000200 7c 5d 97 3e 4f 1a bd 3d ad 8d 9c be ba 65 40 3e
       0.2956351 0.092335336 -0.3057684 0.18788806
000210 41 77 05 3e 39 6b 06 be 8a f1 84 3f dc cf b7 3d
       0.13033773 -0.1312684 1.0386212 0.08975193
000220 12 bf 47 be c7 8b db 3d bf 9c c6 bc fc 63 8c 3d
       -0.19506481 0.1072002 -0.024244664 0.06855008
000230 be 77 0f 3d c5 40 bd bd 92 66 22 bd bd 3d 90 bd
       0.035026304 -0.092408694 -0.0396486 -0.07043026
000240 fe 21 63 be 42 cf c2 bd b2 55 f1 3d 86 e3 d9 be
       -0.22180936 -0.095121875 0.11783923 -0.425564
000250 69 6c f1 be 4d 40 ea be 11 0b 12 3e a5 ba 82 3e
       -0.47153023 -0.45752183 0.14262034 0.25533023
000260 28 9a 66 3e 06 64 d0 bd b2 24 1c bf cf d9 d4 bd
       0.22519743 -0.10175328 -0.6099349 -0.10393106
000270 73 7d 93 be ec ff bf 3e c3 4e df 3e be 35 5f 3d
       -0.28806648 0.3749994 0.43614778 0.054494612
000280 ce 1e 9d 3f bd ae cc bd 92 60 a4 3d c9 b2 1f bc
       1.2275026 -0.09994266 0.08026232 -0.009747216
000290 ba 7a 6d 3e ab 93 c6 bd 55 3f 1d bd 59 36 eb bc
       0.23191348 -0.09696134 -0.038390476 -0.028712438
0002a0 a3 e4 e5 3c e2 90 d5 3d ca fa 2f bc 10 72 d4 3e
       0.028063124 0.10428025 -0.010740945 0.41493273
0002b0 16 fb 63 be e9 8f b1 3c 18 5d 83 3d e6 67 4f 3c
       -0.2226375 0.021675067 0.064142406 0.012659049
0002c0 5c b0 41 bd 0d 8f 60 be 6b 86 48 3e e9 b9 25 3d
       -0.04728733 -0.2192957 0.19582526 0.0404605
0002d0 3f 20 30 bd 4c 4b 81 3d a8 dd f7 be 6e 59 15 3e
       -0.042999502 0.0631319 -0.48411298 0.14584896
0002e0 2b 17 bd bc 16 2e 88 3e 5f 06 91 3e 8b 8d 4b be
       -0.023082336 0.2659766 0.28325173 -0.19878213
0002f0 e9 5b c9 be 87 b7 d9 bd 34 f8 ba 3e d5 d8 96 3e
       -0.39327934 -0.10630708 0.3651749 0.29462305
000300 19 ce 5c 3f 48 bf b0 3e 91 e5 c8 3d e4 06 d6 bd
       0.8625198 0.34520936 0.09809411 -0.10450533
000310 7b 3c 3d 3e 53 8a 2b 3e 22 39 cf bd 5e 87 81 bf
       0.18480103 0.16751985 -0.10118319 -1.0119436
000320 ef f0 0b be 7c ff 77 bd 09 95 53 3d 83 17 af bd
       -0.13666128 -0.060546383 0.051655803 -0.085494064
000330 df 97 df 3d 6b 32 71 3f f2 37 0b bf fb 30 e3 3b
       0.10917639 0.94217557 -0.5438224 0.006933329
000340 31 9c 5c 3f 24 0c ae 3d fa 16 82 be aa 1c e8 3f
       0.8617583 0.084984094 -0.25408155 1.8133748
000350 bf ca 08 be d3 4a 7a bd 66 0e 7b 3f c4 9d 05 3f
       -0.13358591 -0.061106514 0.98068845 0.52193856
000360 6b 36 40 be 46 9a 92 3d 3d d6 ea 3b 95 28 56 3e
       -0.18770759 0.071583316 0.0071666525 0.20913918
000370 6c 8d e8 bd ca 57 2f bc 60 3c bf bd 0d fc 00 3e
       -0.11355099 -0.010702083 -0.093376875 0.1259615
000380 4b f7 b3 bc 3b 08 ba 3d 1d bd 7f bd b4 2b e4 3c
       -0.021968504 0.09083601 -0.06243621 0.02785287
000390 a1 03 74 3f f5 58 4f 3c 69 13 f6 3d 00 2f 27 3e
       0.9531804 0.012655486 0.12015421 0.16326523
0003a0 43 b7 ba bd a4 1a b7 be 00 4f 8a 3f 50 08 b6 3d
       -0.09116986 -0.35762513 1.0805359 0.08888304
0003b0 3d ef a0 3c 5f f5 bb 3d c7 2e 1e 3f 39 99 93 3e
       0.019645328 0.0917766 0.61790127 0.28827837
0003c0 3a f9 4d 3f 6f 9e 21 3f 64 5a 39 3d 16 10 02 3e
       0.80458415 0.63132375 0.04525222 0.12701449
0003d0 7f bc 01 3f 91 4c 7a 3e 6c f0 8b bd 73 d1 dd 3d
       0.5067825 0.2444327 -0.06832966 0.10830965
0003e0 af 8c 92 bd 47 9a 0c 3d e1 4c d6 3d df 22 24 be
       -0.071557395 0.034326818 0.10463882 -0.16028927
0003f0 a9 c3 c3 be 60 df e6 3d 9e 3d c0 3d ec c1 cb bd
       -0.38235214 0.11273074 0.093867525 -0.09949097

bias f4 [256]
000000 dd de 00 be 47 83 01 3d 7c 6b 7c bd 69 98 25 3e
       -0.12585016 0.031619336 -0.061625943 0.16171421
000010 77 b8 55 3d 1e f6 eb bd ef 49 d7 bd 2d ee 0c be
       0.052177873 -0.115215525 -0.105121486 -0.13762732
000020 5d f3 1b bd a6 72 9e 3c 3c 97 c0 bd 09 89 ad bd
       -0.038073886 0.019341778 -0.09403846 -0.08473403
000030 d1 49 3a 3e b5 26 87 bd 82 a3 36 be c9 46 2d bd
       0.18192221 -0.0659918 -0.17835811 -0.042303834
000040 bf 78 80 be 90 73 82 3e 46 b3 61 3e 92 5b 85 be
       -0.25092122 0.25478792 0.22041044 -0.26046425
000050 c0 a2 1a be 25 bb 26 be e3 04 c1 3c ab b6 d9 bc
       -0.15101147 -0.16282327 0.0235619 -0.02657636
000060 f8 8a 02 3d e1 f9 49 bc 88 ef 69 3e ae 50 88 3b
       0.031870812 -0.012327642 0.2284528 0.0041600084
000070 97 91 34 3e 3a fa 3c be 0d 72 23 bd 6f 08 c1 be
       0.17633663 -0.18454829 -0.03990369 -0.37701747
000080 21 91 92 bb fe b8 1f 3d 45 1c 41 be 30 88 15 bb
       -0.004472867 0.03899478 -0.1885844 -0.002281677
000090 b9 f1 41 bd bc b3 47 3d 6a 6f 34 be f6 96 a1 3d
       -0.047349665 0.048755392 -0.17620626 0.07890122
0000a0 78 d6 ff bc a4 a9 a1 be 7b 28 7c 3c 96 d3 63 bd
       -0.031230196 -0.31574738 0.015390511 -0.055621706
0000b0 d1 13 12 3e 1d 89 39 bd 18 c4 94 3e 7f ef f7 bc
       0.14265372 -0.045296777 0.29055858 -0.030265568
0000c0 32 63 a8 bc 23 37 84 3d 68 d2 31 bc f2 bc 68 be
       -0.020555113 0.06455829 -0.010853387 -0.22728327
0000d0 a3 4a aa 3d c7 da 6a bd 9c e0 24 3e 2b ca 0b be
       0.08315017 -0.05733755 0.16101307 -0.1365134
0000e0 87 5b 3c be 6f 52 22 bd b6 80 f5 bd 3a d6 c1 bd
       -0.1839429 -0.039629396 -0.1198744 -0.094646886
0000f0 22 16 e3 3c 14 11 7d 3d 6f 47 d3 bc 15 97 d5 3d
       0.027720515 0.061783865 -0.025790898 0.10429207
000100 04 0a 03 be 7f 48 5e 3e 0c 86 9e 3c f6 f5 8b be
       -0.1279679 0.21707343 0.019351028 -0.2733609
000110 b4 32 17 3d d4 7b 39 3c 9d 07 4d be 77 8d 05 be
       0.03691359 0.011321027 -0.20022435 -0.13042246
000120 4d a3 74 be 74 09 fd bc 15 52 30 3e fd 0e e3 bd
       -0.2389042 -0.030888297 0.17218812 -0.11086843
000130 ed ec 8c bd 82 06 11 be b0 0e 46 bc 35 32 c6 bd
       -0.068811275 -0.14162639 -0.012088463 -0.09677545
000140 4a 3c 32 bd 08 3f 3b 3e 4f 91 af bd 5d 79 43 3d
       -0.043514527 0.18285763 -0.08572637 0.047723163
000150 7d f1 9c 3d 08 f1 26 be d3 a3 f1 bd b8 57 26 be
       0.07663248 -0.16302884 -0.11798825 -0.162444
000160 4b 69 c5 bc 82 7f 92 be 66 46 52 be 24 0c 2f bd
       -0.02409806 -0.28612906 -0.20534667 -0.042736188
000170 c8 c6 97 3d 99 8b 21 3d 6e dc 96 bc 16 b6 84 be
       0.074109614 0.03943977 -0.018415656 -0.2592017
000180 82 14 d6 bd a0 69 04 be da 80 11 be 76 dc a7 bd
       -0.1045313 -0.12930918 -0.14209309 -0.081963465
000190 f8 25 11 3d c0 7e 83 3e 91 99 08 be dc 81 49 be
       0.0354366 0.2568264 -0.13339831 -0.19678444
0001a0 77 23 9a 3d 0c c0 7c be 0f c5 08 bc 36 05 82 bd
       0.07526296 -0.24682635 -0.008347764 -0.0634865
0001b0 a8 74 35 bd 6d ac a4 be 9d 01 8f bd d9 bd 32 bd
       -0.044300705 -0.321628 -0.069827296 -0.043638084
0001c0 1f 37 c7 3d 33 33 fb 3c b3 f8 10 be 23 39 df 3d
       0.097273104 0.030664062 -0.14157371 0.1089957
0001d0 ec ee 82 bd 06 d2 17 bd ee b5 8e 3c b3 93 de bd
       -0.06393227 -0.03706553 0.017420735 -0.10868015
0001e0 2b e1 2d 3d 81 b3 c1 bd 9b 74 80 bd 51 fc 06 be
       0.042451065 -0.09458066 -0.06272241 -0.13182189
0001f0 28 16 af bd 94 80 fe be c6 f0 94 be ea 37 2b bd
       -0.08549148 -0.49707472 -0.29089946 -0.04180137
000200 1a 8e 7e bc 06 7b a6 be 0f ba 9c bd c6 0b 0a 3d
       -0.015536809 -0.32515734 -0.07652675 0.033702634
000210 d0 8a b9 3c 80 c1 c5 bd 7a 52 f5 3c 97 c1 18 3e
       0.022649199 -0.09656048 0.029946554 0.14917599
000220 31 df 4b 3e 1e 45 2f 3e 2f c6 5f bd 7d df 17 be
       0.1990936 0.1711621 -0.054632362 -0.14831348
000230 20 32 0f bd 6d b6 f6 3d 99 b6 f3 3d f6 d8 99 be
       -0.034959912 0.12046514 0.11900062 -0.3004834
000240 42 3e 31 be d2 e3 32 be cf cf a7 bb cb 53 b2 bc
       -0.17308906 -0.17469719 -0.0051212083 -0.021768471
000250 b5 8b 0c 3e 3d 89 d1 3c 2d 33 b9 3d 38 d9 4a 3e
       0.13725169 0.025578136 0.09042964 0.19809425
000260 06 bc bd bc 45 e4 2e bd 4b 68 06 be 3c 43 e6 3d
       -0.023160946 -0.042698164 -0.13125722 0.11243293
000270 52 83 5f 3d 8a 8d 9c bd 2c 52 22 be e3 d7 c5 3d
       0.054568596 -0.07644184 -0.15851659 0.09660318
000280 34 2c 39 3d 79 56 31 be 4a 42 22 3e a2 dd d7 3d
       0.04520817 -0.17318143 0.158456 0.1054032
000290 c2 31 35 3e bb fd c1 bc 61 98 4d be 71 bf 51 be
       0.17694762 -0.023680558 -0.20077659 -0.20483185
0002a0 a3 fe 62 3d 62 58 53 be c3 73 58 3e 7b f5 f6 bc
       0.05541862 -0.20639184 0.2113791 -0.030146351
0002b0 36 ea 55 be 68 8d 02 be c1 a8 a3 3d ee 9c c3 3d
       -0.20890126 -0.12749255 0.07991172 0.09551416
0002c0 5c 37 25 bd 02 5b 95 bd 97 fb 29 3d d2 6e 84 bd
       -0.040335998 -0.07292749 0.0414997 -0.0646645
0002d0 6f 04 f8 bd 2e 11 68 be a0 c3 4e bd 6a 5f 49 3e
       -0.12110221 -0.22662804 -0.05047953 0.19665304
0002e0 34 49 30 3d 47 1b b6 3d 8b 8a 0b be d0 96 8d bd
       0.043038562 0.088919215 -0.13627069 -0.06913531
0002f0 4f 9f 5f 3d b7 60 e1 bc 2c cc 93 bd e7 a5 a0 be
       0.054595288 -0.027511938 -0.07216677 -0.31376573
000300 12 0b 4b 3e d7 70 04 bd bf 7c a9 be 12 ed 10 be
       0.19828442 -0.032334175 -0.33102986 -0.14152935
000310 06 95 09 be e2 0d b6 3d 93 54 05 be e4 4c 2c 3c
       -0.13435754 0.08889367 -0.13020544 0.010516379
000320 3f 6d 4d bd e1 1b 1e be 60 93 08 bd 77 21 cd 3b
       -0.050153013 -0.15440322 -0.033343673 0.006260093
000330 9a b7 42 3c ad 21 52 be 9e 6f 0a be af c3 eb 3d
       0.011884594 -0.20520659 -0.13519141 0.11511933
000340 b9 8e fb 3d 45 3f 9b bd 56 11 e9 bd 81 50 53 be
       0.122830816 -0.07580427 -0.1138026 -0.20636179
000350 37 5a 7f bd 6d e2 06 be 3b 0d b4 bc 61 d9 92 bd
       -0.062341895 -0.13172312 -0.021978965 -0.07170368
000360 de 96 e0 bd 61 ad 76 be 9b 1a a5 bd 77 de 39 bd
       -0.10966276 -0.24089576 -0.08061715 -0.045378175
000370 70 a9 83 3d e7 64 59 bd d3 5f b7 bd e8 8a db 3d
       0.06428802 -0.053074744 -0.08953824 0.10719854
000380 1f d3 b8 bc 34 d5 43 be b6 f3 8b 3d 34 df 82 be
       -0.022561608 -0.191243 0.068335935 -0.25560915
000390 f9 0f bd bd 2e e8 62 3e 65 31 8a 3d f8 16 73 bd
       -0.09231562 0.22158882 0.067477025 -0.059348077
0003a0 42 26 cf bd 7a 67 f2 bd 19 0f c8 bd 61 9c 3a 3c
       -0.10114719 -0.11836143 -0.09768505 0.011389823
0003b0 8e 68 9b 3d 12 f2 a3 be 3f a2 dd 3d 0f 84 9a 3d
       0.075883016 -0.32020622 0.108219616 0.075447194
0003c0 57 5f 15 be 77 77 73 be ca 50 52 be 2a 94 a9 bb
       -0.1458715 -0.23776041 -0.20538631 -0.0051751332
0003d0 32 57 61 bd dd 15 62 be 2d e5 13 be fe 2d 48 bd
       -0.055014797 -0.22078653 -0.14442892 -0.048871987
0003e0 3c 4f 10 be c4 4c 83 bd 66 cd d7 3d ea 49 ca 3d
       -0.14092726 -0.06411126 0.105372235 0.09877379
0003f0 d7 8a d3 be b1 50 21 be a9 39 ce be ad f0 d6 bd
       -0.41316864 -0.15753438 -0.40278366 -0.10495124

weight f4 [128, 256]
000000 ce 16 8a 3e 23 7f 84 bc b4 72 b0 3e 7e 11 2b 3d
       0.26970524 -0.016173905 0.34462512 0.04176473
000010 69 83 a7 3e f6 98 10 be e2 2b 6f be bf 27 b9 3d
       0.32717445 -0.1412085 -0.23356584 0.09040784
000020 50 99 99 be 44 36 bd 3e 5d 1e 7b be 45 28 c4 be
       -0.2999978 0.36955464 -0.24523301 -0.38311973
000030 23 39 b2 3e a9 64 9c bd 50 9c e7 3e 21 ec a2 3e
       0.34809217 -0.07636387 0.45236444 0.31820777
000040 0a 9d 94 3e 19 2d 18 bf eb bc 88 3e 04 e7 26 3f
       0.2902606 -0.59443814 0.26706633 0.6519625
000050 ed 29 95 bd 64 4e 96 bd 5c 31 1a 3f 50 4e 56 3e
       -0.07283387 -0.073391706 0.60231566 0.20928311
000060 53 f8 b5 bd b7 c2 67 be c5 10 6a 3e d9 95 95 3d
       -0.08885255 -0.22632872 0.2285796 0.07303972
000070 09 df 1d 3d 8d 33 d1 bd 07 1d 1f be 17 11 db 3e
       0.03854278 -0.10214911 -0.15538417 0.42786476
000080 b5 0e cc 3e de 24 ae 3e f0 b0 a6 3e 7b 64 a2 be
       0.3985497 0.34012502 0.32556868 -0.31717286
000090 2c 28 b1 3c e9 5f ce 3e 26 23 0d 3e cb a3 e3 be
       0.0216256 0.4030755 0.1378294 -0.44460902
0000a0 ac b3 07 3e 05 89 cb 3c 6f 3e 63 be 1b 0a ec 3e
       0.13252133 0.02484561 -0.22191785 0.4610146
0000b0 7c 81 cb bd 6e 5a c9 be 48 ac 24 be 8e 9a 0f bd
       -0.099368066 -0.39326805 -0.16081345 -0.035059504
0000c0 9e 66 f2 bc 34 be 32 be db 2e 9e 3e 2b 90 31 3e
       -0.029589947 -0.17455369 0.30895123 0.17340152
0000d0 0b 19 b4 bd 6b fc 84 be d5 55 a4 be 81 cf fd 3e
       -0.08793839 -0.2597383 -0.32096735 0.49572375
0000e0 21 eb f5 bd 1a 04 40 bd 1a 9a e7 bd 50 e4 14 3d
       -0.12007738 -0.04687891 -0.113086894 0.03635055
0000f0 65 2a 1e 3e 9e 98 af 3d 8e 38 55 3d f5 eb e2 bc
       0.1544586 0.08574031 0.052055888 -0.027700404
000100 49 dc 5d be c1 03 9e be f4 e4 88 bd d3 e1 60 b9
       -0.21666063 -0.3086224 -0.06684294 -0.00021446431
000110 c6 08 61 bd a7 d1 f7 3d 6d 72 38 3e 58 3c 81 3d
       -0.054940008 0.12100535 0.180124 0.06310338
000120 f5 23 de 3e 1c 67 84 3e a0 60 fb be cb fa 18 bd
       0.43386808 0.25859916 -0.49097157 -0.03734855
000130 16 c0 0b be 65 c6 64 3b 07 61 5f 3e be 25 4e 3e
       -0.13647494 0.0034908291 0.21814357 0.20131585
000140 57 cd bb bc 1c c7 ce be e5 8c b5 bb 26 86 4b be
       -0.022925062 -0.40386283 -0.0055404776 -0.19875392
000150 9c a5 bb 3e 93 d7 44 bd a9 74 45 3e 2b 24 a6 3d
       0.36649787 -0.04805715 0.19282784 0.08112367
000160 fa e8 be 3c a2 32 d8 3e 55 e1 d8 3e be a6 42 be
       0.023304451 0.4222613 0.42359415 -0.1900892
000170 43 3e 23 be 92 ab 6e 3e 8f 15 c7 3e 43 e2 b3 3c
       -0.1594172 0.23307636 0.38883635 0.021958476
000180 6e 0d 19 3f 05 59 8b 3e f1 df cc bd 4c bb c9 be
       0.5978612 0.27216354 -0.10003651 -0.3940071
000190 51 49 aa 3d bf 1c 90 3e 67 ef dd 3d ac 2c 4d be
       0.08314765 0.28146932 0.10836678 -0.20036572
0001a0 69 2b 82 be 5f a0 49 be f6 cb 9d 3e 0a ad e6 bd
       -0.25423744 -0.19690083 0.30819672 -0.11263473
0001b0 2d 77 b7 3e 82 26 bc 3c 4c 19 71 be 96 90 35 be
       0.3583311 0.02296758 -0.23544806 -0.17730936
0001c0 c1 34 01 3e 0a de 84 3e be 49 7f bd 23 06 cd 3d
       0.1261778 0.25950652 -0.062326185 0.10010936
0001d0 45 11 10 3e 18 74 cb bd 6e 16 1e 3e db 29 8a bd
       0.14069088 -0.099342525 0.15438244 -0.067462645
0001e0 55 4e ef bb b7 30 9a be 17 b7 99 3e 3d 13 c2 3d
       -0.007303039 -0.3011529 0.300225 0.09476326
0001f0 6d 63 00 3e 99 a3 1a 3e 6a 73 35 3e 00 32 5e 3b
       0.12537928 0.1510147 0.17719808 0.0033904314
000200 a3 58 3a 3f e8 b8 3a 3e c8 54 09 3d 04 ef b5 bd
       0.727915 0.18234599 0.03352812 -0.08883479
000210 76 34 7d be b0 ec a9 be 10 e8 22 3e 67 2f 74 bd
       -0.24727044 -0.3318839 0.15908837 -0.05961552
000220 b0 5e 24 be 45 db 2e be 16 4f 09 bf 3d 83 26 3d
       -0.16051745 -0.17075832 -0.536363 0.040652502
000230 5b 3a 0c be c6 ee 98 bd 52 19 89 bd 9d 98 ee 3e
       -0.13694136 -0.074674174 -0.066942826 0.4660081
000240 32 e8 d4 3e 57 54 ab 3e 94 06 fc bc 4e bc 01 3d
       0.415834 0.33462784 -0.030764855 0.031673722
000250 52 bd 0c 3e 6a b3 5e 3e 05 84 17 bf e2 aa 25 3d
       0.13744095 0.21748129 -0.5918582 0.04044617
000260 32 9b ab 3e 94 cf 9d bd af 89 0b 3e f9 ba 3c be
       0.33516842 -0.07705608 0.13626741 -0.184307
000270 9b 64 af 3e 24 69 05 3e 75 e5 f5 bc f9 cd b6 3e
       0.34256443 0.13028389 -0.03001664 0.3570402
000280 60 5a b1 3d 5e b5 d8 bd 13 f6 6c 3e aa 3c 6c be
       0.08659816 -0.10581468 0.23140745 -0.23070017
000290 32 00 2a 3d b0 e5 15 3f f9 31 8f 3e 7f 75 0b bf
       0.041504093 0.585536 0.27967814 -0.5447616
0002a0 55 1b 70 be f5 f7 18 be 5d 82 50 be dd 0a a0 3e
       -0.23447926 -0.14938338 -0.2036223 0.31258288
0002b0 ba e1 3a 3d 8f de 82 bd e0 b0 86 bd 0f bd ac be
       0.045625426 -0.06390106 -0.06576705 -0.3373799
0002c0 3e b9 03 be 93 16 02 3f e1 94 e3 3c 46 07 22 3c
       -0.12863633 0.50815696 0.027780952 0.009889429
0002d0 3c 43 39 3e 9c bf 50 be 44 d2 3a 3f f3 f0 50 be
       0.18092054 -0.20385593 0.7297709 -0.20404415
0002e0 20 48 0d be b6 3b 1e 3e 1d 2e 10 3d 6e 57 5b be
       -0.13797045 0.15452465 0.035200227 -0.2142007
0002f0 d8 26 9a be 11 a9 b8 3d 6e 03 c8 3e 07 b5 94 3e
       -0.3010776 0.09016622 0.39065117 0.29044363
000300 37 6b c8 3e 63 42 20 3e 28 11 1d be d5 67 6f be
       0.39144298 0.15650325 -0.15338576 -0.23379453
000310 46 ed 99 3d 0c 1b ae be 57 2f 93 3e 8d 80 bb 3e
       0.075159594 -0.3400501 0.28747055 0.36621514
000320 49 a2 9f be b2 f8 1a 3e e0 84 30 3d ce 97 ec 3e
       -0.311785 0.15133932 0.04309547 0.46209568
000330 0d 4a 0e 3e 52 60 5d be 10 e0 bd 3e 4b 81 eb 3c
       0.13895436 -0.21618775 0.3708501 0.028748175
000340 d3 0c cb 3c e8 9c 14 be af c0 92 3e f2 d0 31 3e
       0.024786389 -0.1451298 0.2866263 0.17364863
000350 32 09 59 3e 2f 1a 35 bd 45 63 08 3f 76 fd 6d bd
       0.21194914 -0.044214424 0.53276473 -0.058103047
000360 df 85 62 3e 50 49 0b 3f 8a 4d 1a bd 4f d0 35 3e
       0.2212138 0.5440874 -0.037671603 0.17755245
000370 a0 80 07 bf 71 48 31 bf a1 50 c5 bd e2 12 67 be
       -0.5293064 -0.6925116 -0.09634519 -0.22565797
000380 2a 5e 6f 3e 9a 0d a2 3d e9 1e 17 bf be eb 8a 3e
       0.23375764 0.079127505 -0.5903154 0.27132982
000390 f8 a5 b9 3d 9c 87 00 3d 27 c9 2e 3d 4c 30 3d bd
       0.09064859 0.031379327 0.042672303 -0.046188638
0003a0 7a 71 3e 3d ef 81 48 3e ae 1f 3b be 22 ba 5f 3e
       0.04649494 0.19580816 -0.18273804 0.21848348
0003b0 19 77 91 be 74 66 9d 3d a2 11 38 bd db ed f8 bd
       -0.28411177 0.07685557 -0.04493869 -0.12154742
0003c0 9e c9 64 3d bd b4 a1 3e 99 0e 8a bf c4 55 83 bb
       0.05585634 0.31583205 -1.0785705 -0.004008027
0003d0 b1 46 8e 3e 57 cd 8a be 95 f5 f6 3d a6 d6 da 3d
       0.27788308 -0.27109787 0.1205856 0.10685472
0003e0 3d 9a 21 3e 52 0d 00 bf e4 72 1e 3e ef c2 1c be
       0.15781493 -0.50020325 0.15473515 -0.15308736
0003f0 64 15 d8 3e 93 95 c5 be 2b dc d4 3c ae 4d d8 3d
       0.4220382 -0.3859068 0.02598389 0.10561691

bias f4 [128]
000000 c0 f6 f4 bd 76 20 23 be a7 c9 24 be 35 d0 8b be
       -0.11961126 -0.15930352 -0.1609255 -0.27307287
000010 d4 3f ee bd 67 57 5d be 22 a3 65 bb d7 b8 1b be
       -0.11633268 -0.21615373 -0.0035039862 -0.1520723
000020 8d cd 26 be 17 8e eb bd 42 22 fc bd 7c de 72 be
       -0.16289349 -0.11501711 -0.12311222 -0.23717684
000030 ce 48 4b be e0 bd d1 bd 4a ef 9f bd c2 cb cf bd
       -0.19851992 -0.10241294 -0.07809313 -0.101462856
000040 eb 5b 6d be b2 ac 0b be 01 64 5d be 51 cc 31 be
       -0.23179595 -0.13640097 -0.2162018 -0.17363097
000050 af 09 7a bd 28 b1 f2 bd 8f a9 79 be ea 32 c3 be
       -0.06104439 -0.11850196 -0.24381088 -0.38124782
000060 60 44 2d be 85 5e 01 be 9f 1b 19 be 65 b5 2d be
       -0.16920614 -0.12633713 -0.14951943 -0.16963728
000070 6a e8 db bd ec fb 8a bd 21 1b c2 be b7 d9 4b be
       -0.10737689 -0.067863315 -0.37911323 -0.1990727
000080 1b c5 d3 bd 34 b5 5f be a1 ca 40 be ab 06 53 be
       -0.10340329 -0.21846467 -0.18827297 -0.20608012
000090 8f c0 eb bd 39 57 05 be df b1 46 be 78 df 44 be
       -0.11511337 -0.13021554 -0.1940379 -0.19225872
0000a0 49 c3 f1 be 47 72 35 be ec f6 81 be bd 88 1e be
       -0.47219303 -0.17719375 -0.253837 -0.15481849
0000b0 d7 4e d8 bc 36 02 d1 bd 0e c5 c4 bb 0c 3b e9 bd
       -0.026404781 -0.102055 -0.006004936 -0.113882154
0000c0 1e ba b4 3d d1 a0 30 be 4c a1 0b be 26 00 0c be
       0.088245615 -0.17248847 -0.13635749 -0.13671932
0000d0 45 8a 08 be ae 8f 46 be 83 73 4d be 37 e3 a2 bd
       -0.13333996 -0.19390747 -0.20063595 -0.07953494
0000e0 be e3 34 be db 57 13 be c2 c4 28 be b3 60 f9 be
       -0.17665002 -0.14388983 -0.16481307 -0.48706588
0000f0 84 e4 f2 bd 5a 7a 90 bd e0 6c 65 be ca 3a 00 be
       -0.11859992 -0.07054587 -0.22404814 -0.12522426
000100 bf 86 27 be 91 1c 6f be c5 9d 27 be e6 87 4d be
       -0.16359995 -0.23350741 -0.16368778 -0.20071372
000110 b2 88 59 be a5 a2 b5 bd 97 2b bb bd 64 87 97 be
       -0.21243551 -0.088689126 -0.091391735 -0.29595482
000120 f1 db 83 be 33 29 34 be 0d 07 96 be 8f 9e a7 be
       -0.2575374 -0.17593841 -0.29302254 -0.32738158
000130 f7 b8 e1 bd d3 5e fe bd f5 5b 53 be 84 02 1e bd
       -0.11021607 -0.1242043 -0.20640548 -0.038576618
000140 a9 7e 2c be 96 e8 0a bd 3a 9f d3 bd 9a d7 9c be
       -0.16845192 -0.033913217 -0.103331044 -0.3063324
000150 97 ec 9a bd db 4f a3 be 89 37 1f be 52 0a c1 bd
       -0.07564657 -0.31896862 -0.15548529 -0.094257966
000160 43 49 86 be 3d ac 1b be a9 52 3c be de be 49 be
       -0.2622777 -0.15202422 -0.18390907 -0.19701716
000170 d7 06 43 be 53 9a 85 be 3a 3e 8d be 8c 21 a1 be
       -0.19045578 -0.26094303 -0.27586538 -0.31470907
000180 17 a0 36 3d 8f 71 2a be 9e 81 18 be d7 95 16 be
       0.044586267 -0.16644882 -0.14893195 -0.14705597
000190 f9 fa b4 bc 39 f0 5a bd 5d 93 a6 be bc f0 96 bd
       -0.02209233 -0.05345175 -0.32534304 -0.07370135
0001a0 3c 4b 15 be 8e 4c a7 be 0b 50 6f be 01 ed 9d be
       -0.14579481 -0.32675594 -0.23370378 -0.30844882
0001b0 c2 87 9f be 7f 2a c3 bd d7 06 8e bd bf 37 b9 be
       -0.31158262 -0.0952959 -0.06934898 -0.36175343
0001c0 34 c0 e9 be 95 58 75 be 0a c6 c9 be fa e8 40 be
       -0.45654452 -0.23959573 -0.39408904 -0.18838874
0001d0 74 c4 88 bc 9d 64 cc 3b 15 e6 b5 be f2 f1 c7 be
       -0.016695239 0.00623758 -0.355271 -0.39051777
0001e0 1b 83 89 be 8f 06 e5 3b 2c 82 6a be 71 81 2f be
       -0.26857838 0.0069893072 -0.22901219 -0.17139222
0001f0 0f 24 c4 3d dd bb 83 be 7c cf 84 be 29 f2 cc 3c
       0.0957719 -0.25729266 -0.25939548 0.025017815

weight f4 [128, 128]
000000 69 48 95 bd 41 ee 5f be 54 09 c6 3e 11 05 a1 3e
       -0.07289202 -0.2186823 0.38678992 0.31449178
000010 62 28 36 3d 8e 5f 5c 3e db 73 1a be 2b 35 09 bd
       0.044472106 0.21520826 -0.15083258 -0.03349797
000020 56 00 2d 3e f4 40 18 be 0a 42 7d be e5 6d e2 bb
       0.1689466 -0.14868528 -0.24732223 -0.006910073
000030 d1 37 50 be 34 6b d5 be 4e 92 cb bc f6 e5 68 3d
       -0.20333792 -0.41683352 -0.024850037 0.056859933
000040 a0 19 d9 bd 8d db f9 bc 9d 28 eb 3d 66 41 46 bd
       -0.10600591 -0.030500198 0.11482356 -0.048402213
000050 6b 95 48 3d 8f 8f a2 bc 9a bd 86 3c c0 0b 27 3e
       0.04897062 -0.019843845 0.016447831 0.16313076
000060 0d a6 19 be 91 ca c2 3d a6 bf 0b be 0d 6e 44 bd
       -0.1500475 0.09511293 -0.13647327 -0.047956515
000070 76 15 a6 3e e2 b6 19 3d f1 b7 65 be 41 08 2c be
       0.32438248 0.037527926 -0.2243345 -0.16800024
000080 1d ec 67 3e 89 a5 11 3e cc 8b 76 bd 90 38 90 bd
       0.22648664 0.14223303 -0.060191914 -0.070420384
000090 03 1a 66 3d 06 ef c2 bd 96 d5 fe bd b4 53 9d 3d
       0.05617715 -0.09518246 -0.12443082 0.07681981
0000a0 00 b3 f9 3d a2 8f 27 3e 7c d8 be bd 68 01 e7 bd
       0.12192345 0.16363385 -0.09318635 -0.11279565
0000b0 dc 99 14 3e c3 e9 31 be c9 8c a1 be f1 af 55 3d
       0.14511818 -0.1737433 -0.31552723 0.052169744
0000c0 6c 1e 37 be 27 2d 70 bd cf 20 94 3e ef f0 6a 3d
       -0.17882699 -0.05863681 0.2893128 0.05735868
0000d0 94 19 30 be 52 ce c4 bd 98 23 27 bd 9a a8 8b 3d
       -0.17197257 -0.09609665 -0.04080543 0.068192676
0000e0 43 bf e9 be 9e 60 07 3e 20 b7 19 be cc 50 e8 3c
       -0.45653734 0.1322045 -0.15011263 0.02835884
0000f0 67 b2 3c 3e cb d6 a9 bd b8 d3 ce be ce ab 8c be
       0.1842743 -0.08292922 -0.40395904 -0.27474827
000100 0a 87 8d 3e e2 ec 8a be 3c c9 c5 3d 45 5f d9 3d
       0.2764209 -0.27133852 0.09657523 0.10613874
000110 45 ff 5f be f1 e7 5d 3e ec 85 68 3e f8 4e d0 bc
       -0.21874721 0.2167051 0.22707337 -0.02542828
000120 7b ef 44 be 40 67 71 3e 64 6c 85 3e b8 c7 bc 3d
       -0.1923198 0.23574543 0.26059258 0.09217781
000130 a7 c0 9b be d0 bf 92 3e 0d 41 89 3d 4a e2 05 be
       -0.3042042 0.28661966 0.067018606 -0.13074604
000140 2d 3f f1 bd 86 70 02 be 26 4f 3f 3e a7 c6 93 3d
       -0.11779628 -0.12738237 0.18682536 0.07215624
000150 f1 88 71 bd 6f 33 0b 3e 92 0b c6 be af cf 40 bd
       -0.058968488 0.13593839 -0.38680702 -0.047073063
000160 47 10 01 be 85 d2 44 3c e9 06 3c be ec 38 e2 3e
       -0.12603866 0.012013082 -0.18362011 0.44184053
000170 2e 7e a3 3d 46 19 2c 3e dd 61 56 3e 18 7a 42 3e
       0.07983051 0.16806516 0.2093577 0.18991888
000180 f1 0c a6 bd 72 8f c8 bd 35 98 df 3c 2a 29 86 3d
       -0.08107937 -0.09792985 0.027294258 0.0655082
000190 5b 23 2d be 23 d3 5f 3e 0b 72 a0 3e a9 ed c7 be
       -0.16908018 0.21857886 0.31337008 -0.39048508
0001a0 0a 94 3c bd eb 80 96 be fb 31 2b 3d ea 4a 8f 3d
       -0.04603962 -0.29395232 0.041795712 0.069967106
0001b0 9e 7f 80 be 9d 8f 9e 3d 55 63 89 be e6 e5 46 3e
       -0.25097364 0.07742236 -0.26833597 0.19423637
0001c0 2e 5a 11 bd ee 07 2b bd 24 fa c6 3d 10 15 c0 3d
       -0.035486393 -0.04175561 0.09715679 0.09379017
0001d0 2c 3f c5 bc ee fe 67 be 03 6d 40 be 09 3a c1 3d
       -0.024077974 -0.22655842 -0.18791585 0.094348975
0001e0 f4 6e 5e 3d db dc d3 3c 6f b5 4f 3d 18 b3 c4 be
       0.054305032 0.025862148 0.050710138 -0.38417888
0001f0 19 0c 13 be 1e 97 ee bd 0f bc 64 3e 2e 80 1c be
       -0.14360084 -0.11649917 0.22337364 -0.15283272
000200 91 c6 0f bd ad f4 e6 3d b1 98 4e be f1 ad 3d 3e
       -0.035101477 0.11277137 -0.20175435 0.18523385
000210 b3 42 d5 3c 46 2d 37 3e 4a 22 ee 3d b5 e0 d3 bd
       0.026032781 0.17888364 0.11627634 -0.10345594
000220 67 92 24 3e 59 55 2a 3e 7c 3e ed bd 9b 72 c2 bd
       0.16071473 0.1663412 -0.115841836 -0.094945155
000230 ec d7 23 3c 40 36 08 be 49 c7 2b 3d 15 3a 78 3d
       0.01000021 -0.13301945 0.0419381 0.060602266
000240 0b 59 8a bc 84 bf 0f 3c bb da 68 be f9 e2 3c bc
       -0.016888162 0.008773688 -0.22739689 -0.011528724
000250 10 30 16 3e 0b 72 6d bb 66 29 38 3e db dc 7f 3d
       0.14666772 -0.0036231305 0.17984542 0.062466484
000260 97 19 a4 3d a4 e7 56 3d 29 8a 2d 3e 87 24 ee 3d
       0.080126934 0.052467003 0.16947235 0.11628061
000270 a6 53 2a bd 9e 2e fb bb 9d 26 e6 bd 77 1f 4d be
       -0.04158368 -0.0076654693 -0.11237834 -0.20031534
000280 c4 3d 14 3b cf fa 0c be b1 38 9a 3d 22 91 c2 3d
       0.0022619823 -0.13767551 0.07530344 0.09500338
000290 ea 4e 7a 3e c9 1d eb bd a0 ca 59 3c e1 a7 f8 bd
       0.24444166 -0.114802904 0.0132929385 -0.12141395
0002a0 40 3c 81 bd ea 1a f5 3e 8d c2 18 be ff b2 0c be
       -0.0631032 0.47872096 -0.14917965 -0.13740157
0002b0 99 86 b7 bc d3 d3 02 bd 62 20 13 be 02 80 5b bc
       -0.022403048 -0.031940293 -0.14367822 -0.013397219
0002c0 12 61 46 be be a1 a9 3d d6 d0 af 3c 38 de 30 3d
       -0.19372967 0.08282803 0.021461885 0.043180674
0002d0 26 3d 44 3d 63 21 70 3e 28 11 39 be d1 50 1f 3e
       0.04790988 0.23450236 -0.18072951 0.15558173
0002e0 6a 43 26 3e 0c cc 5e 3d eb 21 66 be 9b 98 05 be
       0.16236654 0.054393813 -0.22473876 -0.13046496
0002f0 a6 4f cd 3d e7 58 a6 3d f3 6b c5 bb 31 4f f6 bd
       0.10024957 0.081224255 -0.0060248314 -0.12026823
000300 d5 bd 2a 3e 27 d0 1f 3e 4b 32 49 3d 05 50 a4 bd
       0.16673978 0.15606748 0.04912023 -0.08023075
000310 00 29 98 bc 08 02 0a 3e 50 0f 3d 3c 23 07 43 3d
       -0.018574238 0.13477337 0.011539295 0.047614228
000320 78 b3 b1 3d b0 4f ae bd 79 66 8e bd f0 dd d3 3d
       0.08676809 -0.08511293 -0.06953139 0.103450656
000330 4a 37 90 3c f1 42 0c 3d 48 0a 2f be 38 f2 8c bc
       0.017604489 0.034243528 -0.17093766 -0.017205343
000340 cb 46 d7 bd 70 69 5e bd dc 7a 30 3e b4 cf 7f 3d
       -0.105115496 -0.05429977 0.17234367 0.06245394
000350 13 20 ef bd 1b 4b 99 bd 81 d7 4e 3e c6 0f 31 be
       -0.116760395 -0.07485028 0.20199396 -0.17291173
000360 02 99 04 be 38 4d ef 3c 7d 12 60 be 35 a6 03 be
       -0.12948993 0.029211625 -0.21882053 -0.12856372
000370 5c 9d a9 bd da a5 96 3d b8 0b 9a be 8e 65 dc bd
       -0.08281967 0.073558524 -0.30087066 -0.107615575
000380 ee 75 bd bd e3 13 05 3e a0 ad 00 be 5f 76 b4 bc
       -0.09251009 0.12995867 -0.12566233 -0.0220291
000390 71 0e 6d 3d c8 35 c1 bc de 33 0e bd 44 25 a6 3d
       0.0578751 -0.023585215 -0.034717433 0.081125766
0003a0 69 df 03 bd 2f 4f 55 be e7 6b 73 3e 66 7f 66 3d
       -0.032195482 -0.20830987 0.2377163 0.05627384
0003b0 d6 23 47 bd 9e 37 a6 3d 83 b9 00 bd 82 21 18 3e
       -0.04861816 0.08116077 -0.031426918 0.14856532
0003c0 d8 6b 0f 3e 58 76 da bc 92 fa d7 bd 93 6e 83 bd
       0.14005983 -0.026667759 -0.10545839 -0.06417575
0003d0 3d c8 1b 3d 21 9c 29 bd 65 05 b5 3c 3f 8c 50 3e
       0.03803276 -0.04140866 0.022097299 0.20366
0003e0 88 98 2a bd bd c1 13 3d b9 26 58 3d ba 1e be 3d
       -0.04164937 0.036073435 0.052771304 0.092832044
0003f0 ea 05 55 bd 33 62 cc 3c dc 67 ac 3d 3e 89 13 3d
       -0.052007593 0.024949169 0.08418247 0.036019556

bias f4 [128]
000000 8f 40 90 be 76 c2 99 bd b4 84 c9 bd 9e ae 30 be
       -0.28174254 -0.075077936 -0.09839764 -0.17254111
000010 8b 74 05 be 39 e2 ef bd e3 7a 96 bc e9 ca 8d bd
       -0.13032739 -0.117130704 -0.018369144 -0.06923468
000020 09 96 be bd 8e 74 9d bd e6 50 e0 bd 72 4e 31 be
       -0.09305961 -0.07688247 -0.1095293 -0.17315081
000030 ab 39 0b be 0e ad b4 bd 03 b3 ee bc 56 79 6a bd
       -0.13596217 -0.0882207 -0.029138094 -0.05724462
000040 cc ce 2e 3e a9 6a e5 bd c9 de ff bd 35 75 7b be
       0.17071074 -0.112019844 -0.12493665 -0.2455643
000050 73 f2 07 be b2 40 38 bd f6 2b e5 bd 93 92 0a be
       -0.13276081 -0.044983573 -0.111900255 -0.13532476
000060 cf 18 cd bd 24 86 1a be 49 6c 5b bd 3f f8 26 be
       -0.100144975 -0.15090233 -0.053570066 -0.16305636
000070 d9 c6 69 be 3e 88 eb bd d8 5d 09 be ba 64 4a bd
       -0.2282976 -0.115005955 -0.13414705 -0.049412467
000080 3b b4 7e bd 0b d0 9c bd 3b 96 0a be 2d 27 16 be
       -0.0621836 -0.076568685 -0.13533871 -0.14663382
000090 35 66 ce bd a4 88 25 be 3a 5c 27 be 9f e0 9b bd
       -0.10078088 -0.16165406 -0.16343775 -0.076112024
0000a0 e2 9b a8 be 87 51 62 be cb 2e 0d be ce 48 8c bd
       -0.3293143 -0.22101413 -0.13787381 -0.06849824
0000b0 ad 51 9b bd 73 e2 d4 bd cd b0 b7 bd f9 f9 0e be
       -0.07583938 -0.10394754 -0.08969269 -0.13962545
0000c0 50 3c d4 bd 8a b1 99 be e1 d4 78 bd 3f 5f fb bd
       -0.10363066 -0.30018264 -0.060749892 -0.12274026
0000d0 d5 ed 20 be 41 82 cc bd ea 86 95 be eb bc 52 bd
       -0.15715726 -0.099857815 -0.29204494 -0.051449697
0000e0 15 29 00 be e4 f0 fe bd 77 fd da bd 54 9b 8f bd
       -0.12515672 -0.1244829 -0.10692876 -0.07012048
0000f0 d2 79 3a be dc b9 1e be fc 5c 05 be f5 81 bf bd
       -0.18210533 -0.15500587 -0.13023752 -0.09350959
000100 2e c8 c2 bd d0 8e c2 bd b5 53 6d bd bf 02 0d be
       -0.095108375 -0.094998956 -0.057941157 -0.13770579
000110 bf a7 88 bd bc 70 99 bd e1 d6 b9 bd 44 89 a3 bc
       -0.0667262 -0.074922055 -0.09074188 -0.019962914
000120 74 4d 91 bd 2e 4e 37 be 4e 4a de bd 2d 13 b3 bd
       -0.07094851 -0.17900917 -0.10854016 -0.08743892
000130 cc b2 70 bd ee 29 c0 bd ce 83 97 bd 93 2d 33 be
       -0.058764264 -0.093829975 -0.073981866 -0.17497854
000140 bd 2e 0b be 0a b9 0b be 71 81 d5 bd 88 b1 6f bd
       -0.13592048 -0.13644806 -0.104250796 -0.058518916
000150 29 b9 1b be 6b 92 17 be 31 eb d0 bd 6f 2a fd bd
       -0.15207352 -0.14801948 -0.10201109 -0.12361609
000160 ed ea 04 3e a6 1d 6d be 06 10 d5 bd 9a f9 9a bd
       0.12980242 -0.23155841 -0.10403447 -0.07567139
000170 2d 26 0c be 08 e4 35 be f5 f7 78 be 96 6a 23 be
       -0.13686438 -0.17762768 -0.24313338 -0.15958628
000180 f8 34 e9 bd 1f be 1c be 5d 8f f3 bd 57 4e 22 be
       -0.11387056 -0.153069 -0.11892579 -0.15850197
000190 a0 9a 10 be a9 a3 79 bd 41 40 1b be 3e c8 2a be
       -0.14121485 -0.060947094 -0.1516123 -0.16677949
0001a0 43 9f 9c bd 88 7a 06 be b5 44 15 be c1 3f 93 be
       -0.07647564 -0.1313268 -0.14576991 -0.28759578
0001b0 a8 82 32 be 8f 6e ea bd d6 1c cb bd 71 40 1d be
       -0.17432654 -0.11446869 -0.099176094 -0.15356614
0001c0 38 ec 5d be 4e 82 4c be c2 ce 28 be f5 70 79 be
       -0.21672142 -0.19971582 -0.16485122 -0.24359496
0001d0 d7 7c 88 bd 65 dd ca bd 24 c4 d6 bd ff ef b0 bd
       -0.06664436 -0.09905509 -0.104866296 -0.086395256
0001e0 df d4 56 bd ea ba 2c be 5c 96 e7 bd 11 ff 0f be
       -0.052449103 -0.16868177 -0.11307976 -0.14062144
0001f0 61 7e aa bd fb 83 84 be 9d 3d cc bd db cf 1b be
       -0.08324886 -0.25881943 -0.09972689 -0.1521601

weight f4 [4, 128]
000000 0e bc f5 bb 04 d4 11 b9 4e a2 3d bc 70 15 35 bc
       -0.0074992245 -0.0001390726 -0.011574341 -0.011052474
000010 c1 83 18 3c d2 ef 1b 3c b7 ae 09 3c c4 96 45 bc
       0.009308756 0.009517627 0.008403472 -0.012059871
000020 1a ce 9c 3c ea c0 84 bb ec 06 bc 3b 78 47 af 3b
       0.019141246 -0.0040513175 0.00573813 0.005349096
000030 4d 5a 50 bc 6a 29 6a 3c 57 99 8e 3b 15 71 a4 ba
       -0.012716842 0.0142921 0.0043517756 -0.0012545908
000040 ab ca ec 3a f7 cf 87 bb bb be e6 bb 6c 75 da bb
       0.0018065771 -0.0041446644 -0.00704178 -0.00666683
000050 86 73 4e bc 3f 3e ea 3b db b9 59 3b d8 33 d2 3b
       -0.012600785 0.0071485336 0.003322235 0.0064148717
000060 87 07 b9 bb 4a bb 35 bc cd 80 20 3c 24 ba c0 3a
       -0.0056466493 -0.0110920165 0.0097963335 0.0014703912
000070 fb 8b b6 3b cf 20 a8 bb 3c 12 e1 bb dc 5e 0e bb
       0.005570886 -0.005130864 -0.006868629 -0.002172402
000080 f1 5a 23 3c 7e 52 c7 3b 31 5f ef ba 49 33 c9 3b
       0.009970413 0.006082832 -0.0018262622 0.006140147
000090 ef 1e 08 3b e5 e4 73 3c 0c 10 79 3d 0e b3 fe 3b
       0.002077039 0.014886116 0.06080632 0.00777281
0000a0 97 36 b1 bc 40 4f 97 bd de 2d a9 3b 55 83 15 3c
       -0.021632476 -0.073881626 0.0051629385 0.00912555
0000b0 f2 c5 43 3a 33 63 91 3b 3d d7 da 3a 3f 0f ba ba
       0.0007468156 0.0044368743 0.0016696226 -0.0014195218
0000c0 77 4a 05 3c f1 d9 da bb 88 4b a2 3a 14 1f 0a bb
       0.00813543 -0.0066788127 0.0012382129 -0.0021075653
0000d0 ef b6 ce 3b f9 0e dd bc 25 2a c8 bb fe a8 31 bb
       0.0063084285 -0.026984679 -0.0061085396 -0.0027108784
0000e0 cd d2 a5 bb 7d 86 01 3c a2 a6 df 3a b6 88 11 3c
       -0.00506053 0.0079056 0.001706321 0.008882692
0000f0 54 b0 38 3c 5f 80 05 3b 3b 5a d0 3b 6b f1 a3 3b
       0.011272509 0.0020370705 0.0063584126 0.0050031445
000100 8c 75 1a bc 75 ff d9 3a 88 fb 3a 3b 0c a2 21 3c
       -0.009427439 0.0016631918 0.0028531272 0.009865295
000110 77 92 7c 3b d0 0d 77 3a 7b a1 36 3c 19 44 ec 3b
       0.0038539448 0.00094243605 0.011146898 0.0072102663
000120 61 ae b0 bb ef 55 63 bc 8f 82 78 bb c9 97 39 3c
       -0.0053918813 -0.013875469 -0.0037919616 0.011327692
000130 29 b7 40 bb 7a 0c ae bb 4a 9d 4f bc 58 62 eb 3c
       -0.0029406047 -0.005311546 -0.012671778 0.028733417
000140 3f cc 7f bc 42 9b 38 bc 83 d4 a1 3b 1e 1b f3 ba
       -0.015612661 -0.011267485 0.0049386634 -0.001854751
000150 99 2c 76 3b cc f4 14 bb 92 ec ab 3b 0f 1a f4 bb
       0.0037563203 -0.0022728918 0.0052467072 -0.0074493955
000160 e2 94 1f 3b d4 20 7b bb 4c e7 de 3b 37 fc 21 3c
       0.0024350216 -0.0038319128 0.006802475 0.009886793
000170 64 70 49 bb 63 b2 2b 3c 3d 56 11 bc 63 0b 83 b9
       -0.0030737156 0.010479542 -0.008870658 -0.0002499475
000180 80 c0 07 3c d8 59 7f 3b 29 fd 5a 3b f5 68 c9 3b
       0.008285642 0.0038963463 0.0033415055 0.006146545
000190 c8 45 5c ba d3 86 9e 3b 8a b5 1c 3c 68 bb 13 bc
       -0.0008402732 0.0048378496 0.009564767 -0.009016849
0001a0 79 c6 28 3c 20 d3 7c bb 89 98 79 bb af d1 20 bc
       0.010301226 -0.0038577989 -0.0038085303 -0.009815617
0001b0 47 35 01 bc 8e 1a 70 bc 1a 4b b6 bb 26 b8 10 3c
       -0.007886237 -0.014654769 -0.005563152 0.008832967
0001c0 45 d2 8e 3a d9 29 46 bc 52 80 19 bc db a9 6c 3b
       0.0010896405 -0.012094938 -0.009368973 0.0036111984
0001d0 83 3d d6 ba 7a 8a 0c bc 22 a2 ec ba 41 6a 1f bc
       -0.0016345236 -0.008577937 -0.001805369 -0.009729923
0001e0 b6 e1 84 3b c0 90 9e 3c 37 20 71 bc e6 4c ed 3a
       0.004055227 0.019356132 -0.014717153 0.0018104583
0001f0 73 a2 eb 3b 72 a2 2f bb 58 17 c5 3c 2d 89 d4 bc
       0.0071909963 -0.0026799706 0.024058983 -0.025944317
000200 0d 96 12 3c bb 9b 63 3c f9 a3 68 bc 51 5b 7e 3c
       0.008946908 0.0138921095 -0.01419925 0.015524701
000210 66 5a 36 3b d4 31 1d bb 74 8a c7 3b 01 64 2c 3c
       0.0027824878 -0.0023985999 0.006089503 0.01052189
000220 16 80 9a 3b c4 68 7a 3c 5c fc 80 3b fd b8 8a 3c
       0.004714976 0.015283767 0.0039363336 0.016933912
000230 d5 b0 81 bb 62 fa 06 3c c5 f3 ef 3b 35 5b 94 3b
       -0.0039578476 0.008238407 0.0073227608 0.0045274743
000240 2d c6 0f 3d 7f 4c ff ba d7 1b 1b bb 06 bd 69 bb
       0.035101105 -0.0019477754 -0.0023667717 -0.0035665645
000250 56 81 60 3c 11 9c c4 3c 68 cf 62 bb 05 3c a7 3b
       0.013702711 0.0240002 -0.0034608487 0.0051035904
000260 4d 12 e1 ba 07 be 16 bc de eb d4 3b 0a d7 37 bc
       -0.0017171592 -0.0092005795 0.006497844 -0.011220703
000270 8f 3a 11 3c 3f 09 86 b8 da 2f 10 bc c1 dc 10 bc
       0.008864059 -6.39134e-05 -0.008800471 -0.008841694
000280 40 6f cb ba 1b 06 18 3c ec 78 83 3a 63 ab 8b bb
       -0.0015520826 0.009278799 0.0010030544 -0.0042623742
000290 0b 93 1a 3c b0 5a 17 bc 23 ec a1 3c 7b 15 c3 3a
       0.009434472 -0.00923793 0.01976592 0.0014883721
0002a0 dd 57 29 bd 46 d2 c9 3b 31 bf c6 3a 01 4c 04 3c
       -0.04134356 0.0061590998 0.0015163181 0.008074761
0002b0 d1 c8 29 3c 2c 99 b1 b8 77 7b 6d bb 59 62 00 bb
       0.01036282 -8.468548e-05 -0.003623692 -0.001958987
0002c0 8c c7 34 3b 30 f7 2a 3c b9 46 04 bc 0f e7 d6 3b
       0.002758476 0.010434911 -0.008073502 0.006558306
0002d0 ee 8f 07 bc 40 64 65 bc 9c 4c ca bb 93 a3 ef 3b
       -0.008274062 -0.014000952 -0.0061736833 0.0073132007
0002e0 0e 51 59 3c 1e 15 1c bc 1c ab 3c bb d2 c7 ba bb
       0.013263954 -0.009526519 -0.0028788513 -0.00570009
0002f0 dd 63 42 bc e8 0d 34 3a 60 cc 65 3c 8a 98 3a bc
       -0.01186463 0.0006868527 0.014025778 -0.011388907
000300 f5 6c b7 3b 96 f1 56 bc 78 d3 27 bc 80 b3 b4 3b
       0.0055977055 -0.013119122 -0.010243289 0.005514562
000310 73 0e f5 bb c7 28 29 ba 45 3f 48 bb 88 78 31 bc
       -0.007478529 -0.00064529147 -0.003055529 -0.01083196
000320 fa 51 67 3b 2a d7 90 bc cf 4d 2b bb 6f c8 fa bb
       0.0035296665 -0.017680723 -0.0026138907 -0.007653288
000330 c6 f9 2d bb 58 d3 01 bc 62 69 61 bc 14 4a 60 bd
       -0.0026546582 -0.007923923 -0.013758035 -0.054758146
000340 d8 dd 59 bc 2e 62 3b bc c3 0a 91 3b 81 f6 02 bc
       -0.013297521 -0.011436982 0.0044263317 -0.007993341
000350 7e 21 b7 ba b2 e5 6b 3b d4 8f a9 3c d2 0a 15 3b
       -0.0013971773 0.0035995063 0.020698465 0.0022742045
000360 7d 39 dd 3b b2 d4 8c 3a a6 d1 21 bc 9d 73 db 3b
       0.006751238 0.001074454 -0.009876644 0.006697132
000370 b1 d3 64 bc 4f 61 33 3c 9d a6 7f 3b 2e d7 d7 bb
       -0.013966487 0.010948493 0.0039009221 -0.0065869307
000380 94 c3 cc 3b 9c 3f 8d bb 8d 33 12 bc 1f bf 04 bc
       0.0062489007 -0.0043105613 -0.0089234235 -0.008102207
000390 b4 d7 07 3c 6d b8 af 3c 39 63 a0 3b 72 2e 06 b9
       0.008291174 0.021450246 0.0048946408 -0.00012796538
0003a0 4e ab ca bb db a5 56 3b b8 82 13 bc e8 9c 25 bc
       -0.006184972 0.0032752666 -0.009003334 -0.01010821
0003b0 11 c9 22 bc f8 eb 71 bb d7 6a 85 3b b4 6d b8 3a
       -0.009935633 -0.003691433 0.004071574 0.001407078
0003c0 d9 88 41 3c 1b 70 16 bc 96 68 18 bd 47 e0 ff 3b
       0.011812412 -0.009182001 -0.037209116 0.0078087184
0003d0 6c 67 d7 3b a6 b9 95 3c 33 d2 91 3a ad 1f 27 3b
       0.006573608 0.018277 0.0011125266 0.0025501058
0003e0 69 2c dc 3b 82 d3 b4 3b c2 9a 2d 3c ba 02 55 3a
       0.0067191613 0.0055183778 0.010595979 0.00081257115
0003f0 47 1a a6 3b a0 04 2f bc 5c 2e 61 bb 4e 82 9f 3a
       0.0050690505 -0.010682255 -0.0034359908 0.0012169571

bias f4 [4]
000000 9b be 64 3e 14 04 62 bd 89 0a fb 3d 86 5a 2f 3e
       0.22338335 -0.05517967 0.12257869 0.17124376
