deploy/models/booster_gym_exp_ankle/model_1000.pt (torch, 294142 bytes, 8 tensors)

weight f4 [256, 80]
00000000: 295b 93be 4dcf 1e3e f0c6 5eba 154e c63e
00000010: 50b9 80bd d0be 073e a2a8 e03d 71f1 b03d
00000020: 55eb 85bd 5e12 dc3d b1f7 e13c 14f7 26be
00000030: 7739 0fbe 23e4 09bb 5ef2 c33c 72f4 8d3c
00000040: b9b4 04bc d0d2 413d fb46 973d e1a1 f6b8
00000050: 7e9f f83d ffd0 03be bcd6 9fbd b813 6a3e
00000060: 6155 303f e2ed 073e a82c d8be d405 4fbf
00000070: db34 953c b76f 27bf 31ca c9be 834c 86bc
00000080: dc97 45be 3442 323f fe40 fe3d e26c dabe
00000090: 3ed3 95be 8952 913e 9e7e 8abc 119b 8a3e
000000a0: 5433 03bd 872f 90bc f734 f43d 55db babe
000000b0: 7625 633e 5ce4 cfbd 16eb af3f a970 9bbe
000000c0: 5126 20bf 4418 7b3d d13d 57be c7db 113f
000000d0: 728d a8be e2e0 e5be 5a5c 333f bb57 e53e
000000e0: ecff 8fbe 29f7 07bf 175b 843e 3adc 97bd
000000f0: 8741 a6bd 6c38 73be f305 893a 2b2d 0abd
00000100: bd44 4a3d 95d0 04bd ae8f 093e 4abe 6ebe
00000110: a9f2 fdbe 0e3e 61bc 0177 c8bd 131c 87bd
00000120: 488d 39bd d1fb a03e 8085 d8be fa61 3b3e
00000130: 569c 8dbe 1c5a afbd cc80 ee3e e13d 01bf
00000140: 0c61 493e 0b32 553f 8e9b 05be c611 d93d
00000150: 13df 963e 31ef 823c 775d 6bbd 326d 9bbd
00000160: c826 563d 72e6 2abd 61dd c4bd 6e4a 04bf
00000170: 0acb 813e 55c9 aebd a0fb b5be f4e3 cdbc
00000180: 248c eebc 55b8 333d 0f38 06be 7a42 f23c
00000190: 540f f3bd 1a02 c33e 236a 7f3e 659d ac3e
000001a0: f0b1 883e afe4 ba3d 4716 45bf f853 8cbf
000001b0: bea2 1e3f c83f 373e 6bc8 48be 06ba 6c3d
000001c0: bcac 61bf bc28 fdbd db94 913d 08cb c8be
000001d0: 42f4 343e cf35 0bbd 95d4 403d 96ad 06bf
000001e0: 13ef 32be 4085 64be 8bd5 ce3b 5812 183f
000001f0: 8433 5fbf 643f 383f 108e 24bf 7428 aabd
00000200: 2844 a13e 2d0f 0c3e 7c09 fabd ee43 8fbe
00000210: 6f92 24bf 6d8e 1cbc 33d3 843f 5867 503e
00000220: 730b 0b3e d5f3 79be c5d6 943d 25cb c43d
00000230: e2dc 17bd c02d 04bd 5dac 753c c916 24bd
00000240: 0aa5 41be 406e 47bd 8077 e53d a666 94be
00000250: c874 9cbe 2028 86be e492 afbd 840e 103e
00000260: 9b50 883e 9775 1dbe e2e4 c2be 213f a1bd
00000270: 334b 293e 20f3 543e e017 ba3e ae24 313e
00000280: 89a2 713f 82a6 c93b 1fc4 6e3d 69aa bfbd
00000290: 8ec9 b13e 8154 b6bd 553f 1dbd 5936 ebbc
000002a0: a3e4 e53c e290 d53d cafa 2fbc 7867 533e
000002b0: e13e 00be e52a 2a3d 0362 073e 3bb5 f4b9
000002c0: 2b68 53bb 8aee 3dbe f0c0 513e e11a 953d
000002d0: cc8f debc 66d2 1c3e f02e b0be ed31 433e
000002e0: 78b5 acbd 7e0f 303e ee6c 933e c752 5fbe
000002f0: e9fa 6abe cc2f 88bd 667e 9d3e 3644 0a3e
00000300: 85fa 473f 6576 a33e cc1d f13d 7821 0b3e
00000310: edd5 933d 7795 853e ca05 d5bc 9b8f 04bf
00000320: dec4 debd 4214 66be da51 3f3d 2d63 95bd
00000330: 099c 0c3e e0bf 153f 1e75 b1be 1a4f 383e
00000340: 2a6a 3e3f 3d83 0a3d 42b6 55be fab9 cb3f
00000350: 55e9 343d 37a5 143e 23e2 693f 4baf b33e
00000360: b280 59be 9552 cc3b 9c99 d13d eeac 433e
00000370: 3422 1ebd ea3b 5ebc 8df7 d9bd 6853 e63d
00000380: beb7 9f3c 3ee0 be3d 93c9 c5bb 21cb 573e
00000390: bb33 523f 29a9 12bd f323 3b3e 976a 503e
000003a0: f13e 14bd 9252 a3be a1ff 863f 0f7b d83d
000003b0: f264 1d3e 2893 1d3e 9525 1b3f 1b6b 923e
000003c0: 7cd1 1d3f 3df2 3f3f 314d 013d ed97 973d
000003d0: e4c4 963e 12ce aa3e 6cf0 8bbd 73d1 dd3d
000003e0: af8c 92bd 479a 0c3d e14c d63d ebb8 bf3e
000003f0: a262 97be 8bf8 ba3d 18f5 243d f03e 83bd
-0.28780487 0.15508766 -0.0008498272 0.38731447 -0.062853456 0.13256383 0.10969664 0.08639801
-0.06539027 0.10745691 0.027583929 -0.1630519 -0.13986765 -0.002104052 0.02391928 0.017328475
-0.008099728 0.047320187 0.07386585 -0.000117603464 0.12139796 -0.12872694 -0.07804629 0.22859085
0.6888028 0.13274339 -0.4222157 -0.8086827 0.01821368 -0.6540484 -0.39412072 -0.016393906
-0.19296211 0.6963227 0.1241474 -0.42661196 -0.29262727 0.28383282 -0.016906079 0.2707143
-0.032031372 -0.017600788 0.11924165 -0.36495462 0.22182259 -0.10150978 1.3743618 -0.3035939
-0.62558466 0.06130244 -0.21019675 0.5697598 -0.32920414 -0.44898134 0.7006279 0.44793496
-0.2812494 -0.5311151 0.25850746 -0.07415052 -0.08117967 -0.23751992 0.0010454044 -0.03373448
0.04938196 -0.03242548 0.13433716 -0.23314777 -0.49599198 -0.013747705 -0.09788323 -0.065971516
-0.045300752 0.3144212 -0.42289352 0.18299094 -0.27658337 -0.08562109 0.4658264 -0.50485045
0.19665927 0.83279485 -0.1304762 0.10599093 0.29467067 0.015983196 -0.057462182 -0.07589187
0.05228308 -0.041723676 -0.09612537 -0.5167607 0.2535022 -0.08534495 -0.35543537 -0.02513311
-0.029119559 0.043876965 -0.13107322 0.029572714 -0.11868158 0.3808754 0.24942832 0.33713832
0.26698256 0.09125649 -0.7698712 -1.0963125 0.61967075 0.17895424 -0.19607703 0.057794593
-0.88154197 -0.12361285 0.0710847 -0.392174 0.17671302 -0.033986863 0.047077734 -0.5260862
-0.17474012 -0.22316456 0.0063120774 0.5940299 -0.8718798 0.71971726 -0.6427927 -0.08308497
0.31497312 0.13677664 -0.1220884 -0.27981514 -0.6428594 -0.009555441 1.0376953 0.20351923
0.13578586 -0.24409421 0.072675265 0.09609059 -0.037075885 -0.032270193 0.014994708 -0.040060792
-0.18910614 -0.048689127 0.112044334 -0.28984565 -0.30557847 -0.26202488 -0.08572939 0.14068037
0.26623997 -0.15376888 -0.3806525 -0.07873369 0.16532592 0.2079587 0.3634634 0.17299148
0.94388634 0.0061538825 0.058292504 -0.09358675 0.34724087 -0.089028366 -0.038390476 -0.028712438
0.028063124 0.10428025 -0.010740945 0.20644939 -0.12523986 0.041544814 0.13220982 -0.00046674334
-0.0032258134 -0.18548027 0.20483756 0.07280517 -0.027168177 0.15314636 -0.3441081 0.19062014
-0.0843305 0.1719341 0.28794044 -0.21808921 -0.22947277 -0.066497415 0.30760497 0.13502583
0.7811664 0.31926265 0.117732614 0.13586986 0.072185375 0.26090595 -0.026003737 -0.51781625
-0.10877393 -0.22468665 0.04670892 -0.07294307 0.13731398 0.58495903 -0.34659666 0.17998925
0.74380744 0.033816565 -0.20870307 1.591613 0.044167835 0.1451615 0.9136068 0.35094675
-0.212405 0.0062354305 0.10234377 0.19108936 -0.038606837 -0.013564089 -0.1064292 0.11246377
0.019496795 0.093201146 -0.0060359924 0.21073581 0.82110184 -0.035805855 0.18275432 0.20353161
-0.036192838 -0.31898934 1.0546762 0.105703466 0.15370539 0.15388167 0.6060422 0.2859734
0.6164777 0.74979 0.031567756 0.074020244 0.2944709 0.33360344 -0.06832966 0.10830965
-0.071557395 0.034326818 0.10463882 0.3744577 -0.29567438 0.09129437 0.040272802 -0.06408489

bias f4 [256]
00000000: 12a6 97bd ed07 063d cbab 20bd e19a 243e
00000010: 5269 ed3d b379 8cbd 3b6a 2bbd 944f 1ebe
00000020: 6bf2 62bc 3bdf 073c f7cd 2abd 1e57 b8bd
00000030: eeeb 323e dfbb babc ac2d ebbd 83f4 41bc
00000040: 0524 16be f885 273e 8881 503e fc93 13be
00000050: 1287 c0bd 09dc 05be 0e74 af3c 9f8b 1dbc
00000060: f24d ba3c dd03 e13a db50 4f3e 1fa2 97bc
00000070: ed79 133e 3b72 9ebd c5df ffbc 4c49 70be
00000080: 10b6 133b 3018 bb3d 6051 36bd 01a4 1abd
00000090: 0893 0dbd 852b 593d b1b1 d0bd d095 d13c
000000a0: b019 303d a855 5abe d7c2 f93c 99bc 6f3c
000000b0: 525d 0b3e 5bcc 91bc 9480 8e3e a654 cd3a
000000c0: 1a61 44bc d76c d93c 1714 8b3b c24a 28be
000000d0: 12ca 8a3d 860a 63bd 7042 b63d d2d8 80bd
000000e0: 7688 07be cc4e d43b f105 d8bd b405 19bd
000000f0: dcf1 b53d dc38 96bc f3b4 743b 44f5 ca3d
00000100: 2840 11be 1974 553e 95e8 523d 5091 20be
00000110: f1ea 3e3d 8a1b 25bc a288 01be b945 a23b
00000120: 70e0 f0bd 1607 d73d 2058 023e f618 5bbd
00000130: b8f3 46bd 6ea0 80bd 75b1 f9bb 34f3 e4bb
00000140: 7f14 aebc 9ebd 463e 5729 abbd ef91 623d
00000150: 5a9a ed3d 3d88 8abd 03de 9abd 406e d4bd
00000160: 8cb3 893d f4b5 48be bc29 97bd baba 85bc
00000170: 6342 473d 54f9 bd3c 8258 44bd ed74 cebd
00000180: ef44 76bd 6774 76bd e15b 95bc 2ede 80ba
00000190: 12f5 e03d 8516 5b3e 8954 4dbd a26a 19be
000001a0: b2d1 cd3d 3658 4bbe 6302 da3b 4dc2 8b39
000001b0: a857 90bc af23 35be 8078 8abd e30a f8bc
000001c0: 2e5e ba3d 13ab bb3d 1254 96bd 1e9c 173e
000001d0: fac6 9abd 8c58 3fbd bd6b 10bb 4f35 0ebe
000001e0: 11b1 5a3d 3733 97bd d15f 33bd f862 45bd
000001f0: b4bb 2dbd 429c 87be 1b72 30be cbec 523c
00000200: a150 373d 3ac8 79be f790 b1bd e450 f13c
00000210: 9b46 9a3d 8ae7 9abd a424 4e3c fd7e 303e
00000220: fb59 253e 8bcf 193e 037f 1ebd 51ee fbbd
00000230: 6bdd 3abd 77f3 b33d fd2c d33d 22f8 28be
00000240: a776 dbbd 6cd0 2ebe df30 5dbd 8d62 e73c
00000250: 3b13 d33d df52 0d3d f678 943d 922f 4f3e
00000260: ce80 7abc 7392 83bd 0ed2 cbbc 6c4b 923d
00000270: e667 fd3d ab28 02bc 1cdb bfbd 3cf1 d33d
00000280: bbbf a13c 8083 c0bd ec9a 0a3e 54a0 ef3d
00000290: 03df fb3d 06bf 913d 364a f9bd 973c 15be
000002a0: c2b7 fe3c b7ca fbbd 5099 403e bf3f 48bc
000002b0: dbcc e5bd 40b8 7bbd b9e7 923d 03f8 ec3d
000002c0: 7d49 0dbd 772a e9bc e208 1f3d f637 04bd
000002d0: f0c1 aabd 46a2 07be e66b f33c 41a0 f23d
000002e0: 0006 4a3d 7d87 813d 8276 cdbd 6fd8 45bd
000002f0: f45c 533d 92cf 8b3d 2ec2 85bd 9509 13be
00000300: f75a 083e 4baf 1fbc c9f5 77be 757d 2cbd
00000310: 8eb5 27be 65f9 d23d 5c17 95bd bf19 88bd
00000320: 803a 03bd 2835 febc a039 10bd 6d5e 963b
00000330: 38c6 623d bae8 07be 4272 43bd 1e2b f63d
00000340: 5af9 af3d 73f9 00bd 2197 51bd 736b b7bd
00000350: 97c8 463a e192 b9bd 18fd fbbc 0c57 d5bc
00000360: 5546 a7bd 426c f5bd d991 6dbd 5671 a7bc
00000370: 2058 e53c a44d 0abe bf7c 35bd 6689 9c3d
00000380: 7491 b4bc e45b cabd 6d76 bb3c 38e4 5bbe
00000390: 6c90 c6bd cfbd 423e f56e 6a3d 2564 f53c
000003a0: 449b a7bd 9d9e 46bd 2bd9 f5bd 948f 94bc
000003b0: 8538 933d c002 ffbd 8476 e43d a0f7 193d
000003c0: d306 05be 75fa 30be 7816 f8bd 415f 42bd
000003d0: a022 20bd 443d 42be 5eab f2bd 71b8 1fbd
000003e0: 43fc 13be 5218 8ebd 2ea6 8c3d ca2b 913d
000003f0: b150 65be 70ac d8bd 87f0 40be 9fbb 76bd
-0.07404722 0.032722402 -0.039226335 0.16074707 0.11592354 -0.0685915 -0.041849356 -0.15460044
-0.013851742 0.008292968 -0.04170033 -0.09000991 0.17472813 -0.022794662 -0.114833206 -0.011838081
-0.14662178 0.16359699 0.20361912 -0.1441192 -0.094007626 -0.13072218 0.021417644 -0.009615808
0.022742245 0.0017167289 0.20245688 -0.018509923 0.1440198 -0.077366315 -0.031234631 -0.2346546
0.0022538938 0.09135473 -0.0445112 -0.037754063 -0.034564048 0.05302002 -0.10190142 0.025584131
0.042993248 -0.21321738 0.030488415 0.0146323675 0.13609818 -0.01779764 0.27832472 0.0015665486
-0.011986041 0.026541157 0.0042443383 -0.16434768 0.06776823 -0.055429958 0.08899391 -0.06291355
-0.1323565 0.00647912 -0.10548008 -0.037358955 0.08884022 -0.01833766 0.00373393 0.09910062
-0.1418463 0.20845069 0.05149134 -0.15680432 0.046610776 -0.010077367 -0.12649778 0.0049521592
-0.11761558 0.104993984 0.1272893 -0.0534906 -0.048572272 -0.062805995 -0.0076200315 -0.006987
-0.021250008 0.1940827 -0.08357494 0.055314954 0.11601706 -0.06764267 -0.075618766 -0.10372591
0.06723699 -0.1960066 -0.07381007 -0.01632439 0.048647296 0.023190178 -0.04793597 -0.100808956
-0.060124334 -0.060169604 -0.018232288 -0.000983184 0.109842435 0.2139531 -0.050129447 -0.14982083
0.10049762 -0.19857869 0.0066531166 0.0002665691 -0.017619923 -0.17689393 -0.06761265 -0.030278629
0.090999946 0.09163489 -0.07340254 0.14805648 -0.07557483 -0.046715304 -0.0022036873 -0.13887523
0.05339152 -0.07382815 -0.04379255 -0.048190087 -0.042415336 -0.26486403 -0.17231028 0.012873839
0.044754628 -0.24392787 -0.08670228 0.029457517 0.07532998 -0.07563694 0.012581978 0.17235942
0.16147606 0.15020578 -0.038695347 -0.123013146 -0.045621317 0.087866716 0.10311315 -0.16500905
-0.107159905 -0.17071694 -0.054001685 0.028245235 0.10306402 0.03450286 0.07249634 0.2023299
-0.0152894985 -0.06424417 -0.024880435 0.07143292 0.12373333 -0.007944266 -0.09367964 0.10348746
0.019744745 -0.09400082 0.1353566 0.11700502 0.122983955 0.07116513 -0.12172358 -0.14573894
0.031093482 -0.12294524 0.18808484 -0.0122222295 -0.11220714 -0.06145501 0.07173104 0.11570742
-0.034493912 -0.028462632 0.03882683 -0.03227993 -0.08337772 -0.13245496 0.029714536 0.11846972
0.04932213 0.063246705 -0.10032369 -0.04830211 0.05160232 0.068267 -0.065311775 -0.14359124
0.1331595 -0.009746383 -0.24214853 -0.042111833 -0.16377851 0.103014745 -0.07279846 -0.06645536
-0.03203821 -0.031031206 -0.035211205 0.004588893 0.055364817 -0.13272372 -0.047716387 0.12019943
0.08592482 -0.031487893 -0.05116952 -0.08956041 0.0007582991 -0.09061218 -0.030760333 -0.026042484
-0.08167712 -0.11983539 -0.05800042 -0.020439785 0.027996123 -0.1350618 -0.04430842 0.07643394
-0.022042014 -0.09880808 0.022883618 -0.21473777 -0.09695515 0.19017719 0.057234723 0.02995498
-0.081839114 -0.04849111 -0.12004312 -0.01813487 0.071885146 -0.124516964 0.111554176 0.03758967
-0.12990884 -0.17283042 -0.121136606 -0.047454122 -0.03909552 -0.18968683 -0.11849092 -0.038994256
-0.14451699 -0.069382325 0.06867634 0.0708843 -0.22394063 -0.10579765 -0.18841754 -0.060237523

weight f4 [128, 256]
00000000: 879e 6abd 3699 0bbe 0938 f23d 78e2 65bd
00000010: 1003 203f d9c4 97be fff3 95be 8389 013d
00000020: 05eb 12be f7d9 853e 76ca a43c 83f8 6ebe
00000030: e3ac 683d 7d80 f63d 2a27 8e3e 0c15 093e
00000040: d3b0 563e 95e9 18be ade2 d3bd 4e30 f83e
00000050: 5257 28bc 6dd3 2e3e 1afa 933d bbf9 503d
00000060: 6ecd 93bd da71 203d 3fb6 4e3e b34e 9dbd
00000070: e901 70be ae95 e1bd 7f7c 0fbd 15ee aa3e
00000080: 1846 203e cf6a 173e 2ef0 793d f4ae 42be
00000090: 07aa 4cbd 569a 4f3c 91b5 503d d8de 1abe
000000a0: fc36 2e3e 68ac 7abe 6680 d2bc 90bc 713e
000000b0: bd44 59bd bc79 dabd 3c69 adbd 9aa1 4dbd
000000c0: b405 9bbb 79ce 573e 7227 2d3d 3180 1a3e
000000d0: 40e4 00be b8ca 4fbe 9126 6cbe d715 6a3e
000000e0: 4db1 e23d bddb afbc 25d4 07be f565 423e
000000f0: b64e 823e 907a b73c c8f3 9a3d 916b 843d
00000100: bcb3 d83c 1b19 e8bc 5240 8bbd 8c78 f339
00000110: 2628 84bd 21a3 04b9 58dd 403e 538f 753e
00000120: be06 7b3e 1849 763e f7a5 33be 6c74 9f3c
00000130: c4d6 edbd ae11 71bd 414a af3e 4494 b23e
00000140: d981 8e3d e583 363d cb3b 7dbc 8b31 c7bd
00000150: 2e5b 483e 6090 e9bd a1e2 733e 2a61 713d
00000160: a17d 913e 71fe e33d 8480 e43e d9f4 ba3c
00000170: 8502 01bd db87 b6bb 9310 163e 4f37 48be
00000180: a76f 713e 387d aa3e 4972 a3bd e7bd c6be
00000190: e5b2 cebd 3b67 663e b126 51bd 1934 dfbd
000001a0: 10b9 85bd 86d9 323d 2b52 66be 4238 0a3e
000001b0: d88d 1c3e ca6a 85bc 31ae edbd 923d 97be
000001c0: 937a 8b3c d806 083e 7984 68bc 01ad bf3e
000001d0: f96c 2b3e a870 6ebd d5b4 733d e074 5dbd
000001e0: 4ff9 f0bd 46f2 a03b acf9 2c3e bc60 90bc
000001f0: d693 403e 31fe dc3d bdca 4cbd 4a54 bf3d
00000200: d29f 0c3e 6851 d13d 4e87 003d e3c5 1dbe
00000210: 66b6 f23d 8ac1 94be 451f 063e 8bc1 0cbd
00000220: 9643 29be 7c98 b9bd c27e 76be 2737 943d
00000230: 5619 8dbe 7744 193e 4ee4 41be aad1 473e
00000240: dbf5 053f a335 573e 97bb 323d 8d87 343e
00000250: ddb5 d8bd ae96 a93d 9e9c b5be b89c 1c3e
00000260: 514b ba3d 20cd 43bd 7f55 873d 6dec 9abe
00000270: f18f ad3e cdae 6d3d a54e 7a3e 7796 48be
00000280: b2b4 80be 356b f73c 1ddc 173e ff16 f33c
00000290: 80a8 61bb c491 983e 844c 273e 4395 143e
000002a0: 5bb7 f2bc 9f42 25be 0949 1cbe cdad 963c
000002b0: af8c af3d c53b e3bd 6bb6 53be cfc2 0dbe
000002c0: ff86 5dbe a8c2 cd3e 6cf3 07be b2c5 7ebd
000002d0: b7be 9b3e 93e6 7fbe 7dba 183f 3d20 3d3d
000002e0: 5449 8f3d a62b b13d 608d 03bd 05b1 14be
000002f0: 5f5c c9bd f0e3 e73d 3cfc c43e ba5c 363e
00000300: 727a 163e c8c0 a83d 7a90 6abe 3598 923d
00000310: 3674 c53d 9e53 e2bd 9ff8 883e 78c6 4b3e
00000320: d4d5 9cbd ecc2 513e d2ee bf3e 5aa4 b93c
00000330: 21d3 8b3e bbb4 3abe 520e 943e c690 103d
00000340: f64d 293d 2088 433e 4a84 61bd 29d7 1f3d
00000350: 9f81 ca3e 1fc0 c63b ab3e 393e 65d2 1dbe
00000360: 193a 113e aeb5 aebb 9886 f63c 4ecc 003e
00000370: f3b9 01bf 8504 09bf a63d a0be d76e 43be
00000380: d707 7e3e 6bee 3f3d 92f9 4abe 31a4 8d3d
00000390: b10a 673d 7ad8 713e 7d86 093e de8a c73d
000003a0: 368b f43d b9b1 9a3d 6ed0 653d 5ff8 5f3d
000003b0: 458b 88bd 760a e73d 6d97 853e b9e5 393d
000003c0: 9208 b73d a08a 073e 1f76 eabe 8f76 5dbd
000003d0: b5f3 313c 1636 7dbe d0c6 41bc db54 b0bc
000003e0: e636 213e 9f81 2fbd 7bfc c0bc f7cb e33d
000003f0: 58cc 0c3e 299f 2cbe dc34 22bc 3821 a83c
-0.05728009 -0.13632664 0.11827094 -0.05612418 0.62504673 -0.2964237 -0.29287717 0.031625282
-0.14347465 0.26142856 0.020116072 -0.23336987 0.056805503 0.12036226 0.27764255 0.13386935
0.2096589 -0.14932854 -0.10345969 0.48474354 -0.010274725 0.1707284 0.072254375 0.05101941
-0.07216917 0.039171077 0.20186709 -0.07681026 -0.23438229 -0.11014877 -0.035030838 0.33384767
0.15651739 0.14786838 0.06102007 -0.19012052 -0.04996684 0.012671074 0.050954405 -0.1512407
0.17013162 -0.2447983 -0.02569599 0.23607087 -0.05304407 -0.1066775 -0.084673375 -0.050202943
-0.0047309045 0.21074857 0.042273946 0.15087964 -0.1258707 -0.20292175 -0.23061587 0.22859894
0.11068974 -0.021467084 -0.1326452 0.18984206 0.25450677 0.02239731 0.07566029 0.06465829
0.026452892 -0.028332284 -0.067993775 0.00046438386 -0.0645297 -0.00012649271 0.18834436 0.23980455
0.2451429 0.2405132 -0.1754378 0.019464694 -0.11613229 -0.05885475 0.3423634 0.34878743
0.0695836 0.04455938 -0.01545615 -0.097262464 0.19566032 -0.114044905 0.23816921 0.058930553
0.2841616 0.11132515 0.446293 0.02282183 -0.031496543 -0.0055703945 0.1465476 -0.19552349
0.23577748 0.3329866 -0.079807825 -0.3881676 -0.10092715 0.22500317 -0.05106229 -0.10898609
-0.065294385 0.043664478 -0.22492282 0.13498023 0.15288484 -0.016286273 -0.1160549 -0.29539162
0.017026221 0.1328386 -0.01419174 0.3743668 0.16740789 -0.058212906 0.059498627 -0.05406654
-0.11766302 0.0049116937 0.16892117 -0.017624252 0.18806395 0.10790671 -0.049998034 0.09342249
0.13732842 0.10220605 0.031379037 -0.15407519 0.11851196 -0.2905391 0.13097866 -0.034364264
-0.16529688 -0.09062287 -0.24071792 0.07237082 -0.27558392 0.14967524 -0.18934748 0.19513574
0.5232827 0.21016555 0.04363593 0.17629834 -0.10581563 0.08280693 -0.35471052 0.15294158
0.09096397 -0.047803044 0.06608104 -0.30258504 0.3389888 0.05802803 0.24444063 -0.19588648
-0.2513786 0.030202487 0.1483006 0.029674051 -0.003443271 0.2979871 0.16337782 0.14510064
-0.029628446 -0.16138695 -0.15262236 0.018393422 0.08571755 -0.110953845 -0.20675056 -0.13843845
-0.21633528 0.40187573 -0.13276452 -0.062200256 0.3041894 -0.24990301 0.5965956 0.046173323
0.06996408 0.086509034 -0.032117248 -0.14520653 -0.098320715 0.113227725 0.3847369 0.1780881
0.14695147 0.08239895 -0.22906676 0.071579374 0.09641306 -0.11051105 0.26752183 0.19899929
-0.07657972 0.20484513 0.37486893 0.022661377 0.27309516 -0.18233006 0.28917176 0.035294317
0.041334115 0.19094896 -0.0550578 0.039023552 0.39552018 0.006065383 0.18090312 -0.1541229
0.14182319 -0.0053317165 0.030093476 0.12577936 -0.5067436 -0.5352252 -0.31297034 -0.19085251
0.24807678 0.046858232 -0.19821766 0.06916083 0.05640668 0.23617736 0.1343021 0.09743284
0.11940615 0.07553429 0.056106977 0.054680225 -0.066671886 0.11281292 0.2609209 0.045385096
0.089371815 0.13236475 -0.45793244 -0.054068144 0.010861327 -0.24727663 -0.011827186 -0.021524837
0.15743598 -0.042848226 -0.023557892 0.111228876 0.13749826 -0.1685759 -0.009900298 0.020523652

bias f4 [128]
00000000: 5acc a4bd 30cd bebd 3eb9 b0bd e14d 45be
00000010: 22b3 d8bd e682 d4bd f10d 82bd f1c1 f1bd
00000020: e8d0 54bd 5886 dfbd 7443 01be 05a5 f4bd
00000030: 6b68 20be aecd 65bd 38d9 b5bd 0d93 21bd
00000040: c711 adbd 55e2 1dbe 5e17 fdbc dcd9 11be
00000050: 4689 95bd caaf c4bd e9e8 d0bd a21c 22be
00000060: b85c 4ebe cb1a 64bd 62ec f9bd 7a66 d4bd
00000070: 28f1 77bd 6ede 1fbd 5b72 3bbe 5669 17be
00000080: 4fb5 07be 9705 e8bd f6c3 e0bd 42c1 06be
00000090: fce0 91bd 1714 14be cf93 dbbd 1bd8 88bd
000000a0: 6dae 32be 3cbf 11bd f6c8 69be 308e 1cbe
000000b0: 80fc 32bd 863c c7bd 00de 84bd df4f 63bd
000000c0: 766a 39bc 92e1 cbbd fbb9 dabd f15a 0ebe
000000d0: ce1e eabd 9546 04be d069 dabd c117 e8bd
000000e0: 947e 22be 3374 22be 613b 1dbe 0c93 a3be
000000f0: 8cf0 b2bd 6d21 8dbd 52e9 13be 208f d1bd
00000100: fb7d 12be 28a0 0abe cb3b e2bd 3c8c 0dbe
00000110: fe59 1abe c88b efbb 240c 5cbd 4a94 07be
00000120: c61d 28be c9b4 e8bd f369 f3bd 5993 01be
00000130: ccdf 93bd 9f23 a7bd 1e07 26be f451 76bd
00000140: 03ea d8bd 5df1 71bd f01a b3bd ed4a 3cbe
00000150: c8cf acbd 10ec 2fbe 9900 c5bd 772c 3cbd
00000160: cdd1 09be 85b1 a3bd 5924 c2bd bdac f2bd
00000170: 00ad 2bbe 523b a9bd 2434 22be ab36 3bbe
00000180: 137d 773c 2c20 9dbd 53bb b8bd d6d9 12be
00000190: e4c8 42bd cac2 43bd 87d4 2ebe e67a e0bd
000001a0: c4eb 07be ad4b 20be 4cf5 cdbd b076 5bbe
000001b0: c5aa 91be 6d45 4cbd 5fc6 a4bd 52e5 25be
000001c0: 95ee 7dbe 2000 3bbe fb49 41be 1626 04be
000001d0: b224 f8bc 08f2 4cbd fb4b 0abe 63a5 07be
000001e0: d55a 47be b5e6 f4bb 9ab7 48be 8a51 89bd
000001f0: 1c3e 5f3d 95f0 c8bc 0cf9 3ebe f2a0 733c
-0.080467895 -0.0931648 -0.08629082 -0.1926799 -0.10581042 -0.103765294 -0.06350315 -0.118045695
-0.05195704 -0.10914296 -0.12623388 -0.119455375 -0.15664832 -0.056104355 -0.08879322 -0.03944688
-0.084506564 -0.1541837 -0.030894931 -0.14243263 -0.073015735 -0.096038416 -0.10200674 -0.15831235
-0.20152557 -0.055689614 -0.122032896 -0.10371108 -0.06053272 -0.039030485 -0.18305342 -0.14786276
-0.13252757 -0.11329191 -0.109748766 -0.1315966 -0.071229905 -0.14460789 -0.107215516 -0.06681844
-0.1744935 -0.035582766 -0.22830567 -0.15288615 -0.043697834 -0.09728341 -0.06487656 -0.055496093
-0.011316886 -0.099551335 -0.10680004 -0.13901879 -0.11431657 -0.1291755 -0.106647134 -0.11332656
-0.15868598 -0.15864639 -0.15354683 -0.31948125 -0.08737287 -0.06891141 -0.14444473 -0.10232377
-0.1430587 -0.13537657 -0.11046561 -0.13823026 -0.15073392 -0.0073103644 -0.053722516 -0.13240162
-0.16417608 -0.11362607 -0.118854426 -0.12653865 -0.0722042 -0.08161091 -0.16213652 -0.06013675
-0.10591509 -0.059068073 -0.08745372 -0.18387957 -0.08438069 -0.17179894 -0.096192546 -0.045940842
-0.13458939 -0.079928435 -0.09479589 -0.118493535 -0.16765213 -0.082632676 -0.15840203 -0.18282573
0.015105504 -0.07672152 -0.09020104 -0.1434091 -0.047554865 -0.047793187 -0.1707326 -0.10960941
-0.13273531 -0.15653868 -0.10056552 -0.21431994 -0.284506 -0.049870897 -0.08045649 -0.1620076
-0.24798043 -0.18261766 -0.18875878 -0.12905154 -0.030290935 -0.050035506 -0.13505547 -0.13246684
-0.19468243 -0.0074737915 -0.19601288 -0.067050055 0.05450259 -0.024528781 -0.18649691 0.014869915

weight f4 [128, 128]
00000000: c155 b3bb 3506 c0bc 6f3e 723e 9db6 9fb8
00000010: df6a 09bd 9c00 443e fab0 68be 124c 86bd
00000020: 9a92 1ebc 4613 47be 7629 cebd 124e 1dbe
00000030: 452a bcbc 7714 04be 0f4a 473d d520 e33c
00000040: fb31 143d 45a3 d6bc 9195 98bd 6cec 36bd
00000050: 6fee 8c3e c4f2 d8bc 6780 c13d 8f52 ca3d
00000060: 7779 04be 54c9 e93b 38b8 033d ee97 4d3d
00000070: e2c8 3b3e a6e0 7e3d 3d9e 6cbc 83be c8bd
00000080: 1053 f93d 11cd 223d df11 a33d 4335 f93c
00000090: f5b8 cbbd 3009 173d 9aea 883e 14e6 0dbe
000000a0: 447a 96bd 7f83 84bd fe96 40bd f15b 0bbd
000000b0: 4fc8 4d3b 76fc eabd b2e3 573a d438 bd39
000000c0: 3d2e 8abd c0d2 8c3d ee49 f63c 61db 8bbd
000000d0: 11a4 1dbe c7e2 553d 2ac0 123e ddb6 73be
000000e0: 15cb 32be 9086 c33c fdf5 e3bc adf4 db3c
000000f0: eebf 04bd 4a26 533c 3de7 ebbc 4b28 a73d
00000100: f068 193e 47d6 5cbe d869 79be 46b0 463e
00000110: e64b b3bc 5b31 333e 9f49 48be 0e3b afbc
00000120: 4bf4 ef3d 6043 933c cca6 793e 62c3 913d
00000130: 33ca 913d 3cdc 583d 49df 3abd 50a8 263e
00000140: 2cc6 ec3d 7712 19be 31be 123e a6c4 043c
00000150: 936b 0c3e cb06 ed3d 6c6a 37bd 1778 dbbd
00000160: af10 28be a37b eb3d a785 c03d 2744 963d
00000170: 337e 95bd 7bde 3f3e 1878 a03d 85a7 ec3d
00000180: 9d8c 57bc aa6c 6bbe 4a47 0d3e 359c 173d
00000190: 1893 04be 3633 1d3e ea7d cc3d 87be edbd
000001a0: 8494 cb3c 2dbc 73be f232 cc3d f5d4 b0bd
000001b0: ab10 6cbc 506f 2d3c 7f18 41be fe1a 983d
000001c0: 6671 c4bd 773a 753e bcdd 1f3d 250d d53d
000001d0: 37a4 41bd a318 cdbc 1289 1dbe 0e92 193e
000001e0: be9e 1f3d 9cc5 05be ae5f 71bd 83f4 973c
000001f0: 09fa 9fbd 3323 25be 7030 893d c60c cbb7
00000200: ed83 b43d f795 dabd 83ad 1dbe 6e9b 8fbc
00000210: a8e0 af3d 92c7 32bc 9a18 713d a115 19bc
00000220: 615c 333d 1e2f f93d 51c8 b8bc a8e9 17be
00000230: ed85 feba 91f6 40bc fadd 0f3d 5f91 573d
00000240: c17f c33b 4e92 5ebd eb09 753c 4ee0 e63c
00000250: a550 b63c ed3d 023d a001 5c3d 18a9 6a3d
00000260: 5531 3c3d 9f5e 96bc c700 52bc 182f fd3d
00000270: 1e9e 9bbc 041f 6e3c 8124 10bc 6034 bbbd
00000280: de23 323d f305 06bd c07f 8ebd b54f ad3d
00000290: 0029 febc 882b e2bc 7a3c c73c de0d aabd
000002a0: 8f46 19be d42a 033d 496b 513d 46f0 c8bb
000002b0: 2356 1c3d e805 6d3d e4f8 d3bc 0837 86bd
000002c0: b313 b13a aa14 a83d f7d4 473d f701 343c
000002d0: be4e 293d d190 7a3c 4149 e0bc 7030 b6bd
000002e0: 5b07 acbc 1424 713d 4bdd 10bc a07c afbd
000002f0: 6493 7e3d 7c67 a63d 95d9 843c 29c7 ffbc
00000300: f27c 8e3d 96af 253d e9e0 e73b 6691 f2bb
00000310: 5d31 f6bd ec31 1f3d 17c7 b9bc 0f69 ee3b
00000320: a121 613d 23c7 693d 0c30 403d 1915 3f3d
00000330: a995 493a 644b d83d b52e 7cbd c5d8 8fbd
00000340: 386c 30bd c12e a4bd ca6a 9e3b c257 8a3c
00000350: fadd fcbc 7cfb 84bd fdfa 123d d848 1abe
00000360: ae33 3dbd c4bd 0e3d aab2 55bc 889d 0ebe
00000370: c571 21bd 5da5 07bd 8551 f3bc f820 6a3d
00000380: 0cb1 b4bc 5242 5fbd 4cc3 70bd 7fc2 013e
00000390: b945 60bd 8594 9b3d f65c 17be 0167 fc3c
000003a0: 50b7 5b3d 5d87 8fbd 87ec 8b3d 7aa0 d139
000003b0: e538 943b 3bf2 a73c 4b06 e43c 0ac3 b53c
000003c0: 48a2 9ebd 941f 003d 6c9c 743d a1be 0ebd
000003d0: 7ff9 4cbd 50dd e1bc e834 88bd a94e 4d3d
000003e0: 6354 443d 6e51 f83c 36d8 abbc 356c d83d
000003f0: 1178 f8ba 168a 893d 3a22 9f3d 12c6 27bd
-0.005472869 -0.02344046 0.23656629 -7.615725e-05 -0.033549186 0.19140857 -0.22723761 -0.06557478
-0.009678507 -0.19440946 -0.10066502 -0.15361813 -0.022969374 -0.12898432 0.048654612 0.027725616
0.036180478 -0.0262009 -0.074504025 -0.044659063 0.2752566 -0.026482947 0.09448319 0.09879028
-0.1293696 0.007134596 0.032158107 0.05019372 0.1833835 0.06222596 -0.014442024 -0.09801962
0.12174046 0.039746348 0.07962393 0.030420905 -0.09947387 0.036873996 0.26741487 -0.13857299
-0.07347539 -0.064703934 -0.047018997 -0.03402323 0.003139991 -0.11473934 0.00082355284 0.0003609123
-0.067471005 0.06876135 0.03006455 -0.068289526 -0.15394618 0.052218225 0.14331117 -0.23800226
-0.17460282 0.023867875 -0.027827257 0.026850069 -0.0324096 0.012887547 -0.028796786 0.08161982
0.14981437 -0.21566115 -0.24356782 0.1940318 -0.021886777 0.17499296 -0.19559334 -0.021390464
0.11716517 0.017976463 0.24380034 0.071173444 0.071186446 0.052944407 -0.045623098 0.16275144
0.11561236 -0.1494845 0.14330365 0.008103525 0.13712911 0.11573561 -0.044779226 -0.10716265
-0.16412614 0.11498191 0.09400492 0.07337218 -0.07299461 0.18737213 0.07835406 0.11555389
-0.013156083 -0.22990671 0.13796726 0.037014205 -0.12946737 0.15351567 0.09984954 -0.11608606
0.024851091 -0.23802252 0.099706545 -0.08634368 -0.014408271 0.010585621 -0.18857001 0.07427023
-0.095919415 0.23948084 0.03902982 0.10402898 -0.047275748 -0.025036162 -0.1538432 0.14997122
0.038969748 -0.13063663 -0.058929138 0.01854921 -0.07811362 -0.16126709 0.06698692 -2.4205434e-05
0.08814225 -0.10673135 -0.1539822 -0.01753017 0.08587772 -0.010911839 0.058861353 -0.009343536
0.04378927 0.1216719 -0.022556456 -0.14835227 -0.0019418575 -0.011777536 0.035123803 0.05262887
0.005966157 -0.054338746 0.014955978 0.028183129 0.022255251 0.03179734 0.053712487 0.057290167
0.045945484 -0.018355666 -0.012817568 0.12362498 -0.018996295 0.014533762 -0.008797766 -0.09140849
0.043491237 -0.032720517 -0.0695796 0.084624685 -0.03102541 -0.027608648 0.02432083 -0.08303426
-0.14968322 0.032023266 0.051127706 -0.0061321585 0.038168084 0.05786696 -0.025875516 -0.06553465
0.0013509899 0.08207066 0.048787083 0.010986797 0.04133486 0.015293316 -0.02737868 -0.088959575
-0.020999601 0.058872297 -0.008841823 -0.08568692 0.06215228 0.08125207 0.016217032 -0.031222897
0.06957425 0.040450655 0.007076372 -0.0074025868 -0.12021134 0.03886597 -0.022677941 0.0072757076
0.05496371 0.057074677 0.04692082 0.04665098 0.00076898426 0.105612546 -0.06156798 -0.070237674
-0.043071955 -0.0801673 0.0048345076 0.01688755 -0.030867565 -0.06493279 0.035883892 -0.1506685
-0.046191864 0.034848943 -0.013043085 -0.13927281 -0.03941514 -0.033116687 -0.029701957 0.057160348
-0.022057079 -0.054506607 -0.05878 0.1267185 -0.054753993 0.07596687 -0.14781556 0.030810835
0.053641617 -0.0700824 0.068322234 0.0003998315 0.004523384 0.020501247 0.027835032 0.022187728
-0.077457964 0.031280115 0.059719488 -0.034849767 -0.050042626 -0.02757135 -0.06650716 0.050123844
0.04793204 0.030312266 -0.02097712 0.10567514 -0.0018956681 0.06715791 0.077702 -0.04096038

bias f4 [128]
00000000: c41d 11be a095 29bb ff7c fcbc 36e8 c4bd
00000010: ef9b f2bc e14b c6bd 474f ae3b 2f8d 46bb
00000020: 3e35 eabc de2d 30bc 5b2a 22bd eb56 a5bd
00000030: a2cf 54bd 080a 11bd 2b48 003c cd5f 84bc
00000040: 0e67 e73d cb79 ddbc b3d3 76bd 37ff 02be
00000050: 4ef4 d7bc 7b57 11bd 2cc4 ccbc c692 bbbd
00000060: 4089 11bd e060 9ebd 736c 82bb b53c a1bd
00000070: 039a b2bd ccac 013a 5f6c 46bd 43c8 243d
00000080: e7af 023a e8ad b3bb 46e7 66bd 4f03 32bd
00000090: a180 03bd 8fa0 69bd 58e8 0fbe 46b9 2dbd
000000a0: a533 4dbe c463 3abe 8c0e 4bbd 733a c9bb
000000b0: 24e3 12bd 7658 febc 4931 32bd 558a 43bd
000000c0: b221 69bd 2878 d5bd a818 85bc e3c5 21bd
000000d0: 41cd acbd ad25 1dbd 1bc0 42be 2b28 67bd
000000e0: e39e a3bd 9a6d 02bd 4a16 5bbd a907 35bc
000000f0: 80be f1bd 6b71 9bbd e094 91bd 23e1 76bc
00000100: 4c7d 48bc 2bbe b4bc 5afe 7ebd dbb2 ccbd
00000110: 7c05 73bd a4e8 0bbd bade 2bbd b908 9b3c
00000120: 0d2a 0b3c 6e21 6fbd 985a 24bd 21e6 bcbc
00000130: f106 0139 2af7 29bd ac81 b4bc 95b6 d5bd
00000140: 3bd3 e3bc 9df5 41bd 1cc6 0b3c 99ca dcbb
00000150: 5005 91bd 61d4 64bd 831f d6bc eb14 64bc
00000160: 6ca3 d73d 13eb 02be 224e 17bd 1609 23bd
00000170: 9fe1 adbc 689a 49bd 32c3 2bbe bd6e 61bd
00000180: 7765 2fbd 2b38 3ebd 72ed 9cbd 43e9 80bd
00000190: f927 bebc ed98 69bd 159d 70bd 6f5d 9ebd
000001a0: 1934 c0ba e3aa fcbd 3d13 3cbd e639 0ebe
000001b0: 483f 13bd 77e3 bfbc 7ea7 afbd f9dc 8dbd
000001c0: a4aa c3bd 10e9 fcbd f11c 1bbd 1cb9 04be
000001d0: 5251 f63b 495b 4abd 60b7 2fbc 8a76 33bd
000001e0: 5884 d93a 3112 79bd 020c 03bd b22b c7bd
000001f0: a207 4bbc 97ee 0ebe b223 70bd 2156 34bd
-0.14171511 -0.0025876537 -0.030821322 -0.09614603 -0.02961537 -0.096824415 0.005319509 -0.0030296554
-0.028589841 -0.010753123 -0.039591175 -0.08073219 -0.051955827 -0.035409957 0.007829706 -0.016158963
0.11298953 -0.027035614 -0.060260486 -0.12792669 -0.02636161 -0.03548382 -0.024995886 -0.09158854
-0.035531282 -0.07733321 -0.0039802133 -0.07872907 -0.08720782 0.0004946708 -0.048443194 0.040230047
0.0004985318 -0.0054833777 -0.056372903 -0.043460187 -0.032105092 -0.057037886 -0.14053476 -0.04241302
-0.20039232 -0.1820212 -0.04957442 -0.006141001 -0.03586115 -0.03104804 -0.043504033 -0.047739346
-0.0569169 -0.104233086 -0.016247109 -0.03949536 -0.084375866 -0.03836601 -0.19018595 -0.05643479
-0.079892896 -0.031842805 -0.053488053 -0.01104919 -0.11803913 -0.07589992 -0.07108474 -0.015068325
-0.012236904 -0.022063335 -0.062254287 -0.099950515 -0.059331402 -0.03415741 -0.041960455 0.018925058
0.008493912 -0.05838149 -0.04012546 -0.023058953 0.00012304985 -0.04149548 -0.022034489 -0.104352154
-0.027810683 -0.047353376 0.00853112 -0.0067380187 -0.070810914 -0.055866603 -0.026138073 -0.013921003
0.10529217 -0.12784986 -0.036939748 -0.039803587 -0.021225749 -0.04921952 -0.1677368 -0.05503725
-0.042821374 -0.046440285 -0.076624766 -0.06294491 -0.02321242 -0.057030607 -0.058743555 -0.07732665
-0.0014663964 -0.123372816 -0.045916785 -0.13889274 -0.03594902 -0.023423893 -0.085768685 -0.06926913
-0.095540315 -0.12349141 -0.037869398 -0.12961239 0.0075170184 -0.049403463 -0.010724872 -0.04381422
0.0016595228 -0.060808364 -0.031993873 -0.09725131 -0.0123919565 -0.13958202 -0.05862779 -0.04402745

weight f4 [4, 128]
00000000: 1ec0 1abc 92b0 abbb a08c c6ba 1913 213a
00000010: 870d 10bc 0281 c83b be70 763b 4c21 feb9
00000020: 2eb1 ad3a 7a78 873a a830 9f3a 99d7 063c
00000030: 377d 113a 1f44 92ba f6dc 4a3b 76ce 283b
00000040: d5a8 8a3a 9cea 3bbb 118c 62bb f432 09bc
00000050: e1be 173c 0431 a9bb 9f81 ac3b 3ba6 233a
00000060: c968 c0ba 30d0 6f3c c251 95bb 8215 3b3c
00000070: 3080 123b 8a8b 96bb 1e70 80bc 0c5e df3a
00000080: b51e 3d3a 315f a93a 9797 0b3c 6fee e33a
00000090: 826a 7dba 8105 87bb 3e60 bb3d da12 d0ba
000000a0: 7196 8dbb 77fa f1bd 9941 b8ba a735 b03b
000000b0: bdd5 893a ca75 893c 5920 1e3b c6c4 96bc
000000c0: 13d3 66bb 00d1 9dbc 75b1 a4bb 249e 853b
000000d0: a6a7 653a d3bb 56bd bfe4 de3b d3e3 e4ba
000000e0: bb71 9aba f83e 15bc 6514 ab3c de75 afbb
000000f0: 18eb c83b 5b09 50bc 9af9 913b 3f3e 98bb
00000100: 40e2 fd3a a7a8 0c3b 651a 873c 40d2 b839
00000110: 3320 80b8 4001 21bb 6914 6f3b 2ec0 3aba
00000120: dba8 84ba 15f4 24bc 00f0 1e3b 6d1d 813b
00000130: d37d d03a 77a8 b53a 9b98 96bb 442a 1b3d
00000140: bcbe b93b e4dc 4e3b 8a4a 0c3c e07e 81ba
00000150: fe43 f8bb a188 423b 35e8 cc3a 255b 9ebb
00000160: a042 b13c 4fcd 2abc c848 183b be5f 843b
00000170: ef14 b13b 9336 1e3d 1b3b afbb 1e83 133c
00000180: 70fd 27bb c047 233b f66a 7e3c 0a54 9d3a
00000190: 0320 913a 38c1 863c 2947 e63b 3e55 5fbb
000001a0: b08e 8b3b fb68 8d3b ab45 cfbb ea9a e7bc
000001b0: d35c 693b 7928 6abb c395 67bc ba67 b4bb
000001c0: 535e a0bc f37d 58bc b0a1 3e3a a03b 603b
000001d0: 26af 9d39 2687 343b 3efc 82bb 53ae 6bba
000001e0: 0a68 353b d98c 353c 8572 533c f5a2 3f3b
000001f0: 1fc6 cd3a 6373 a83b dbb4 80ba 7597 aebb
00000200: b98e 72bc 73fe 763b 3a3f 90ba f681 563c
00000210: 2914 1d3b 94ca 8f3c ecd0 053a 132c 42bb
00000220: 0e1a faba d9f0 0a3a 7bdc 8b3b 6483 9d3b
00000230: 49e8 9d3a ed8a 1ebc 2cb7 1bbb 13a9 ba39
00000240: d073 853d cae7 13ba 21ab 7e3b c82a 0abc
00000250: d426 d4bb 2fb3 c2bb 2fd2 92b9 6a21 e2bb
00000260: 7d5d e53b 5392 3bbc 29d1 603b fe82 cf3b
00000270: 8ffa 88bb e22e d0bb 660c 923c f946 d6ba
00000280: b332 2c3a b75c 393b 39ae 16bc 56c3 263b
00000290: 57e2 323a ebfd e7bb 1bf7 503c 918e b03b
000002a0: e047 47bd a55c ce3c 0656 daba cde5 903b
000002b0: ef9d a73a c06c 8eba e23e cb3b 70b2 f4ba
000002c0: 7e0e eeba 1577 b03c 9695 48bb 5acc caba
000002d0: cae7 cb3b 566c 48bc 9a04 e43b beb7 153d
000002e0: f5b6 ae3c e3fb 1cbc 7f85 633c 9134 23b9
000002f0: 88eb b2bc 3b96 91bb ef02 873c 9375 93ba
00000300: 9bae f2ba 1af5 babb e593 4e3c 02c7 013b
00000310: 699a bd3a 697a 73bb a166 cbbb 11db 813a
00000320: 8897 92ba 946b bfbc 9ab4 1fbb a433 0fba
00000330: a52d e9ba 10b9 ad3b cca0 9abb dac3 44bd
00000340: f583 4d3a 0d91 a7ba 8b03 1cba bfaf 253b
00000350: c3a2 053c a4d7 31bb 2f0a e8ba 3932 583b
00000360: b12e d33c a31c db3b 1a50 dc3b 697f 0e3b
00000370: f011 d0ba b55b 0b3d f631 b33c 5dcb 2eba
00000380: 89d2 2dbb 8187 253c dce2 183c eb37 a9bb
00000390: 47f7 c93a 5fa6 1a3d a08c 7bbc 55d6 96bb
000003a0: f8e7 593b cdbd 983c 0f87 673b cafc 45bc
000003b0: f17c 773b fb27 c039 b28b b83c eedc b5bc
000003c0: f255 2f3c 3ebf 96bc 4552 f03b 47c1 2a3d
000003d0: 4182 b33b 398b 233a cd6d 4dbb 36c7 723b
000003e0: cb7c 59ba 2662 0c3c 2121 50bb 87bb debc
000003f0: ccc7 9f3b 6a0f 8fbc be00 eb3c b615 5cba
-0.009445218 -0.0052395547 -0.0015148111 0.00061445084 -0.008792288 0.0061188946 0.003760382 -0.00048471463
0.0013251656 0.0010335587 0.0012145238 0.008230113 0.00055499695 -0.0011159218 0.0030954457 0.0025757826
0.001057888 -0.0028673774 -0.003456835 -0.008373965 0.009261818 -0.005163314 0.0052644755 0.0006242727
-0.0014679666 0.014637038 -0.0045568654 0.011418702 0.0022354238 -0.004594271 -0.015678462 0.0017041578
0.00072143535 0.0012922046 0.008520029 0.0017389784 -0.0009667055 -0.004120529 0.09149216 -0.0015874759
-0.0043209125 -0.118153505 -0.0014057636 0.0053774896 0.001051597 0.016779799 0.0024128167 -0.018404376
-0.0035221025 -0.019264698 -0.0050260373 0.0040776897 0.00087606383 -0.052425217 0.006802171 -0.0017462916
-0.0011783162 -0.009109251 0.020883748 -0.005354627 0.006131541 -0.012697543 0.0044548037 -0.004646092
0.0019369796 0.002146283 0.016492078 0.00035251863 -6.109513e-05 -0.0024567395 0.0036480671 -0.0007123974
-0.0010121124 -0.010067959 0.0024251938 0.0039402754 0.0015906639 0.001385941 -0.0045958287 0.037882105
0.0056684893 0.0031564767 0.008562693 -0.0009879731 -0.0075764647 0.0029683488 0.0015633168 -0.0048326426
0.021638215 -0.010424926 0.002323674 0.0040397337 0.005404107 0.038626265 -0.005347622 0.009003429
-0.0025633238 0.0024914593 0.015528431 0.0012003195 0.0011072162 0.016449556 0.007027526 -0.0034077908
0.004258953 0.004315493 -0.0063254437 -0.028272111 0.0035608306 -0.003572969 -0.014134827 -0.005505529
-0.019576227 -0.013213622 0.0007272018 0.0034215227 0.0003007587 0.0027546375 -0.003997355 -0.0008990515
0.002768042 0.011080944 0.012905722 0.0029241417 0.0015699303 0.0051407083 -0.0009819524 -0.0053281137
-0.014804536 0.0037688285 -0.0011005171 0.013092509 0.0023968315 0.017552651 0.0005104679 -0.002962832
-0.0019081251 0.00053001713 0.0042682267 0.0048069227 0.0012047376 -0.009676677 -0.0023760302 0.00035602655
0.0651623 -0.0005642144 0.0038859325 -0.008433051 -0.0064743552 -0.0059417705 -0.0002800389 -0.006900956
0.00699967 -0.011448461 0.0034304357 0.006332754 -0.0041802595 -0.006353245 0.017828178 -0.0016348056
0.0006568834 0.0028284022 -0.009196811 0.002544602 0.00068238884 -0.00707983 0.012754227 0.005388089
-0.04865253 0.02519066 -0.0016657717 0.0044219256 0.0012788157 -0.001086615 0.0062025646 -0.0018668901
-0.0018162278 0.021541158 -0.0030606738 -0.0015472278 0.0062227 -0.012232861 0.0069585564 0.036552183
0.021327475 -0.009581539 0.013886808 -0.00015564474 -0.021840826 -0.0044429577 0.016480891 -0.001125025
-0.0018515171 -0.005705488 0.012608503 0.0019802456 0.0014465573 -0.003715182 -0.0062073027 0.0009907206
-0.0011184076 -0.023366727 -0.0024369122 -0.0005462712 -0.0017790092 0.005301602 -0.0047188755 -0.04803834
0.00078397925 -0.0012784317 -0.00059514557 0.0025281755 0.008156481 -0.0027136588 -0.001770323 0.003298892
0.0257791 0.0066867634 0.006723416 0.0021743423 -0.0015874486 0.034023006 0.02187441 -0.0006667877
-0.0026523194 0.010103107 0.009331431 -0.0051641366 0.0015408777 0.03775632 -0.015353352 -0.004603187
0.0033249836 0.018645192 0.0035328304 -0.012084195 0.003776368 0.00036650882 0.02252755 -0.022200074
0.010701643 -0.018401738 0.007334026 0.04168823 0.005478174 0.00062387023 -0.0031345964 0.0037045009
-0.00082964887 0.008568322 -0.0031758028 -0.02718903 0.0048761126 -0.017463405 0.028686877 -0.0008395569

bias f4 [4]
00000000: 465f 483e 4182 9fbd 389c c33d e242 4e3e
0.19567594 -0.07788516 0.09551281 0.20142701
