deploy/models/booster_gym_exp_ankle/model_3000.pt (torch, 294142 bytes, 8 tensors)

weight f4 [256, 80]
0	0xbf25caf9	-0.64762837
1	0xbda9c095	-0.08288685
2	0x3dbbb3d1	0.09165157
3	0x3df8eada	0.121541694
4	0x3e86f476	0.26358384
5	0x3ce9f283	0.028558021
6	0x3de0a8a2	0.10969664
7	0x3db0f171	0.08639801
8	0xbd85eb55	-0.06539027
9	0x3ddc125e	0.10745691
10	0x3ce1f7b1	0.027583929
11	0xbee63d66	-0.44968718
12	0xbd17e79e	-0.03708612
13	0xbc0045ed	-0.007829172
14	0x3e686d4b	0.22697942
15	0x3cf34e5a	0.029700447
16	0x3e17da6f	0.1482942
17	0x3d21de41	0.0395186
18	0x3e2297fd	0.15878291
19	0x3d6dceee	0.05805867
20	0x3d697569	0.056996737
21	0x3ea36fcf	0.3192124
22	0xbdc739d1	-0.097278245
23	0x3f39a91f	0.72523683
24	0x3ef2c550	0.47416162
25	0xbc8985f2	-0.016787503
26	0xbf4ce0cd	-0.8003052
27	0xbfc9344c	-1.5719085
28	0x3ecd4394	0.4009062
29	0xbfa398f3	-1.2781051
30	0xbef8e5c9	-0.48612812
31	0xbbeca299	-0.0072215316
32	0xbec54e28	-0.3853619
33	0x3f5b4794	0.85656095
34	0x3e884c02	0.2662049
35	0xbf506442	-0.8140298
36	0xbe7bdc47	-0.24595748
37	0x3ee76b45	0.45199028
38	0x3c4a26c7	0.012338347
39	0xbe2e2b80	-0.17008781
40	0x3f06f226	0.5271324
41	0x3e8a3b12	0.26998192
42	0xbddfb8b1	-0.10923899
43	0x3e90f9aa	0.2831548
44	0x3f2724fe	0.6529082
45	0xbf004b6a	-0.5011507
46	0x3fd632fb	1.6734308
47	0x3d450fc3	0.048110735
48	0xbe3bda1a	-0.18344918
49	0x3e0e7207	0.13910685
50	0xbde3ad53	-0.11117043
51	0x3f2a629c	0.66556716
52	0xbfc39da4	-1.5282483
53	0x3e346015	0.17614777
54	0x3f92e750	1.1476841
55	0x3f4a291d	0.78968984
56	0xbc4353e8	-0.01192186
57	0xbe22dcb6	-0.15904507
58	0x3ed07a5f	0.40718362
59	0xbd092180	-0.033479214
60	0x3dd3fcbc	0.1035094
61	0xbed5495c	-0.4165753
62	0xbd72732c	-0.059191868
63	0xbd042d85	-0.032269973
64	0xbc9523de	-0.01820558
65	0xbe2133ad	-0.15742369
66	0x3e74e236	0.23914418
67	0x3f45787a	0.7713696
68	0xbe09be35	-0.13451464
69	0x3db6295d	0.08894608
70	0xbe61b424	-0.22041374
71	0x3db3e1c0	0.08783293
72	0xbd749dd7	-0.05972084
73	0x3d18e32e	0.03732603
74	0xbe6ce9b6	-0.23136029
75	0x3e25135b	0.16120665
76	0x3f18d001	0.5969239
77	0x3e27b1bc	0.16376394
78	0x3edbb831	0.42913964
79	0xbf4aa1d6	-0.7915319
80	0x3f6403d7	0.8906836
81	0x3f9ebd24	1.2401471
82	0xbdcad90f	-0.09904682
83	0xbccc09aa	-0.024906952
84	0x3e9ab45b	0.30215725
85	0xbe6cd56f	-0.23128293
86	0xbd6b5d77	-0.057462182
87	0xbd9b6d32	-0.07589187
88	0x3d5626c8	0.05228308
89	0xbd2ae672	-0.041723676
90	0xbdc4dd61	-0.09612537
91	0xbedfa042	-0.43676955
92	0x3d7fe231	0.062471572
93	0xbdeaa30d	-0.11456881
94	0xbf19055b	-0.59773797
95	0xbde1e1ec	-0.11029419
96	0xbcd932c8	-0.026513472
97	0x3cdb0e72	0.026740286
98	0xbe2650ca	-0.16241756
99	0xbba23340	-0.004949957
100	0xbdc6576f	-0.096846454
101	0xbf8d2121	-1.1025735
102	0xbd81f805	-0.06346134
103	0x3f189d4d	0.5961502
104	0x3e48ff62	0.19628671
105	0x3e25bf37	0.16186224
106	0xbf6c4611	-0.9229441
107	0xbf91ce25	-1.1391035
108	0x3f7ad481	0.97980505
109	0x3e97b742	0.29632002
110	0xbe6f83a4	-0.2339006
111	0x3e002f56	0.12518057
112	0xbf87e917	-1.0618008
113	0xbe8014c2	-0.25015837
114	0x3e4baff8	0.19891346
115	0xbf57b131	-0.8425475
116	0xbf048ab6	-0.51774156
117	0x3e78ef8e	0.24310133
118	0x3e229a9f	0.15879296
119	0x3f30fad2	0.6913272
120	0xbf41804b	-0.75586385
121	0x3e6c5738	0.23080146
122	0x3e41ed68	0.1893822
123	0xbf06b366	-0.5261749
124	0xbf9fe801	-1.2492677
125	0x3fc1e8b8	1.5149145
126	0x3efbaad9	0.49153784
127	0xbccb320f	-0.024804143
128	0xbdf9911f	-0.12185883
129	0xbddf78b6	-0.10911696
130	0xbea12094	-0.31470168
131	0x3e4d2029	0.200318
132	0x3f3b3554	0.7312825
133	0xbeb08189	-0.34473827
134	0x3f833fec	1.0253882
135	0xbc87fad0	-0.016599089
136	0x3cf47217	0.029839559
137	0xbe53f426	-0.20698604
138	0xbe523855	-0.20529301
139	0x3d159028	0.03651443
140	0x3e1abfc8	0.15112221
141	0xbe0d3238	-0.13788688
142	0xbe00b7c3	-0.125701
143	0xbdcf8b55	-0.10133997
144	0xbedf0bf1	-0.43563798
145	0xbdee6d64	-0.11641958
146	0x3de74c46	0.11293845
147	0xbee11ed0	-0.4396882
148	0xbf079555	-0.5296224
149	0xbef37ceb	-0.47556242
150	0xbde5bf85	-0.1121817
151	0x3ea7bb24	0.32759964
152	0x3e35d19f	0.17755745
153	0x3dce06d9	0.100599
154	0xbf0f0c76	-0.5587839
155	0xbdc339ac	-0.095324844
156	0x3e813ffe	0.25244135
157	0x3f02b88b	0.5106284
158	0x3ec60301	0.38674167
159	0x3e43b721	0.19112827
160	0x3fab9892	1.3405936
161	0xbe7d32b3	-0.24726371
162	0x3d9fa2e3	0.0779474
163	0xbc125b48	-0.008932896
164	0x3e55cf7d	0.20879932
165	0xbd9f5aa1	-0.07780958
166	0xbd1d3f55	-0.038390476
167	0xbceb3659	-0.028712438
168	0x3ce5e4a3	0.028063124
169	0x3dd590e2	0.10428025
170	0xbc2ffaca	-0.010740945
171	0x3eddab36	0.43294686
172	0xbe7e0ef0	-0.24810386
173	0xba0d6215	-0.00053933385
174	0x3df58161	0.11987568
175	0x3ceb8004	0.028747566
176	0xbd97bc86	-0.07409005
177	0xbe7bd559	-0.24593104
178	0x3e2002ff	0.15626143
179	0x3d524aa9	0.051340733
180	0xbd5e57e2	-0.05428303
181	0x3d8faf66	0.070158765
182	0xbf0cd990	-0.55019474
183	0x3de20fd1	0.11038173
184	0xbd9ba2bf	-0.07599401
185	0x3ea322e1	0.31862548
186	0x3e963a71	0.29341462
187	0xbe26ba67	-0.16282044
188	0xbed8357d	-0.42228308
189	0xbe0767ce	-0.13223192
190	0x3ec70343	0.38869676
191	0x3ec582a6	0.3857624
192	0x3f61ea37	0.8824801
193	0x3e9bf93a	0.30463582
194	0xbc2b7160	-0.010464042
195	0x3de57fff	0.11206054
196	0x3e209a2f	0.15683816
197	0x3e9b31eb	0.30311522
198	0xbdfe57f0	-0.124191165
199	0xbf803f86	-1.0019386
200	0xbdb70f06	-0.08938412
201	0xbd51aa7d	-0.05118798
202	0x3d68053f	0.056645628
203	0xbecce26d	-0.400165
204	0x3c3aa341	0.011391462
205	0x3f6b21eb	0.9184863
206	0xbf5c8bc7	-0.86150783
207	0x3e1f266c	0.15542
208	0x3f905f6f	1.1279124
209	0xbde232b9	-0.11044831
210	0xbe0b0374	-0.13575536
211	0x3ff02ab7	1.8763036
212	0xbe554b2a	-0.20829454
213	0xbe889d09	-0.26682308
214	0x3f8c8db4	1.0980744
215	0x3f245116	0.6418623
216	0xbd3af55d	-0.045644153
217	0x3e267229	0.16254486
218	0x3d295e01	0.041349415
219	0x3e54041c	0.20704693
220	0xbe0f0f3e	-0.13970658
221	0xbbafb929	-0.005362649
222	0xbdc32fa7	-0.09530573
223	0x3dfff021	0.12496973
224	0xbdb6792b	-0.0890983
225	0x3de8973a	0.11356969
226	0xbda50d48	-0.08059174
227	0xbd395a18	-0.045251936
228	0x3f82578a	1.0182965
229	0x3c45200d	0.012031567
230	0x3e035898	0.12826765
231	0x3e07d9c0	0.13266659
232	0xbd9a0f96	-0.07522504
233	0xbeacace1	-0.33725646
234	0x3f99c40d	1.2012955
235	0x3def2eab	0.11678823
236	0xbd15d6ba	-0.036581732
237	0x3d1d6e52	0.038435288
238	0x3f232173	0.63722914
239	0x3e8cf4ff	0.27530667
240	0x3f48b551	0.78401667
241	0x3f0c2b43	0.5475351
242	0x3d30800e	0.043090872
243	0x3e9ab913	0.30219325
244	0x3f6c1c82	0.92231
245	0xbd7e97e0	-0.062156558
246	0xbd8bf06c	-0.06832966
247	0x3dddd173	0.10830965
248	0xbd928caf	-0.071557395
249	0x3d0c9a47	0.034326818
250	0x3dd64ce1	0.10463882
251	0xbf201b9c	-0.6254213
252	0xbec53ed5	-0.385245
253	0x3e59b371	0.21259858
254	0x3e65e61f	0.22451065
255	0xbe7e5b2d	-0.24839468

bias f4 [256]
0	0xbe4484c7	-0.19191276
1	0x3c48603b	0.012229974
2	0xbd77b628	-0.060476452
3	0x3e2a303b	0.16619961
4	0x3d11aab4	0.035563186
5	0xbdfb3534	-0.12266007
6	0xbe0723a2	-0.13197187
7	0xbe0899dc	-0.13339943
8	0xbe1aa9ec	-0.15103883
9	0x3c2770c9	0.010219761
10	0xbde2d7db	-0.110763274
11	0xbdddac69	-0.108239
12	0x3e5b3fa5	0.21410997
13	0xbdcd6456	-0.10028903
14	0xbe7f370b	-0.24923341
15	0xbd6177e2	-0.05504597
16	0xbea43356	-0.32070416
17	0x3e978dfa	0.29600507
18	0x3e7023db	0.23451178
19	0xbeb831fe	-0.3597564
20	0xbe358b84	-0.17729002
21	0xbe3e6a91	-0.1859534
22	0x3c9cb409	0.019128816
23	0xbd43cb8c	-0.04780154
24	0x3dc5e5f3	0.09663
25	0xbcdedeb5	-0.027205804
26	0x3e6c1fa5	0.23058946
27	0xbce79f2b	-0.02827414
28	0x3e51321a	0.20429268
29	0xbe8d0ac1	-0.27547267
30	0xbd85ecc8	-0.06539303
31	0xbef01f29	-0.46898773
32	0xbc91a307	-0.017777933
33	0x3c81bd84	0.015837438
34	0xbe9b2cd2	-0.30307633
35	0xbd19f560	-0.037587523
36	0xbda651c2	-0.08121063
37	0x3c4f066a	0.012635807
38	0xbe0eab00	-0.13932419
39	0x3dc5651d	0.096384265
40	0xbdc7e124	-0.09759739
41	0xbeba3f53	-0.36376438
42	0x3ca56e3e	0.02019417
43	0xbdaab0cb	-0.08334502
44	0x3e37d1a5	0.17951067
45	0xbd895b22	-0.06706835
46	0x3e99eb19	0.30062178
47	0xbe2ffa40	-0.17185307
48	0xbd0672b4	-0.032824233
49	0x3da14f65	0.078764714
50	0xbd01d54e	-0.031697564
51	0xbe7b8546	-0.24562559
52	0x3db5a10a	0.088686064
53	0xbd800ea1	-0.0625279
54	0x3e41b7b8	0.1891774
55	0xbe462caf	-0.19352983
56	0xbe69dcec	-0.22838181
57	0xbd9979c5	-0.07493929
58	0xbe312470	-0.17299056
59	0xbe0144d7	-0.12623917
60	0xb9d4be79	-0.00040577704
61	0x3d3ba2f4	0.0458097
62	0xbcc36e99	-0.023856448
63	0x3de2fadd	0.110830046
64	0xbe21449c	-0.15748829
65	0x3e65c30e	0.22437689
66	0xbc58720c	-0.013210785
67	0xbeaab545	-0.33341423
68	0x3cae91a0	0.021309674
69	0x3ccaa036	0.024734598
70	0xbe83c24b	-0.2573417
71	0xbe81aac9	-0.2532561
72	0xbe6f7d31	-0.233876
73	0xbe3b80c6	-0.18310842
74	0x3e1eebf9	0.15519704
75	0xbe12208e	-0.14270231
76	0xbd94698e	-0.072466955
77	0xbe71e4b5	-0.23622401
78	0x3a1a9ed4	0.0005898301
79	0xbe0b0c7f	-0.13578986
80	0xbd2479c2	-0.04015518
81	0x3e56aa49	0.20963396
82	0xbdf6bff1	-0.12048329
83	0x3bb2e25d	0.0054591135
84	0x3d686cfa	0.056744553
85	0xbe85a552	-0.26102692
86	0xbe00d279	-0.12580289
87	0xbe7120dd	-0.23547693
88	0xbccec495	-0.025240222
89	0xbea30dfb	-0.31846604
90	0xbe8e8701	-0.27837375
91	0xbca70d70	-0.02039215
92	0x3d9e2913	0.07722678
93	0x3d1946da	0.037421085
94	0x3be4dad1	0.0069840928
95	0xbec08e50	-0.37608576
96	0xbdc050c7	-0.09390407
97	0xbe167f08	-0.14696896
98	0xbe7b0f1d	-0.24517484
99	0xbe43211e	-0.19055602
100	0xbc0622fb	-0.008187051
101	0x3ea4b7a8	0.3217137
102	0xbe43f828	-0.19137633
103	0xbe795805	-0.24349983
104	0x3dabdef4	0.08392134
105	0xbe9357f2	-0.28778034
106	0xbc6eac5f	-0.014567464
107	0xbd99ea14	-0.0751535
108	0xbd79c86d	-0.060982157
109	0xbee5adca	-0.44859153
110	0xbd37fc73	-0.04491849
111	0xbd772776	-0.060340367
112	0x3de8ec7c	0.11373231
113	0x3d84109a	0.06448479
114	0xbe151e16	-0.14562258
115	0x3dffd500	0.124917984
116	0xbd4e217a	-0.050324894
117	0xbd0f9aa5	-0.03505959
118	0xbc9896f4	-0.018626668
119	0xbe257b66	-0.16160354
120	0x3c5d242e	0.013497395
121	0xbe10dd22	-0.14146855
122	0xbdb1c488	-0.086800635
123	0xbe26d576	-0.16292366
124	0xbc9b8ef9	-0.018989073
125	0xbf4249e4	-0.75894
126	0xbed8b925	-0.42328754
127	0xbda7239e	-0.0816109
128	0xbd21c11e	-0.03949081
129	0xbebc67a6	-0.36797827
130	0xbdc30279	-0.09521956
131	0x3c4c5aa9	0.012472787
132	0x3c553993	0.013014215
133	0xbde492d3	-0.11160817
134	0x3d78042d	0.060550857
135	0x3e06ba14	0.1315692
136	0x3e6f780a	0.23385635
137	0x3e4da37a	0.20081893
138	0xbde1619d	-0.110049464
139	0xbe38fbc6	-0.18064794
140	0xbd33a26c	-0.04385607
141	0x3e081222	0.13288167
142	0x3dd41a5c	0.1035659
143	0xbe83707b	-0.25671753
144	0xbe87cce4	-0.26523507
145	0xbe3bf6a6	-0.18355808
146	0xbce8cf00	-0.028419018
147	0xbd2d9143	-0.04237486
148	0x3e0817bf	0.13290308
149	0x3c45514c	0.0120433085
150	0x3daa140a	0.083046034
151	0x3e4f416e	0.20239803
152	0xbd21f98e	-0.039544635
153	0xbd45e5cb	-0.04831485
154	0xbe5a532d	-0.21320792
155	0x3dfd6580	0.12372875
156	0xbca11a7a	-0.019665945
157	0xbdc4cb96	-0.096091434
158	0xbe3c60b1	-0.1839626
159	0x3dd9e81e	0.10639976
160	0x3de89279	0.113560624
161	0xbe5460d4	-0.20740062
162	0x3e2d1f71	0.16906525
163	0x3de66aa5	0.112508096
164	0x3e1b3c48	0.15159714
165	0xbd81e1ec	-0.06341919
166	0xbe82e4a9	-0.2556508
167	0xbe83bc9f	-0.25729844
168	0x3d34dbbc	0.044154868
169	0xbeed1695	-0.4630629
170	0x3e5c30f1	0.21503045
171	0xbcfef679	-0.031123387
172	0xbee7037f	-0.45119855
173	0xbe3fbeb4	-0.18725091
174	0x3d5400bf	0.051758524
175	0x3daefbcc	0.0854412
176	0xbd840602	-0.064464584
177	0xbdb2b9dc	-0.08726856
178	0x3cad1452	0.021127854
179	0xbda85e27	-0.08221083
180	0xbe29f69f	-0.16597985
181	0xbe5e413f	-0.21704577
182	0xbdeba15b	-0.115053855
183	0x3e4a21cf	0.1973946
184	0x3d479808	0.048728973
185	0x3df91b8e	0.12163459
186	0xbe34a30b	-0.17640321
187	0xbd75b284	-0.0599847
188	0x3c1ba861	0.009500594
189	0xbdc71c2c	-0.0972217
190	0xbdb87936	-0.09007494
191	0xbf134bb2	-0.57537377
192	0x3e6504f5	0.22365172
193	0xbd30d3fc	-0.043170914
194	0xbecf8b8a	-0.40536147
195	0xbe097995	-0.13425286
196	0xbe18e60d	-0.14931507
197	0x3dd25361	0.102698095
198	0xbe26d0d4	-0.16290599
199	0x3d502d6b	0.050824564
200	0xbc152434	-0.00910287
201	0xbe8930c4	-0.26795018
202	0xbda7a6b0	-0.0818609
203	0x3d2b0afa	0.041758515
204	0xbddbb92d	-0.10728679
205	0xbea4d6a7	-0.32195017
206	0xbe0f7ab8	-0.14011657
207	0x3dd635c6	0.10459475
208	0x3e239e38	0.15978324
209	0xbdc09225	-0.09402875
210	0xbe272810	-0.16323876
211	0xbe761f5e	-0.24035403
212	0xbe0ca5e0	-0.13735151
213	0xbe6858b8	-0.22690094
214	0xbd493881	-0.049126152
215	0xbde5aef2	-0.11215009
216	0xbdf4c2d1	-0.11951221
217	0xbec3ee66	-0.3826782
218	0xbda8dd67	-0.08245354
219	0xbd373ffd	-0.04473876
220	0x3d1fd7a5	0.039024014
221	0xbda541e8	-0.08069211
222	0xbde745a1	-0.112925775
223	0x3e08b260	0.13349295
224	0xbd38be1d	-0.04510318
225	0xbe4b8a9b	-0.19877093
226	0x3dae2f5c	0.08505127
227	0xbe964757	-0.29351303
228	0xbdd8d9dd	-0.10588429
229	0x3e8d6c4c	0.27621686
230	0x3d996893	0.07490649
231	0xbdfa7056	-0.12228458
232	0xbe1471ba	-0.14496508
233	0xbe3824fb	-0.17982857
234	0xbe34f772	-0.17672518
235	0x3ce029a9	0.027363615
236	0x3d8ada8c	0.06779966
237	0xbf00168d	-0.5003441
238	0x3dd1a2c9	0.10236127
239	0x3dad3c5a	0.08458777
240	0xbe82a53b	-0.25516686
241	0xbe901b08	-0.28145623
242	0xbe86ec8d	-0.2635235
243	0xbd32f048	-0.04368618
244	0xbd78d26c	-0.06074755
245	0xbe7cdb4e	-0.24693033
246	0xbe13cd7f	-0.1443386
247	0xbd8ddd9e	-0.06927036
248	0xbe2422dd	-0.16028924
249	0xbd6243c0	-0.055240393
250	0x3e149822	0.14511159
251	0x3dee55b1	0.11637438
252	0xbf01a560	-0.5064297
253	0xbe69988b	-0.22812097
254	0xbedcc362	-0.43117815
255	0xbdf3fe91	-0.11913789

weight f4 [128, 256]
0	0x3e862a2f	0.2620406
1	0x3d9b14a4	0.07572296
2	0x3e771b48	0.241315
3	0x3d66b885	0.056328315
4	0x3f0491e6	0.51785123
5	0xbde260aa	-0.110535935
6	0xbeda383f	-0.42621037
7	0x3e2ab3d8	0.16670167
8	0xbe42c4c3	-0.19020371
9	0x3eb4a9af	0.35285708
10	0xbe8690c5	-0.26282325
11	0xbef40ede	-0.47667593
12	0x3ea5f5ab	0.32413992
13	0x3e8727fd	0.26397696
14	0x3e7aec65	0.2450424
15	0x3eb53b8a	0.35396987
16	0x3dac2a57	0.08406513
17	0xbf126cd6	-0.5719732
18	0x3e035cee	0.12828419
19	0x3f04cefb	0.5187833
20	0xbe0a49e6	-0.13504753
21	0xbdba35fa	-0.090923265
22	0x3dde3c25	0.108513154
23	0x3e1d5a11	0.15366389
24	0xbed6a5af	-0.41923282
25	0xbf029dac	-0.5102184
26	0x3e6d0d16	0.23149523
27	0x3a286303	0.00064234453
28	0x3dd106c7	0.10206371
29	0xbe10ce10	-0.14141107
30	0xbe371039	-0.17877282
31	0x3f07921b	0.52957314
32	0x3e9f3d8c	0.31101644
33	0x3ebbc411	0.36673024
34	0x3eaae9b1	0.33381417
35	0xbed1df66	-0.40990752
36	0xbdeb3ed8	-0.11486596
37	0x3ea5201d	0.32251063
38	0x3ea769b1	0.32697824
39	0xbf029687	-0.51010936
40	0x3d0ac39f	0.033877965
41	0xbb36275e	-0.002779446
42	0xbe9eaf40	-0.3099308
43	0x3f2a3a58	0.66495275
44	0xbd2db9c8	-0.042413503
45	0xbed690f2	-0.4190746
46	0xbdf727e2	-0.12068154
47	0x3ba88f7a	0.005144057
48	0xbda77494	-0.081765324
49	0xbe8e6254	-0.27809393
50	0x3e96c3fb	0.29446396
51	0xbd7d6724	-0.06186594
52	0xbd87e20f	-0.06634914
53	0xbe8cb823	-0.27484235
54	0xbe66a041	-0.2252207
55	0x3f067217	0.5251784
56	0x3e0c6e26	0.13713893
57	0xbd98b46a	-0.07456286
58	0xbe83a7b3	-0.25713882
59	0x3dfdf536	0.12400286
60	0x3de69cec	0.11260399
61	0x3ea50e92	0.3223768
62	0x3d6adde5	0.05734052
63	0xbe2f368d	-0.17110653
64	0xbedaa902	-0.42707068
65	0xbe5cf02f	-0.21575998
66	0xbcd8b609	-0.026453989
67	0x3eeb18aa	0.45917255
68	0x3e8de552	0.2771402
69	0x3da7cd8b	0.08193501
70	0x3f58386d	0.844611
71	0x3debd864	0.115158826
72	0x3eb1f594	0.34757674
73	0x3e7c84e3	0.24660067
74	0xbf46315d	-0.7741907
75	0x3e2b0175	0.16699775
76	0x3e05fcc4	0.13084704
77	0x3c9ec2ec	0.019380055
78	0xbbc04bef	-0.005868427
79	0x3e37c9e0	0.17948103
80	0x3eb2e5b8	0.34940886
81	0xbf0640a7	-0.524424
82	0x3e119018	0.14215124
83	0xbe309714	-0.17245132
84	0x3f3c9685	0.73667175
85	0xbc35f95e	-0.011106817
86	0x3f0c86ec	0.54893374
87	0xbd813540	-0.06308985
88	0xbcad6757	-0.02116744
89	0x3f263767	0.6492829
90	0x3ecc266c	0.39873064
91	0xbe41dfe6	-0.18933067
92	0xbe9ee143	-0.31031236
93	0x3e04b53b	0.12959759
94	0x3e28621b	0.16443674
95	0x3e6f52da	0.23371449
96	0x3f065686	0.52475774
97	0x3e8a05ad	0.26957455
98	0xbe229b38	-0.15879524
99	0xbea33edd	-0.31883898
100	0xbd019658	-0.03163752
101	0xbe4c9627	-0.19979154
102	0x3dd7bfa0	0.105345964
103	0xbd5d278f	-0.053992804
104	0xbea930f5	-0.33045164
105	0x3c9dffa0	0.01928693
106	0x3e3949b5	0.18094523
107	0xbdfbd8da	-0.122972205
108	0x3f040e38	0.51584196
109	0x3cafff46	0.021484029
110	0xbf13026a	-0.5742556
111	0xbe22e712	-0.15908459
112	0xbe086b0c	-0.13322085
113	0x3d043d71	0.032285158
114	0x3e9478c2	0.2899838
115	0x3ea0dba9	0.31417587
116	0x3e105533	0.14095001
117	0xbe830967	-0.2559311
118	0xbc8bf06a	-0.017082412
119	0xbbb290f6	-0.0054494096
120	0x3e567e76	0.20946679
121	0xbee79898	-0.45233607
122	0x3dfa2904	0.12214854
123	0x3e485127	0.19562207
124	0x3ec60f0d	0.38683358
125	0x3e477ca7	0.19481145
126	0x3e544ae2	0.2073169
127	0xbcc7b6ea	-0.024379212
128	0x3f469394	0.77568936
129	0x3e500bc8	0.20316994
130	0x3c4af03f	0.012386381
131	0xbede1dcc	-0.43382108
132	0xbf0925dc	-0.53573394
133	0x3dd22885	0.10261635
134	0xbe1ffc9f	-0.15623711
135	0xbc30d98e	-0.010794057
136	0xbe30b1ec	-0.17255372
137	0xbe413fcb	-0.18871991
138	0xbee34aae	-0.44392914
139	0x3e1a2f60	0.15057135
140	0xbdaa1177	-0.083041124
141	0x3c19c042	0.009384217
142	0xbe77c999	-0.24197997
143	0x3ef41e17	0.47679207
144	0x3eeeeb4d	0.46663895
145	0x3edeb4dd	0.43497363
146	0xbe5e37e1	-0.21701004
147	0x3e41bad3	0.18918924
148	0x3cd96daa	0.02654155
149	0xbe57ffae	-0.21093628
150	0xbf03b228	-0.5144372
151	0xbd26902c	-0.040664837
152	0x3de23950	0.11046088
153	0xbe53a50e	-0.20668432
154	0x3e1222b6	0.14271054
155	0xbeb857ea	-0.36004573
156	0x3e0f581f	0.1399846
157	0x3c20a87e	0.009805797
158	0x3dadfe27	0.08495741
159	0x3e63487d	0.22195621
160	0xbd81f796	-0.063460514
161	0x3e00bfb3	0.12573127
162	0x3e8369eb	0.25666746
163	0xbe947dba	-0.29002172
164	0x3daa7eaf	0.08324944
165	0x3f225318	0.6340804
166	0x3e8f36f2	0.27971607
167	0xbee30c7d	-0.44345465
168	0xbe975917	-0.29560158
169	0xbe7620f9	-0.24036016
170	0xbe08a6de	-0.13344905
171	0x3f4aa8e5	0.7916396
172	0x3d53888b	0.05164389
173	0x3c46fdad	0.012145442
174	0x3edd3ab3	0.43208846
175	0xbdfae7d8	-0.12251252
176	0xbec8872f	-0.39165637
177	0x3ef2392b	0.4730924
178	0x3e25fe18	0.1621021
179	0xbd3dc2c5	-0.046328325
180	0x3e14cb42	0.14530662
181	0x3d8764ae	0.06611
182	0x3f35dbab	0.7103831
183	0xbeceab75	-0.40365186
184	0xbc70d4b4	-0.01469915
185	0x3db62ab1	0.088948615
186	0x3e25ce39	0.16191949
187	0xbe0c4280	-0.13697243
188	0xbe9e3413	-0.30899104
189	0x3e6a72bb	0.22895329
190	0x3ec6d1c8	0.38831925
191	0x3e9019e5	0.28144756
192	0x3ed0c38c	0.4077419
193	0x3da05975	0.078295626
194	0xbe511273	-0.20417194
195	0xbf035308	-0.5129857
196	0x3db0a960	0.08626056
197	0x3cb9fb3c	0.022702806
198	0x3eb14ac5	0.34627357
199	0x3e8188be	0.25299639
200	0xbe947dd9	-0.29002264
201	0xbba79199	-0.005113792
202	0x3e84607a	0.25854856
203	0x3c861fe5	0.01637263
204	0x3debe7f2	0.115188494
205	0xbdde122f	-0.10843312
206	0x3ea13a05	0.31489578
207	0x3e37a1b6	0.17932782
208	0x3e97355a	0.29532892
209	0xbe237f98	-0.15966642
210	0x3d8cd8bd	0.06877277
211	0x3e3d1bae	0.1846759
212	0x3edef89b	0.43549046
213	0xbcddc54a	-0.027071614
214	0xbcd8211c	-0.026382975
215	0xbe54feb5	-0.20800288
216	0x3db541e2	0.08850457
217	0x3f67729d	0.9040926
218	0xbe12df2f	-0.1434295
219	0x3e490565	0.19630964
220	0xbf5bc084	-0.8584063
221	0xbf7c95c9	-0.98666054
222	0x3df9c0ec	0.12195
223	0xbe4e61d6	-0.20154509
224	0xbe32deef	-0.17467855
225	0x3e200bc9	0.15629496
226	0xbf1413cc	-0.5784271
227	0x3ecd45a0	0.40092182
228	0x3d4fd6b3	0.050741863
229	0xbe1fa2a3	-0.15589385
230	0x3e7986b5	0.24367793
231	0xbe17ba6e	-0.14817211
232	0x3e8ed972	0.27900273
233	0x3e0b92e1	0.13630249
234	0xbea46ee7	-0.32115862
235	0x3bf2937f	0.007402837
236	0xbec7258e	-0.3889584
237	0x3d151bb3	0.03640337
238	0x3ca0d6b1	0.019633623
239	0xbf0dd8df	-0.55409044
240	0xbd17d986	-0.03707268
241	0x3e9320fa	0.28736097
242	0xbf79a658	-0.97519445
243	0xbe0a4310	-0.13502145
244	0x3e67aef9	0.2262534
245	0xbeb55205	-0.35414138
246	0x3e5efda5	0.21776445
247	0x3e8d7dfc	0.2763518
248	0x3e50b84a	0.203828
249	0xbef558fd	-0.47919455
250	0x3da4cb17	0.08046549
251	0xbe8527a1	-0.26006797
252	0x3ec0bcd1	0.37644055
253	0xbeed9cce	-0.46408695
254	0x3d2dfd74	0.04247804
255	0x3caa4339	0.020784007

bias f4 [128]
0	0xbe1366e8	-0.14394724
1	0xbe815209	-0.252579
2	0xbeb1d4f1	-0.34732774
3	0xbece02be	-0.40236467
4	0xbe534b73	-0.2063425
5	0xbedca202	-0.43092352
6	0x3d41d652	0.047323532
7	0xbe36bd47	-0.17845641
8	0xbe4ad842	-0.19809058
9	0xbe044809	-0.12918104
10	0xbdab0a6f	-0.083515994
11	0xbe895b57	-0.268275
12	0xbe96015a	-0.29297906
13	0xbe7eaa26	-0.24869594
14	0xbda780f7	-0.08178895
15	0xbe489405	-0.19587715
16	0xbe9a9b03	-0.3019639
17	0xbe0b7356	-0.13618216
18	0xbe9ec020	-0.31005955
19	0xbe8b57e3	-0.2721549
20	0xbd4b10e9	-0.049576674
21	0xbe0f5d73	-0.14000492
22	0xbefb165a	-0.4904049
23	0xbf048720	-0.51768684
24	0xbe394dd1	-0.18096091
25	0xbe26e4b8	-0.16298187
26	0xbe5cdeaf	-0.21569322
27	0xbe427a69	-0.18992008
28	0xbdcaf9ef	-0.09910952
29	0xbd16bb57	-0.036799755
30	0xbee4205e	-0.44555944
31	0xbe5529a6	-0.20816669
32	0xbd8d5351	-0.06900657
33	0xbe6454aa	-0.22297922
34	0xbe834491	-0.2563825
35	0xbe5f599d	-0.21811529
36	0xbe1bc268	-0.15210879
37	0xbe1d26b2	-0.15346792
38	0xbe792c0a	-0.24333206
39	0xbe783525	-0.24239023
40	0xbf2e9603	-0.6819765
41	0xbe98f806	-0.29876727
42	0xbeafb009	-0.34313992
43	0xbe233679	-0.15938748
44	0xbc6c5a23	-0.014425787
45	0xbdf5b36e	-0.11997114
46	0x3ddc45b3	0.107554816
47	0xbe0b2fcc	-0.13592452
48	0x3e3bd119	0.18341483
49	0xbea1d547	-0.3160803
50	0xbe1f21d4	-0.15540248
51	0xbe23e401	-0.16004945
52	0xbd19d72c	-0.03755872
53	0xbe6d794c	-0.23190802
54	0xbe976cab	-0.29575095
55	0xbe0a681f	-0.13516282
56	0xbe8cc04a	-0.27490455
57	0xbe1402e8	-0.14454234
58	0xbe3e1ea0	-0.1856637
59	0xbf1788de	-0.5919322
60	0xbe09f013	-0.13470487
61	0xbda0ad42	-0.07845546
62	0xbe92f3b8	-0.28701568
63	0xbe988856	-0.29791516
64	0xbea7901c	-0.32727134
65	0xbea091d4	-0.31361258
66	0xbe37b8aa	-0.17941537
67	0xbe9b5450	-0.30337763
68	0xbe917b88	-0.2841456
69	0xbdef69d5	-0.11690108
70	0xbe05b7a7	-0.13058339
71	0xbea4f046	-0.32214564
72	0xbea7e684	-0.32793057
73	0xbe6d2bfe	-0.23161313
74	0xbecfc411	-0.40579274
75	0xbf15861a	-0.5840775
76	0xbdcc4e0a	-0.09975822
77	0xbdc53099	-0.0962841
78	0xbe61371f	-0.21993683
79	0x3c6ac36b	0.014328818
80	0xbe832f04	-0.25621808
81	0xbcd0860a	-0.02545454
82	0xbd9ce7fb	-0.07661434
83	0xbebc4a1b	-0.36775288
84	0xbd685196	-0.05671843
85	0xbee2f808	-0.44329858
86	0xbe11158b	-0.14168374
87	0xbda60f3a	-0.08108373
88	0xbe873734	-0.26409304
89	0xbe73906a	-0.23785558
90	0xbe4e83b7	-0.20167433
91	0xbe57f376	-0.21088967
92	0xbe7bfe7c	-0.24608797
93	0xbe7f15c6	-0.2491065
94	0xbe821ab8	-0.2541101
95	0xbef407a7	-0.47662088
96	0x3d73eb52	0.05955059
97	0xbe55a052	-0.20861939
98	0xbe8e5b17	-0.2780387
99	0xbdfc161b	-0.12308904
100	0xbd55a147	-0.05215576
101	0xbe0cb555	-0.13741048
102	0xbeb6a59b	-0.35673222
103	0xbdae7a92	-0.08519472
104	0xbe00a82f	-0.12564157
105	0xbea8f5f8	-0.3300016
106	0xbe8aa023	-0.270753
107	0xbedb7e28	-0.42869687
108	0xbe99bd87	-0.3002741
109	0xbde8903d	-0.11355636
110	0xbd85a86c	-0.065262645
111	0xbed26f5a	-0.4110058
112	0xbf42c126	-0.7607597
113	0xbe955835	-0.2916886
114	0xbef7b758	-0.48382068
115	0xbe2400e2	-0.16015962
116	0x3d1236cf	0.0356968
117	0x3d6290d4	0.0553139
118	0xbf0a1bdc	-0.5394876
119	0xbee49983	-0.4464837
120	0xbea4f9cf	-0.3222184
121	0x3ca97202	0.020684246
122	0xbe7afe2f	-0.24511026
123	0xbe4638b8	-0.19357574
124	0x3e06cc79	0.13163938
125	0xbee1bd30	-0.4408965
126	0xbea4c193	-0.32178935
127	0x3d4fd320	0.050738454

weight f4 [128, 128]
0	0xbe2b6470	-0.16737533
1	0xbd9da46d	-0.07697377
2	0x3f02fad5	0.5116399
3	0x3e3e3dc7	0.18578254
4	0xbdb0888a	-0.08619793
5	0x3e8c3866	0.2738678
6	0xbdb546eb	-0.08851417
7	0xbd2fb6e4	-0.042899027
8	0x3ec14882	0.37750632
9	0xbe2d9137	-0.16949926
10	0xbf28ddb5	-0.659633
11	0x3d418996	0.047250353
12	0xbe8e3eb2	-0.27782208
13	0xbec19007	-0.37805197
14	0x3e952af8	0.29134345
15	0x3dfeb728	0.12437278
16	0xbedb786b	-0.4286531
17	0x3da9f938	0.08299488
18	0x3e15db8f	0.14634536
19	0xbd783327	-0.060595658
20	0x3d9fa50d	0.07795153
21	0x3d67f504	0.05663015
22	0x3ceed360	0.029153526
23	0x3e571128	0.21002638
24	0xbe1dec14	-0.15422088
25	0xbe57b534	-0.21065217
26	0x3cc3fc39	0.02392398
27	0xbea680a9	-0.32520035
28	0xbd5bcde2	-0.053663142
29	0x3daf1091	0.08548082
30	0xbe3cf5c3	-0.18453126
31	0xbed5d3ef	-0.41763255
32	0x3e08de87	0.13366137
33	0xbd9e1892	-0.0771953
34	0x3e11b98f	0.14230941
35	0xbe0d5073	-0.1380022
36	0x3db22d95	0.087001
37	0xbd8bd1d4	-0.06827131
38	0xbed92e8a	-0.4241832
39	0x3c9c9a1d	0.019116456
40	0x3e12e72c	0.14345998
41	0x3d188d50	0.03724414
42	0x3e06f930	0.13180995
43	0xbe8c7c30	-0.27438498
44	0x3e459d9c	0.19298404
45	0xbe6956f4	-0.22787076
46	0xbd1c12f5	-0.038104016
47	0x3e07e4c6	0.13270864
48	0xbecc1d2b	-0.39866003
49	0x3cb00ed8	0.021491453
50	0x3e046d7c	0.1293239
51	0xbd163601	-0.036672596
52	0xbd839ce2	-0.064264074
53	0xbe16d022	-0.14727834
54	0x3c155862	0.00911531
55	0xbe29cee8	-0.16582835
56	0xbee8c557	-0.45463058
57	0x3e816a8c	0.252766
58	0xbea7cf17	-0.32775185
59	0x3d9843b1	0.07434786
60	0x3e2208ea	0.15823713
61	0xbd21a469	-0.039463434
62	0xbec9769c	-0.39348304
63	0xbd074f1d	-0.033034433
64	0x3e277923	0.16354804
65	0xbecd36a5	-0.40080753
66	0xbd5aa540	-0.05338025
67	0xbc845595	-0.01615409
68	0xbe84be02	-0.25926214
69	0x3e2883d0	0.16456532
70	0x3eb0b21e	0.34510893
71	0xbd2529da	-0.040323116
72	0xbe8882ca	-0.26662284
73	0x3df83c23	0.12120845
74	0x3e98dcb3	0.2985588
75	0x3c1140f4	0.008865584
76	0x3a39b86e	0.0007084672
77	0xbd987903	-0.07444956
78	0xbe8b8fe4	-0.27258217
79	0xbd3cf18f	-0.046128806
80	0xbe1bde6e	-0.15221569
81	0xbe6ed859	-0.23324718
82	0x3e942872	0.28937107
83	0x3e5fbfca	0.21850505
84	0xbd3a65f7	-0.045507398
85	0x3dd8c22c	0.1058391
86	0xbeab2b26	-0.33431357
87	0x3e3d6c18	0.18498266
88	0xbc49f4c5	-0.012326424
89	0x3d553c2f	0.05205935
90	0xbe1fdbd6	-0.15611205
91	0x3e3706d5	0.178737
92	0x3bd7d0e2	0.00658618
93	0x3e619475	0.22029288
94	0xbd5c3bf7	-0.053768124
95	0x3d1a8937	0.037728515
96	0xbddb613e	-0.10711907
97	0x3dae85be	0.08521603
98	0x3e15b195	0.14618523
99	0x3db19e69	0.086727925
100	0xbe00c9b0	-0.12576938
101	0x3e2f4b82	0.17118648
102	0x3eabaa76	0.3352849
103	0xbef8b5d4	-0.48576224
104	0x3dd7df78	0.1054067
105	0xbeb921b4	-0.36158526
106	0x3d8b9ff5	0.06817619
107	0x3e13791a	0.14401665
108	0xbe5a8652	-0.21340302
109	0x3dfc2469	0.12311632
110	0xbe9681f2	-0.29396015
111	0xbd681343	-0.056658994
112	0xbd61a56d	-0.055089403
113	0x3cdfda6b	0.02732583
114	0x3de6b7cf	0.112655275
115	0xbcae2315	-0.021256963
116	0xbe0ee612	-0.13954952
117	0xbda26752	-0.07929863
118	0xbe3a8ee6	-0.18218574
119	0x3ddb2340	0.10700083
120	0x3d0281ea	0.031862177
121	0x3cef5b90	0.029218465
122	0x3c25875d	0.010103074
123	0xbd8c257a	-0.068430856
124	0xbe827c6f	-0.2548556
125	0xbe5cbe52	-0.21556976
126	0x3e21f12d	0.15814658
127	0xbd61ae02	-0.055097587
128	0xbe64f64e	-0.22359583
129	0x3de9d3e8	0.11417371
130	0xbe187c30	-0.14891124
131	0x3e82588a	0.25458175
132	0xbe49c786	-0.19705018
133	0x3eb07f3d	0.34472075
134	0x3de436ae	0.11143242
135	0x3d2ead03	0.042645466
136	0x3e7cc4c6	0.24684438
137	0x3e25d50b	0.1619455
138	0xbe46d592	-0.19417408
139	0xbd626959	-0.05527625
140	0x3e238832	0.15969923
141	0xbe1510f7	-0.14557253
142	0x3de1ca6a	0.110249355
143	0xbc5007d4	-0.012697179
144	0xbdf8904b	-0.12136897
145	0x3e0c9b8f	0.13731216
146	0xbe46853a	-0.1938676
147	0xbe274059	-0.1633314
148	0x3eab745d	0.33487216
149	0xbcf2c463	-0.02963466
150	0x3ebb6348	0.36599183
151	0x3e3b48e9	0.18289532
152	0xbcd6cb8e	-0.02622011
153	0x3df60edd	0.12014554
154	0x3df4ac24	0.11946896
155	0x3e7d08d3	0.24710397
156	0xbdd89659	-0.105755515
157	0x3df681a7	0.12036448
158	0xbc56e2fc	-0.013115641
159	0xbed582f0	-0.4170146
160	0x3ca28069	0.019836621
161	0x3cb05a5a	0.021527458
162	0x3e84aa4a	0.2591117
163	0xbce58682	-0.02801824
164	0x3eb50c7a	0.3536108
165	0xbeba6d6b	-0.36411604
166	0xbe706640	-0.23476505
167	0xbd8b21f0	-0.067935824
168	0xbd845b4f	-0.06462728
169	0x3eb10b3f	0.34578893
170	0xbe26b405	-0.1627961
171	0xbeb922c8	-0.36159348
172	0xbbab4f08	-0.005227927
173	0xbdfb17ab	-0.12260374
174	0xbe1c6b3f	-0.15275286
175	0x3c04c1f8	0.008102886
176	0xbe9481a8	-0.2900517
177	0x3a56180b	0.0008167035
178	0x3da7a837	0.08186381
179	0x3cb2abb1	0.021810384
180	0x3e7ec00a	0.24877945
181	0x3e3fe6f0	0.1874044
182	0xbbcd0e8f	-0.006257839
183	0x3e1f1ad2	0.15537575
184	0x3e8a20b6	0.2697808
185	0xbe07f2e2	-0.13276246
186	0xbee00e96	-0.43761128
187	0xbe18a6dc	-0.14907402
188	0x3eee0d5b	0.46494564
189	0xbce32907	-0.027729524
190	0x3b1affab	0.0023650925
191	0xbaf99791	-0.0019042363
192	0x3d407205	0.046983737
193	0x3e92289b	0.28546605
194	0xbe2f85f4	-0.17140943
195	0x3cb59696	0.022166532
196	0x3c1c67b8	0.009546213
197	0x3d7da9e0	0.061929584
198	0x3e8be828	0.2732556
199	0x3d5e1f82	0.054229267
200	0x3d9ea61a	0.07746525
201	0x3e8efc91	0.27927068
202	0xbdaf8c72	-0.0857171
203	0x3de4bab3	0.111684225
204	0xbd839b47	-0.06426101
205	0xbcdf39fe	-0.027249333
206	0xbe07adef	-0.13249944
207	0xbe90b9c4	-0.28266728
208	0xbe18e045	-0.14929302
209	0xbdb11ef1	-0.0864848
210	0x3e6d4707	0.23171626
211	0xbe04b20c	-0.12958544
212	0xbe0e5b33	-0.13901977
213	0xbce460f1	-0.027878257
214	0x3e8b3c3e	0.271944
215	0xbe4b4ded	-0.19853945
216	0x3ea6b2af	0.325582
217	0xbc3d9732	-0.011571692
218	0xbdb35a7b	-0.08757492
219	0x3d4eca34	0.050485805
220	0xbcaa0821	-0.02075583
221	0x3c9daa63	0.019246286
222	0xbd8abbd8	-0.067741096
223	0xbdef1297	-0.116734676
224	0xbe061278	-0.13092983
225	0x3e20a945	0.15689571
226	0xbc825b93	-0.015912807
227	0xbc098ed5	-0.00839587
228	0x3e3f642f	0.18690561
229	0xbd2788a1	-0.040901784
230	0xbd07a09b	-0.03311215
231	0xbe03bd1e	-0.12865111
232	0x3e141b9d	0.14463659
233	0xbe4cd57f	-0.20003317
234	0x3e35b03f	0.17743014
235	0x3e6eefbf	0.23333643
236	0xbe85df86	-0.26147097
237	0xbe13202f	-0.14367746
238	0xbd850814	-0.064956814
239	0x3e59bf11	0.21264292
240	0x3e54f520	0.20796633
241	0xbd1e002d	-0.038574386
242	0xbe2a5f70	-0.16637969
243	0x3e3b9969	0.1832024
244	0xbd84ea87	-0.06490045
245	0xbe259227	-0.16169034
246	0x3e85415c	0.26026428
247	0x3e5d2de2	0.21599534
248	0xbdb0bfd0	-0.08630335
249	0x3d39b06d	0.04533427
250	0x3db1157a	0.086466745
251	0x3e02a226	0.12757167
252	0xbdab4377	-0.08362477
253	0x3d502885	0.050819892
254	0xbda476b4	-0.08030453
255	0x3c1f6126	0.009727752

bias f4 [128]
0	0xbe975ee7	-0.29564592
1	0xbe0ea579	-0.1393031
2	0xbe06dc5a	-0.13169995
3	0xbec4c58b	-0.38431963
4	0xbe124c19	-0.14286841
5	0xbe57fbf4	-0.21092206
6	0xbc98998a	-0.0186279
7	0xbdf1c153	-0.11804452
8	0xbe550795	-0.20803674
9	0xbdd02ba5	-0.101645745
10	0xbe309e90	-0.17247987
11	0xbe593b28	-0.21213973
12	0xbe501b0a	-0.20322815
13	0xbd8f82e8	-0.0700739
14	0xbd7cb509	-0.061696086
15	0xbdf48d81	-0.11941052
16	0x3e02c86a	0.12771764
17	0xbe09ab16	-0.1344417
18	0xbe35aa4b	-0.17740743
19	0xbec4b944	-0.38422596
20	0xbe0658b9	-0.13119783
21	0xbdeabd99	-0.11461944
22	0xbdf8f36b	-0.12155803
23	0xbe2bf6cd	-0.16793366
24	0xbdff50a3	-0.12466552
25	0xbe6cb9a8	-0.23117697
26	0xbddb979b	-0.10722276
27	0xbe760365	-0.24024732
28	0xbe79546b	-0.24348609
29	0xbe432759	-0.19057979
30	0xbe66c531	-0.2253616
31	0xbddbb161	-0.10727192
32	0xbde96dbd	-0.11397884
33	0xbd98b81a	-0.074569896
34	0xbe1da9ac	-0.15396756
35	0xbe3a9ada	-0.18223134
36	0xbe133c3e	-0.1437845
37	0xbe3af029	-0.18255676
38	0xbe2f3aaf	-0.1711223
39	0xbe251c93	-0.16124181
40	0xbecaba74	-0.39595377
41	0xbe687dbb	-0.22704212
42	0xbe3dc536	-0.18532261
43	0xbd89408c	-0.067017645
44	0xbdea5a53	-0.11443009
45	0xbe03d331	-0.12873532
46	0xbe3204ed	-0.17384692
47	0xbe737e91	-0.2377875
48	0xbe1d0eef	-0.15337728
49	0xbef560a4	-0.47925293
50	0xbdcfaf87	-0.10140901
51	0xbe46d66c	-0.19417733
52	0xbe596492	-0.21229771
53	0xbe1d738e	-0.15376112
54	0xbeb5a5dd	-0.35478106
55	0xbdd6ac38	-0.10482067
56	0xbe4fa0ed	-0.20276232
57	0xbe5a7dc3	-0.21337037
58	0xbd921f9c	-0.07134935
59	0xbde50e95	-0.11184422
60	0xbe99637a	-0.29958707
61	0xbe6c7ddb	-0.23094885
62	0xbe92cec0	-0.28673363
63	0xbdd276e4	-0.10276583
64	0xbe19ce61	-0.15020134
65	0xbdf736d6	-0.12071006
66	0xbdad2880	-0.084549904
67	0xbe09c4ab	-0.13453929
68	0xbd59473f	-0.05304646
69	0xbe151009	-0.14556898
70	0xbe3bde28	-0.18346465
71	0xbdb234de	-0.0870149
72	0xbdea8ff1	-0.11453236
73	0xbe5fafcf	-0.2184441
74	0xbe2c1928	-0.16806471
75	0xbe0c15cf	-0.13680194
76	0xbe041be2	-0.12901261
77	0xbdf8eb75	-0.12154285
78	0xbdc5505d	-0.09634469
79	0xbe6bcc6e	-0.23027202
80	0xbe2e8a9f	-0.17045067
81	0xbe1b0956	-0.1514028
82	0xbe340db4	-0.17583352
83	0xbe00a1b6	-0.12561688
84	0xbe8670e8	-0.26258016
85	0xbe366465	-0.17811735
86	0xbdb3a569	-0.08771784
87	0xbe1d9cb6	-0.15391812
88	0x3e22a4b9	0.15883149
89	0xbe756043	-0.23962502
90	0xbe11fd46	-0.14256772
91	0xbe065f58	-0.13122308
92	0xbe2cf8f7	-0.16891848
93	0xbe8bbdcb	-0.27293238
94	0xbe80fb02	-0.25191504
95	0xbe666111	-0.22497965
96	0xbe3260b9	-0.1741971
97	0xbe6ac237	-0.2292565
98	0xbe29fed4	-0.16601115
99	0xbe455ea5	-0.19274385
100	0xbe39e06d	-0.18152018
101	0xbdb562a1	-0.088567026
102	0xbe2f8263	-0.17139582
103	0xbe631ab0	-0.22178149
104	0xbe024549	-0.12721743
105	0xbe65e4a2	-0.22450498
106	0xbe2f8a4f	-0.17142604
107	0xbeb4212d	-0.3518156
108	0xbe80ad87	-0.2513239
109	0xbe1942fd	-0.1496696
110	0xbdab0f08	-0.08352476
111	0xbe6e3069	-0.23260655
112	0xbea32ebb	-0.3187159
113	0xbe4dd8bf	-0.20102213
114	0xbe19563c	-0.14974302
115	0xbe9cfd1e	-0.30661863
116	0xbdeac083	-0.114625
117	0xbe41ed4b	-0.18938176
118	0xbe32ee65	-0.17473753
119	0xbe27acfe	-0.16374585
120	0xbd8fa54a	-0.07013948
121	0xbe610838	-0.21975791
122	0xbe03fe83	-0.12890057
123	0xbe495adb	-0.19663565
124	0xbe14d020	-0.14532518
125	0xbeabd97f	-0.33564374
126	0xbd2fa160	-0.04287851
127	0xbe49ef31	-0.1972015

weight f4 [4, 128]
0	0x3c3fb913	0.01170184
1	0xbc053b2c	-0.008131783
2	0xbb92873b	-0.004471687
3	0xba94a3b8	-0.0011340296
4	0x3bfb53dc	0.007669909
5	0x3bd58521	0.0065161143
6	0xbb91e6ec	-0.004452577
7	0x3b0a9b8b	0.002114984
8	0x3cc0c5db	0.023531845
9	0xbc2a8647	-0.010407991
10	0xbc26f09f	-0.0101892045
11	0x3a5a0a98	0.00083176186
12	0x3b77bb79	0.0037800951
13	0x3b8a968f	0.0042293738
14	0x3c3ccc96	0.011523386
15	0xbb8ca14f	-0.0042916904
16	0x3b9ff645	0.0048816525
17	0x3b754300	0.0037423968
18	0x3b9579ae	0.0045616245
19	0x3c0d0796	0.008607766
20	0xbc4402d1	-0.011963562
21	0xbc063652	-0.008191662
22	0xbcac58a6	-0.021038365
23	0x3a753a61	0.00093547074
24	0x3b1b82fd	0.0023729198
25	0xbc168728	-0.009187497
26	0x3c3c8cfb	0.011508222
27	0xbb96b709	-0.004599456
28	0xbb284353	-0.0025674894
29	0xba897df5	-0.0010489809
30	0xbb325ce0	-0.0027216002
31	0x3c12715d	0.008938161
32	0x3ca2b37b	0.019860974
33	0x3bd382ab	0.006454786
34	0xbc32f622	-0.01092294
35	0x3b513e79	0.0031928106
36	0x3b968612	0.004593619
37	0x3cb53ede	0.022124704
38	0x3d6566fd	0.05600642
39	0xbb65a21a	-0.0035039247
40	0xbc686c21	-0.014185936
41	0xbd818ab0	-0.06325281
42	0x3c30823d	0.010773239
43	0x3ad96c23	0.0016588013
44	0x3b4a5dc3	0.003087864
45	0xbb59e8e8	-0.0033250395
46	0xbbbc4686	-0.0057457117
47	0xbc1017c5	-0.00879473
48	0x3c0184be	0.007905183
49	0xbc637300	-0.013882399
50	0x3ba7c474	0.0051198546
51	0xb7df37df	-2.6609689e-05
52	0x3b321c4b	0.0027177508
53	0xbd1bb26e	-0.03801196
54	0xbc05a5d9	-0.008157217
55	0xb9fffafa	-0.00048824382
56	0xbc9084e3	-0.01764149
57	0xba32dc1d	-0.00068229606
58	0xbbaaecec	-0.0052162316
59	0x3bf7cfa3	0.007562594
60	0x3ceb0f35	0.028693775
61	0xbc033302	-0.008007767
62	0xbb5270cc	-0.003211069
63	0x3a05d981	0.0005105958
64	0xbc4a0ed4	-0.012332637
65	0x395978da	0.00020739753
66	0xbb94a5e5	-0.0045363777
67	0x3c330da1	0.010928542
68	0xbba80d06	-0.0051285056
69	0x3b8dfc3c	0.004333047
70	0xbb7e40f5	-0.0038796042
71	0xbb6405e1	-0.0034793543
72	0xbc2d718f	-0.0105861565
73	0x3b9a9324	0.0047172476
74	0x3af9e9f1	0.0019066912
75	0xbb7fdbdb	-0.0039040956
76	0x3c1608b5	0.009157349
77	0xbc8308a9	-0.01599534
78	0xbc769ba4	-0.015051756
79	0x3cdb6796	0.026782792
80	0x3aadc180	0.001325652
81	0x3c1d6217	0.009605906
82	0x3c87bf8b	0.016570827
83	0xbc00024e	-0.0078130495
84	0x3c151fa0	0.009101778
85	0x39b8e81c	0.0003526815
86	0xbb53380e	-0.0032229456
87	0xbc843083	-0.016136413
88	0x3c1fd9ce	0.0097565185
89	0x3aad85ec	0.0013238764
90	0xbc0d2e2a	-0.008616963
91	0x3c34843c	0.011017855
92	0xbb893235	-0.0041868933
93	0x3b9af144	0.004728468
94	0x3c06eb4b	0.008234809
95	0xba75b7e9	-0.0009373413
96	0x3adb374a	0.0016724851
97	0xbc18035c	-0.009278145
98	0x3c70ce12	0.0146975685
99	0x3c147c6b	0.009062867
100	0x3b98a745	0.004658612
101	0x3be0d45b	0.0068612522
102	0x3c16a3d4	0.009194333
103	0xbaeddc62	-0.0018147344
104	0x3b60193c	0.0034194728
105	0x3b8df8ec	0.0043326523
106	0x3c0a56ba	0.008443529
107	0x3ba04f92	0.004892298
108	0xbb12efbc	-0.0022420725
109	0x3aeffc15	0.0018309379
110	0x3a414bfa	0.0007373687
111	0x3c6d271e	0.014474658
112	0xbb84bd66	-0.0040508984
113	0xbc16d2d0	-0.009205535
114	0x3a6d3c27	0.0009049796
115	0x3c25132e	0.010075374
116	0xbc0c8db3	-0.008578706
117	0xbbf16ef2	-0.007367962
118	0xbb5ab39f	-0.0033371223
119	0xbb2358f6	-0.002492485
120	0xbb91387b	-0.004431782
121	0x3c9d828d	0.01922729
122	0xbc9cb41f	-0.019128857
123	0x3a738ac8	0.00092903944
124	0xba48ad5e	-0.0007655228
125	0xbba93c98	-0.005164694
126	0x3c0deb37	0.008662037
127	0xbc1ea720	-0.0096834
128	0x3b45130a	0.0030071163
129	0x3c389969	0.011267045
130	0xbc231e15	-0.009955903
131	0x3d0eb1ff	0.03483772
132	0xbb75d708	-0.0037512202
133	0xbc011d70	-0.007880554
134	0xbc17250b	-0.00922514
135	0x3b41d290	0.0029574968
136	0x3ab1d2ea	0.0013566886
137	0xbcadc74e	-0.0212132
138	0x3b9b9fbd	0.004749267
139	0x3aed4629	0.0018102574
140	0x3b85d553	0.004084268
141	0xbb644d68	-0.0034836177
142	0x3b1a9980	0.0023590028
143	0x3b8a9d82	0.004230202
144	0x3cbe405b	0.023224046
145	0x3b4f1ae2	0.0031601717
146	0xbb3a4580	-0.0028422773
147	0xbc029259	-0.007969462
148	0x3c1ca578	0.009560935
149	0x3cb1413f	0.021637557
150	0x3a0fd55f	0.0005486812
151	0x3b905762	0.004404948
152	0x3c4b8fa5	0.012424384
153	0xbc9fe00f	-0.01951602
154	0xbc5c1246	-0.013432091
155	0x3b9050b4	0.004404152
156	0xba2b95fe	-0.0006545483
157	0x3bd5d352	0.0065254355
158	0xbb3a76a4	-0.0028452063
159	0xbbe484d3	-0.0069738417
160	0x390a47b0	0.00013187411
161	0x3c738142	0.01486236
162	0x3a3ae50f	0.00071294693
163	0x3c041ea9	0.008063951
164	0x3c15adaf	0.009135648
165	0xba984f7a	-0.0011620366
166	0x3c280039	0.010253959
167	0x3ba3c55b	0.004997892
168	0xbd40370f	-0.046927508
169	0x3bb51787	0.0055264863
170	0xbb796050	-0.0038051791
171	0x3ae21228	0.0017247843
172	0x3b5cd827	0.0033698173
173	0xbbbb6e3b	-0.0057199276
174	0xb678fb18	-3.7101036e-06
175	0x3b48b5b1	0.0030625875
176	0x3c16c6fc	0.009202715
177	0xbc3e48a6	-0.011614
178	0x3bd675c8	0.0065448023
179	0xbbada1ce	-0.0052988296
180	0xbb665d4e	-0.0035150829
181	0xbc63e964	-0.013910625
182	0xbc3ed943	-0.011648479
183	0x3b6cfaa0	0.0036160126
184	0x3c9576b6	0.018245082
185	0x3a6dfea7	0.00090787787
186	0x3bbb7059	0.00572018
187	0xbab28a26	-0.0013621494
188	0xbb3a4c23	-0.0028426729
189	0xb88701f2	-6.437664e-05
190	0x3c0d91ed	0.008640748
191	0x3b9e833d	0.004837422
192	0x3abf5fea	0.0014600728
193	0xbad438aa	-0.0016191204
194	0xbb881bae	-0.0041536903
195	0x3bff0a45	0.0077832066
196	0xbb8f5165	-0.0043737167
197	0xbbe75831	-0.007060074
198	0x3b9fb119	0.0048734066
199	0x3c0e8de6	0.008700823
200	0x3c1bd9e7	0.009512401
201	0xbbaf5d05	-0.005351665
202	0xbb2f7719	-0.0026773869
203	0xbb83e29c	-0.0040248167
204	0x3c1ff00c	0.0097618215
205	0x3a9965b9	0.0011703289
206	0xbbf8bfe3	-0.007591234
207	0xbd71a9a7	-0.058999684
208	0xbb2abff1	-0.0026054347
209	0xbc06b2d8	-0.008221351
210	0x3c277d43	0.010222736
211	0xbbedfa06	-0.007262471
212	0x3b61369d	0.0034364827
213	0xbc41884a	-0.011812279
214	0x3c5def63	0.013545844
215	0x3bceb705	0.0063084387
216	0x3a868c2a	0.0010265161
217	0xbb8a9631	-0.00422933
218	0x3bfdbc2a	0.007743378
219	0xbaf2fe0f	-0.001853885
220	0xbc0ca82c	-0.008585017
221	0x3b232095	0.0024891247
222	0xbbb069db	-0.0053837127
223	0x3c8746d5	0.016513268
224	0xbc83c6a4	-0.01608593
225	0x3a6c8057	0.00090218097
226	0xbb4f55bf	-0.0031636802
227	0xbc56ec43	-0.013117853
228	0x3bd04623	0.006356017
229	0x3cad2979	0.02113794
230	0xbb7a53cd	-0.0038196922
231	0xb9c2fe1f	-0.00037191898
232	0xbb2fbd16	-0.0026815585
233	0xbc21bdf7	-0.009871951
234	0xbc0d6324	-0.008629594
235	0xbbff1d12	-0.007785448
236	0xbb5c784a	-0.0033641034
237	0xbb7f3fc7	-0.0038947926
238	0x3bf71518	0.0075403564
239	0x3c154195	0.009109874
240	0x3bb8696b	0.005627801
241	0xbc225b6d	-0.009909493
242	0xbab35ccf	-0.0013684275
243	0xbb2e82a9	-0.0026628172
244	0x3c9797e5	0.018505046
245	0x3a9db0c2	0.0012030827
246	0x3c5eeeb7	0.013606719
247	0x3c4a3aa8	0.012343086
248	0x3bd67650	0.0065448657
249	0x3bb4064e	0.0054939156
250	0x39b3fa8c	0.00034328212
251	0x3bc2a112	0.0059396112
252	0x3b6a95c3	0.0035794831
253	0xbc5965e2	-0.01326892
254	0x3c0f3ef8	0.00874304
255	0x3bc50af2	0.0060132677

bias f4 [4]
0	0x3e612df3	0.21990184
1	0xbd2b95a6	-0.041890763
2	0x3df6a81d	0.12043784
3	0x3e67818b	0.2260801
